omniisaacgymenvs/scripts/runs/Anymal/nn/Anymal.pth (torch, 669083 bytes, 36 tensors)

value_mean_std.running_mean f8 [1]
0	0xbff5a5d631df52b4	-1.3529874752177138

value_mean_std.running_var f8 [1]
0	0x4045a885bf5a47e7	43.316581648905235

value_mean_std.count f8 []
0	0x4182c00008000000	39321601.0

running_mean_std.running_mean f8 [48]
0	0x3fa65d71dbea497c	0.043681676955332954
1	0x3f91524b8c3ee517	0.016915493426243957
2	0xbfe34c6dd870461f	-0.6030797221484966
3	0xbf931aaf77a18c69	-0.018656484295558693
4	0xbf6054ddda098021	-0.001993592552295823
5	0xbf550da669b6e96d	-0.0012849927069128145
6	0x3f6b815846f9bb7b	0.0033575748600961886
7	0x3f7da1f89b45ff7e	0.007234545821461212
8	0xbfeeca575b89f2dc	-0.9621998584621809
9	0xbfc6759feced8c00	-0.17546462124582263
10	0x3f9968f71c7f2d27	0.024814473261170946
11	0xbf30cf0dc3e58038	-0.00025648199143369103
12	0xbfc4e07a3299314a	-0.16310050459504516
13	0xbfc222e8668b2c08	-0.14169030196202947
14	0x3fbf9e610054cbfd	0.12351042039954048
15	0x3fc22fc3388033df	0.1420825982935687
16	0x3f8deb83cb7b4b44	0.014609365126863623
17	0x3fb4ea462b39caf5	0.0816997390300392
18	0xbf9264c5220cff11	-0.017962532237333188
19	0xbf60ba51c7d50f8a	-0.0020419690396539835
20	0x3fb6485981eceda8	0.08704146787652312
21	0xbfc366f16aa4bdf0	-0.15157907206729204
22	0x3fc0fdb29ff44fb8	0.13274224100370957
23	0xbfb9b0b1f6811d0c	-0.1003524042908916
24	0xbf9bc78b5c073725	-0.027128388874010718
25	0xbf937688efe287be	-0.019006862298404086
26	0x3f9ddc05136d35ad	0.02915962153502043
27	0x3f9b326630dd86a7	0.026559445126059924
28	0xbf70ce06cb7407d8	-0.004102732221555848
29	0x3f97b16d0b541dd9	0.023137763801995923
30	0xbf86c3a0c7dac54f	-0.01111531839282756
31	0x3f78525dc626f0d1	0.005937925629435807
32	0x3f8961bdabea08d1	0.012393457230477275
33	0xbf9e0ac3e90d000e	-0.02933794126442995
34	0x3fa0ee431d536724	0.03306779606800905
35	0xbf96c1cb5975ef79	-0.022223641715285212
36	0xbfb50c9e2909b67e	-0.0822237825575147
37	0xbfabc79e767e9e5e	-0.054257347073243464
38	0x3fb4cd349c3ab464	0.0812561875743128
39	0x3fb0ee7d1ba7b08d	0.06613904881641215
40	0x3f90ea2fec018c00	0.016518353252092055
41	0x3fad337764a0e1cf	0.05703328231215076
42	0xbf954dbea71148d4	-0.020804385134689365
43	0x3f6f112daecbcb59	0.0037923710100299765
44	0x3fa07c4d2eb735a1	0.032198345139117686
45	0xbfb18e682156e806	-0.06857920469238374
46	0x3fb91e5a23fc493f	0.0981193864684302
47	0xbfa71be5d07af7a5	-0.045134717654476554

running_mean_std.running_var f8 [48]
0	0x3fe2c85b57167409	0.5869576168948935
1	0x3fdfd543e7d848d2	0.4973916782484028
2	0x3fe82dc1b3f5fa03	0.7555855288372303
3	0x3fc5de400e53b3ec	0.17084503840979381
4	0x3fa9f6adf9a9b98e	0.05071014092105762
5	0x3fb6fd3551bff854	0.08980115171286346
6	0x3f94dbf86337eda1	0.02037036996442299
7	0x3fa734ab2cf07877	0.04532370494438081
8	0x3f813c52951263f9	0.008415837454139196
9	0x401554022e2a324a	5.332039567304102
10	0x3ff4d90ad59a0d56	1.3029888480967506
11	0x3f9506aca169440c	0.020533273078687173
12	0x3fbffea91839d4aa	0.12497956124737422
13	0x3fc1a128a6802287	0.1377306759825567
14	0x3fc203239554b4f0	0.14072079459712183
15	0x3fc2254a641aaac5	0.1417630184926876
16	0x3fbb8d0ee4a25522	0.1076211269558667
17	0x3fc077b4ae7c7eb0	0.128653130720513
18	0x3fbe7d1c6f90c230	0.11909654353872479
19	0x3fbe9bf7146668bf	0.11956733940170049
20	0x3fc72a9bee769cd7	0.18098782676427191
21	0x3fcbec62cefd0810	0.21815142733436277
22	0x3fc7f97c6c4a88f0	0.18730120933202654
23	0x3fcb71a11355ec24	0.21440518802759911
24	0x3f7ead25a56d266a	0.007489344649749799
25	0x3f81682880cf176d	0.008499447279870254
26	0x3f8341a2f79290e2	0.009402535610498256
27	0x3f82871c675190f7	0.00904676618865395
28	0x3f816e49e76930cc	0.008511140226936574
29	0x3f81f51a6de8e9cf	0.00876827857893128
30	0x3f80edecc9c0d3ad	0.008266305834789234
31	0x3f81b3ef7e194b19	0.00864398101399426
32	0x3f9b49f5d55103af	0.02664932360153543
33	0x3f9d17633d33d762	0.028409529314522237
34	0x3f9eace5c95f6d41	0.02995642701703827
35	0x3fa0598c3243618b	0.03193319428982296
36	0x3fe0772c938a3fcc	0.5145476228371932
37	0x3fe06b10dfd3c90c	0.5130695697428407
38	0x3fe09b4b8b0c38e2	0.5189569202209692
39	0x3fe01405dee89b1b	0.5024442056354447
40	0x3fe07c16f22aa6aa	0.5151476602379337
41	0x3fe09a0a86671e2e	0.5188038468413134
42	0x3fe04fe14cc47b5e	0.509750986038721
43	0x3fe0a372a37c3e57	0.519952124888685
44	0x3fe0539e299c4e7d	0.5102072537142274
45	0x3fe00dbc5358cc5e	0.5016767146938823
46	0x3fe0726d8a0adef6	0.5139682479993712
47	0x3fe0bf4b553263ff	0.5233513511658429

running_mean_std.count f8 []
0	0x4172c00010000000	19660801.0

a2c_network.sigma f4 [12]
0	0x3f91dc21	1.1395303
1	0x3f47c917	0.78041214
2	0x3f59c7ec	0.8507068
3	0x3f5f9a86	0.8734516
4	0x3f5bc617	0.85849136
5	0x3f5032a0	0.8132725
6	0x3f4903e4	0.7852156
7	0x3f5e7aa6	0.86905897
8	0x3f2cbf41	0.6747933
9	0x3f4feff7	0.8122553
10	0x3f55e452	0.83551514
11	0x3f7b7767	0.9822907

a2c_network.actor_mlp.0.weight f4 [256, 48]
0	0x3e3dc8be	0.18533608
1	0xbe0b5381	-0.13606073
2	0xbe4e070f	-0.2011988
3	0xbcfccb72	-0.030858729
4	0xbe7cba15	-0.2468036
5	0x3df0fd35	0.117670454
6	0x3daa0cc5	0.08303217
7	0x3bd98439	0.0066380766
8	0x3d72ac7f	0.059246536
9	0xbc52ff96	-0.012878319
10	0x3e026417	0.12733494
11	0xbec223f9	-0.3791807
12	0xbcc0aa83	-0.023518806
13	0xbd7465c6	-0.05966737
14	0xbceb9d68	-0.02876158
15	0x3e0a605a	0.13513318
16	0x3da04492	0.07825579
17	0xbe63fc65	-0.2226425
18	0x3e807744	0.25090992
19	0xbda0498d	-0.07826529
20	0xbdeed146	-0.116610095
21	0xbda07276	-0.07834332
22	0x3e0085ff	0.12551115
23	0x3df7122c	0.12064013
24	0x3d9fd883	0.07804968
25	0xbe231f78	-0.15929973
26	0xbe52c38d	-0.20582409
27	0xbe44eac0	-0.19230175
28	0xbd99c7f4	-0.07508841
29	0x3d85a4f7	0.06525605
30	0x3b00387d	0.001956492
31	0x3ea0bf73	0.31396064
32	0xbe5f119c	-0.21784061
33	0x3b542059	0.0032367914
34	0x3ea99b36	0.3312623
35	0xbc85a595	-0.016314307
36	0x3dc53a16	0.0963022
37	0xbd347589	-0.044057403
38	0x3e34749c	0.17622608
39	0xbcd04879	-0.025425183
40	0xbd8b8a60	-0.06813502
41	0x3dc7f8c9	0.09764249
42	0x3e59c956	0.2126821
43	0xbe7d64ad	-0.24745436
44	0x3d321b4d	0.043483067
45	0x3ea28bcf	0.3174729
46	0xbe318ba6	-0.17338428
47	0xbe400b33	-0.18754272
48	0x3e84a246	0.25905055
49	0xbdb28495	-0.08716694
50	0x3d92eb8f	0.071738355
51	0xbe3d2d58	-0.18474329
52	0xbdf3bd84	-0.119013816
53	0x3e1abe49	0.1511165
54	0x3d1b8d00	0.037976265
55	0xbeb19e8b	-0.3469127
56	0xbcc79e3b	-0.024367442
57	0xbe20fef7	-0.15722261
58	0xbc949342	-0.018136624
59	0xbe82a9f1	-0.2552028
60	0xbd9288bd	-0.07154987
61	0xbe3128d0	-0.17300725
62	0x3e5b1bbb	0.21397297
63	0x3e249a04	0.16074377
64	0x3e77df58	0.24206293
65	0xbdcdfc25	-0.100578584
66	0xbe16624f	-0.14685939
67	0xbe15d954	-0.14633685
68	0xbd8db841	-0.06919909
69	0x3c38e76a	0.011285642
70	0x3da7fb6f	0.08202254
71	0xbe21b0b8	-0.15790069
72	0x3de755b6	0.11295645
73	0x3c966897	0.01836042
74	0xbd53216e	-0.051545553
75	0xbea031c1	-0.3128796
76	0xbe936c59	-0.287936
77	0xbe881722	-0.2658015
78	0xbde19c1b	-0.11016103
79	0xbe17623f	-0.14783572
80	0x3e6742bf	0.22584055
81	0x3e8891d1	0.2667375
82	0x3d0afcc4	0.033932462
83	0xbd0c2bf9	-0.034221623
84	0xbedde931	-0.43341973
85	0x3eb26a56	0.34846753
86	0x3de6dbc8	0.11272389
87	0xbdf17f3b	-0.117918454
88	0xbec0711d	-0.375863
89	0xbe4ebab2	-0.20188406
90	0xbd289798	-0.041160196
91	0x3d643cea	0.055722155
92	0x3ebe4e24	0.37168992
93	0xbdd7f50b	-0.10544785
94	0x3bd104cc	0.0063787457
95	0xbe24b7c2	-0.16085723
96	0xbe940be0	-0.2891531
97	0xbcb19242	-0.021676186
98	0x3ebf6523	0.3738185
99	0x3e7031e9	0.23456539
100	0x3eb76187	0.35816595
101	0xbe20a91b	-0.15689509
102	0x3e098099	0.13427962
103	0x3d947639	0.07249112
104	0x3dfafb93	0.12255015
105	0xbd18effb	-0.03733824
106	0x3e8b7ac9	0.27242115
107	0xbe8a44e3	-0.2700568
108	0x3df85573	0.12125673
109	0xbd75d39d	-0.060016263
110	0x3dfb3fda	0.12268038
111	0xbd7d8c89	-0.061901603
112	0x3e5de152	0.21667984
113	0xbda6994e	-0.08134709
114	0xbd1c8bab	-0.038219135
115	0xbea613e0	-0.32437038
116	0x3e05fb39	0.13084115
117	0x3e04c9fc	0.12967676
118	0xbe567164	-0.20941693
119	0x3dc36224	0.09540203
120	0x3d79276d	0.060828615
121	0xbe4e774c	-0.20162696
122	0xbe6da486	-0.23207292
123	0xbd41958e	-0.047261767
124	0x3e9e2ae4	0.30892098
125	0xbe6e4f94	-0.23272544
126	0xbe139903	-0.14413838
127	0xbe9b2123	-0.3029872
128	0xbe097c67	-0.13426362
129	0x3eb0bce7	0.3451912
130	0x3ddac34e	0.10681783
131	0xbe974f14	-0.2955252
132	0x3e4b1bb9	0.19834794
133	0x3e174df6	0.14775833
134	0xbeb226c1	-0.34795192
135	0xbd9bc1d9	-0.07605333
136	0x3f01a5f2	0.5064384
137	0x3d1f5cd2	0.03890688
138	0x3e5a59a2	0.21323255
139	0xbf0637f4	-0.5242913
140	0xbe54405d	-0.20727678
141	0x3e4cba08	0.1999284
142	0xbe18ad73	-0.14909916
143	0xbd2049f0	-0.039133012
144	0x3d633080	0.055466175
145	0x3eacfefb	0.33788285
146	0xbce64cd7	-0.028112812
147	0xbdb9ac03	-0.09066012
148	0xbd9a5f25	-0.07537679
149	0x3da57ec6	0.08080821
150	0xbc83d72f	-0.016093818
151	0x3b71ed84	0.0036915252
152	0xbdfe0dfb	-0.1240501
153	0xbc747445	-0.014920299
154	0x3e14643e	0.14491364
155	0x3bf65c81	0.0075183515
156	0xbc1e3126	-0.009655273
157	0xbe722b3e	-0.23649308
158	0xbe9c9aad	-0.30586758
159	0xbcd46cc8	-0.025930777
160	0xbe44acfc	-0.19206613
161	0xbdce2956	-0.10066478
162	0x3ceb23e1	0.028703632
163	0x3d9f921e	0.077915415
164	0xbe8b6642	-0.27226454
165	0xbe0bba1a	-0.13645211
166	0xbdd4e394	-0.103949696
167	0x3eb7ea5b	0.35920987
168	0xbba22dae	-0.004949293
169	0x3d9db440	0.077003956
170	0x3e28c08d	0.16479702
171	0x3d038cf6	0.032116853
172	0xbd8bf75f	-0.06834292
173	0xbd883382	-0.06650449
174	0xbe04fef8	-0.12987888
175	0xbb8ffdf0	-0.0043942854
176	0xbe1ad839	-0.15121545
177	0x3de65c3a	0.112480596
178	0x3dc1b151	0.094576485
179	0x3d74799b	0.059686285
180	0xbdf2022e	-0.11816822
181	0xbdc468f1	-0.095903285
182	0xbdb2ac0d	-0.08724222
183	0xbd97195e	-0.07377885
184	0x3df9bd47	0.12194305
185	0x3de42cae	0.111413345
186	0x3e3eaafd	0.18619914
187	0xbd0f1bcf	-0.03493863
188	0xbdd4db4f	-0.10393392
189	0xbe412517	-0.18861805
190	0xbcbfa87a	-0.023395766
191	0xbe4e9ed6	-0.20177779
192	0x3e17679a	0.14785615
193	0xbe130a95	-0.14359505
194	0xbd5134c5	-0.051075716
195	0xbd59be3a	-0.05315993
196	0xbe4f00db	-0.2021517
197	0x3df89ad5	0.12138907
198	0xbe513bde	-0.20432994
199	0x3c9fb30d	0.019494558
200	0x3d0faea0	0.035078645
201	0xbcc78c33	-0.024358844
202	0xbca3e1d8	-0.020005152
203	0xbe9cbe9f	-0.30614182
204	0xbd27ca0b	-0.040964168
205	0xbe185203	-0.14875035
206	0xbdcafd65	-0.099116124
207	0xbe59db09	-0.21274962
208	0x3e409555	0.18806966
209	0xbe112519	-0.14174308
210	0x3e82f3c5	0.25576606
211	0x3e970d8e	0.2950253
212	0xbc085d6e	-0.008323057
213	0xbea8ec3c	-0.32992733
214	0x3ec1c084	0.3784219
215	0xbe109ed4	-0.14123088
216	0x3d14dce1	0.03634346
217	0x3e92f355	0.28701273
218	0x3ba114fb	0.004915831
219	0xbe172048	-0.14758408
220	0xbe2d7527	-0.16939221
221	0xbe38816f	-0.18018125
222	0x3e00ef3d	0.12591262
223	0xbe9fcca6	-0.31210822
224	0x3e89702a	0.26843387
225	0x3d08c56b	0.033391397
226	0xbdd997cb	-0.10624655
227	0xbd9d4b32	-0.07680358
228	0xbefaffb4	-0.4902321
229	0x3e898b2d	0.26863995
230	0x3e11223d	0.14173217
231	0xbec881dc	-0.39161575
232	0xbe3cf243	-0.1845179
233	0xbdac19eb	-0.08403381
234	0xbe871a85	-0.2638742
235	0xbeb7fbbb	-0.35934243
236	0x3decdf32	0.115660086
237	0x3e63811f	0.22217225
238	0xbea5e80c	-0.324036
239	0x3db56a94	0.08858219
240	0x3e8dd09b	0.27698216
241	0x3d85d793	0.06535258
242	0xbdea429d	-0.11438487
243	0xbe420bca	-0.1894981
244	0xbd82e931	-0.06392134
245	0xbe36bbe7	-0.17845117
246	0xbe4b7cdd	-0.1987185
247	0xbde60ae4	-0.11232546
248	0xbf0ac089	-0.54200035
249	0x3e470d92	0.1943877
250	0xbdeeeca5	-0.1166623
251	0xbe95efdb	-0.29284558
252	0x3e6628ab	0.22476451
253	0xbd4842d9	-0.048891876
254	0xbe8c914b	-0.274546
255	0xbe33a311	-0.17542674

a2c_network.actor_mlp.0.bias f4 [256]
0	0xbe8a7f50	-0.27050257
1	0x3c99b171	0.018761368
2	0x3e90cec0	0.28282738
3	0xbe9aa97e	-0.30207437
4	0x3e2675e8	0.16255915
5	0xbde6b9be	-0.11265896
6	0xbde4f39d	-0.11179278
7	0xbec75f9f	-0.3894014
8	0xbea303cc	-0.31838834
9	0xbef86e78	-0.4852178
10	0x3c8bf4bc	0.017084472
11	0xbde49f59	-0.11163206
12	0xbe05a499	-0.1305107
13	0xbe9c7b7e	-0.30562967
14	0xbcb2e062	-0.02183551
15	0xbe89c81f	-0.26910493
16	0x3e3af7b2	0.18258551
17	0x3decf7ac	0.11570677
18	0xbcadf907	-0.02123691
19	0xbe4c426d	-0.19947214
20	0x3e7a31f7	0.24433123
21	0xbd8b9792	-0.06816019
22	0x3e6daa87	0.23209582
23	0xbe4efc13	-0.20213346
24	0x3e60f5f8	0.2196883
25	0xbe98973a	-0.29802877
26	0xbcebe046	-0.028793465
27	0xbd8e359e	-0.069438204
28	0xbcd44b41	-0.02591479
29	0x3ea6d896	0.32587117
30	0xbe8b1de8	-0.27171254
31	0xbe30aa99	-0.17252578
32	0x3d6ebed2	0.05828745
33	0xbea9aa27	-0.33137628
34	0xbe7baa3a	-0.24576655
35	0xbea6bd71	-0.32566407
36	0xbe3d3dce	-0.18480608
37	0x3deddcd4	0.11614385
38	0xbdb7899d	-0.089617945
39	0xbea70491	-0.3262067
40	0x3e5b63d8	0.21424806
41	0xbe1b7c31	-0.15184094
42	0xbbf57c84	-0.00749165
43	0x3d30f0ba	0.043198325
44	0x3eaff631	0.34367517
45	0xbe52ea20	-0.20597124
46	0xbeb86480	-0.36014175
47	0xbe286dcd	-0.16448136
48	0xbe5ee699	-0.21767654
49	0xbe9dfd3b	-0.30857262
50	0x3df13c55	0.117790855
51	0xbe6eedac	-0.23332852
52	0xbeacc883	-0.33746728
53	0xbe294e37	-0.16533743
54	0xbc81ba37	-0.015835864
55	0x3e64b86b	0.22335975
56	0x3e025f36	0.12731633
57	0xbe6407a5	-0.22268541
58	0xbe73e764	-0.23818737
59	0xbdf762a9	-0.12079365
60	0xbe8347e4	-0.25640786
61	0xbebb2383	-0.3655053
62	0xbe8ecafb	-0.27889237
63	0xbe620636	-0.22072682
64	0xbe77bf60	-0.24194098
65	0xbe8b5e49	-0.2722037
66	0xbed68bde	-0.41903585
67	0xbed6357b	-0.41837677
68	0xbef575f8	-0.47941566
69	0x3e0c98f9	0.1373023
70	0xbe9e1f8d	-0.30883446
71	0xbdbe66f8	-0.092969835
72	0xbe4e83cb	-0.20167463
73	0xbe83dfe1	-0.25756744
74	0x3e75e247	0.24012099
75	0x3d98493d	0.07435844
76	0xbd1ec973	-0.038766336
77	0xbe4549c0	-0.19266415
78	0xbe74ba13	-0.23899107
79	0xbebc776b	-0.3680986
80	0x3d118011	0.035522524
81	0x3e5fc768	0.21853411
82	0x3e8bb8e9	0.27289513
83	0xbebddeef	-0.37084147
84	0xbeb24d65	-0.34824672
85	0x3cfcf722	0.03087956
86	0xbde5693d	-0.11201713
87	0x3ebdeef0	0.37096357
88	0xbe61449f	-0.21998833
89	0x3e70cec1	0.2351637
90	0x3e7ed98b	0.24887674
91	0xbe9bbfc4	-0.30419743
92	0xbefd380f	-0.49456832
93	0xbeb1f9c1	-0.3476086
94	0xbdc7eb28	-0.09761649
95	0x3cfef18d	0.03112104
96	0xbe9d7bf5	-0.30758634
97	0xbe9f46d1	-0.31108716
98	0xbe401f75	-0.18762
99	0xbe8850d5	-0.2662417
100	0xbebc47a9	-0.36773422
101	0x3e3b4f40	0.1829195
102	0xbead3acf	-0.3383393
103	0xbe5d3f2d	-0.21606131
104	0xbe79f2fe	-0.244091
105	0x3e56e353	0.20985155
106	0x3e65af66	0.2243019
107	0x3d7fdaa5	0.062464375
108	0xbe0d5799	-0.13802947
109	0x3eaf1ed9	0.34203222
110	0x3d90c65d	0.07069085
111	0x3dbb6b00	0.09151268
112	0xbd9b682d	-0.07588229
113	0xbebb7fd4	-0.36620963
114	0xbecd59e2	-0.40107638
115	0xbd9ad68a	-0.07560451
116	0xbcca160a	-0.024668712
117	0x3e5d0978	0.21585643
118	0x3d262bca	0.040569104
119	0x3e4228ef	0.18960927
120	0x3ceae6f8	0.028674588
121	0x3e6325eb	0.22182433
122	0xbeae2b0a	-0.3401721
123	0xbdf39bf0	-0.11894977
124	0x3e325938	0.17416847
125	0x3e800f37	0.25011608
126	0xbe9b7ebd	-0.3037013
127	0xbe7c3b37	-0.24631964
128	0xbd5f1d08	-0.054471046
129	0xbe3a5d08	-0.18199551
130	0xbe9fca3e	-0.31208986
131	0xbd491d27	-0.049100067
132	0xbe996f12	-0.29967552
133	0xbd8fd6c9	-0.07023389
134	0x3e05b2d5	0.130565
135	0xbd87d1c8	-0.066318095
136	0xbe83b616	-0.25724858
137	0x3cd0f604	0.025507934
138	0xbf04d816	-0.5189222
139	0xbdf22bad	-0.11824737
140	0xbe7317e4	-0.23739582
141	0xbe1fdee2	-0.15612367
142	0xbe6a769f	-0.22896813
143	0x3e1dc447	0.15406905
144	0xbe56fff5	-0.20996077
145	0xbe80f5af	-0.25187442
146	0xbeb55030	-0.3541274
147	0xbe352615	-0.17690308
148	0xbebe06aa	-0.3711446
149	0xbe05adef	-0.13054632
150	0xbe4b2670	-0.19838881
151	0xbdb94b61	-0.090475805
152	0xbe6ab6b8	-0.22921264
153	0x3e3255cc	0.17415541
154	0xbe4864d3	-0.19569711
155	0x3e01078a	0.12600532
156	0xbe5bd9f3	-0.2146986
157	0xbe65600e	-0.22399923
158	0xbe3bf9e4	-0.18357044
159	0xbdad56e5	-0.084638394
160	0x3e866e67	0.26256105
161	0xbe60bf4b	-0.21947972
162	0x3d958ec3	0.0730262
163	0xbe4874a1	-0.1957574
164	0xbe371dab	-0.17882411
165	0xbeb9fab4	-0.36324084
166	0x3eaf2e72	0.34215122
167	0xbdd0786d	-0.101792194
168	0xbebca10d	-0.36841622
169	0x3e5f670b	0.21816652
170	0xbe2c7858	-0.16842782
171	0xbe87d16c	-0.26526964
172	0xbe9a842f	-0.30178973
173	0xbc806818	-0.015674636
174	0xbe666eab	-0.22503154
175	0x3e461f8a	0.19347969
176	0xbeb235b8	-0.3480661
177	0xbe0a6364	-0.13514477
178	0xbe6a13fb	-0.22859184
179	0x3eabc5da	0.33549386
180	0xbe6b7429	-0.2299353
181	0xbc8e970a	-0.017406005
182	0x3ccac21f	0.024750767
183	0xbe1a74bd	-0.15083595
184	0xbe871952	-0.26386505
185	0xbe6ae7a8	-0.22939932
186	0xbe6bd8e4	-0.23031956
187	0xbecde558	-0.40214038
188	0xbec33a4e	-0.3813042
189	0xbea93841	-0.3305073
190	0xbe00fab8	-0.12595642
191	0x3d69ae71	0.057051126
192	0xbe36b3ec	-0.17842072
193	0xbe0e24cc	-0.13881224
194	0x3e9021d6	0.28150815
195	0xbed81dac	-0.42210138
196	0x3df0b6ac	0.11753592
197	0xbe49e7f0	-0.19717383
198	0xbe01c0a6	-0.12671146
199	0xbe51e2a3	-0.20496611
200	0xbe61f6db	-0.22066824
201	0x3e1f77c0	0.15573025
202	0xbea44399	-0.32082823
203	0xbe3d0e5b	-0.18462507
204	0x3e96ad8f	0.2942929
205	0x3e8f978c	0.2804531
206	0xbef986ed	-0.48735753
207	0xbe9557cc	-0.29168546
208	0xbe2f014a	-0.17090335
209	0xbe79b227	-0.24384366
210	0xbe62d87a	-0.22152892
211	0xbe8d23f6	-0.275665
212	0x3e146ae3	0.14493899
213	0x3e0ed178	0.13947093
214	0xbd644c5f	-0.055736896
215	0xbe571ff4	-0.21008283
216	0xbdd7b651	-0.10532821
217	0xbdfb44b5	-0.12268964
218	0xbcc59427	-0.024118496
219	0xbe726392	-0.23670796
220	0xbe0f909c	-0.14020008
221	0x3e77270c	0.24135989
222	0x3cac10bb	0.021004071
223	0xbe802725	-0.25029865
224	0xbe7b0d50	-0.24516797
225	0x3d1e2c99	0.03861675
226	0xbe816f50	-0.25280237
227	0xbeb2e7c1	-0.3494244
228	0x3d06642f	0.032810386
229	0x3df1676a	0.11787303
230	0xbe85693b	-0.26056847
231	0xbe8e1990	-0.27753878
232	0x3e659773	0.22421055
233	0xbe08ddae	-0.13365814
234	0xbe95351f	-0.2914209
235	0xbe4290c3	-0.19000535
236	0x3e0c5a93	0.13706426
237	0xbe2cb4af	-0.168658
238	0xbe1678b0	-0.14694476
239	0xbdc35eb3	-0.09539547
240	0xbd4072ce	-0.046984486
241	0xbeb2c197	-0.34913322
242	0xbdd2c41c	-0.10291311
243	0xbe947b64	-0.2900039
244	0xbdbf290f	-0.09334003
245	0x3e0571e9	0.13031735
246	0xbe8b41b7	-0.27198574
247	0x3e0c2988	0.13687718
248	0xbe7747d5	-0.24148495
249	0xbdc819dc	-0.09770557
250	0xbe342d6d	-0.17595454
251	0xbe6308cd	-0.22171326
252	0x3e8967db	0.26837048
253	0x3b50db90	0.003186915
254	0x3b8cf0d2	0.004301169
255	0xbd6d029c	-0.057863817

a2c_network.actor_mlp.2.weight f4 [128, 256]
0	0xbd452797	-0.04813346
1	0xbdee0661	-0.116223104
2	0xbe24ee54	-0.1610654
3	0x3e519ec5	0.20470722
4	0xbda692d6	-0.081334755
5	0xbdded9e4	-0.10881403
6	0x3e878f16	0.26476353
7	0xba9bb65a	-0.0011879907
8	0x3e3a766d	0.18209238
9	0xbc9e8552	-0.019350681
10	0x3c682be1	0.014170618
11	0x3dffb03f	0.12484788
12	0xbbe207ec	-0.006897917
13	0x3e1d4f8d	0.15362377
14	0x370bb038	8.326075e-06
15	0x3e77a095	0.24182351
16	0xbe854be1	-0.26034454
17	0xbe58cb32	-0.21171263
18	0x3cd2eb35	0.025746921
19	0xbe32c4bb	-0.17457859
20	0xbe167348	-0.14692414
21	0xbe2ede0d	-0.17076893
22	0x3cbd1f6f	0.023086278
23	0x3d334cde	0.04377448
24	0xbeae8f86	-0.34093875
25	0x3e083739	0.13302316
26	0x3c42fb55	0.011900743
27	0x3da620b3	0.08111706
28	0x3da866aa	0.082227066
29	0xbdadc249	-0.084843226
30	0x3cefb622	0.029261652
31	0x3c9c9d11	0.019117864
32	0x3e15c51e	0.14625975
33	0xbcdce4a9	-0.026964502
34	0xbd66811d	-0.056275476
35	0x3d82bb4c	0.0638338
36	0xbe40b276	-0.18818077
37	0xbe7e5726	-0.24837932
38	0xbc91ecf3	-0.017813182
39	0x3df1025d	0.11768029
40	0xbe8543fe	-0.26028436
41	0x3e087aa6	0.13328037
42	0xbe1be5e1	-0.1522441
43	0xbe2da4ec	-0.16957444
44	0xbe94430a	-0.28957397
45	0x3d397b5e	0.045283668
46	0x3e3ce96e	0.18448421
47	0xbceb579e	-0.028728303
48	0xbd9fc7cf	-0.07801782
49	0xbd19946c	-0.03749506
50	0xbec5f49e	-0.3866319
51	0x3c6442dd	0.013931957
52	0x3cfc6ce5	0.030813644
53	0xbd36ecb0	-0.044659317
54	0xbe21f882	-0.15817454
55	0xbeaa6b56	-0.33285016
56	0xbdf8114e	-0.121126756
57	0xbdd0a7b6	-0.10188238
58	0xbd986609	-0.07441337
59	0xbe2c26f2	-0.16811731
60	0xb9b1c908	-0.0003390985
61	0x3ddcb303	0.10776331
62	0x3d6aedc2	0.05735565
63	0x3dd19f4a	0.1023546
64	0xbd0433f3	-0.032276105
65	0xbe699b4c	-0.22813147
66	0x3d9c40a4	0.07629517
67	0xbc0405e9	-0.00805805
68	0x3bebd55e	0.007197066
69	0xbd5ee126	-0.054413937
70	0x3c902ab3	0.017598486
71	0x3d789cfd	0.06069659
72	0xbd25939f	-0.040423986
73	0x3d2a6db5	0.04160853
74	0xbe364c84	-0.17802626
75	0xbd63205c	-0.055450782
76	0xbdef9921	-0.11699129
77	0xbd603904	-0.054741874
78	0xbc133824	-0.008985553
79	0x3dbbc8b0	0.091691375
80	0xbc73f96c	-0.01489101
81	0xbeafa37b	-0.34304413
82	0xbe999504	-0.29996502
83	0x3e4c475d	0.19949098
84	0x3e8560b7	0.2605035
85	0x3cb92901	0.02260256
86	0xbe21dbee	-0.15806553
87	0xbe233851	-0.15939452
88	0xbdc0a4f6	-0.09406464
89	0xbe7550f9	-0.2395667
90	0xbe6c4b04	-0.23075491
91	0x3e3bbfe8	0.18334925
92	0x3e9020bf	0.28149983
93	0x3d807dcb	0.06273993
94	0xbe3f7ce2	-0.18699983
95	0xbe8fc2c8	-0.28078294
96	0x3e091acf	0.13389133
97	0x3ce321dc	0.027726106
98	0xbaad5e66	-0.0013226985
99	0xbcb9accb	-0.022665402
100	0x3db91f40	0.090391636
101	0xbe9d4f33	-0.30724487
102	0x3e038252	0.12842682
103	0x3dad4da4	0.084620744
104	0x3e33bba1	0.17552043
105	0xbee1ba91	-0.4408765
106	0xbd231bae	-0.03982132
107	0xbd515662	-0.05110777
108	0xbcf4cfe2	-0.029884282
109	0xbe9f6b56	-0.31136578
110	0xbca24d04	-0.019812115
111	0xbe5c9a45	-0.21543224
112	0x3c307ed5	0.010772427
113	0xbe21ce20	-0.15801287
114	0x3d89bfd4	0.067260414
115	0x3d1c77e7	0.038200285
116	0x3e32652e	0.1742141
117	0xbe3825d4	-0.1798318
118	0xbe170a83	-0.14750104
119	0xbe41aa43	-0.18912606
120	0xbe7b0dc6	-0.24516973
121	0xbda09657	-0.07841175
122	0xbcaddb1a	-0.02122264
123	0xbd5ccc1a	-0.053905584
124	0x3defbd7d	0.11706064
125	0xbe168eaa	-0.1470286
126	0x3d898ba5	0.06716088
127	0xbe008c03	-0.1255341
128	0x3e081172	0.13287905
129	0xbd54827c	-0.051882252
130	0x3e1f0f3a	0.15533152
131	0xbd3c2666	-0.045935057
132	0x3d5e66f8	0.054297417
133	0x3c20d564	0.009816501
134	0xbe0fc6f7	-0.14040743
135	0xbe9212cd	-0.2852997
136	0xbcc3eb9f	-0.023916064
137	0xbdada36f	-0.08478438
138	0x3dade0e8	0.08490163
139	0xbe142356	-0.14466605
140	0x3df20bba	0.11818643
141	0xbe3c53e7	-0.18391381
142	0xbbbe04e6	-0.005798924
143	0xbc4a7f49	-0.012359449
144	0x3e67a1ce	0.22620317
145	0x3e55f467	0.20894013
146	0x3e2dc49f	0.16969536
147	0x3d50c3f9	0.050968144
148	0x3c440cd8	0.011965953
149	0x3dd177ed	0.10227952
150	0x3ca53d1c	0.02017074
151	0xbd9219af	-0.07133805
152	0x3d9117e1	0.07084633
153	0x3d6ca9e9	0.057779226
154	0xbdba8dd8	-0.09109086
155	0xbe852945	-0.2600805
156	0x3e0c0253	0.13672762
157	0x3db5c293	0.08875003
158	0x3bae4f8e	0.0053195423
159	0x3d98f6df	0.07468962
160	0xbdca7e41	-0.09887362
161	0x3ce3db02	0.027814392
162	0x3e46fa4d	0.1943142
163	0x3d83971a	0.06425305
164	0xbe4f39b5	-0.20236857
165	0xbc945191	-0.0181053
166	0xbe77cdb1	-0.24199559
167	0xbe37e641	-0.17958929
168	0x3dedcb1d	0.116110064
169	0xbd4d0231	-0.050050918
170	0x3c05d077	0.008167378
171	0x3e3abab7	0.18235289
172	0xbda798d9	-0.0818345
173	0xbc31713d	-0.010830221
174	0x3c0835ed	0.008313638
175	0xbbe30051	-0.006927528
176	0x3dbb7034	0.091522604
177	0xbe31bbf6	-0.17356858
178	0x3ea6348a	0.3246196
179	0xbe61bfbf	-0.22045802
180	0x3e208efe	0.15679547
181	0xbe0b792f	-0.13620447
182	0xbdd43f25	-0.10363606
183	0x3b38fae6	0.002822572
184	0x3c200e74	0.009769071
185	0xbdc3fb4f	-0.09569418
186	0xbd61c5f6	-0.05512043
187	0xbc5d3762	-0.013501974
188	0xbccca0bc	-0.024978988
189	0xbd38447a	-0.04498718
190	0x3d0ef718	0.034903616
191	0xbd70bd53	-0.058774304
192	0x3ddc7582	0.107646
193	0xbcaefdc1	-0.021361234
194	0xbe242776	-0.16030678
195	0x3d9b3cdb	0.07579967
196	0xbe522f9b	-0.20525973
197	0xbd8d64c6	-0.06903987
198	0xbd93a0a6	-0.07208376
199	0x3dad78d7	0.08470314
200	0x3e3b9874	0.18319875
201	0xbdcef002	-0.101043716
202	0x3d41457e	0.047185414
203	0x3e5ae177	0.2137507
204	0xbe3eb5b1	-0.18623997
205	0xbc38c759	-0.011277997
206	0x3d60bce3	0.054867636
207	0x3e7e2d8f	0.24822067
208	0xbc08756d	-0.008328778
209	0x3e1a2823	0.15054373
210	0x3d3ecc2d	0.046581436
211	0x3e9c7abd	0.30562392
212	0xbe282d7b	-0.164236
213	0x3db04269	0.08606417
214	0xbc79889d	-0.015230325
215	0x3df2426b	0.118290745
216	0xbe02e709	-0.12783445
217	0xbd50e59e	-0.05100023
218	0xbe86a8a5	-0.2630054
219	0xbcd4b4e8	-0.02596517
220	0xbe68f4cc	-0.22749633
221	0xbe213616	-0.15743288
222	0x3cbc5795	0.022990981
223	0xbd22ac71	-0.039715234
224	0xbdb0c42b	-0.08631166
225	0xbc40d5b7	-0.011769704
226	0xbe089b19	-0.13340415
227	0xbd5b227f	-0.053499695
228	0x3db0bc01	0.08629609
229	0xbe67cbc7	-0.22636329
230	0x3e4362f9	0.19080724
231	0x3d4a95b6	0.04945918
232	0xbe3e9ef0	-0.18615317
233	0xbc433013	-0.011913317
234	0xbd3542e0	-0.04425323
235	0x3cf27083	0.029594665
236	0xba93e257	-0.0011282664
237	0x3ba11539	0.00491586
238	0xbdc512e2	-0.09622742
239	0xbe08e2b8	-0.13367736
240	0x3e55b029	0.20867981
241	0x3de6e52d	0.112741806
242	0xbdf68fcf	-0.12039148
243	0x3d1c0aec	0.038096353
244	0xbe28bfd6	-0.1647943
245	0xbd9ffd0d	-0.078119375
246	0x3e040bfb	0.12895195
247	0x3de62c08	0.11238867
248	0x3e357d88	0.17723668
249	0xbdf50793	-0.11964335
250	0xbdd0042e	-0.10157047
251	0xbe0a54aa	-0.1350886
252	0xbcb04d10	-0.021521121
253	0xbd72dc42	-0.059292085
254	0xbddd8cc2	-0.10817863
255	0x3da83f09	0.08215148

a2c_network.actor_mlp.2.bias f4 [128]
0	0xbe15ae83	-0.14617352
1	0xbca17530	-0.0197092
2	0xbe8a9e1d	-0.27073756
3	0xbe48944b	-0.1958782
4	0xbdd0673c	-0.101759404
5	0xbea55a6c	-0.3229555
6	0xbdeb537b	-0.11490532
7	0xbe0601a8	-0.1308657
8	0x3cd8d9db	0.02647107
9	0xbe08c745	-0.13357265
10	0xbcda7957	-0.026669187
11	0xbc576b8d	-0.013148201
12	0x3d774f65	0.06037845
13	0xbed20658	-0.41020465
14	0xbe19f563	-0.15035014
15	0xbe043cf5	-0.12913878
16	0x3e332e62	0.17498162
17	0xbe168e42	-0.14702705
18	0xbdfaee99	-0.1225254
19	0x3cf4b314	0.029870547
20	0xbe505461	-0.20344688
21	0xbd8e451c	-0.06946775
22	0x3e3ad5a3	0.18245558
23	0x3d13f8c3	0.03612591
24	0xbce89d72	-0.028395388
25	0x3deebc40	0.116569996
26	0xbe56e033	-0.20983963
27	0xbde3b34b	-0.11118182
28	0xbdc82c53	-0.09774079
29	0xbdd508aa	-0.10402043
30	0xbdcaf572	-0.09910096
31	0xbe97671a	-0.29570848
32	0xbdc8c5da	-0.09803362
33	0x3dafd4cf	0.08585512
34	0xbe224168	-0.15845263
35	0xbcb85a05	-0.022503862
36	0x3d0fabc5	0.03507592
37	0xbe3fb1c3	-0.18720154
38	0xbd68aa6d	-0.056803156
39	0xbdeb5b19	-0.11491985
40	0x3d136f1b	0.03599463
41	0xbda4c566	-0.08045463
42	0xbe5036f6	-0.20333466
43	0xbebe58e0	-0.3717718
44	0xbdcea165	-0.10089377
45	0xbe3beb9a	-0.18351594
46	0xbdaefc6a	-0.08544238
47	0xbd86ce29	-0.06582291
48	0xbd090c84	-0.0334592
49	0xbea89852	-0.3292871
50	0xbd44518c	-0.04792933
51	0xbe436562	-0.19081643
52	0xbe29ce20	-0.16582537
53	0x3d5870e0	0.05284202
54	0xbd91e051	-0.07122863
55	0x3da04d9a	0.07827301
56	0xbe705c5c	-0.23472732
57	0xbea2f3a4	-0.31826508
58	0xbda07d80	-0.07836437
59	0xbc4a2d62	-0.012339922
60	0xba5aa7c8	-0.00083410414
61	0xbd91c8ec	-0.07118401
62	0x3dfbdfaf	0.12298524
63	0x3dd3c875	0.103409685
64	0xbe4e0758	-0.20119989
65	0xbb2591a5	-0.0025263813
66	0xbec89df2	-0.39183003
67	0xbe326816	-0.17422518
68	0xbbbbcb09	-0.005730991
69	0xbe9e9629	-0.30973938
70	0xbe46fb81	-0.19431879
71	0x3dd8922f	0.10574757
72	0xbe697d9f	-0.22801827
73	0xbdc58dc0	-0.09646177
74	0xbe070f32	-0.1318939
75	0xbdbd1d17	-0.09234064
76	0xbc180dc4	-0.009280626
77	0xb979e68e	-0.00023832379
78	0xbda27758	-0.07932919
79	0x3d1abab1	0.0377757
80	0x3ce15758	0.027507469
81	0xbeb8ffcc	-0.36132658
82	0xbd63e497	-0.055637922
83	0x3d81a3e5	0.063300885
84	0x3d28a382	0.04117156
85	0xbe09009a	-0.13379136
86	0x3a637931	0.0008677422
87	0x3dad6ef7	0.084684305
88	0xbe2962a1	-0.1654153
89	0xbe0a435e	-0.13502261
90	0x3db92c0d	0.09041605
91	0xbe257045	-0.16156109
92	0xbe3af20e	-0.18256399
93	0x3debd8cf	0.11515962
94	0xbdc4be8c	-0.096066564
95	0x3e0b82e2	0.13624147
96	0xbe4b01a8	-0.1982485
97	0x3cb45d2d	0.022017086
98	0xbe6d1dda	-0.23155919
99	0xbd87cee7	-0.0663126
100	0xbe6b9e5f	-0.23009633
101	0xbddecb26	-0.10878591
102	0xbe1fde61	-0.15612175
103	0xbead6bd2	-0.33871323
104	0xbe9122d3	-0.2834688
105	0x3e4f849c	0.2026543
106	0xbde4ba25	-0.11168317
107	0x3e919597	0.2843444
108	0xbd9ec559	-0.07752485
109	0xbdf72865	-0.120682515
110	0xbec5a84d	-0.38604966
111	0xbe1b2f05	-0.15154655
112	0xbe51916c	-0.2046563
113	0xbcedfe19	-0.029051827
114	0x3cd790b4	0.026314117
115	0xbbf31d1f	-0.007419243
116	0x3c3b837b	0.011444922
117	0xbf154dc9	-0.58321816
118	0xbdf8ae0f	-0.12142574
119	0xbe54f34d	-0.20795937
120	0xbd949bac	-0.072562546
121	0xbd217614	-0.03941925
122	0xbe6bb468	-0.23018038
123	0x3e106e71	0.1410463
124	0xbe3aa88e	-0.18228361
125	0x3e24b867	0.16085969
126	0xbdefa028	-0.11700469
127	0x3d8410b7	0.064485006

a2c_network.actor_mlp.4.weight f4 [64, 128]
0	0x3bb85a18	0.0056259744
1	0x3e5b656d	0.2142541
2	0xbea16edf	-0.315299
3	0x3e8bde0d	0.2731785
4	0xbe5c2a96	-0.2150062
5	0xbdfedefc	-0.12444875
6	0x3d6a1524	0.057149068
7	0x3d8f2548	0.06989533
8	0xbe6b46a3	-0.22976165
9	0xbe9420eb	-0.28931364
10	0x3bf0cb2f	0.00734844
11	0x3e104174	0.14087468
12	0xbe4ce5f6	-0.20009598
13	0xbe56c8c4	-0.20975024
14	0x3e58071b	0.2109646
15	0x3e2abe20	0.1667409
16	0xbe81948c	-0.25308645
17	0x3de4c0e6	0.11169605
18	0x3c061536	0.008183768
19	0xbe4d13b3	-0.20027046
20	0x3dcb8657	0.09937733
21	0x3e7881e3	0.24268298
22	0xbe91ecd2	-0.28500992
23	0xbe4e084d	-0.20120354
24	0xbec7c9b4	-0.39021075
25	0xbec1514f	-0.37757346
26	0x3d8c6d6d	0.06856809
27	0xbe85355e	-0.26017278
28	0xbe835bb5	-0.25655904
29	0xbe28042a	-0.16407838
30	0xbe2aaba1	-0.16667034
31	0xbe9f59ef	-0.311233
32	0xbc82d6c5	-0.01597155
33	0xbad60a09	-0.0016329895
34	0x3d112c8c	0.035442874
35	0xbea18c96	-0.3155257
36	0xbeb4e828	-0.3533337
37	0xbe19bd25	-0.15013559
38	0xbcf54309	-0.029939191
39	0xbcc02067	-0.02345295
40	0xbe4a0720	-0.1972928
41	0x3c9c0526	0.019045424
42	0xbe82b4d6	-0.25528592
43	0xbc3cecde	-0.011531083
44	0xbda119ee	-0.07866274
45	0xbe2bf686	-0.1679326
46	0xbc275446	-0.010212963
47	0xbac32918	-0.0014889566
48	0x3d259b76	0.040431462
49	0xbdbd43d1	-0.092414506
50	0x3d420179	0.047364686
51	0xbd27a1ee	-0.040925913
52	0x3d69a8e4	0.057045832
53	0xbe0c9552	-0.13728836
54	0x3e4c5e73	0.19957905
55	0xbe7089df	-0.23490094
56	0xbdd47689	-0.10374171
57	0xbe4e6893	-0.2015708
58	0x3ea57e5f	0.32322976
59	0xbe31a329	-0.17347397
60	0xbee10659	-0.43950155
61	0xbdf803f1	-0.12110127
62	0xbe43d2a6	-0.19123325
63	0xbd209c4d	-0.03921156
64	0xbe13082b	-0.14358585
65	0xbdc2c1b8	-0.09509605
66	0x3d8ccdf1	0.06875218
67	0x3e98f2c8	0.29872727
68	0xbe8f1428	-0.27945065
69	0xbde8405a	-0.11340399
70	0x3df927bd	0.121657826
71	0xbea2f0b3	-0.31824264
72	0xbd9e1682	-0.07719137
73	0xbe6a2a95	-0.22867806
74	0x3e055a9d	0.13022847
75	0xbcde6e3b	-0.027152171
76	0xbe254724	-0.16140419
77	0xbded64f1	-0.11591519
78	0xbe70daa6	-0.23520908
79	0xbe82f117	-0.25574562
80	0xbe3866a8	-0.1800791
81	0x3e74f709	0.23922361
82	0x3cc1ad20	0.023642123
83	0xbe274328	-0.16334212
84	0xbf0c5fd9	-0.5483375
85	0xbd11f20d	-0.03563123
86	0xbc17a21a	-0.009254957
87	0xbe823ef6	-0.2543866
88	0x3e25b051	0.1618054
89	0x3c9e3fa8	0.019317463
90	0xbe7407fc	-0.23831171
91	0x3da5d27a	0.08096786
92	0x3eb7e261	0.359149
93	0xbe275b1f	-0.16343354
94	0x3d07b388	0.0331302
95	0xbe672057	-0.2257093
96	0xbdacf7e6	-0.084457204
97	0xbeeb3c6f	-0.45944545
98	0x3d5d187f	0.05397844
99	0x3d778a12	0.06043441
100	0x3e03e432	0.12880018
101	0x3cd37160	0.025810897
102	0x3ca60013	0.020263707
103	0x3e8d0007	0.27539083
104	0xbd9bc636	-0.07606165
105	0x3e141947	0.14462768
106	0x3ea11598	0.31461787
107	0xbe5306be	-0.2060804
108	0x3e308205	0.17237099
109	0xbe64263d	-0.22280212
110	0x3ed283cb	0.41116175
111	0x3c568846	0.013094014
112	0x3ddf3292	0.108983174
113	0x3df5c108	0.119997084
114	0xbe3b047d	-0.18263431
115	0xbedfc463	-0.4370452
116	0xbd54fbd5	-0.05199798
117	0x3eacc290	0.3374219
118	0xbd0ea74a	-0.034827508
119	0x3d2354a4	0.03987564
120	0xbc1dd8c9	-0.009634205
121	0x3e8b1d82	0.2717095
122	0xbe1689bf	-0.14700983
123	0xbef45f5d	-0.47729006
124	0xbec563fd	-0.38552848
125	0xbe8014a5	-0.2501575
126	0xbe14de9e	-0.14538047
127	0x3c7e8129	0.015533724
128	0xbd30faed	-0.04320805
129	0xbe02f557	-0.12788902
130	0x3db91cc8	0.09038693
131	0x3e37a58d	0.17934246
132	0x3e5f90e6	0.21832618
133	0x3dbcf5a6	0.09226541
134	0x3ea0aac3	0.3138028
135	0xbd456b6b	-0.048198145
136	0xbe5b2eb2	-0.21404532
137	0x3ce8ea78	0.028432116
138	0xbe5ecb80	-0.21757317
139	0xbe54789e	-0.20749137
140	0xbea4c760	-0.3218336
141	0x3cc234dc	0.023706846
142	0x3e0258b9	0.12729158
143	0x3e0a25ca	0.13490978
144	0xbd573f08	-0.052550346
145	0x3e84a43f	0.2590656
146	0x3de8d904	0.113695174
147	0xbe89f3a4	-0.26943696
148	0x3e88d961	0.26728347
149	0xbd53f33b	-0.051745635
150	0xbda55023	-0.080719255
151	0x3d9a9fcc	0.0755001
152	0xbd6b27d9	-0.05741105
153	0xbe8e4ef7	-0.2779462
154	0x3ae95c29	0.0017803955
155	0x3d828475	0.063729204
156	0xbe389d15	-0.18028672
157	0x3dd15c59	0.10222692
158	0x3d8f193c	0.06987235
159	0x3e4b0425	0.198258
160	0x3c0b1640	0.0084891915
161	0xbd6ae897	-0.05735072
162	0xbd1c1a9a	-0.038111307
163	0xbe54595a	-0.2073721
164	0x3d7cbf18	0.06170568
165	0xbde51fa1	-0.11187673
166	0x3d3728cd	0.044716645
167	0x3e0e25fd	0.13881679
168	0xbe75b746	-0.23995695
169	0xbb6bf283	-0.0036002703
170	0x3e9b2da2	0.30308253
171	0x3e132a51	0.14371611
172	0xbd4da003	-0.050201427
173	0xbe409b05	-0.18809135
174	0x3d3bb8e7	0.045830633
175	0xbdf0809e	-0.11743282
176	0xbdd8e723	-0.10590961
177	0x3d610b25	0.05494227
178	0xbe24236a	-0.16029134
179	0x3ded41da	0.11584826
180	0x3ead0912	0.33795983
181	0xbdcfc206	-0.10144429
182	0x3d64f42a	0.055896915
183	0x3bb6d424	0.0055794884
184	0x3eb17b1f	0.34664246
185	0xbdc35780	-0.09538174
186	0xbcb2c460	-0.021822155
187	0x3c46e258	0.0121389255
188	0xbed950d5	-0.42444482
189	0xbd0dd973	-0.034631204
190	0xbe2d018c	-0.16895121
191	0xbd704457	-0.058658924
192	0xbe17b7bf	-0.14816187
193	0xbe0dc99f	-0.13846444
194	0xbe3a6f2f	-0.18206476
195	0x3e3ade43	0.18248849
196	0xbe2d76e0	-0.16939878
197	0x3e76eaab	0.24112956
198	0x3cdc0e8a	0.026862402
199	0xbdee0424	-0.116218835
200	0xbde5dbf2	-0.11223592
201	0x3db74c71	0.08950127
202	0xbe372b43	-0.17887597
203	0xbe991992	-0.2990232
204	0xbd6aa390	-0.05728489
205	0x3d9069a3	0.070513986
206	0x3e118023	0.14209037
207	0xbd02ff05	-0.031981487
208	0x3dc73600	0.097270966
209	0x3e307393	0.17231588
210	0x3d1ada73	0.037805986
211	0xbd423541	-0.047414068
212	0xbb05d776	-0.0020422614
213	0x3e70e4f2	0.23524836
214	0x3d7e7902	0.06212712
215	0xbdee1c0b	-0.116264425
216	0x3e071b4b	0.13194005
217	0xbcc0e339	-0.023545848
218	0x3d4083ba	0.047000624
219	0x3d51bdfa	0.051206566
220	0x3cd270a0	0.02568847
221	0xbd931131	-0.071810134
222	0xbd5c7437	-0.05382177
223	0xbe459b80	-0.192976
224	0x3e32b642	0.17452338
225	0xbda3f950	-0.08006537
226	0xbd9ca91d	-0.07649443
227	0xbd93d96a	-0.07219203
228	0xbe45ec3b	-0.19328396
229	0x3d98cdcc	0.07461128
230	0xbebdc4cc	-0.37064207
231	0x3dd32d01	0.10311318
232	0x3d27d51b	0.040974718
233	0xbce80313	-0.028321778
234	0xbe19ebc7	-0.15031348
235	0x3d457173	0.048203897
236	0x3ba5dabe	0.0050614765
237	0x3e631933	0.22177581
238	0x3c072c29	0.008250275
239	0xbe231f9d	-0.15930028
240	0x3db0a412	0.08625044
241	0x3df9e551	0.12201942
242	0xbe0b5ae2	-0.13608888
243	0xbe95cfab	-0.2926
244	0x3ca83ee2	0.020537797
245	0xbd8c1eca	-0.0684181
246	0xbe415a7e	-0.18882176
247	0x3e531136	0.20612034
248	0xbad35d77	-0.0016125877
249	0x3d7c1e30	0.061552227
250	0xbccfbb3d	-0.025357837
251	0xbe252ce5	-0.16130407
252	0xbd242b61	-0.04008043
253	0x3d5ca984	0.0538726
254	0x3d74e90e	0.05979257
255	0xbe92a4c0	-0.2864132

a2c_network.actor_mlp.4.bias f4 [64]
0	0xbe23a440	-0.15980625
1	0xbd097207	-0.03355601
2	0xbde33926	-0.110948846
3	0xbd5f3364	-0.05449237
4	0xbe2dc92d	-0.16971274
5	0xbd0ece61	-0.034864787
6	0xbd393d0e	-0.045224242
7	0xbd452605	-0.04813196
8	0xbe29e8fb	-0.16592781
9	0xbd45ed44	-0.048321977
10	0xbd68e2be	-0.056856863
11	0xbe92d180	-0.2867546
12	0xbc19bdb4	-0.009383608
13	0xbda087f9	-0.07838435
14	0xbdef0f1f	-0.11672806
15	0xbd9b8982	-0.07594587
16	0xbd5af06d	-0.053451944
17	0xbd716fde	-0.058944575
18	0xbd28e627	-0.041235115
19	0xbd924953	-0.07142892
20	0xbe62b135	-0.22137912
21	0xbc991810	-0.018688232
22	0xbe12f3b9	-0.14350785
23	0xbe7f4349	-0.24928011
24	0xbe3ec411	-0.18629481
25	0xbd492473	-0.049107026
26	0xbd0ac857	-0.033882465
27	0xbdb3a188	-0.08771044
28	0x3d878ab9	0.06618256
29	0xbc925228	-0.01786144
30	0x3d8233b2	0.06357516
31	0xbe06fc57	-0.13182198
32	0xbd6e7c0f	-0.05822378
33	0xbe6e9a13	-0.23300962
34	0xbdc3a730	-0.09553373
35	0xbd4418de	-0.047875278
36	0xbe5237a2	-0.20529035
37	0xbd3d7cdb	-0.04626165
38	0xbdad4a1a	-0.084613994
39	0xbdd9ed86	-0.10641007
40	0xbd3e8803	-0.04651643
41	0xbdb3e933	-0.087847136
42	0xbd4fdbe9	-0.050746832
43	0xbcc2e1f9	-0.023789393
44	0x3b8fea52	0.004391947
45	0xbc88c741	-0.016696574
46	0xbd86e185	-0.06585983
47	0xbd662ffd	-0.05619811
48	0xbd842efd	-0.06454275
49	0xbd4a0898	-0.049324602
50	0xbd237983	-0.039910804
51	0xbe5bae35	-0.21453173
52	0xbdad3293	-0.08456912
53	0xbd0862cf	-0.033297356
54	0xba915ca5	-0.0011090232
55	0xbd90ee3e	-0.07076691
56	0xbc8071f6	-0.01567934
57	0xbda15ac8	-0.07878643
58	0xbd6529ed	-0.055948187
59	0xbe0ab404	-0.13545233
60	0xbd074d05	-0.033032436
61	0x3e040935	0.12894137
62	0xbd71e4d1	-0.059056107
63	0xbdc94aa2	-0.09828688

a2c_network.value.weight f4 [1, 64]
0	0xbd033b29	-0.03203884
1	0xbcc9048e	-0.024538305
2	0xbc83ece0	-0.016104162
3	0x3d2413f3	0.040058088
4	0xbca510a7	-0.020149542
5	0xbbb19e6b	-0.005420496
6	0x3d9d4ef3	0.07681074
7	0x3a99bd0b	0.0011729313
8	0xbd00f602	-0.03148461
9	0xbd31034f	-0.043216046
10	0xbbadb9b6	-0.0053016795
11	0xbbf064b8	-0.0073362254
12	0xbc66170e	-0.014043583
13	0x3b26ed5d	0.002547107
14	0x3c8aafd7	0.01692955
15	0xbcbe0ab6	-0.023198467
16	0xbb2743a0	-0.0025522485
17	0xbba460e9	-0.0050164354
18	0x3b9c34da	0.0047670426
19	0x3e9eeb48	0.3103888
20	0xb8d45293	-0.000101243284
21	0xbb5dcdb5	-0.0033844535
22	0x3a3efedb	0.0007285901
23	0xbb824123	-0.00397505
24	0xbb4be979	-0.0031114502
25	0x3cef70d7	0.02922861
26	0x3cc8ddd8	0.024519846
27	0x3c566e28	0.013087787
28	0xbe457bb8	-0.19285476
29	0x3c1e0b6d	0.009646279
30	0xbdd6e6c0	-0.10493231
31	0xbc1bd89e	-0.009512095
32	0xba8f44fe	-0.0010930595
33	0xba2f518e	-0.0006687873
34	0x3d0c34c1	0.034229998
35	0xbca9e48e	-0.020738866
36	0xbb09ab27	-0.0021006556
37	0xbc379547	-0.011205024
38	0xbca83972	-0.020535205
39	0x3d07567c	0.033041462
40	0xbb467d7f	-0.0030287204
41	0xbca0aa7a	-0.01961254
42	0x3c5e5661	0.013570399
43	0xbc01b383	-0.007916334
44	0xbc85c341	-0.016328456
45	0xbce1d414	-0.027566947
46	0xbc9d2145	-0.019180903
47	0x3cb5dd50	0.022200257
48	0x3cc82173	0.024430012
49	0x3e03d175	0.1287287
50	0xbc19bd87	-0.009383566
51	0xbca78860	-0.02045077
52	0x3c9449e2	0.018101636
53	0xbd561823	-0.052269112
54	0x3bc805fd	0.0061042295
55	0xbbff984d	-0.007800138
56	0xbc61dbae	-0.013785286
57	0xbc95a70d	-0.018268133
58	0xbcca63eb	-0.024705848
59	0x3c502687	0.012704498
60	0x3b967b86	0.004592362
61	0xbeaac5d3	-0.33354053
62	0xbabf3b73	-0.0014589861
63	0x3c6565d3	0.014001328

a2c_network.mu.weight f4 [12, 64]
0	0xbe04f176	-0.12982735
1	0x3cfbfd50	0.030760437
2	0xbc85ca9f	-0.016331969
3	0x3d3c05ee	0.045904092
4	0xbd0a2e7b	-0.033735733
5	0xbe3b7aac	-0.18308514
6	0x3cbd9911	0.023144277
7	0xbd3ec8e2	-0.046578296
8	0xbc41a19f	-0.011818319
9	0xbc626a29	-0.013819256
10	0x3d699d0a	0.05703453
11	0x3da839e8	0.0821417
12	0xbe8901f4	-0.26759303
13	0x3e5002e6	0.20313606
14	0xbcb4304f	-0.021995692
15	0x3d493d66	0.04913082
16	0xbd015b2c	-0.03158109
17	0x3d1acea5	0.037794728
18	0xbd315474	-0.04329343
19	0xbd426035	-0.04745503
20	0xbdb77d85	-0.08959488
21	0xbdcfd65d	-0.101483084
22	0xbc453fd6	-0.012039145
23	0x3eb1197e	0.34589761
24	0xbccb8f62	-0.024848644
25	0x3d303c48	0.04302624
26	0x3ccd1274	0.025033213
27	0xbcbede6d	-0.02329942
28	0x3d9cd354	0.07657495
29	0x3e3012c4	0.17194659
30	0xbdb428e4	-0.08796862
31	0x3e1b0cda	0.15141621
32	0x3e788e91	0.24273135
33	0xbd71b744	-0.059012666
34	0x3d944647	0.07239967
35	0x3e0308ac	0.12796277
36	0xbde5e301	-0.11224938
37	0xbe0fbd4d	-0.14037056
38	0x3ea53dd5	0.32273737
39	0xbd923550	-0.07139075
40	0xbe2672bf	-0.1625471
41	0xbd9de4d1	-0.07709659
42	0xbd4b211f	-0.049592134
43	0xb9d12be6	-0.00039896293
44	0xbb3576a7	-0.002768913
45	0x3d9bc19b	0.07605287
46	0x3d8e84a4	0.06958893
47	0x3c25b5a5	0.010114108
48	0x3e0e9fb0	0.13928103
49	0x3defb670	0.11704719
50	0xbe1ee1f7	-0.15515886
51	0x3da87a8d	0.082265
52	0xbd15bedf	-0.036558982
53	0x3dc790bf	0.09744405
54	0xbd0d11e3	-0.034440886
55	0x3df102a5	0.117680825
56	0xbdd1d35e	-0.10245393
57	0xbee7c10c	-0.4526447
58	0xbe3bb0b7	-0.1832913
59	0x3e0a74c6	0.13521108
60	0x3d0bb54c	0.034108445
61	0x3c67630b	0.014122735
62	0xbdce3403	-0.10068514
63	0xbe9a6bdc	-0.30160415
64	0x3d8e6daa	0.069545105
65	0x3d84cc0d	0.06484232
66	0x3eb570c8	0.35437608
67	0x3c5f976d	0.013646943
68	0xbe535e6f	-0.20641492
69	0xbd82c8f3	-0.06385984
70	0x3dcca269	0.09991915
71	0xbd8e19fc	-0.0693855
72	0xbd917ebd	-0.071042515
73	0x3d68fa93	0.05687959
74	0x3d5dc9b6	0.054147445
75	0xbe88db87	-0.26729986
76	0xbe6946a2	-0.2278085
77	0xbe03899d	-0.12845464
78	0x3caa203f	0.02076733
79	0x3de80664	0.11329344
80	0x3e0e6a5c	0.1390776
81	0x3c984d05	0.018591413
82	0xbcde354d	-0.027125025
83	0x3d8a35ef	0.06748568
84	0xbe08cd80	-0.13359642
85	0x3e3221e8	0.17395747
86	0x3d3975a9	0.045278225
87	0xbdf89ad6	-0.121389076
88	0xbe227a91	-0.15867068
89	0x3c58e681	0.01323855
90	0xbd94dc84	-0.072686225
91	0xbe0700b6	-0.13183865
92	0x3d3419e0	0.04396999
93	0x3e1c3cd3	0.15257578
94	0xbd7c0fd8	-0.061538547
95	0x3d9c8068	0.07641679
96	0xbe352156	-0.17688498
97	0x3dca3451	0.0987326
98	0xbcd648f6	-0.026157837
99	0xbdf6f663	-0.12058713
100	0x3d7f1538	0.062276095
101	0xbe12ea62	-0.14347222
102	0x3e2a1aad	0.16611739
103	0xbc19b221	-0.009380848
104	0x3bfddd62	0.007747338
105	0x3dac7de8	0.08422452
106	0x3c9e4267	0.019318772
107	0x3d30a7e4	0.043128863
108	0xbdbf2af2	-0.09334363
109	0x3db41bfe	0.087944016
110	0x3e30612c	0.17224568
111	0xbe10b6fc	-0.14132303
112	0xbe147dd2	-0.14501122
113	0x3db66137	0.08905261
114	0xbdc6bc3a	-0.0970387
115	0xb939c724	-0.0001771716
116	0xbe52b4b3	-0.20576744
117	0x3dfffc63	0.12499311
118	0x3e44473d	0.191678
119	0xbdaad64d	-0.08341656
120	0xbbec2f9a	-0.007207823
121	0x3eb3ba76	0.35103196
122	0xbd4efd77	-0.05053469
123	0x3ddd4881	0.10804845
124	0xbd146d54	-0.036237076
125	0xbc449bb9	-0.012000018
126	0xbe3045de	-0.17214152
127	0x3de79790	0.11308205
128	0x3d955067	0.07290726
129	0xbe74d8df	-0.23910855
130	0x3e0d1866	0.13778839
131	0xbdf7c064	-0.120972425
132	0x3d9f3760	0.07774234
133	0xbe44afb9	-0.19207658
134	0x3cae7484	0.021295793
135	0xbc890637	-0.016726596
136	0x3e2e5f2e	0.17028496
137	0xbdab68e4	-0.08369616
138	0xbd3814b0	-0.044941604
139	0xbd8675f1	-0.06565464
140	0xbe7130a7	-0.23553716
141	0x3e54a696	0.20766672
142	0xbd98f12e	-0.074678764
143	0x3ec47817	0.3837287
144	0xbd5f3d46	-0.054501794
145	0x3d71270a	0.05887512
146	0xbd1a9121	-0.037736062
147	0xbccd12e4	-0.025033422
148	0x3dad76ab	0.084699
149	0x3d060001	0.032714847
150	0xbd6de251	-0.05807716
151	0xbdbab821	-0.09117151
152	0x3e22a554	0.1588338
153	0x3d76f279	0.060289834
154	0xbd8ebf43	-0.06970074
155	0xbdb10e2a	-0.0864528
156	0x3d6c5668	0.05769959
157	0x3d524ab8	0.05134079
158	0xbd9789a9	-0.073993035
159	0xbc21f177	-0.00988423
160	0xbd1c4821	-0.038154725
161	0x3e3dd4f6	0.1853827
162	0xbc25b12a	-0.01011304
163	0x3d8b4e67	0.068020634
164	0xbbc03224	-0.005865352
165	0x3d834c50	0.0641104
166	0x3d78d118	0.060746282
167	0x3de3b7b4	0.11119023
168	0x3d97fbfc	0.07421109
169	0xbc268c2c	-0.0101652555
170	0x3dfaaffa	0.12240596
171	0xbd9448a1	-0.07240415
172	0x3bb0d89b	0.005396915
173	0xbe4307dc	-0.19045967
174	0xbe233a3b	-0.15940182
175	0xbbc126e5	-0.005894529
176	0x3dc522bd	0.096257664
177	0xbd6fc7f5	-0.058540303
178	0x3cd2c689	0.025729435
179	0x3a894824	0.001047377
180	0x3e08d383	0.13361935
181	0xbdb6e11b	-0.08929654
182	0x3d6ebfd2	0.058288403
183	0xbcde747f	-0.027155159
184	0xbe72f807	-0.23727427
185	0xb946d599	-0.00018962323
186	0xbc188e8c	-0.00931133
187	0x3e2461ee	0.16052982
188	0xbe719ca7	-0.23594914
189	0x3debf5c0	0.115214825
190	0x3e14ae86	0.145197
191	0x3c81694b	0.015797278
192	0x3e250fae	0.16119263
193	0x3d108bde	0.035289638
194	0xbd5a50a4	-0.05329956
195	0xbdaeb28f	-0.08530151
196	0xbe16b2d9	-0.14716662
197	0x3d73a826	0.05948653
198	0xbdb70830	-0.089371085
199	0xbdedf06f	-0.11618125
200	0xbe77b8be	-0.24191567
201	0x3dee6b9e	0.1164162
202	0xbd46fc81	-0.04858065
203	0x3d8bd92c	0.068285316
204	0xbd72cf76	-0.05927988
205	0x3daff64c	0.08591899
206	0x3d5e32bb	0.0542476
207	0xbde5af05	-0.11215023
208	0x3d9779bf	0.07396268
209	0x3d1b8f69	0.037978563
210	0x3dbf4331	0.093389876
211	0x3b6710ae	0.0035257745
212	0x3ddf6617	0.10908144
213	0xbdd04011	-0.1016847
214	0xbd853853	-0.065048836
215	0xbdf8d7e5	-0.121505536
216	0x3d72b8fd	0.05925845
217	0x3bf5aacc	0.007497167
218	0xbe0e3418	-0.1388706
219	0xbd30f100	-0.043198586
220	0x3bf4bf64	0.0074691046
221	0x3df620ca	0.12017973
222	0x3e02e172	0.12781313
223	0x3cd652b6	0.026162487
224	0xbdf6d37b	-0.120520554
225	0xbce322fc	-0.027726643
226	0x3cd44280	0.025910616
227	0xbde49bea	-0.11162551
228	0xbe0a8203	-0.13526158
229	0xbdb50912	-0.08839621
230	0xbdb68829	-0.08912689
231	0xbc677cab	-0.014128844
232	0x3cbfd716	0.02341799
233	0xbd907739	-0.0705399
234	0xbd98fae9	-0.07469732
235	0xbdb772aa	-0.08957417
236	0x3e6223b3	0.2208393
237	0x3da711f4	0.08157721
238	0xbd7a7311	-0.061144892
239	0xbdcd9d39	-0.100397535
240	0x3d8e8b58	0.069601715
241	0x3d799c01	0.060939793
242	0x3d318838	0.0433428
243	0x3e97402a	0.2954114
244	0xbbb14af6	-0.0054105474
245	0x3d3654d0	0.044514477
246	0xbdbfb6af	-0.09361016
247	0x3d3b1484	0.045673862
248	0x3dd35aa2	0.10320021
249	0xbdaa3773	-0.08311357
250	0xbe1742c4	-0.14771563
251	0x3a7e4140	0.0009699054
252	0x3d94013e	0.072267994
253	0xbdccba70	-0.09996498
254	0x3e32eebb	0.17473881
255	0x3ddcda2a	0.10783799

a2c_network.mu.bias f4 [12]
0	0xbd5bcf9d	-0.053664792
1	0xbcef4a0d	-0.029210115
2	0x3d05e296	0.032686792
3	0x3df93b39	0.12169499
4	0xbda827dc	-0.082107276
5	0xbc69b280	-0.014263749
6	0x3d83a1a0	0.06427312
7	0x3dac448c	0.08411512
8	0xbb3af9be	-0.0028530206
9	0xbe3b6f4e	-0.18304178
10	0x3e1a1be6	0.15049705
11	0x3c0fc924	0.008775983

exp_avg f4 [12]
0	0xb972cec3	-0.00023155943
1	0xbade479b	-0.0016958596
2	0xb9cf531c	-0.00039544038
3	0xb95a732c	-0.00020833005
4	0xba0020ef	-0.000488772
5	0x39eb86a0	0.00044922996
6	0x382c3aad	4.106264e-05
7	0x3a7fec08	0.00097626494
8	0xbab44447	-0.0013753258
9	0xb9d2ae00	-0.0004018396
10	0x3949f423	0.00019259802
11	0xba60be5d	-0.0008573288

exp_avg_sq f4 [12]
0	0x38388e8a	4.400177e-05
1	0x384f26b2	4.9388684e-05
2	0x384ab02b	4.8324622e-05
3	0x38634938	5.4189208e-05
4	0x384d6819	4.8972757e-05
5	0x383e634a	4.5392e-05
6	0x384716ef	4.7466656e-05
7	0x383c33ab	4.4870812e-05
8	0x3848be3c	4.7860885e-05
9	0x38524a21	5.013694e-05
10	0x38403314	4.5823937e-05
11	0x3838656f	4.3963486e-05
