omniisaacgymenvs/scripts/runs/Anymal/nn/last_Anymal_ep_550_rew_-0.9583126.pth (torch, 672599 bytes, 36 tensors)

value_mean_std.running_mean f8 [1]
0	0xbffd21173402d144	-1.820578768890372

value_mean_std.running_var f8 [1]
0	0x405335f4b765575c	76.84306130310637

value_mean_std.count f8 []
0	0x4199c80004000000	108134401.0

running_mean_std.running_mean f8 [48]
0	0x3fa65ce3892e9473	0.043677435394138174
1	0x3f9153dc352da874	0.01692146372389698
2	0xbfe334ca93950299	-0.6001942522489855
3	0xbf933fb8e6d9eb46	-0.018797768678705105
4	0xbf6007d457612d7a	-0.001956858376649326
5	0xbf55257bd1145475	-0.0012906750819799116
6	0x3f6b9262994dc438	0.003365700317254052
7	0x3f7d9fcbfc58306d	0.007232472247334793
8	0xbfeec8a24432b164	-0.9619914371483387
9	0xbfc693cd5c6c0c09	-0.1763855649261077
10	0x3f99c1786c31d01b	0.02515209350936241
11	0xbf307404b0129cdb	-0.0002510558552537131
12	0xbfc502021d068381	-0.16412378709085476
13	0xbfc23fbd5067b8d9	-0.1425701754191724
14	0x3fbfdbbc1942196a	0.1244466363587883
15	0x3fc24e9d9291a6d3	0.14302415520369624
16	0x3f8dbc91234328f2	0.014519819153424571
17	0x3fb50793c7ece47a	0.08214686995497003
18	0xbf9286c6fae2e69c	-0.018092259467016633
19	0xbf6094525551828c	-0.0020238502570893487
20	0x3fb67a372b4e7095	0.08780236060414588
21	0xbfc3945ab1641e2f	-0.15296491300272083
22	0x3fc1230ff735f929	0.13388251849023305
23	0xbfb9e542c535e969	-0.10115449251853693
24	0xbf9beead4c1582db	-0.027277667778778585
25	0xbf938e01d06a1f14	-0.019096401544202626
26	0x3f9e17c4f4914b22	0.029387547900408546
27	0x3f9b5a5d34a13e97	0.026711899125358398
28	0xbf70f3b3a03d8857	-0.004138662017654302
29	0x3f97c19d558ded88	0.023199518534494895
30	0xbf86d4ad8d8090b8	-0.011147838478855795
31	0x3f784e26abf0701e	0.005933905659755849
32	0x3f8993f8234d465c	0.012489260270430673
33	0xbf9e51a77791a3b3	-0.029608360932261223
34	0x3fa110e57b9775c3	0.033332034432287404
35	0xbf96ec3c7aa95a27	-0.022385544764199985
36	0xbfb52a5eab020ebd	-0.0826777617931453
37	0xbfabea5f6eecf4be	-0.054522497454379856
38	0x3fb4f92882745083	0.08192685303612461
39	0x3fb105787c73e852	0.06648972547910262
40	0x3f90e6dddb286179	0.01650568628437685
41	0x3fad500eb41299b0	0.05725141475822981
42	0xbf9581e92662b445	-0.021003382652157638
43	0x3f6f807ff1d9fce4	0.003845453159385325
44	0x3fa08d0564a24826	0.0323259053558476
45	0xbfb1a8e297ba4b86	-0.06898323253908076
46	0x3fb943dbbe7ea5c1	0.09869168663740081
47	0xbfa720e51390035f	-0.045172842634207504

running_mean_std.running_var f8 [48]
0	0x3fe2d6a1c5ef2f41	0.588700186338862
1	0x3fdff4bd17adfff9	0.49931266128987734
2	0x3fe825f85cf25773	0.7546350303043553
3	0x3fc5f088c20d0bd6	0.1714030215753996
4	0x3faa0adff8950cc4	0.0508642188019848
5	0x3fb711d42e640457	0.09011579639992938
6	0x3f94fa3f268ddc2c	0.020485865333707817
7	0x3fa752e3cec90c35	0.045554274551726705
8	0x3f81591b4c1cb0a4	0.00847073865914922
9	0x401554ec393f6e61	5.3329323716130554
10	0x3ff4d7e34de74ee3	1.3027070086581538
11	0x3f95054c2317a86b	0.02052802051722617
12	0x3fc00ad45285061f	0.1253304865768294
13	0x3fc1b25ab5a2ce0a	0.13825544232314285
14	0x3fc2133c03a77726	0.14121198824334974
15	0x3fc236dfabdd3fe7	0.14229961292085067
16	0x3fbba21268ef9d2a	0.10794177114404549
17	0x3fc0867ff3a500de	0.12910460850435518
18	0x3fbe95451ae29058	0.11946517855045735
19	0x3fbeb9c6a2700dc6	0.12002221551670464
20	0x3fc746a9dca0d762	0.18184397957673598
21	0x3fcc0ed80797aa18	0.21920299883579797
22	0x3fc814e38c6f8342	0.18813747746664872
23	0x3fcb940ff622788c	0.21545600431722212
24	0x3f7eaae8c8dd6626	0.007487210574106428
25	0x3f816ad41b9745db	0.00850454053116583
26	0x3f83447fdb6cd8d1	0.009407996066880394
27	0x3f82896304d42ffb	0.009051107010712647
28	0x3f816fafd6dc0438	0.008513807053079345
29	0x3f81f6963e4dfe9a	0.008771108414065854
30	0x3f80ecbcf9205586	0.008264042237025714
31	0x3f81b58ac3792b80	0.008647045221683802
32	0x3f9b51beffe48534	0.026679024094055495
33	0x3f9d28ec686251b7	0.02847642314061868
34	0x3f9ec0cac0bd8d36	0.030032318128531098
35	0x3fa0623c89dfbea1	0.031999484854052136
36	0x3fe07780be646777	0.5145877569768648
37	0x3fe06b7e3793f59a	0.513121708441463
38	0x3fe09bf2b774b312	0.519036634742948
39	0x3fe0136776cfca74	0.5023686714687998
40	0x3fe07c54c6cf1318	0.5151771433816945
41	0x3fe09ad3f39fe935	0.5188998945516575
42	0x3fe04fd3a58fc1ab	0.5097444757102968
43	0x3fe0a44cfa398bcc	0.5200562369540136
44	0x3fe053b41c3ab52f	0.5102177192071958
45	0x3fe00cd36148717f	0.501565637594055
46	0x3fe072bb7288c18c	0.5140053975101622
47	0x3fe0c08b9b57831b	0.5235040697117229

running_mean_std.count f8 []
0	0x4189c80008000000	54067201.0

a2c_network.sigma f4 [12]
0	0x4051f1cf	3.2803838
1	0x4040f317	3.014837
2	0x40511a77	3.2672403
3	0x404eb88e	3.2300143
4	0x404433f0	3.06567
5	0x404af46a	3.1711679
6	0x404dc7c5	3.215318
7	0x4047f73e	3.1244655
8	0x40481174	3.1260653
9	0x404f8a3a	3.2428117
10	0x404d64fb	3.2092884
11	0x404be81c	3.1860418

a2c_network.actor_mlp.0.weight f4 [256, 48]
0	0x3eec49ad	0.4614996
1	0xbed6f8b2	-0.41986614
2	0x3db2d66c	0.08732304
3	0x3db39133	0.08767929
4	0xbf0c801d	-0.54882985
5	0x3e368476	0.17823967
6	0x3ea012ef	0.31264445
7	0xbc4c798f	-0.012480154
8	0x3ebb5893	0.36591014
9	0x3e5ad2e4	0.21369511
10	0x3eacc478	0.33743644
11	0xbedf2878	-0.43585563
12	0xbeb1fb59	-0.34762076
13	0xbccff1e0	-0.02538389
14	0xbe539c59	-0.2066511
15	0x3e889b7e	0.2668113
16	0x3e40f716	0.18844256
17	0xbf0e3b7e	-0.5555953
18	0x3d4f18b7	0.05056068
19	0xbdcfabd7	-0.10140198
20	0xbeb18d4d	-0.34678116
21	0x3e187636	0.14888844
22	0x3e852ced	0.26010838
23	0x3e38e64e	0.18056604
24	0x38ad0ecb	8.252038e-05
25	0xbc7cfe6f	-0.015441521
26	0xbe108e6d	-0.14116831
27	0x3d6641fe	0.05621528
28	0xbde0fe93	-0.10986056
29	0x3d4a983f	0.0494616
30	0xbe156c9e	-0.14592215
31	0x3e756759	0.23965205
32	0xbec1d237	-0.37855694
33	0xbda73b44	-0.08165601
34	0x3f6a5ceb	0.9154803
35	0xbc8d9310	-0.017282039
36	0x3da52afa	0.08064838
37	0x3e277359	0.16352595
38	0x3e3014d1	0.17195441
39	0xbe833886	-0.2562906
40	0x3e291969	0.165136
41	0x3e588d1d	0.2114758
42	0x3eb89b00	0.36055756
43	0xbf0e8e80	-0.5568619
44	0x3e9a55f6	0.30143708
45	0x3f1f3229	0.62185913
46	0xbeb6b8ac	-0.35687768
47	0xbed88bd0	-0.42294168
48	0x3e22352d	0.15840597
49	0xbd409916	-0.047020994
50	0x3e99fdac	0.3007635
51	0xbd8128b1	-0.063065894
52	0xbe2c6c7a	-0.16838256
53	0x3cf318f5	0.029674986
54	0xbe1e932f	-0.15485834
55	0xbf4570b0	-0.7712507
56	0xbd1bfdad	-0.03808372
57	0xbe12b14c	-0.14325446
58	0x3dda6089	0.10662944
59	0xbd56ccb6	-0.05244132
60	0x3e36e32c	0.17860097
61	0xbdd1d116	-0.10244958
62	0x3ec524cb	0.38504633
63	0x3e0c4632	0.13698652
64	0x3f1000bb	0.56251115
65	0xbe0b287a	-0.1358966
66	0xbe49c3fb	-0.19703667
67	0xbe77c14b	-0.24194829
68	0x3e492599	0.19643249
69	0xbebfaa91	-0.3743482
70	0x3f023fb2	0.5087844
71	0xbeaee121	-0.34156135
72	0x3f0e6fcb	0.5563933
73	0xbe361a18	-0.17783391
74	0xbe26187e	-0.1622028
75	0xbf35b4b0	-0.7097883
76	0xbeb742aa	-0.35793048
77	0xbeb5a233	-0.3547531
78	0xbdbd7474	-0.09250727
79	0xbeb8d756	-0.36101788
80	0x3f1a243b	0.60211533
81	0x3e5a6586	0.2132779
82	0x3e386b70	0.18009734
83	0x3d70ec2b	0.058818977
84	0xbf2a4c27	-0.6652245
85	0x3ea6b56d	0.32560292
86	0x3eb51753	0.35369357
87	0x3e4ad72f	0.19808649
88	0xbf254d22	-0.6457082
89	0xbdcff1f1	-0.101535685
90	0xbe3a5586	-0.18196687
91	0xbcf9ad67	-0.030478192
92	0x3eb05077	0.3443639
93	0xbe8ac3b7	-0.27102444
94	0x3e1b3bec	0.15159577
95	0xbef9c1a2	-0.48780543
96	0xbeca26cb	-0.39482722
97	0xbdd3c0fe	-0.10339545
98	0x3f80e2b9	1.006919
99	0x3f1ad4e0	0.6048107
100	0x3f06907d	0.5256422
101	0xbd5a3c3f	-0.05328011
102	0x3e680bda	0.22660771
103	0x3e847d6c	0.2587694
104	0x3da67f68	0.081297696
105	0x3d3e0009	0.046386752
106	0x3dde4f28	0.108549416
107	0xbeb39aa9	-0.35078934
108	0x3eb7b126	0.3587734
109	0x3c23dc5a	0.010001266
110	0x3d9955ac	0.07487044
111	0xbe6466cd	-0.2230484
112	0x3e9a3ec8	0.30126023
113	0xbe275eac	-0.16344708
114	0xbe8553a7	-0.26040384
115	0xbeb37219	-0.35047987
116	0x3ee27964	0.4423324
117	0x3e1a4c49	0.15068163
118	0xbdc6ed49	-0.09713227
119	0x3ea51acc	0.32247007
120	0x3e3e9561	0.18611671
121	0xbecacade	-0.396079
122	0xbedcf487	-0.4315531
123	0xbedebb59	-0.4350231
124	0x3f4f9160	0.810812
125	0xbed49212	-0.41517693
126	0xbeb6b600	-0.3568573
127	0xbec9a715	-0.39385286
128	0xbdef8405	-0.116951026
129	0x3f1a4c37	0.60272545
130	0x3dd9f3b3	0.10642185
131	0xbec8e93b	-0.3924044
132	0x3e73af63	0.23797373
133	0x3ecd54f9	0.40103891
134	0xbf62f40e	-0.8865365
135	0xbeb49277	-0.35267994
136	0x3f66c5bb	0.9014546
137	0xbcd6202b	-0.026138386
138	0x3eac5a41	0.33662608
139	0xbf51e05e	-0.8198298
140	0x3e1c47ff	0.1526184
141	0x3e15aa2d	0.14615698
142	0xbd2f7d27	-0.042843964
143	0x3d0a16c8	0.033713132
144	0xbe0234e6	-0.12715492
145	0x3f158d46	0.5841869
146	0xbc23b1ef	-0.009991153
147	0xbde03cfb	-0.10949131
148	0xbec459e7	-0.3834984
149	0x3edd0e90	0.43175173
150	0xbd9bf804	-0.076156646
151	0xbd4a68ee	-0.049416475
152	0x3bf70f09	0.007539634
153	0x3d715498	0.058918566
154	0x3dba986b	0.09111103
155	0x3d9d2ab8	0.076741636
156	0x3cb2dec7	0.021834744
157	0xbeba84ad	-0.3642935
158	0xbf162d83	-0.58663195
159	0xbd2d5797	-0.04231986
160	0xbef278ca	-0.4735778
161	0xbdae2943	-0.08503964
162	0x3c7d287a	0.015451545
163	0x3d545d13	0.051846575
164	0xbe8da293	-0.27663097
165	0xbecb7e91	-0.39745
166	0x3d087ff5	0.033325154
167	0x3f02009a	0.5078217
168	0x3d290908	0.04126838
169	0x3ec4193e	0.38300508
170	0x3ed818f6	0.42206544
171	0x3e4d79b5	0.20065959
172	0xbd550cf7	-0.052014317
173	0xbe437816	-0.19088778
174	0xbe4413f5	-0.19148238
175	0x3c6b5ed8	0.014365874
176	0x3ceb524f	0.028725771
177	0x3ddba1b5	0.107242025
178	0x3de978c7	0.113999896
179	0xbdce48cd	-0.100724794
180	0xbe2f3692	-0.1711066
181	0xbe5058c5	-0.20346363
182	0x3c8689fe	0.016423222
183	0x3e2aee97	0.16692577
184	0x3d4ce135	0.05001946
185	0x3cda90fd	0.026680464
186	0x3d3acce5	0.04560556
187	0x3ccd5d99	0.025069045
188	0x3ca5e6ce	0.020251658
189	0xbe600279	-0.21875943
190	0xbdd38487	-0.10328012
191	0xbeb04932	-0.34430844
192	0x3f246e6c	0.6423099
193	0xbd6c3e6b	-0.057676714
194	0xbebf4936	-0.37360543
195	0x3e9965c6	0.2996046
196	0xbe538645	-0.20656689
197	0x3f5643ad	0.83697015
198	0xbeb5e8b5	-0.35529104
199	0x3c0a2d72	0.008433687
200	0x3e64c54c	0.22340888
201	0xbe3b5994	-0.1829589
202	0xbed36e65	-0.41295162
203	0xbdd93eb0	-0.1060766
204	0xbe92d743	-0.28679857
205	0x3e0aad98	0.13542783
206	0xbe9f0b62	-0.31063372
207	0xbf4ee9e7	-0.80825657
208	0x3e56fead	0.20995589
209	0xbdcde114	-0.10052696
210	0x3d492d4a	0.049115457
211	0xbde9c531	-0.114145644
212	0x3de41275	0.11136333
213	0xbf024bf7	-0.50897163
214	0x3f500997	0.8126463
215	0xbf0746ba	-0.52842295
216	0xbe1d645c	-0.15370315
217	0x3f197a74	0.59952474
218	0x3d821c0f	0.06353008
219	0xbe377aa0	-0.17917871
220	0xbeb2a25c	-0.34889495
221	0xbee927c5	-0.45538154
222	0x3e27ae3a	0.16375056
223	0xbf2a688d	-0.6656578
224	0x3f218220	0.6308918
225	0x3e7ad123	0.24493842
226	0x3edcbb78	0.43111777
227	0xbee1db03	-0.44112405
228	0xbf953301	-1.165619
229	0x3eef6d28	0.46762967
230	0x3f603550	0.8758135
231	0xbe37d73b	-0.17953198
232	0x3e2a655e	0.16640231
233	0xbe6739db	-0.22580664
234	0xbe876aea	-0.26448756
235	0xbe6e06cf	-0.23244785
236	0xbedaca03	-0.42732248
237	0x3e961129	0.29309967
238	0xbea585ce	-0.32328647
239	0xbe8861fe	-0.26637262
240	0x3eefedc7	0.46861097
241	0x3e63ed13	0.22258405
242	0xbf039743	-0.5140268
243	0xbed95ac0	-0.4245205
244	0x3e420673	0.18947773
245	0xbdfe1f04	-0.124082595
246	0xbea201ff	-0.31642148
247	0x3d2803f9	0.041019414
248	0xbf8bb0d4	-1.0913339
249	0x3f0c0b49	0.5470472
250	0x3ce72d3f	0.028219817
251	0xbeb0458d	-0.34428063
252	0x3e2ceacb	0.16886441
253	0x3e8c8cfd	0.27451316
254	0xbf2a5930	-0.6654234
255	0xbe868784	-0.26275265

a2c_network.actor_mlp.0.bias f4 [256]
0	0xbf47f821	-0.7811299
1	0xbe37d9f7	-0.1795424
2	0x3f144dde	0.57931316
3	0xbf3e7060	-0.7439022
4	0x3e11164f	0.14168666
5	0xbda59b94	-0.08086315
6	0xbf13e94e	-0.5777787
7	0xbf1ab6c6	-0.6043514
8	0xbf4cce27	-0.80002064
9	0xbf6e4b60	-0.93083763
10	0xbeb66656	-0.3562495
11	0xbf0bfff7	-0.54687446
12	0xbe301725	-0.17196329
13	0xbf134d56	-0.5753988
14	0xbf2d21f6	-0.67629945
15	0xbf4f58c9	-0.8099485
16	0x3ea6bfee	0.32568306
17	0x3e9ac2dc	0.3022679
18	0xbf76a2c0	-0.96342087
19	0xbf80e14d	-1.0068756
20	0x3e5ee04e	0.21765253
21	0xbe2eab99	-0.17057647
22	0x3e44a629	0.1920401
23	0xbe9b7327	-0.30361292
24	0x3ecbca85	0.39802948
25	0xbf42ecaf	-0.761424
26	0xbe2c18a4	-0.16806275
27	0xbf2e2cfb	-0.68037385
28	0xbf3c05b0	-0.7344618
29	0x3f56a527	0.8384575
30	0xbf1b597b	-0.6068341
31	0xbf4bc9e8	-0.7960496
32	0xbe807105	-0.25086227
33	0xbf164d51	-0.58711725
34	0xbf4dece4	-0.8043959
35	0xbfacc378	-1.3497152
36	0xbe947f6a	-0.2900346
37	0xbecc1d8a	-0.39866287
38	0xbf307054	-0.689214
39	0xbf0a6ee0	-0.5407543
40	0x3e76bf62	0.24096444
41	0xbec49989	-0.38398388
42	0xbdf21f14	-0.11822334
43	0x3e180e20	0.14849138
44	0x3f2b9119	0.67018276
45	0xbee2d885	-0.44305816
46	0xbf4065d3	-0.7515537
47	0xbedbc24e	-0.4292168
48	0xbf3e159b	-0.7425172
49	0xbf541cdc	-0.82856536
50	0x3e60c47c	0.21949953
51	0xbf03ccf6	-0.5148462
52	0xbf96d98d	-1.1785141
53	0xbf5f641a	-0.8726212
54	0xbef17eab	-0.47166952
55	0x3e91298d	0.28352013
56	0x3f089248	0.5334821
57	0xbf13c9f3	-0.57730025
58	0xbf224cc0	-0.6339836
59	0xbf2dc405	-0.6787723
60	0xbf158a5e	-0.58414257
61	0xbf6ec4e7	-0.932692
62	0xbf31fdc2	-0.6952783
63	0xbf17ebce	-0.59344184
64	0xbf418fe3	-0.7561018
65	0xbf866c93	-1.0501884
66	0xbf5259ad	-0.82168084
67	0xbf65b766	-0.8973297
68	0xbf96c3a3	-1.1778454
69	0xbe272b82	-0.1632519
70	0xbf3005c9	-0.6875883
71	0xbf2885f7	-0.65829414
72	0xbeeb624e	-0.45973438
73	0xbe9aa06a	-0.3020051
74	0x3ecef3d0	0.4042039
75	0xbe0fdce3	-0.14049105
76	0xbf54e58b	-0.83162755
77	0xbe8a84c0	-0.27054405
78	0xbf478e94	-0.7795193
79	0xbf80f5bf	-1.0074996
80	0x3e76f3a8	0.24116385
81	0x3e7736da	0.24142018
82	0x3f390fd7	0.72289795
83	0xbf4c1232	-0.79715264
84	0xbf361275	-0.71121913
85	0xbe171823	-0.14755301
86	0xbea2064a	-0.31645423
87	0x3e90784d	0.28216782
88	0xbef70824	-0.48248398
89	0x3e85406d	0.26025715
90	0x3f1d0912	0.61341965
91	0xbf665baf	-0.8998365
92	0xbfa0abf3	-1.2552475
93	0xbf5dec8c	-0.86689067
94	0xbe9ffc38	-0.31247115
95	0xbe7b1e96	-0.24523386
96	0xbf1bcccc	-0.6085937
97	0xbf3ff628	-0.7498498
98	0xbf0a364e	-0.5398911
99	0xbf0be8eb	-0.5465228
100	0xbf7d1578	-0.98860884
101	0x3e8d5ef1	0.27611497
102	0xbf38e45c	-0.7222345
103	0xbf0ed86f	-0.55799
104	0xbf33e7be	-0.70275486
105	0x3f045e52	0.5170642
106	0x3e86d5f5	0.2633511
107	0x3ec902cf	0.39259955
108	0xbdac0aea	-0.08400519
109	0x3f51d28e	0.81961906
110	0x3e4d37f5	0.20040877
111	0x3e5a5ae4	0.21323735
112	0xbf2bf74a	-0.6717421
113	0xbf25a165	-0.64699394
114	0xbf7c52f7	-0.98564094
115	0xbea6028e	-0.32423824
116	0xbef39f9f	-0.4758272
117	0x3ef7ea80	0.48421097
118	0xbeb309cd	-0.34968415
119	0x3e437267	0.1908661
120	0x3e160c08	0.14653027
121	0x3e171b72	0.14756563
122	0xbf5ca42d	-0.8618801
123	0xbe11707a	-0.14203063
124	0xbba2579f	-0.004954293
125	0x3e1e8767	0.1548134
126	0xbf3c9cbc	-0.7367666
127	0xbf29e670	-0.66367245
128	0xbea9c948	-0.33161378
129	0xbf0c36c2	-0.54771054
130	0xbf4f77cd	-0.81042176
131	0x3e8aa7f2	0.27081257
132	0xbf2e9a90	-0.68204594
133	0xbed1f031	-0.41003564
134	0xbd9e5b3e	-0.07732247
135	0xbdbe052c	-0.0927833
136	0xbf14955f	-0.5804042
137	0x3d617645	0.05504443
138	0xbf80bfff	-1.0058593
139	0xbf09fb55	-0.5389913
140	0xbee7c201	-0.452652
141	0xbef90666	-0.48637694
142	0xbf32a0b7	-0.6977648
143	0x3dbd1373	0.09232225
144	0xbee0ff58	-0.43944812
145	0xbf518e6d	-0.8185795
146	0xbf73b659	-0.95200115
147	0xbf5da54f	-0.86580366
148	0xbf459b31	-0.7718993
149	0xbf195ec7	-0.59910244
150	0xbed66210	-0.4187169
151	0xbf02f15a	-0.51149523
152	0xbe8be986	-0.27326602
153	0x3e695b82	0.22788814
154	0xbe49e7ba	-0.19717303
155	0x3da836d0	0.0821358
156	0xbf263ffc	-0.6494138
157	0xbebf69be	-0.37385362
158	0xbf157445	-0.5838054
159	0xbee4f51c	-0.44718254
160	0x3e82257e	0.2541923
161	0xbf44fb15	-0.7694562
162	0xbdbd38b2	-0.092393294
163	0xbf2189e9	-0.6310106
164	0xbec8e470	-0.39236784
165	0xbf512344	-0.81694436
166	0x3f16fa44	0.58975625
167	0xbeec6af6	-0.46175355
168	0xbf9b814f	-1.2148837
169	0x3e8f1c98	0.27951503
170	0xbefaf1d1	-0.49012616
171	0xbf47d578	-0.780601
172	0xbfa696f1	-1.3014814
173	0xbe057617	-0.13033329
174	0xbee6d41c	-0.45083702
175	0x3e847bbb	0.2587565
176	0xbef5798b	-0.47944292
177	0xbf203eda	-0.62595904
178	0xbeeb54f8	-0.45963264
179	0x3f2b8053	0.6699268
180	0xbf4baee5	-0.7956374
181	0xbe951509	-0.2911761
182	0x3eb7058a	0.35746413
183	0xbeb25e5c	-0.34837615
184	0xbf4e691a	-0.8062912
185	0xbeb050d8	-0.3443668
186	0xbf530c4c	-0.8244064
187	0xbf5c3be8	-0.8602891
188	0xbf175e61	-0.59128386
189	0xbf56d770	-0.8392248
190	0xbe8621fe	-0.2619781
191	0xbe45d34e	-0.19318888
192	0xbec91479	-0.39273432
193	0xbda90b8b	-0.08254155
194	0x3e7cd8eb	0.24692123
195	0xbf41770b	-0.7557227
196	0x3e302707	0.17202388
197	0xbedf9a31	-0.43672326
198	0xbe8ddb06	-0.27706164
199	0xbf0af18e	-0.54274833
200	0xbf22b5f3	-0.6355888
201	0x3ea17709	0.3153613
202	0xbf3881d5	-0.7207311
203	0xbf00705f	-0.50171465
204	0x3edb622f	0.42848346
205	0x3ec8ace0	0.39194393
206	0xbf43013d	-0.76173764
207	0xbf0b78f3	-0.5448143
208	0xbf1dffeb	-0.61718625
209	0xbebda746	-0.37041682
210	0xbf46bba8	-0.7763009
211	0xbf0491a9	-0.5178476
212	0x3ecbeefd	0.3983077
213	0x3eba79fc	0.36421192
214	0xbd272846	-0.040809892
215	0xbecf3394	-0.40469038
216	0xbef522f1	-0.4787822
217	0xbefc9d48	-0.49338746
218	0xbd9029d2	-0.070392266
219	0xbf24270d	-0.64122087
220	0xbf1b8987	-0.60756725
221	0x3eaa244e	0.33230823
222	0x3d9abc10	0.07555401
223	0xbf598e3e	-0.8498267
224	0xbf81ef01	-1.0151063
225	0xbe864641	-0.26225474
226	0xbf1e4ff3	-0.6184074
227	0xbf506710	-0.8140726
228	0xbe107707	-0.14107905
229	0x3e4da003	0.20080571
230	0xbf80ee95	-1.007281
231	0xbf3148d2	-0.6925174
232	0x3e7c20d8	0.24621904
233	0xbf230d4b	-0.6369216
234	0xbf26b2d1	-0.651166
235	0xbf3083da	-0.6895119
236	0x3e841a3c	0.25801265
237	0xbef52d5f	-0.47886178
238	0xbefe7438	-0.49698043
239	0xbeb88d57	-0.36045334
240	0xbe9a9294	-0.30189955
241	0xbf8fd78a	-1.1237652
242	0xbef47bf8	-0.4775083
243	0xbf0a961a	-0.54135287
244	0x3d9b2873	0.075760745
245	0x3da257b8	0.07926887
246	0xbf1b6be3	-0.607115
247	0x3dbf04f8	0.093271196
248	0xbf5455c6	-0.8294338
249	0xbe447a30	-0.19187236
250	0xbf8398aa	-1.0280964
251	0xbef362e5	-0.47536388
252	0x3ee6a290	0.450459
253	0xbf112b52	-0.56706727
254	0xbda592c4	-0.08084634
255	0xbe1cd652	-0.15316132

a2c_network.actor_mlp.2.weight f4 [128, 256]
0	0xbe0f0d32	-0.13969877
1	0xbe4d9736	-0.20077214
2	0xbe779ad9	-0.24180163
3	0x3e18d42e	0.1492469
4	0xbd93a1eb	-0.07208618
5	0xbe0542c2	-0.13013747
6	0x3deb2a45	0.11482672
7	0x3d0bc18c	0.034120128
8	0x3e698cdc	0.2280764
9	0x3dece585	0.11567215
10	0x3cb4cb40	0.022069573
11	0x3d4ea930	0.05045432
12	0xbd802f67	-0.06259041
13	0x3e094f10	0.13409066
14	0x3d43e836	0.047828875
15	0x3da8ae09	0.082363196
16	0xbe73dcb6	-0.23814663
17	0xbeafb018	-0.34314036
18	0x3e6323d7	0.2218164
19	0xbe06da05	-0.13169105
20	0xbe3e35f8	-0.18575275
21	0xbe0d700a	-0.13812271
22	0xbddbee80	-0.1073885
23	0x3d045114	0.032303885
24	0xbedbdd90	-0.42942476
25	0x3e155044	0.145814
26	0xbc806185	-0.015671501
27	0x3d3edf1d	0.046599496
28	0x3cd318ce	0.025768664
29	0xbe3c1e2f	-0.18370889
30	0xbdaf83e3	-0.08570077
31	0xbc21afe6	-0.009868598
32	0xbcbed87c	-0.023296587
33	0x3bda6bc2	0.0066656778
34	0x3c6c82fc	0.014435526
35	0x3df30d71	0.11867798
36	0xbe6588e6	-0.22415504
37	0xbe7f78be	-0.24948403
38	0x3d8b91f1	0.068149455
39	0x3dea00e4	0.11425951
40	0xbe76e015	-0.24108918
41	0x3ddc836a	0.10767253
42	0xbe419282	-0.18903545
43	0xbec23b89	-0.37936047
44	0xbeb4a88c	-0.3528484
45	0x3dc089ed	0.09401307
46	0x3ea51dd2	0.32249314
47	0xbe0b6054	-0.13610965
48	0xbdec9e1e	-0.11553596
49	0xbd1926b4	-0.037390426
50	0xbeb0f5dc	-0.34562576
51	0x3cc45993	0.023968494
52	0x3cb3dd36	0.021956068
53	0x3ddf2a74	0.10896769
54	0xbca2364d	-0.019801283
55	0xbea01e23	-0.31272992
56	0xbe57668d	-0.21035214
57	0xbe3ce79d	-0.18447728
58	0xbe8b2c9f	-0.2718248
59	0xbdc9ea42	-0.09859134
60	0xbd1f3328	-0.038867146
61	0xbbaecdd4	-0.005334595
62	0xbcb7fd64	-0.022459693
63	0x3d867729	0.06565697
64	0xbd0bd4a3	-0.034138333
65	0xbe3c195f	-0.18369053
66	0x3dbdb69f	0.09263348
67	0xbd4ad0ba	-0.049515463
68	0x3cb56175	0.022141198
69	0xbe20f579	-0.1571864
70	0xbd46ed9f	-0.048566457
71	0x3d67b7f5	0.05657192
72	0xbd0c3fec	-0.03424065
73	0xbe1aac9d	-0.15104909
74	0xbe9d4b59	-0.30721548
75	0xbdd87d79	-0.10570807
76	0xbbb30ee2	-0.0054644207
77	0xbd839259	-0.06424398
78	0xbdd28716	-0.10279672
79	0x3e3b7bfe	0.18309018
80	0xbe03bdbe	-0.1286535
81	0xbea40661	-0.32036117
82	0xbeb33521	-0.35001472
83	0x3e5195ef	0.20467351
84	0x3e6f5fb7	0.23376356
85	0xbdaa1f6d	-0.08306775
86	0xbddc7483	-0.1076441
87	0xbe55e491	-0.20887972
88	0xbdb371f3	-0.087619685
89	0xbe8dfcf0	-0.27732038
90	0xbeab0c48	-0.33407807
91	0x3da25c55	0.07927767
92	0x3e4a44bc	0.19752783
93	0xbd6a468f	-0.057196196
94	0xbe44a0d1	-0.19201972
95	0xbea41057	-0.32043716
96	0x3e01fc22	0.12693837
97	0x3dbe2d21	0.092859514
98	0x3cc41ca0	0.02393943
99	0xbe030713	-0.12795667
100	0x3e462b69	0.19352497
101	0xbe9f5ffb	-0.31127915
102	0x3d89d674	0.06730357
103	0x3d675a94	0.056482866
104	0x3df5243d	0.119698025
105	0xbee95bdf	-0.45577905
106	0xbda8414c	-0.082155794
107	0xbd5f3a36	-0.054498874
108	0xbe38d3a5	-0.18049486
109	0xbea79df9	-0.3273771
110	0xbdc64c20	-0.096824884
111	0xbe7a36f5	-0.24435027
112	0x3d249fd6	0.040191494
113	0xbd9684cf	-0.0734955
114	0x3d6c54b0	0.05769795
115	0xbddd9dbe	-0.108211026
116	0x3e2cc340	0.16871357
117	0xbe71f917	-0.23630176
118	0xbd631958	-0.05544409
119	0xbdf294fa	-0.11844821
120	0xbea6ddd2	-0.3259111
121	0xbdab7aa2	-0.08373
122	0xbdafb967	-0.085802846
123	0xbe116a52	-0.14200714
124	0x3dfdd168	0.12393457
125	0xbe2617ca	-0.16220012
126	0x3c3155f0	0.010823712
127	0xbd627bee	-0.05529397
128	0x3cd0d594	0.025492467
129	0xbd5a7969	-0.053338442
130	0x3d31af97	0.043380346
131	0xbc8a460b	-0.016879102
132	0x3cd1288d	0.025532031
133	0xbd252a97	-0.04032382
134	0xbd64660a	-0.055761375
135	0xbea3905f	-0.31946084
136	0xbcf53d58	-0.029936478
137	0xbe4621f8	-0.19348896
138	0x3cd83ec8	0.026397124
139	0xbe5b7dff	-0.21434782
140	0xbceefec1	-0.02917421
141	0xbe36dac4	-0.1785689
142	0xbd88744c	-0.06662807
143	0xbd4817c6	-0.048850797
144	0x3e276d23	0.16350226
145	0x3e64c859	0.22342052
146	0x3e1f55d2	0.15560082
147	0xbdc21fe7	-0.09478741
148	0x3cfc30fc	0.030785076
149	0x3d37fb66	0.044917487
150	0xbd299b4f	-0.04140788
151	0xbd89bd4c	-0.06725559
152	0xbd8ab41a	-0.06772633
153	0x3cc0d169	0.023537355
154	0xbe204d0b	-0.1565439
155	0xbe44f155	-0.19232686
156	0x3e2faec0	0.17156506
157	0x3d07131d	0.032977212
158	0x3d9a2b78	0.07527822
159	0x3d2a0b7f	0.04151487
160	0xbe445f40	-0.1917696
161	0x3da1fba8	0.07909328
162	0x3d731499	0.059345815
163	0xbda60aff	-0.08107566
164	0xbe64ba47	-0.22336684
165	0x3de5bbf5	0.112174906
166	0xbea9caaf	-0.33162448
167	0xbe19ecfd	-0.1503181
168	0x3e2afa91	0.16697146
169	0xbe230152	-0.15918472
170	0xbdce59bc	-0.10075709
171	0x3d8e04fc	0.069345444
172	0x3c819eb0	0.015822738
173	0xbd3599fa	-0.044336297
174	0xbd9582ff	-0.07300376
175	0xbd786e2d	-0.060651947
176	0xbd9497c2	-0.07255508
177	0xbe25f0e0	-0.16205168
178	0x3e3d5363	0.18488841
179	0xbeb25a89	-0.34834698
180	0x3d467c1f	0.048458215
181	0xbe41128b	-0.1885473
182	0xbd985efb	-0.07439991
183	0xbcd8b371	-0.026452752
184	0x3cf555d2	0.029948149
185	0xbdf2e3e6	-0.118598744
186	0xbb76729f	-0.003760494
187	0x3c31667a	0.010827655
188	0xbe0d75b3	-0.1381443
189	0xbe05747b	-0.13032715
190	0x3d838e9e	0.064236864
191	0xbcae8e97	-0.021308227
192	0xbbfc033c	-0.0076908153
193	0xbe27acb7	-0.16374479
194	0xbe24f11c	-0.16107601
195	0x3d820a58	0.06349629
196	0xbe82c72b	-0.25542578
197	0xbc2a3c9b	-0.010390426
198	0xbe389ff0	-0.18029761
199	0x3dc95416	0.09830491
200	0x3e11e9d6	0.14249358
201	0xbe364761	-0.17800666
202	0xbdb0a01d	-0.08624289
203	0x3d9b24fa	0.07575412
204	0xbe678096	-0.22607645
205	0xbdd509dc	-0.10402271
206	0xbb9687c7	-0.0045938226
207	0xbb1b3b61	-0.0023686516
208	0x3d75346b	0.059864443
209	0xbcc41c8d	-0.023939395
210	0xbdc0e424	-0.09418514
211	0x3de15684	0.1100283
212	0xbe5e7083	-0.21722607
213	0x3d35b472	0.04436154
214	0xbe1fa8e5	-0.15591772
215	0xbdf387b8	-0.11891121
216	0xbe42140c	-0.1895296
217	0xbd64c63d	-0.055853117
218	0xbe671417	-0.22566257
219	0x3bb6b21f	0.005575433
220	0xbe4782ac	-0.19483441
221	0xbe453965	-0.19260176
222	0xbe06f96a	-0.13181081
223	0x3d9ba6d0	0.07600176
224	0x3d0dc09d	0.03460752
225	0x3c695842	0.014242234
226	0xbe0a2870	-0.13491988
227	0xbdfdc5c6	-0.12391238
228	0xbca30f7b	-0.019904843
229	0xbe7f87c1	-0.2495413
230	0xbd4095d5	-0.04701789
231	0xbcc57360	-0.024102867
232	0xbe740534	-0.2383011
233	0xbe363730	-0.1779449
234	0xbc5b046b	-0.013367753
235	0x3d9b415a	0.07580824
236	0xbdc059ae	-0.09392105
237	0xbcf19999	-0.029492186
238	0xbe26d276	-0.16291222
239	0xbd041c3f	-0.0322535
240	0x3db2a069	0.08722002
241	0x3e2b6db1	0.16741063
242	0xbdc1a8c4	-0.094560176
243	0xbe2588ed	-0.16165514
244	0xbe7414ff	-0.23836134
245	0xbdbd4619	-0.09241886
246	0x3d8c81da	0.06860705
247	0xbbfe3f54	-0.007759014
248	0x3dc5f604	0.096660644
249	0xbe1fa1ba	-0.15589038
250	0xbd89f984	-0.067370445
251	0xbe3664d9	-0.17811908
252	0xbd487163	-0.04893626
253	0xbe433720	-0.19063997
254	0xbe683236	-0.22675404
255	0x3c891719	0.016734647

a2c_network.actor_mlp.2.bias f4 [128]
0	0xbe86a2a2	-0.26295954
1	0xbe51f28d	-0.20502682
2	0xbf1d4c08	-0.6144414
3	0xbef1b66f	-0.47209498
4	0xbed1044f	-0.408236
5	0xbee0a625	-0.43876758
6	0xbe9bd290	-0.30434084
7	0xbea918f7	-0.3302686
8	0x3d567193	0.052354407
9	0xbe96ce4a	-0.2945426
10	0x3da4d2ec	0.08048043
11	0xbe110baf	-0.14164613
12	0x3c92a1fc	0.017899506
13	0xbf1ebb7f	-0.62004846
14	0xbee49029	-0.44641235
15	0xbea62e99	-0.32457426
16	0x3ec7dc57	0.39035293
17	0xbed0dde0	-0.40794277
18	0xbeb82986	-0.3596918
19	0x3dca01af	0.09863602
20	0xbece66ee	-0.40312904
21	0xbd5a7680	-0.053335667
22	0xbe024575	-0.12721808
23	0x3d17f43a	0.037098147
24	0xbe15887f	-0.1460285
25	0xbd70f497	-0.05882701
26	0xbeba443e	-0.3638019
27	0xbec555bc	-0.38541973
28	0xbefcbbb3	-0.49361953
29	0xbebdad60	-0.37046337
30	0xbe93008c	-0.28711355
31	0xbeeea7a4	-0.46612275
32	0xbe8ea276	-0.27858323
33	0xbe54ea61	-0.20792533
34	0xbeb6983d	-0.35663024
35	0xbe499190	-0.19684434
36	0x3e10c27e	0.14136693
37	0xbf0c4d90	-0.5480585
38	0xbe9e1268	-0.30873418
39	0xbe9c4eb2	-0.3052879
40	0xbd17b278	-0.037035435
41	0xbecda8dd	-0.40167895
42	0xbe971283	-0.2950631
43	0xbed80881	-0.42193988
44	0xbea39428	-0.31948972
45	0xbf057804	-0.52136254
46	0xbe95562a	-0.291673
47	0xbe77f710	-0.2421534
48	0xbe870a0b	-0.2637485
49	0xbf1400dd	-0.5781382
50	0xbe573290	-0.21015382
51	0xbe8efa68	-0.2792542
52	0xbee9e139	-0.45679644
53	0xbe4d3f92	-0.20043781
54	0xbe36d166	-0.17853317
55	0xbe40849d	-0.18800588
56	0xbedb5b45	-0.4284307
57	0xbf04a237	-0.5181002
58	0xbec0b43d	-0.3763751
59	0xbd51cb44	-0.05121924
60	0xbe35fa3d	-0.1777124
61	0xbc3fa5d7	-0.011697254
62	0x3cb6fc25	0.022337029
63	0xbb4d38e1	-0.003131442
64	0xbec22a30	-0.37922812
65	0xbe636a1f	-0.2220845
66	0xbeefb42a	-0.46817142
67	0xbed9d9e4	-0.4254905
68	0xbe2332a5	-0.15937288
69	0xbf0dc76b	-0.5538241
70	0xbf0a1c71	-0.5394965
71	0x3b81d5c0	0.0039622486
72	0xbebe40b6	-0.37158746
73	0xbe955ade	-0.2917089
74	0xbec45be1	-0.38351348
75	0xbe86ec21	-0.26352027
76	0xbe98162c	-0.29704416
77	0xbea5113e	-0.32239717
78	0xbe602c77	-0.21891962
79	0xbe246a03	-0.16056065
80	0x3d9b15b4	0.07572499
81	0xbf05b593	-0.52230185
82	0xbe7e42a8	-0.24830115
83	0xbda3eb55	-0.080038704
84	0x3bf66a9b	0.0075200326
85	0xbe886a21	-0.2664347
86	0xbe80de89	-0.2516978
87	0x3dfba87c	0.12287995
88	0xbf054fc2	-0.52074826
89	0xbeada25c	-0.33912933
90	0x3dc2ed88	0.09517962
91	0xbeb7c3d7	-0.358916
92	0xbeaf7665	-0.34270015
93	0xbcbfd326	-0.023416113
94	0xbeb79423	-0.35855207
95	0xbded567e	-0.11588763
96	0xbf0b74b1	-0.5447493
97	0xbe11e617	-0.14247929
98	0xbf29e4ed	-0.6636494
99	0xbe3fc494	-0.18727332
100	0xbf050244	-0.5195658
101	0xbebdcbe8	-0.3706963
102	0xbf045df7	-0.5170588
103	0xbf0e238d	-0.55522996
104	0xbeff3feb	-0.49853453
105	0x3e6817cf	0.22665332
106	0xbe90db27	-0.282922
107	0x3ec1a849	0.37823704
108	0xbe327e8b	-0.17431085
109	0xbec5ea6e	-0.38655418
110	0xbf040af6	-0.51579225
111	0xbef86f34	-0.4852234
112	0xbe9297dd	-0.28631487
113	0xbdc64962	-0.096819654
114	0x3e02e80b	0.1278383
115	0xbdbf1763	-0.093306325
116	0xbe9a303c	-0.30114925
117	0xbf2e4340	-0.68071365
118	0xbe881d9a	-0.26585084
119	0xbef414a5	-0.47672
120	0xbedf85b6	-0.436567
121	0xbeda4c3c	-0.42636287
122	0xbf1273e4	-0.57208085
123	0x3c775a25	0.015097176
124	0xbf00d74b	-0.5032851
125	0x3e00e2cf	0.1258652
126	0xbe908bd1	-0.2823167
127	0x3e069dd4	0.13146144

a2c_network.actor_mlp.4.weight f4 [64, 128]
0	0x3eba8ebb	0.3643702
1	0x3dbaa009	0.091125555
2	0x3d0f5c5b	0.035000186
3	0x3e848f35	0.25890508
4	0xbe15da7c	-0.14634126
5	0x3dc6d16d	0.097079135
6	0x3e3cab99	0.18424834
7	0xbe898b9a	-0.2686432
8	0x3baeb4a5	0.005331593
9	0x3e38baee	0.18040058
10	0xbdd9dc52	-0.10637726
11	0x3cde8973	0.02716515
12	0xbe104cdc	-0.1409182
13	0x3b5cfc08	0.0033719558
14	0x3d7242b6	0.05914565
15	0x3e8750d8	0.26428866
16	0xbf4b2d5a	-0.79366076
17	0xbd458780	-0.048224926
18	0x3e2563f3	0.16151409
19	0xbe996666	-0.29960936
20	0x3ea38a88	0.31941628
21	0xbd942d97	-0.07235258
22	0xbe8ecbd6	-0.2788989
23	0xbe81d509	-0.25357845
24	0xbede76ec	-0.43450105
25	0xbed304e6	-0.41214675
26	0x3e9f1bd9	0.31075934
27	0xbeb93953	-0.36176547
28	0x3e835c5d	0.25656405
29	0xbe7a1641	-0.24422552
30	0x3e6910e0	0.22760344
31	0x3d0a278a	0.033729114
32	0x3e863434	0.26211703
33	0x3de21189	0.11038501
34	0x3e7c0093	0.24609594
35	0xbe0b62a5	-0.13611849
36	0xbdd0fca1	-0.10204435
37	0xbec16576	-0.3777272
38	0x3ece5693	0.40300426
39	0x3e884e1f	0.26622102
40	0xbeca1f92	-0.3947721
41	0x3cc346b1	0.02383742
42	0xbed3ec5f	-0.41391274
43	0x3ea7dd69	0.3278611
44	0xbeaeebb4	-0.34164202
45	0xbd032239	-0.03201506
46	0xbe09b05c	-0.13446182
47	0xbe3eb9ff	-0.1862564
48	0x3e263f95	0.16235192
49	0x3e9cf7f0	0.3065791
50	0x3e0e32bc	0.13886541
51	0x3eb47f69	0.35253456
52	0xbec87a25	-0.3915569
53	0xbdc9ddfb	-0.098567925
54	0x3e95a66c	0.29228532
55	0xbe65f2de	-0.22455928
56	0x3ed34f09	0.41271237
57	0x3d179706	0.03700926
58	0x3e7493b3	0.23884468
59	0xbe01838f	-0.12647842
60	0xbe49d28e	-0.19709226
61	0xbeda67f0	-0.42657423
62	0xbe4a99ac	-0.19785184
63	0xbe30e524	-0.1727491
64	0xbe45c01c	-0.19311565
65	0xbf297494	-0.6619351
66	0x3e8ada19	0.2711952
67	0x3e384b5a	0.17997494
68	0x3da46af9	0.08028216
69	0x3e838375	0.2568623
70	0x3dc82f01	0.0977459
71	0xbf0f8597	-0.56063217
72	0x3d09b8eb	0.033623617
73	0xbeb4a9bb	-0.35285744
74	0x3e0f8a81	0.14017679
75	0x3e956158	0.2917583
76	0xbeb3b2ff	-0.350975
77	0xbe85a7ab	-0.26104483
78	0x3e6426b5	0.2228039
79	0xbe052615	-0.13002808
80	0xbddf2c35	-0.10897104
81	0x3eda3add	0.42623034
82	0x3d3ad635	0.04561444
83	0x3da5fa82	0.08104421
84	0xbeecb16e	-0.46229118
85	0x3e68bd93	0.22728567
86	0x3de5d5be	0.11222409
87	0xbf1740bb	-0.59083146
88	0xbc05c154	-0.008163769
89	0xbdfcf288	-0.12350947
90	0xbe8f2a6d	-0.27962056
91	0x3ec0a3ae	0.37624878
92	0x3dd61a83	0.104542755
93	0xbf0090c1	-0.50220877
94	0x3e22cdef	0.1589887
95	0xbdfb146d	-0.12259755
96	0xbde8ef67	-0.113737874
97	0xbf34f2b2	-0.70682824
98	0xbd94b198	-0.07260436
99	0x3e41c1df	0.18921612
100	0x3e67e994	0.22647697
101	0x3d9f9249	0.077915736
102	0x3e5e3f7a	0.21703902
103	0x3e8d73c6	0.2762739
104	0xbdd38b0b	-0.10329255
105	0xbea91bb8	-0.3302896
106	0x3f061daf	0.52389044
107	0xbeb55a2c	-0.35420358
108	0x3ed66056	0.41870373
109	0xbdf72b59	-0.12068815
110	0x3ee1107a	0.43957883
111	0xbc3f1ac5	-0.011664097
112	0x3eff89d0	0.4990983
113	0x3e28ac57	0.16471992
114	0xbeaa7c2a	-0.33297855
115	0xbdac8294	-0.08423343
116	0x3e99a99b	0.3001221
117	0x3f01419a	0.50490725
118	0xbe11d2fe	-0.14240643
119	0x3e4fd3c9	0.20295633
120	0x3d9d8a03	0.07692339
121	0x3e30354a	0.17207828
122	0x3ce2f59b	0.027705004
123	0xbf0260a5	-0.5092872
124	0xbe6eb115	-0.23309739
125	0xbf04f242	-0.51932156
126	0xbe05482a	-0.1301581
127	0x3d75ba6a	0.05999223
128	0x3e8c948f	0.2745709
129	0xbe98a422	-0.29812723
130	0x3e8221fc	0.25416553
131	0x3f00323c	0.5007665
132	0x3e2c4373	0.16822605
133	0x3e8ac233	0.27101287
134	0x3ef77456	0.48330945
135	0xbe98c72b	-0.29839453
136	0xbe7482b3	-0.23877983
137	0x3dc8a2c3	0.09796669
138	0xbe77c1c5	-0.24195011
139	0x3d3aea6c	0.04563372
140	0xbecae816	-0.39630193
141	0x3e1dcf6b	0.15411155
142	0xbdfbdb24	-0.12297657
143	0x3e872202	0.26393133
144	0xbe89102e	-0.26770157
145	0x3d8024a1	0.062569864
146	0xbc488888	-0.012239583
147	0xbf2573de	-0.64629924
148	0x3e96ea96	0.2947585
149	0x3d97a90a	0.074052885
150	0xbf0170da	-0.5056282
151	0x3e2eea5d	0.1708159
152	0xbe2afd07	-0.16698085
153	0xbe8506cf	-0.25981757
154	0x3d3975f7	0.045278516
155	0xbd89a635	-0.067211546
156	0xbd204d43	-0.039136183
157	0xbe3e0fe0	-0.18560743
158	0x3e8ea902	0.27863318
159	0x3f0abfb0	0.5419874
160	0x3deab64d	0.11460552
161	0xbe2a4174	-0.16626531
162	0x3e9977a0	0.2997408
163	0x3e122e1e	0.14275405
164	0x3d827bdb	0.0637128
165	0x3d24c239	0.040224288
166	0x3e6960f2	0.22790888
167	0x3e7a33e6	0.2443386
168	0xbd88bb13	-0.066763066
169	0xbdb102d3	-0.08643117
170	0x3c937cec	0.018003903
171	0x3ebab43f	0.36465642
172	0x3d808452	0.06275238
173	0xbe087753	-0.13326769
174	0x3dde8fad	0.10867248
175	0x3e8d99c5	0.2765638
176	0xbdd678ba	-0.104722455
177	0x3e9d3088	0.3070109
178	0xbda8ee43	-0.0824857
179	0x3e220cdb	0.15825216
180	0x3e80e0e8	0.2517159
181	0x3d802b83	0.06258299
182	0x3e1b6705	0.15176018
183	0xbcbb6c18	-0.022878692
184	0x3ef9a88d	0.48761407
185	0xbd438e5f	-0.047743198
186	0xbea36688	-0.31914163
187	0xbd21d30d	-0.039507914
188	0xbe9de4c3	-0.30838594
189	0xbce12dc3	-0.027487641
190	0xbeb00ee1	-0.34386352
191	0xbd19728b	-0.037462752
192	0xbe5bc095	-0.21460183
193	0xbe6ef781	-0.23336603
194	0x3d2c95dd	0.04213511
195	0x3e02d70c	0.12777346
196	0x3e294910	0.16531777
197	0x3ef54cb3	0.4791008
198	0xbe999eab	-0.30003867
199	0xbf1f99aa	-0.6234385
200	0x3e0b550d	0.13606663
201	0x3c8185aa	0.015810806
202	0x3cb93c8d	0.02261188
203	0xbdd5f6d4	-0.10447469
204	0xbd952737	-0.0728287
205	0x3e34b6f7	0.1764792
206	0x3e82e65b	0.25566372
207	0xbea33bc0	-0.31881523
208	0x3e168418	0.14698827
209	0x3f096195	0.53664523
210	0x3d901186	0.07034592
211	0x3cf68622	0.030093256
212	0x3d96644c	0.07343349
213	0x3d8b638f	0.06806099
214	0xbe0e2f12	-0.13885143
215	0xbef3ed14	-0.47641814
216	0x3e35bec8	0.17748559
217	0x3e06cd58	0.1316427
218	0x3d812c53	0.06307282
219	0xbd84a8e5	-0.064775266
220	0xbb584cda	-0.0033004791
221	0xbe8b8bcf	-0.27255103
222	0xbe0e1824	-0.13876396
223	0xbc7464c2	-0.014916601
224	0x3e0063d7	0.12538086
225	0xbe2e76b5	-0.1703747
226	0xbdd287c2	-0.102798
227	0xbc2e59d6	-0.010641536
228	0xbec4fef2	-0.38475758
229	0x3d787523	0.060658585
230	0xbe24e0ea	-0.16101423
231	0x3e940aa5	0.2891437
232	0x3d8828c7	0.06648403
233	0xbe4268fd	-0.18985362
234	0x3dc4e063	0.09613111
235	0x3d302bd2	0.04301054
236	0x3d8a51e4	0.06753901
237	0x3db9a5ac	0.090648025
238	0x3e299ed9	0.16564502
239	0x3e358715	0.17727311
240	0x3eb2e8f7	0.34943363
241	0xbe82590c	-0.25458562
242	0xbe1dae3a	-0.15398493
243	0xbe3660e7	-0.17810403
244	0x3df8fa11	0.121570714
245	0x3e265e3e	0.16246888
246	0xbe5a9b0a	-0.21348205
247	0x3e526a1a	0.20548287
248	0xbd53937d	-0.051654328
249	0xbd9c2897	-0.076249294
250	0x3e039869	0.12851109
251	0xbe3ce55f	-0.18446873
252	0x3d481166	0.048844717
253	0x3d1a3a8a	0.037653483
254	0xbe1cb809	-0.15304579
255	0xbea57a04	-0.32319653

a2c_network.actor_mlp.4.bias f4 [64]
0	0xbefa04d6	-0.48831815
1	0xbe2cb60d	-0.16866322
2	0xbea64833	-0.3247696
3	0xbe423744	-0.18966395
4	0xbed8a064	-0.42309868
5	0xbe4a83c7	-0.19776832
6	0xbe4e9ae3	-0.20176272
7	0xbe52d99a	-0.20590821
8	0xbeca0edf	-0.3946447
9	0xbe1ad8bf	-0.15121745
10	0xbe3ef38d	-0.18647595
11	0xbefea1f1	-0.49732926
12	0xbea348d6	-0.31891507
13	0xbe839f4d	-0.25707474
14	0xbeac902d	-0.33703747
15	0xbe1f5dfd	-0.15563197
16	0xbe98ab28	-0.29818082
17	0xbe25503e	-0.16143891
18	0xbe1a162a	-0.15047517
19	0xbea9e8a1	-0.33185294
20	0xbefe6f2c	-0.49694192
21	0xbe305cfa	-0.17222968
22	0xbed1315c	-0.4085797
23	0xbf16929b	-0.5881745
24	0xbed809ab	-0.42194876
25	0xbe69a07f	-0.2281513
26	0xbe1b4299	-0.15162124
27	0xbe3be44e	-0.1834881
28	0x3e98b079	0.29822138
29	0xbe20d432	-0.15705946
30	0xbd9cb930	-0.07652509
31	0xbe735d1e	-0.2376599
32	0xbe861431	-0.2618728
33	0xbf0fba01	-0.56143194
34	0xbe278d5d	-0.1636252
35	0xbe552f0c	-0.20818728
36	0xbef04cdb	-0.46933636
37	0xbe392a9a	-0.18082657
38	0xbe1c9025	-0.15289362
39	0xbe6c2d3b	-0.23064129
40	0xbe4dacdb	-0.2008547
41	0xbe53f3ed	-0.20698519
42	0xbe821756	-0.2540843
43	0xbe448772	-0.19192293
44	0xbde561bc	-0.11200282
45	0xbe06fbf7	-0.13182054
46	0xbe53e8d0	-0.2069428
47	0xbe690ed2	-0.2275956
48	0xbe51e6e7	-0.20498239
49	0xbe501167	-0.20319138
50	0xbe89ac4d	-0.26889268
51	0xbeec2840	-0.46124458
52	0xbea97a0e	-0.33100933
53	0xbe177f54	-0.14794666
54	0xbdd6489a	-0.104630664
55	0xbe97141e	-0.29507536
56	0xbe3132bd	-0.17304511
57	0xbe11335b	-0.14179747
58	0xbe94e712	-0.29082543
59	0xbeaf3094	-0.3421675
60	0xbe1559d1	-0.14585043
61	0x3eff80d7	0.49902984
62	0xbeac8c36	-0.33700722
63	0xbe876c11	-0.26449636

a2c_network.value.weight f4 [1, 64]
0	0x3c87f4e6	0.016596269
1	0x3c38caa4	0.011278782
2	0x3ba4d9aa	0.0050308304
3	0x3c370a83	0.01117194
4	0x3cbf6eaa	0.023368198
5	0x3c0f558e	0.008748425
6	0x3c20eb98	0.009821795
7	0x3c728724	0.014802728
8	0x3c21392b	0.00984029
9	0x3caba130	0.020950884
10	0x3c86a345	0.016435275
11	0x3ccac898	0.024753854
12	0x3cb9b5d0	0.022669703
13	0xbd549e6d	-0.0519089
14	0xbd8a9ee4	-0.06768587
15	0x3c11ac47	0.008891172
16	0x3c852055	0.016250769
17	0x3c0dde95	0.008659025
18	0x3c5d1fab	0.01349632
19	0x3e76b5b9	0.24092759
20	0x3ba8d6ec	0.005152574
21	0xbdf2d731	-0.11857451
22	0x3a96e2f8	0.0011511734
23	0x3cbc34ac	0.022974335
24	0xbcba712d	-0.022759045
25	0x3c8966dc	0.01677268
26	0x3d6b891c	0.057503805
27	0x3c8e7a5f	0.017392335
28	0xbdd98efe	-0.10622977
29	0x3b861c08	0.004092697
30	0xbe0f5e88	-0.14000905
31	0xbd851f46	-0.065001056
32	0x3c98ed6b	0.018667897
33	0x3c3cb0e3	0.011516782
34	0x3dccf5e1	0.10007835
35	0x3ca25bfe	0.019819256
36	0xbdc188fb	-0.09449955
37	0xbc04e760	-0.008111805
38	0x3ce941c8	0.02847375
39	0x3c208e22	0.009799512
40	0xbd0a3174	-0.03373857
41	0x3d728d96	0.059217058
42	0x3c96ee97	0.018424315
43	0xbc92f61b	-0.017939618
44	0x3aa737ed	0.0012757756
45	0x3c3cffe2	0.011535617
46	0x3c9dc069	0.019256787
47	0x3cc28252	0.023743782
48	0x3c9d0704	0.019168384
49	0x3c7841af	0.015152379
50	0xbe2aa5a6	-0.16664752
51	0x3cd72f58	0.026267692
52	0xbdcd2173	-0.100161456
53	0x3c14f23d	0.009090957
54	0x3c0b0bee	0.008486731
55	0x3c35a298	0.011086129
56	0x3c8121ba	0.015763152
57	0x3d23f37e	0.040027134
58	0x3b6a2c4b	0.0035731967
59	0x3cab6158	0.02092044
60	0xbd0f6cc3	-0.035015833
61	0xbe89e34d	-0.2693123
62	0xbdf609b4	-0.120135695
63	0xbb351316	-0.0027629784

a2c_network.mu.weight f4 [12, 64]
0	0x3da92a02	0.082599655
1	0xbe0d535f	-0.13801335
2	0x3e21596c	0.15756768
3	0x3e0e8145	0.139165
4	0xbe0268c4	-0.12735277
5	0xbe32684a	-0.17422596
6	0x3e4efdf4	0.20214063
7	0xbe4dcf2c	-0.20098561
8	0x3c476eb0	0.012172386
9	0xbe99e910	-0.30060625
10	0xbd553643	-0.0520537
11	0xbd2daa58	-0.04239878
12	0xbddcdb48	-0.10784012
13	0xbe3f3113	-0.18671064
14	0x3e7e8ac7	0.24857627
15	0xbcdb232c	-0.02675017
16	0xbdb29d6c	-0.08721432
17	0x3e966cfd	0.29380026
18	0x3dd43b3b	0.1036286
19	0xb9d82b96	-0.00041231205
20	0xbe6b64d2	-0.22987679
21	0x3d2ec690	0.042669833
22	0xbe9f2632	-0.31083828
23	0x3e32f34e	0.17475626
24	0xbd9e9e8b	-0.077450834
25	0x3b40df2e	0.00294299
26	0xbd0d6a9c	-0.0345255
27	0x3e7a5ffd	0.24450679
28	0x3d48dcae	0.04903858
29	0xbd6a0647	-0.057134893
30	0xbdd2d6d5	-0.10294882
31	0xbd69b2b9	-0.05705521
32	0x3dbf0769	0.09327585
33	0xbd37e33f	-0.044894453
34	0x3e35ac3a	0.1774148
35	0x3c9292cd	0.017892266
36	0x3e2d79c0	0.16940975
37	0xbd7d5c3e	-0.061855547
38	0x3ed66ea0	0.41881275
39	0xbe946754	-0.28985083
40	0x3e31feac	0.17382306
41	0xbe7970ab	-0.24359386
42	0x3e47e096	0.19519266
43	0xbd979bc7	-0.07402759
44	0xbd356acb	-0.0442913
45	0x3e3fb257	0.18720375
46	0xbd6d46f9	-0.057929013
47	0xbdabeb82	-0.08394529
48	0x3d08c423	0.033390176
49	0x3d48b24b	0.04899816
50	0xbcb2556c	-0.021769248
51	0x3e0a6038	0.13513267
52	0x3d3924c7	0.04520109
53	0x3c439874	0.011938203
54	0x3e96c9d3	0.29450855
55	0xbe7ff608	-0.24996197
56	0x3d8cd269	0.0687607
57	0xbeb50c62	-0.3536101
58	0x3cbef1ec	0.023308717
59	0x3e017183	0.12640958
60	0x3d8d4aa6	0.06899004
61	0x3d07b09c	0.033127412
62	0xbd07cbc2	-0.033153303
63	0xbe36dd0e	-0.17857763
64	0xbe68e0c4	-0.22741991
65	0x3e6e13bb	0.23249714
66	0x3eacb4b4	0.33731616
67	0xbe0b094b	-0.13577764
68	0x3d4a398e	0.049371295
69	0x3e194b5e	0.14970157
70	0xbe392d24	-0.18083626
71	0x3da7f13a	0.08200307
72	0xbe1bc0cd	-0.15210266
73	0x3cdfb609	0.02730848
74	0x3d82f8fe	0.06395148
75	0x3d905280	0.070469856
76	0xbc3f60f7	-0.011680833
77	0xbe408868	-0.18802035
78	0x3d2ebe61	0.04266203
79	0x3df36207	0.118839316
80	0x3e023ba8	0.1271807
81	0xbdf9e3fb	-0.12201687
82	0x3e3d177f	0.18465994
83	0xbe0be3f4	-0.13661176
84	0xbe7b0aaa	-0.24515787
85	0x3d2dd649	0.042440686
86	0xbb882472	-0.0041547352
87	0xbd9a5f29	-0.075376816
88	0xbe79cc52	-0.24394348
89	0x3dbb72a5	0.09152726
90	0xbe1b1402	-0.15144351
91	0xbe6bab21	-0.23014499
92	0x3e06db62	0.13169625
93	0x3af090c7	0.0018353694
94	0x3d3d8a2e	0.046274357
95	0x3d432c61	0.047649745
96	0xbea63673	-0.32463416
97	0x3e706315	0.23475297
98	0xbd17b001	-0.037033085
99	0x3d9f309a	0.07772942
100	0x3df93eaf	0.12170159
101	0xbe57a057	-0.21057259
102	0x3e113d26	0.14183483
103	0xbda70247	-0.08154731
104	0xbd6de33d	-0.05807804
105	0x3db9e69b	0.09077188
106	0x3d1b1245	0.03785922
107	0x3d073339	0.033007834
108	0xbe292592	-0.16518238
109	0x3e4d2be8	0.2003628
110	0x3e339b0a	0.17539611
111	0xbdda277b	-0.106520616
112	0xbe7a6c8b	-0.24455468
113	0x3e800dae	0.25010437
114	0x3cadab74	0.02119992
115	0x3d515f55	0.051116306
116	0xbe1a9458	-0.15095651
117	0x3e897544	0.2684728
118	0x3ddd2321	0.10797716
119	0x3d41d527	0.04732242
120	0xbdc3d5c6	-0.095622584
121	0x3e5edeb6	0.21764645
122	0xbdfd8202	-0.12378313
123	0xbd91c3e0	-0.07117438
124	0x3dfb4e88	0.12270838
125	0x3d7f7323	0.062365662
126	0xbe3d8f66	-0.18511733
127	0xbbb4090c	-0.0054942425
128	0xbe075ae9	-0.13218273
129	0x3d5569f3	0.052102994
130	0x3e3dd327	0.1853758
131	0xbeb16218	-0.34645152
132	0x3eb19f87	0.34692022
133	0xbdddf36a	-0.10837443
134	0x3e2799d1	0.1636727
135	0xba96adf9	-0.001149594
136	0x3cf7dd7b	0.030256977
137	0xbc14d187	-0.009083158
138	0xbea210d7	-0.31653473
139	0xbdd0ebdf	-0.10201239
140	0x3cc91ea5	0.024550745
141	0xbd04daeb	-0.03243534
142	0xbdc36841	-0.09541369
143	0x3e471155	0.19440205
144	0xbcde0e7a	-0.027106512
145	0x3d836347	0.0641542
146	0x3d33933c	0.043841586
147	0xbd7f7dd2	-0.06237585
148	0xbe132909	-0.14371122
149	0xbe2d862a	-0.16945711
150	0xbe5dbef5	-0.21654876
151	0xbe089a80	-0.13340187
152	0xbdcff353	-0.10153832
153	0xbe6165c6	-0.2201148
154	0x3e47011a	0.19434014
155	0xbe2df1ee	-0.1698682
156	0x3cfc17be	0.03077304
157	0xbd685de6	-0.056730174
158	0xbd20e61b	-0.039281946
159	0xbd5c987a	-0.05385635
160	0x3cc918f0	0.024548024
161	0x3e3a2f17	0.18182026
162	0x3d620bec	0.05518715
163	0xbe0efc6e	-0.13963482
164	0xbd66ee89	-0.05637983
165	0xbe42de37	-0.1903008
166	0x3db9dd06	0.0907536
167	0x3d9c68f5	0.076372065
168	0xba396fa5	-0.0007073826
169	0xbd552e03	-0.052045833
170	0x3e3de95c	0.18546051
171	0x3e527d9f	0.20555733
172	0xbe06c761	-0.13161995
173	0x3d11cba6	0.035594605
174	0x3dac576a	0.084151104
175	0xbd1a997e	-0.037744038
176	0xbe0a4d90	-0.1350615
177	0x3e115fe7	0.1419674
178	0xbe2d66e2	-0.16933778
179	0x3e3cdaa5	0.18442781
180	0x3d9519ff	0.07280349
181	0x3ccc64dc	0.024950437
182	0x3d851116	0.064973995
183	0xbe296e2d	-0.16545935
184	0x3e5994ad	0.21248122
185	0x3d9cad91	0.07650293
186	0x3dc29eb4	0.095029265
187	0x3de6ed5e	0.11275743
188	0x3e0a428a	0.13501945
189	0x3c6b61de	0.014366595
190	0xbdc2cd2c	-0.0951179
191	0xbc7c3584	-0.0153936185
192	0xbdd09f08	-0.10186583
193	0x3e8bac3c	0.27279842
194	0xbdd5bb17	-0.10436075
195	0x3e909b2c	0.28243387
196	0xbd05b79c	-0.032645807
197	0xbe1d9781	-0.15389825
198	0xbda8d54c	-0.08243808
199	0xbd9e528f	-0.077305906
200	0xbe8fb349	-0.2806647
201	0x3d96ffff	0.07373046
202	0xbdb4d71c	-0.08830091
203	0xbd0f566f	-0.03499454
204	0xbebe644e	-0.371859
205	0x3e896e46	0.26841944
206	0x3e40cd03	0.18828206
207	0xbd8c9385	-0.068640746
208	0xbdaaf58d	-0.08347616
209	0xbdebd6cf	-0.11515581
210	0xbe4f6a50	-0.20255399
211	0x3e60b4f0	0.21944022
212	0x3e42b6a9	0.19014992
213	0xbda1b0a1	-0.078950174
214	0x3dbd4f59	0.0924365
215	0xbdfa4d3c	-0.122217625
216	0x3e0bd074	0.13653737
217	0x3ec101cf	0.37696692
218	0x3dc301b1	0.09521807
219	0xbcbab8da	-0.022793222
220	0x3ddef7e7	0.10887127
221	0xbd8a0e66	-0.067410275
222	0x3c860f94	0.01636485
223	0xbca07344	-0.019586213
224	0x3e986bad	0.2976965
225	0xbe450198	-0.19238889
226	0x3dd61f21	0.10455156
227	0xbe6cd67e	-0.23128697
228	0xbe7a38d1	-0.24435736
229	0xbdb036d1	-0.086042054
230	0xbdc96e84	-0.09835532
231	0x3eb94d34	0.36191714
232	0x3e565579	0.20931043
233	0x3dd2a50b	0.10285386
234	0xbd6c087e	-0.057625286
235	0xbd66f710	-0.05638796
236	0xbe329900	-0.17441177
237	0xbe2dc468	-0.16969454
238	0xbd9e4138	-0.07727283
239	0x3da9296f	0.08259856
240	0x3e3789e9	0.17923702
241	0xbe3240a0	-0.17407465
242	0xbe148bef	-0.14506505
243	0x3e33347e	0.17500493
244	0xbe1139cd	-0.14182205
245	0x3e4058f5	0.18783934
246	0x3dde7228	0.10861617
247	0x3da773e0	0.08176398
248	0x3e413483	0.18867688
249	0x3e05b4e4	0.13057286
250	0x3d89ef5a	0.06735106
251	0x3c2aa947	0.010416335
252	0x3e30b271	0.1725557
253	0xbdd83a5c	-0.10558006
254	0xba8f831d	-0.0010949109
255	0xbe040c0d	-0.12895222

a2c_network.mu.bias f4 [12]
0	0xbe28d61f	-0.1648793
1	0xbc97b836	-0.018520456
2	0xbd574af8	-0.05256173
3	0xbc5c9dfd	-0.013465402
4	0xbe5c3abb	-0.21506779
5	0x3d8e02a9	0.06934101
6	0x3c1f0428	0.009705581
7	0x3dc8a0b7	0.09796279
8	0x3bb961b7	0.0056574005
9	0xbde12c79	-0.109948106
10	0x3e2b2d57	0.16716515
11	0x3d799fd1	0.06094343

exp_avg f4 [12]
0	0x3af92847	0.0019009196
1	0x3968d032	0.00022202803
2	0xbab910a0	-0.0014119335
3	0x39eae332	0.00044801232
4	0xb89d899d	-7.511976e-05
5	0xb851cbf7	-5.001944e-05
6	0x3a05710d	0.0005090393
7	0x3aa3ef71	0.0012507272
8	0x3a98ffc7	0.0011672907
9	0xba0470b1	-0.0005052193
10	0xbac7f05c	-0.0015254128
11	0xbb031257	-0.0019999945

exp_avg_sq f4 [12]
0	0x38577e14	5.1377414e-05
1	0x387c894c	6.020935e-05
2	0x388c2109	6.6818735e-05
3	0x38691547	5.5571345e-05
4	0x386cfb1f	5.650066e-05
5	0x38729187	5.783283e-05
6	0x38543e6f	5.0602885e-05
7	0x38663eaf	5.4894652e-05
8	0x384ac6b6	4.8345617e-05
9	0x3871a6c8	5.7614205e-05
10	0x387c163d	6.0102193e-05
11	0x387ae532	5.98181e-05
