omniisaacgymenvs/scripts/runs/Anymal/nn/last_Anymal_ep_300_rew_-0.9583126.pth (torch, 672599 bytes, 36 tensors)

value_mean_std.running_mean f8 [1]
000000 c4 d1 59 8e 7a 25 f8 bf
       -1.5091500816898682

value_mean_std.running_var f8 [1]
000000 34 79 03 b9 a5 a7 4b 40
       55.30974495572664

value_mean_std.count f8 []
000000 00 00 00 08 00 20 8c 41
       58982401.0

running_mean_std.running_mean f8 [48]
000000 86 22 0e 4f 27 5d a6 3f 56 21 d4 6a 1d 53 91 3f
       0.04367945518521758 0.01691862072496638
000010 13 01 19 22 0c 40 e3 bf b0 70 d2 ee 15 2e 93 bf
       -0.601568285557763 -0.018730490399875677
000020 91 9f 72 89 83 2c 60 bf e6 9d e4 62 22 1a 55 bf
       -0.00197435084153947 -0.0012879691890449406
000030 48 f7 84 4d 45 8a 6b 3f 6f de 12 0b d5 a0 7d 3f
       0.003361831051875184 0.007233459663602212
000040 d4 ce b1 67 72 c9 ee bf 59 26 07 95 6e 85 c6 bf
       -0.9620906853947084 -0.1759470203090128
000050 9c 85 01 3a 53 97 99 3f 26 76 09 58 5e 9f 30 bf
       0.02499132195987884 -0.0002536397296689384
000060 0e ea cd 88 0a f2 c4 bf 7a 69 e2 97 02 32 c2 bf
       -0.16363650970363647 -0.14215118805152455
000070 38 b1 42 87 84 be bf 3f 3a 7f da 73 ec 3f c2 3f
       0.1240008192277785 0.1425757947627007
000080 bc f6 d1 4e ec d2 8d 3f ce 04 ac 95 9f f9 b4 3f
       0.014562460093880396 0.08193395046329785
000090 7b 32 a9 56 95 76 92 bf 44 eb 7c 73 6a a6 60 bf
       -0.01803048459469146 -0.0020324782489330746
0000a0 2b 34 56 48 78 62 b6 3f e1 12 d2 d8 ba 7e c3 bf
       0.08744003072770627 -0.15230498873656642
0000b0 72 bd 97 0a 45 11 c1 3f 5d 69 46 c4 3a cc b9 bf
       0.13333952920173037 -0.10077254573699208
0000c0 a6 42 c0 d9 0a dc 9b bf 56 78 ac 71 d4 82 93 bf
       -0.027206582584826798 -0.01905376380738518
0000d0 e4 1c fe 33 51 fb 9d 3f 0a 71 32 4b 55 47 9b 3f
       0.029279011534097857 0.026639301981604503
0000e0 51 92 5e d9 c2 e1 70 bf 9d eb dd dc e7 b9 97 3f
       -0.0041215525906506826 0.023170111518520654
0000f0 55 8b fe 16 8f cc 86 bf 52 70 a9 87 28 50 78 3f
       -0.011132352723341713 0.005935819931064472
000100 48 d5 fe 0e 0d 7c 89 3f ef 8a f3 c5 e5 2f 9e bf
       0.012443639774441309 -0.029479589659682167
000110 3e d6 10 67 67 00 a1 3f 4c 4f 97 9b 06 d8 96 bf
       0.03320620663764061 -0.02230844807293346
000120 28 63 6f c2 33 1c b5 bf 48 47 d8 c7 d2 d9 ab bf
       -0.0824615812010846 -0.05439623536598376
000130 86 ed 52 76 3a e4 b4 3f 6b d5 a1 e0 86 fa b0 3f
       0.08160748852508534 0.06632273658927594
000140 da e8 3a a6 72 e8 90 3f 58 4a 46 51 71 42 ad 3f
       0.016511718173867297 0.05714754216309775
000150 48 33 8a dd 11 69 95 bf 95 e9 f4 57 7d 4b 6f 3f
       -0.020908621927947096 0.0038201759449780306
000160 09 9a 91 32 0f 85 a0 3f c2 b6 dc c0 46 9c b1 bf
       0.032265162394470144 -0.06879083832310598
000170 47 ae 47 8d ff 31 b9 3f ff ee 6c e7 83 1e a7 bf
       0.09841916274279426 -0.045154687881646886

running_mean_std.running_var f8 [48]
000000 6f 23 25 91 d5 cf e2 3f 88 38 3a 56 c0 e5 df 3f
       0.5878703913559614 0.49839790745398505
000010 7d e7 87 ed b1 29 e8 3f a8 73 dd e4 d3 e7 c5 3f
       0.7550897254252359 0.17113732028056217
000020 10 bf 5b 14 42 01 aa 3f b0 94 03 70 02 08 b7 3f
       0.05079084871783668 0.08996596560207837
000030 57 38 e6 4f d4 eb 94 3f ca 8f 78 b2 7f 44 a7 3f
       0.020430867554346168 0.045444479499820625
000040 66 e9 f1 d6 67 4b 81 3f 0a d9 73 d4 7c 54 15 40
       0.008444606062984316 5.332507438250341
000050 01 31 0f 10 70 d8 f4 3f cc e8 d8 fd f3 05 95 3f
       1.3028412463491466 0.02053052174435592
000060 3a db 34 b7 5c 05 c0 3f cb 30 59 1c 2c aa c1 3f
       0.1251636404574244 0.13800574669074303
000070 e5 ff fd bc 93 0b c2 3f 18 06 39 0f 82 2e c2 3f
       0.14097830513128354 0.1420443128900366
000080 56 c9 cc c4 10 98 bb 3f f8 44 76 e8 74 7f c0 3f
       0.10778908543287477 0.12888966894801235
000090 a1 e7 45 18 c4 89 be 3f a4 07 e6 8f 94 ab be 3f
       0.11928964226345197 0.11980560792110723
0000a0 7c 21 3a 1b 4f 39 c7 3f f8 9c 77 77 73 fe cb 3f
       0.18143643216559358 0.2187027295433166
0000b0 21 07 af bb d9 07 c8 3f 51 e0 27 be ab 83 cb 3f
       0.18773957885974205 0.21495577607106722
0000c0 74 f8 63 11 fb ab 7e 3f c6 a4 a4 d9 8e 69 81 3f
       0.007488232359035608 0.0085021171731391
0000d0 bd 24 e0 99 24 43 83 3f bb a2 72 5c 4e 88 82 3f
       0.009405408807668153 0.009049045749934028
0000e0 6d 4d e6 6f 05 6f 81 3f cd 21 d9 81 e1 f5 81 3f
       0.00851253745785271 0.008769761824752554
0000f0 9e ff ad ae 4d ed 80 3f 48 e5 b7 eb c6 b4 81 3f
       0.008265120404530365 0.008645586079171111
000100 54 24 c1 06 0a 4e 9b 3f ab 71 b3 ee 93 20 9d 3f
       0.02666488329149204 0.02844458717741964
000110 f6 4a 17 b3 52 b7 9e 3f d4 7b 1f 8c 19 5e a0 3f
       0.029996196919294747 0.03196792445645938
000120 dc dc 95 c5 58 77 e0 3f b5 5f 96 2f 4a 6b e0 3f
       0.5145686968889112 0.5130968980256428
000130 9d 5d 72 58 a3 9b e0 3f a1 5f cd f5 b2 13 e0 3f
       0.5189987876391801 0.502404670794011
000140 8f ac 61 55 37 7c e0 3f fc e6 20 0f 74 9a e0 3f
       0.5151631038292112 0.5188541694144244
000150 16 93 3f 2b da 4f e0 3f f8 1e 0f 02 e5 a3 e0 3f
       0.5097475857442955 0.5200066604820384
000160 8b 22 e0 aa a9 53 e0 3f 35 0a 51 64 42 0d e0 3f
       0.510212739697708 0.501618572169099
000170 16 70 04 85 96 72 e0 3f fe 10 9c 18 f3 bf e0 3f
       0.5139877889628248 0.5234313469559593

running_mean_std.count f8 []
000000 00 00 00 10 00 20 7c 41
       29491201.0

a2c_network.sigma f4 [12]
000000 09 63 e1 3f db a5 c1 3f 2e 80 c7 3f c8 4b cc 3f
       1.7608348 1.512874 1.5585992 1.5960627
000010 ac 9b cc 3f 13 ee ca 3f 5d cb c0 3f 66 3a c4 3f
       1.5985007 1.5853904 1.5062062 1.5330322
000020 7b 30 c2 3f 1e d1 c8 3f fd 15 e0 3f 91 20 c7 3f
       1.5171045 1.5688818 1.750671 1.5556813

a2c_network.actor_mlp.0.weight f4 [256, 48]
000000 32 be 2e 3e 6e 22 38 be 1d e6 97 bd e8 21 46 3d
       0.17064741 -0.17981884 -0.074169375 0.04837218
000010 5b 61 c0 be 78 ba eb 3d 0a fb 08 3e 4b 15 eb bc
       -0.37574276 0.115101755 0.13377014 -0.028696677
000020 dc e5 4e 3d c4 ba 88 3c 89 c9 f5 3d 8f 39 8b be
       0.05051218 0.01669062 0.120013304 -0.2719235
000030 a3 c9 b1 bd fa c0 f0 3c 58 97 2c bd 4e b3 d3 3d
       -0.08681037 0.029388893 -0.04213652 0.10336934
000040 65 d6 37 3d 38 33 ab be 7c 83 89 3e 6a dd 0b be
       0.044882197 -0.33437514 0.26858127 -0.13658682
000050 49 f2 1d be 49 72 e1 3c 51 16 1f 3e df 76 e4 3d
       -0.15424456 0.027520316 0.15535857 0.11155485
000060 26 22 ea bc 34 d3 42 be 9d 8e 78 be 44 74 6b be
       -0.028580736 -0.1902588 -0.24273153 -0.2299357
000070 f3 8d a2 bd c7 45 2a bd 11 f7 e2 3c 02 1e b3 3e
       -0.07937231 -0.04157045 0.027705701 0.34983832
000080 fa a3 5c be f6 00 ba bd 74 b4 96 3e 27 c3 fe 3c
       -0.21546927 -0.090822145 0.2943455 0.031098915
000090 4e 56 8c 3d 75 3f b4 bd f7 e6 ed 3d 25 37 9e bb
       0.06852399 -0.08801166 0.11616319 -0.004828351
0000a0 87 90 7d bd fa 6b b4 3d 33 60 83 3e 6e 1e 8f be
       -0.06190541 0.088096574 0.25659332 -0.27952904
0000b0 17 a7 20 3e b4 02 88 3e c4 86 79 be cf 0f 67 be
       0.1568874 0.26564562 -0.24367815 -0.22564624
0000c0 89 07 9c 3e df bb c5 bd e7 c0 ef 3d bd 06 41 be
       0.304745 -0.09654974 0.11706715 -0.18850227
0000d0 a0 7f 6c be 0f 35 53 3e 2d 6a 09 3e 19 5f d8 be
       -0.2309556 0.20625709 0.13419409 -0.42260054
0000e0 6a 82 f2 bd 29 a4 2f be 5e 88 93 bc e6 b8 76 be
       -0.11841281 -0.17152466 -0.01800936 -0.2409397
0000f0 1e 42 a8 3b 4a 5c 3b bd c4 23 74 3e 90 ff 3d 3e
       0.005134835 -0.04574231 0.23841769 0.1855452
000100 e3 ef 83 3e 8f 4b 0b be 59 c0 3a be dd 57 7f be
       0.25768957 -0.13603042 -0.18237437 -0.24935861
000110 5e 83 48 be 2e 58 4f 3d 92 84 cc 3d 0a 37 0c be
       -0.19581363 0.050621204 0.09986223 -0.1369287
000120 06 04 94 3e a7 e3 20 bd 91 41 3b bd f2 d6 cd be
       0.2890932 -0.039279606 -0.045716826 -0.40203053
000130 e1 36 8e be 49 cd 9a be 73 ac 11 be f3 63 d5 bd
       -0.27776244 -0.30234745 -0.1422594 -0.104194544
000140 2a 60 bd 3e fa 62 c1 3e 85 83 3b 3e 77 0f e9 3c
       0.3698743 0.37770826 0.1831189 0.028449757
000150 6b a2 f9 be 5f f8 99 3e 76 67 e7 3d af 5b 1b be
       -0.48756728 0.30072305 0.112990305 -0.15171693
000160 63 08 01 bf 7b e8 94 be 6c f8 ec bd 46 d0 27 3e
       -0.5040342 -0.2908362 -0.1157082 0.16388044
000170 44 2d 04 3f 31 bb 76 be 86 02 31 3c b1 8a 80 be
       0.5163157 -0.24094845 0.010803824 -0.25105813
000180 9d a7 b7 be 8a b0 42 3c db 14 cd 3e fc 2f 59 3e
       -0.35870066 0.0118829105 0.40054974 0.21209711
000190 5c cc bf 3e 61 32 b0 bd 12 3e 3c 3e 06 fa a1 3d
       0.374606 -0.08603359 0.18383053 0.07909016
0001a0 0f 2a 53 3e cd f2 fb 3d 7c 5e 8a 3e 45 4c 81 be
       0.20621513 0.1230217 0.2702521 -0.25253502
0001b0 bf 81 55 3e af 46 be bd 4d 02 00 3e 1a 70 90 bc
       0.20850275 -0.092908256 0.12500878 -0.01763158
0001c0 64 16 79 3e da a1 67 bd 44 09 2e be af 1f a1 be
       0.24324948 -0.056550838 -0.16995722 -0.31469485
0001d0 6f fc 6a 3e b8 3e 49 3e 2b 16 63 be 9e 2e 21 3e
       0.22947858 0.19652832 -0.22176425 0.1574044
0001e0 bf b3 d8 3d 22 dd 72 be df 91 76 be 78 6b 0b bd
       0.10581159 -0.23717168 -0.24079083 -0.034038037
0001f0 53 b8 af 3e 83 52 96 be b8 06 92 be 8b 24 b9 be
       0.34320316 -0.29359826 -0.2852075 -0.36160693
000200 b9 b3 95 bd ab 71 e7 3e 31 7f da 3d 9d eb b7 be
       -0.0730967 0.4520391 0.10668791 -0.35921946
000210 43 2f 87 3e dd 6c 8f 3e 20 aa cb be 03 c5 5d bd
       0.26403245 0.28012744 -0.39778233 -0.054142963
000220 b9 14 06 3f 41 f2 9a 3d 17 ba 6c 3e 27 4c 24 bf
       0.5237537 0.075657375 0.23117863 -0.641787
000230 70 60 55 be fa 4a 5e 3e 53 02 c5 bd dc 96 ec 3c
       -0.20837569 0.21708289 -0.09619584 0.02888053
000240 77 f2 87 3c 7d e8 bd 3e 8a ef 06 3c 9d 6f b3 bd
       0.016595108 0.37091437 0.0082358215 -0.08761523
000250 b5 31 02 be de 56 0e 3e e9 3d 84 bc a6 22 97 bc
       -0.12714274 0.13900325 -0.016142802 -0.018449139
000260 4c 49 09 be b2 a3 f6 bd 35 45 f0 3d ec 4c 97 3c
       -0.13406867 -0.12042941 0.1173195 0.018469296
000270 d9 56 66 bc 3b f8 90 be 22 57 b5 be ca 1c a8 bd
       -0.014058792 -0.28314385 -0.3541804 -0.08208616
000280 bc 26 63 be 03 6e db bd ff ce f2 3d 9f 42 64 3d
       -0.22182745 -0.107143424 0.118558876 0.055727597
000290 26 6e 8e be 02 e4 51 be 48 4e ae bd 02 18 ba 3e
       -0.27818412 -0.20497134 -0.08511025 0.36346442
0002a0 d0 35 8e bb 7f 8c 0a 3e 16 fc 41 3e a0 f4 4a 3d
       -0.004339911 0.13530158 0.1894382 0.0495497
0002b0 0c 56 18 bc 35 4c e1 bd 74 90 10 be 22 33 6d 3c
       -0.009297859 -0.110008635 -0.14117604 0.014477523
0002c0 56 c3 09 be 15 68 8f 3d 1c be 06 3e 26 46 5e 3d
       -0.13453421 0.07002274 0.13158458 0.054266118
0002d0 7c 31 16 be 26 d7 d6 bd ca 9d af bd 0c 79 8f bd
       -0.14667314 -0.10490255 -0.08575018 -0.0700551
0002e0 1e 14 03 3e d1 8d bb 3d 57 c5 0c 3e ec 58 2d bd
       0.12800643 0.09157909 0.13747154 -0.04232113
0002f0 0f f9 9e bd 0a 2b 5c be bb 4d 38 3d a7 ad 0a be
       -0.07762348 -0.21500793 0.044996005 -0.13542806
000300 16 a1 0c 3e c6 06 eb bd 7d 9c 63 bd bb fe 3e bd
       0.13733324 -0.11475901 -0.05556916 -0.04662965
000310 9c 23 95 be d1 5a 6c 3e ac a7 05 be b7 eb f4 bc
       -0.2912873 0.23081519 -0.13052243 -0.029897554
000320 f0 bc 31 bc 2c bb a6 bd 59 42 11 be c3 5e 90 be
       -0.010848269 -0.08141169 -0.14185466 -0.28197297
000330 61 3b a0 bc 17 b0 c1 bd 63 7b b4 bd 9e 21 eb be
       -0.019559564 -0.094574146 -0.08812597 -0.45924085
000340 c8 28 fa 3d 25 73 fc bd 92 1a 7a 3e 54 12 70 3e
       0.1221481 -0.123266496 0.24424198 0.23444492
000350 c1 f3 a1 3d 8e 86 ce be 6d ce b3 3e 7c ce 64 be
       0.079078205 -0.40337032 0.35118428 -0.22344393
000360 b8 bb d1 3c c2 2e 51 3e 6d 80 e2 ba f1 c1 fb bd
       0.025602207 0.20427993 -0.0017280706 -0.12292851
000370 71 9b 61 be f4 96 28 be 3d 19 25 3e 59 b7 6a be
       -0.22031952 -0.16463834 0.16122909 -0.22921504
000380 52 de e1 3e 16 9a f3 3d 3a a6 0c bd 6a f1 05 be
       0.4411493 0.11894624 -0.034338214 -0.13080373
000390 07 6e 11 bf b4 8e 37 3e e5 e9 7e 3e 28 00 df be
       -0.56808513 0.1792553 0.24893911 -0.43554807
0003a0 49 0e 17 bd 10 12 e1 bd ba 5d 9f be dc f4 9e be
       -0.036878858 -0.10989773 -0.31126195 -0.31046188
0003b0 4b 36 68 3d 6f cf 88 3e 23 51 b2 be b9 5f 26 3e
       0.056692403 0.2672076 -0.34827527 0.16247453
0003c0 ce 42 9a 3e c2 18 08 3e 75 d0 14 bd 59 dc 75 be
       0.30129093 0.13290694 -0.036331613 -0.24009837
0003d0 c4 0f 68 3c 7b 71 17 be b1 33 af be 4e 33 08 be
       0.014163915 -0.14789383 -0.34219125 -0.13300821
0003e0 b4 32 3f bf 60 a0 43 3e 29 6e 9d bd e7 64 a2 be
       -0.7468674 0.19104147 -0.07687027 -0.31717607
0003f0 92 c1 3e 3e 48 74 05 be da ea 3b be d8 02 90 be
       0.18628529 -0.13032639 -0.18351308 -0.2812717

a2c_network.actor_mlp.0.bias f4 [256]
000000 df db bd be f0 ee 0c 3d e6 5a c9 3e 7a 56 c5 be
       -0.3708181 0.034407556 0.39327163 -0.3854254
000010 b6 d4 5b 3e 32 ad ce bd 20 84 09 be 27 f7 d2 be
       0.21467862 -0.10091628 -0.13429308 -0.41204187
000020 7a b2 09 bf 7b a8 1d bf 5f fc 01 3c 61 bf d7 bd
       -0.5378796 -0.61585206 0.007933705 -0.105345495
000030 02 69 a2 bd c1 b2 b9 be 77 dc 87 be f9 2c b8 be
       -0.07930185 -0.3626919 -0.2653539 -0.3597181
000040 06 ee 86 3e 58 48 39 3e 72 60 3f be ec 6d ae be
       0.26353472 0.18094003 -0.18689135 -0.3406824
000050 75 eb 87 3e 84 5f 78 bd 13 6a 84 3e b3 ae 8b be
       0.26546827 -0.060637966 0.25862178 -0.27281722
000060 2d 29 8b 3e 8a 69 c2 be d4 9b f2 bc 8b 5b 3e be
       0.27179852 -0.37971145 -0.02961532 -0.18589608
000070 e1 3e 72 bd cc 97 15 3f 38 55 ac be 45 8c 88 be
       -0.059141997 0.5843475 -0.33658767 -0.26669517
000080 db fa 00 3d 41 48 bf be 17 f0 af be 56 46 11 bf
       0.031489234 -0.37359813 -0.34362862 -0.5674795
000090 91 21 4d be 51 33 01 3d 3c 47 62 be 67 53 d4 be
       -0.20032336 0.03154308 -0.22097486 -0.4146988
0000a0 08 c4 76 3e 7b 28 28 be 90 ef c5 bc 7a 91 06 3e
       0.24098217 -0.16421692 -0.024162084 0.13141432
0000b0 b5 cb d5 3e 4e cd 89 be 44 33 db be 42 0f e7 bd
       0.4175698 -0.26914448 -0.4281255 -0.11282207
0000c0 be 7c 93 be 2b 79 dc be e0 32 29 3e b7 40 89 be
       -0.28806108 -0.43061194 0.16523314 -0.26807186
0000d0 36 a8 fe be 80 a1 a8 be af 9a ca bd 15 1b 7e 3e
       -0.4973771 -0.32935715 -0.09892785 0.24815018
0000e0 e5 e2 53 3e b3 0e 71 be cc 55 71 be 36 1c 76 be
       0.20692022 -0.23540764 -0.23567885 -0.24034199
0000f0 3a d9 98 be 08 cc f0 be 66 29 b5 be aa 61 8f be
       -0.2985323 -0.47030663 -0.35383147 -0.280042
000100 a4 1f ba be 11 9b e1 be 73 8d 06 bf 1e 27 00 bf
       -0.36352265 -0.4406362 -0.52559584 -0.5005969
000110 13 55 35 bf 16 f6 36 3e de f6 b5 be 4e 22 d3 bd
       -0.7083294 0.17867312 -0.35539907 -0.103092775
000120 77 0b 73 be 05 11 85 be 53 ee a8 3e d3 7a fa 3d
       -0.23734842 -0.25989547 0.32994327 0.12230458
000130 80 b4 51 be 93 94 63 be f9 c6 a6 be 4a aa 06 bf
       -0.20479012 -0.22224645 -0.3257368 -0.5260359
000140 41 e2 d2 3d e2 69 6f 3e 31 9d b2 3e 91 92 eb be
       0.10297061 0.23380235 0.34885553 -0.4601026
000150 f3 f2 e7 be f1 fc 51 3c 32 3e 71 bd 7a 85 b9 3e
       -0.45302543 0.012816654 -0.058897205 0.36234647
000160 0f 82 76 be a9 66 82 3e e6 94 c3 3e 3c cb c0 be
       -0.24073051 0.25468948 0.38199538 -0.37655056
000170 85 f7 28 bf 79 b1 dd be d2 a7 df bd 7d 93 0c 3d
       -0.66002685 -0.43299463 -0.10920681 0.034320343
000180 70 c4 bd be 2d 41 c5 be 93 04 76 be fc cb 98 be
       -0.37063932 -0.38526288 -0.24025182 -0.29843128
000190 72 93 10 bf ac 19 56 3e ce 5b d8 be 1a 4d b9 be
       -0.56474984 0.2090823 -0.4225754 -0.36191636
0001a0 da d4 8b be ee 39 8a 3e aa e4 8b 3e c3 e1 0a 3e
       -0.2731083 0.26997322 0.27322894 0.13562684
0001b0 51 2b 01 be b0 b4 eb 3e 17 7c eb 3d 97 d5 06 3e
       -0.1261418 0.4603629 0.11498278 0.13167416
0001c0 1e 42 32 be 81 32 ec be 58 98 0b bf 77 96 95 bd
       -0.17408034 -0.4613228 -0.54529333 -0.073040895
0001d0 91 44 57 bd 31 ec 9d 3e 1c 7c 84 bd 4a ee 61 3e
       -0.052555624 0.30844262 -0.064689845 0.22063556
0001e0 35 5b 90 3d b2 82 a7 3e c4 f4 01 bf 65 3c 03 be
       0.07048646 0.327169 -0.5076411 -0.12816007
0001f0 ea f6 3f 3e 74 4d 85 3e 81 b9 c2 be 33 dc 9e be
       0.18746534 0.26035655 -0.38032153 -0.31027374
000200 3e 5e d8 bd 39 18 86 be 17 c7 d1 be 9e 2f 41 bd
       -0.1056485 -0.26190355 -0.40972206 -0.047164552
000210 79 34 c3 be d6 d1 92 bd ff 17 f3 3d 4d e5 c1 bd
       -0.3812597 -0.07168929 0.11869811 -0.09467564
000220 e5 26 a3 be 90 5d d7 3d 20 e8 1a bf 7f 09 55 be
       -0.31865612 0.105158925 -0.60510445 -0.20804404
000230 90 43 92 be 8d 6a 86 be c3 71 95 be c8 d6 43 3e
       -0.2856717 -0.26253167 -0.29188356 0.19124901
000240 b5 51 70 be 43 2b ab be 98 de fd be 96 b1 81 be
       -0.23468669 -0.33431444 -0.49583888 -0.253308
000250 00 31 e4 be 4e cf 07 be cf c3 9c be 85 93 4c be
       -0.44568634 -0.13262674 -0.3061814 -0.19978149
000260 1a 35 6d be 47 2a 4e 3e 2b e6 80 be 4e 9b fc 3d
       -0.23164788 0.20133315 -0.25175604 0.123343095
000270 f3 df a2 be 88 3a 3a be b1 77 8e be 3e 58 c2 bd
       -0.31811485 -0.1818639 -0.27825692 -0.09489487
000280 f7 68 aa 3e 2a fd b7 be 18 93 0b 3e cc d2 8e be
       0.33283207 -0.35935336 0.1363033 -0.278952
000290 fa 50 87 be 7e b7 f5 be 2b a0 ba 3e a6 74 b7 bd
       -0.26428968 -0.47991556 0.36450323 -0.08957796
0002a0 47 b0 06 bf 7a e0 8b 3e 9b 8e 51 be 2c 1d cc be
       -0.5261273 0.273197 -0.20464556 -0.39866006
0002b0 79 61 fc be dc 16 a8 3d ea 16 6c be 38 68 67 3e
       -0.49293116 0.08207485 -0.23055616 0.2259835
0002c0 69 13 d3 be aa 80 56 be 07 ff 62 be 18 ac ed 3e
       -0.41225746 -0.20947519 -0.22167598 0.4642036
0002d0 73 19 a7 be 76 0a 08 bd 76 e7 d6 3c ae f5 46 be
       -0.32636604 -0.0332131 0.026233416 -0.19429657
0002e0 94 b7 ad be 68 81 6f be 16 43 bf be 66 f9 01 bf
       -0.33929121 -0.23389208 -0.3735587 -0.50771177
0002f0 dd 98 d6 be ad ab da be ca c5 21 be a6 54 71 3c
       -0.419135 -0.42709103 -0.15798107 0.014729654
000300 4f 27 6a be 2d e5 a3 bd af e0 aa 3e 5b d4 06 bf
       -0.22866558 -0.08002696 0.33374545 -0.5266778
000310 ea 17 01 3e f8 eb 6e be f1 60 1d be 23 87 71 be
       0.12606779 -0.23332202 -0.15369011 -0.23586707
000320 27 62 8e be 71 4b 40 3e b8 53 c7 be ff cc 5c be
       -0.2780926 0.18778779 -0.3893106 -0.21562575
000330 76 21 ba 3e 96 b9 b2 3e f8 b5 0a bf a9 24 9d be
       0.36353654 0.34907216 -0.5418391 -0.30692032
000340 87 b3 89 be 1b aa 9d be 31 eb c6 be 17 36 b7 be
       -0.2689478 -0.30793843 -0.38851312 -0.35783455
000350 48 d6 85 3e d6 02 46 3e ac 5c 2a bd a8 8f 5c be
       0.26140046 0.1933702 -0.041592285 -0.21539176
000360 3a f4 4e be 13 22 77 be 1a 2e 34 bd 80 be 90 be
       -0.20210353 -0.24134092 -0.04398928 -0.2827034
000370 d7 3b 3b be 36 ed a5 3e c2 ee 32 3e c5 07 be be
       -0.18284546 0.3240754 0.17473891 -0.37115303
000380 04 4e d9 be ad f0 57 bd 03 dc 6c be f6 fd dd be
       -0.42442334 -0.05271976 -0.23130803 -0.4335782
000390 26 3e 2c 3d 79 f7 16 3e 84 c0 b9 be a5 86 b6 be
       0.042051457 0.14742841 -0.3627969 -0.356496
0003a0 27 fe a2 3e 99 d5 34 be 0c 4d b0 be 2b ac 8d be
       0.31834528 -0.17659606 -0.34433782 -0.27670416
0003b0 c1 52 42 3e bb c9 60 be dd e3 79 be 34 42 2a be
       0.1897688 -0.21951954 -0.24403329 -0.16626817
0003c0 9d 23 37 bd 55 45 fe be 50 15 0b be 3f cb b0 be
       -0.044711698 -0.4966227 -0.13582349 -0.34530064
0003d0 38 96 96 bc 6a 98 3a 3e a6 db af be 78 ec 2a 3e
       -0.018382177 0.18222204 -0.34347266 0.16691768
0003e0 ae 61 8c be bd 70 1a be fc 74 af be f6 f3 b8 be
       -0.27418274 -0.15082069 -0.3426894 -0.36123627
0003f0 a6 0b a2 3e 2d 2c 62 bc 5c 7b 49 3d 9d e9 f8 bd
       0.31649512 -0.013804478 0.04918991 -0.12153933

a2c_network.actor_mlp.2.weight f4 [128, 256]
000000 7b 3b 03 be c2 4f 2b be ab d7 50 be 16 1b 18 3e
       -0.12815659 -0.16729644 -0.20394771 0.14854082
000010 6a ca ae bd e7 8b 12 be 9a b7 f0 3d c1 cc 70 3c
       -0.08534701 -0.14311181 0.11753769 0.014697255
000020 5d f1 57 3e 80 21 9c 3d 39 17 1e 3c 0b d0 21 3d
       0.21088167 0.07623577 0.009649091 0.039505046
000030 bb e4 32 3c 7c 42 20 3e 91 fa b3 3d 04 e0 03 3e
       0.010918791 0.15650362 0.08788026 0.12878424
000040 32 b8 60 be ba b4 be be 6e e2 3e 3e 03 08 f9 bd
       -0.21945265 -0.37247258 0.18641064 -0.12159731
000050 72 77 2f be 9c 2b 1d be cc 03 ec bc ed f5 02 3d
       -0.17135409 -0.15348667 -0.028810404 0.031972814
000060 f0 38 d7 be c7 dc f3 3d 03 91 2d bd fa 44 2c 3d
       -0.42035627 0.11907344 -0.042374622 0.04205797
000070 66 5f 3e 3d b6 1e 40 be 7a 4d 20 bc 8f 08 cb 3c
       0.046477698 -0.18761715 -0.009784097 0.024784354
000080 2b 7e 57 bc a4 f0 4b bc 6c 44 62 3b 70 78 0f 3e
       -0.013152639 -0.01244751 0.0034525646 0.14010787
000090 cc 42 6e be a5 46 71 be 74 c9 1c 3d e9 6f c1 3d
       -0.23267668 -0.23562105 0.03827806 0.09445173
0000a0 ad 1d 86 be c0 80 ca 3d 77 0e 50 be 21 45 b4 be
       -0.26194516 0.09887838 -0.20318018 -0.3520899
0000b0 da fb ac be a2 b5 98 3d 2e 68 9b 3e 12 8e 02 be
       -0.33785897 0.07456519 0.3035292 -0.12749508
0000c0 0f 5c cc bd fe 8b 74 bd 5d d2 ba be 08 98 2e 3d
       -0.09978496 -0.05970382 -0.3648862 0.042625457
0000d0 5f 4b 03 3c 29 54 82 3d 78 96 43 bd d5 3a a8 be
       0.008013575 0.063637085 -0.04775092 -0.32857385
0000e0 cf b0 4f be 7a ce 45 be e2 86 8a be c8 b5 0b be
       -0.20282291 -0.19317046 -0.27056032 -0.13643563
0000f0 bf a8 06 3c ad 3c b7 bb 10 bf 00 3d e9 3f ea 3d
       0.008218943 -0.00559195 0.03143221 0.11437971
000100 73 d6 41 bd da ee 5d be d5 3b d2 3d 0a fb f0 bc
       -0.047323655 -0.21673146 0.10265318 -0.02941658
000110 81 44 82 3d 78 d8 17 be 15 73 4c bd f0 10 52 3d
       0.06360722 -0.1482867 -0.04991444 0.051285684
000120 7a ec 4e bd a7 c3 fb bd 19 d9 8a be c0 3d 0d be
       -0.05051849 -0.12293177 -0.27118757 -0.13793087
000130 40 5e a0 3c 16 74 fe bc 41 4f fd bd 73 a5 18 3e
       0.019576192 -0.031061213 -0.12368632 0.14906864
000140 d3 9a 9b bd 01 dd ae be 09 5c b2 be 7f 13 51 3e
       -0.0759789 -0.34152988 -0.34835842 0.20417593
000150 44 04 88 3e 98 cf 20 bd 18 10 03 be f8 c7 33 be
       0.26565754 -0.039260477 -0.12799108 -0.17556751
000160 c0 02 cc bd 9d 24 97 be e5 86 ae be 76 58 cf 3d
       -0.09961462 -0.2952012 -0.3408729 0.101242945
000170 30 26 5e 3e 37 dc 5c bc 4d e6 58 be 3e 8b a9 be
       0.21694255 -0.013480238 -0.21181603 -0.33114046
000180 bd bc ca 3d cd 0d 93 3d f9 4a 64 3b a2 bd ae bd
       0.0989928 0.07180367 0.0034834726 -0.08532263
000190 36 85 1f 3e 9b 2d 91 be 97 de a1 3d de 42 c7 3d
       0.1557816 -0.28355107 0.07903784 0.09729551
0001a0 35 30 cc 3d 1a a4 fd be bf 1f 86 bd 78 3e 51 bd
       0.09970132 -0.49539262 -0.06549024 -0.051084965
0001b0 cb da 09 be e3 40 9e be fa 3e 2d bd ee e9 7e be
       -0.13462369 -0.3090888 -0.042296387 -0.24893925
0001c0 e6 7d 54 3c 00 19 c0 bd 75 c5 fc 3c 18 5a b5 bd
       0.01296947 -0.09379768 0.030855874 -0.08855075
0001d0 d0 62 11 3e 2d 03 7d be d5 60 b2 bd 95 5b 1a be
       0.1419785 -0.24708243 -0.087098755 -0.15073998
0001e0 88 59 97 be d8 88 a1 bd a2 33 aa bd 9b 81 e9 bd
       -0.29560494 -0.07887429 -0.083106294 -0.114016734
0001f0 6b 14 a8 3d f2 38 2f be 32 27 0f 3d 13 b8 c6 bd
       0.082070194 -0.17111567 0.03494949 -0.09703078
000200 aa 14 c2 bb 33 4c 28 bd f7 72 9c 3d 1e 47 96 bc
       -0.0059228735 -0.041088294 0.07639115 -0.018344458
000210 6b 7f 36 3c 99 1b 6c bd 36 a3 b3 bd 52 36 af be
       0.011138777 -0.057643507 -0.087713644 -0.3422113
000220 af ed 10 bc be 1d 3c be bb 7b 4e 3c 70 02 68 be
       -0.008845731 -0.1837072 0.012602742 -0.2265718
000230 d3 93 9f ba e6 4e e8 bd 91 61 46 bd 5a d0 2c bd
       -0.0012174792 -0.11343174 -0.04843289 -0.042190887
000240 01 e8 35 3e e2 05 4c 3e ca 9f 27 3e 00 99 9a bd
       0.17764284 0.19924119 0.16369548 -0.07548714
000250 99 7d 41 3d 9b 29 29 3d 02 31 05 3d a1 0b 4b bd
       0.04723892 0.041299444 0.03251744 -0.049571637
000260 5f 84 dc ba 65 99 5f 3a 01 00 3e be 89 a0 5d be
       -0.0016824118 0.00085296325 -0.18554689 -0.2164327
000270 96 46 59 3e 05 95 3d 3d 52 d9 67 3d 4d c2 db 3c
       0.21218333 0.046284694 0.056603737 0.026826048
000280 99 b7 33 be 02 40 82 3d 46 bc 4c 3d 14 9a 28 bd
       -0.17550506 0.06359865 0.04998424 -0.041162565
000290 a7 45 17 be 42 46 c5 3d 4a 66 9d be 37 98 18 be
       -0.14772664 0.09632541 -0.30742103 -0.14901815
0002a0 c5 21 04 3e b3 3e f9 bd 29 22 9a bd dc e8 92 3d
       0.12903507 -0.12170162 -0.07526047 0.07173321
0002b0 73 76 c9 bc 7f e2 76 bd 60 d3 49 bd de 6d 50 bd
       -0.024592614 -0.060274597 -0.04927385 -0.050886028
0002c0 5e 39 39 bd 7f 8b 2e be 06 ba 81 3e af 66 a2 be
       -0.045220725 -0.17045401 0.25337237 -0.31718966
0002d0 f8 20 3e 3d 05 1a 29 be 98 0e cb bd ed ad 00 bd
       0.04641816 -0.16513832 -0.09914893 -0.03141587
0002e0 14 c9 09 3d 50 e6 be bd 64 2c c8 bc 7d 3f d1 3c
       0.03363903 -0.093212724 -0.02443523 0.025542969
0002f0 a5 10 ce bd e8 99 e5 bd 41 fd 54 3d 71 4e 07 bd
       -0.100617684 -0.11210996 0.051999334 -0.033033792
000300 57 bb 54 3d 33 19 42 be 99 7a 1c be f5 ce 53 3d
       0.051936474 -0.18954925 -0.15281142 0.05171104
000310 33 36 97 be 65 2e 2b bd 5b 30 28 be fe 51 c3 3d
       -0.29533538 -0.041792292 -0.16424696 0.09537123
000320 0f 38 0b 3e fc 0b 1a be c7 69 fe bc db 7b 0e 3e
       0.13595603 -0.15043634 -0.031056298 0.13914435
000330 1d 7a 5a be 56 2a bb bd 30 b0 53 3c 50 23 ab 3c
       -0.21335645 -0.09138934 0.012920424 0.020890862
000340 4d 86 23 3d 71 3e 32 3c e4 4f e5 bd 16 c3 22 3e
       0.039923 0.010879145 -0.111968786 0.15894732
000350 71 95 5b be 8e b9 3c 3d a6 bf d2 bd ab 93 9f bd
       -0.21443726 0.046075396 -0.1029046 -0.07791837
000360 58 b1 3d be e2 6c b0 bd c4 71 71 be 82 00 a3 bb
       -0.18524683 -0.08614518 -0.23578554 -0.004974426
000370 1a ee 45 be c5 9d 36 be 7a 60 bd bd 9f f3 5c 3d
       -0.1932911 -0.17833622 -0.09246917 0.053943273
000380 e7 c3 93 3a 7b 86 39 3d 62 2f 14 be 3e 21 dd bd
       0.0011273593 0.045294266 -0.144712 -0.10797356
000390 78 fc 40 bd bf f6 72 be 10 73 06 bd 83 4c df 3c
       -0.047115773 -0.23726939 -0.032824576 0.027258163
0003a0 49 17 6c be 3a 21 23 be 32 08 15 bd d3 32 8b 3d
       -0.23055758 -0.15930644 -0.03638477 0.06796803
0003b0 5c c3 cf bd 79 2a a0 bc f8 42 02 be ac 55 8d bd
       -0.10144684 -0.019551503 -0.12720859 -0.06901106
0003c0 71 f1 13 3e 52 62 08 3e 37 e8 da bd 70 0b d3 bd
       0.14447571 0.13318756 -0.10688823 -0.10304916
0003d0 02 f7 73 be b3 2d c1 bd 39 55 74 3d 97 69 2b 3d
       -0.23824695 -0.094325446 0.059651587 0.041848745
0003e0 60 3c 84 3d ae e0 0f be a4 2a d3 bd 1a 82 42 be
       0.06456828 -0.14050552 -0.103108674 -0.18994942
0003f0 e7 7f 4a bd e9 32 2b be 9f 9f 5d be 72 16 5b 3c
       -0.049438383 -0.1671864 -0.21642922 0.013372051

a2c_network.actor_mlp.2.bias f4 [128]
000000 dc d1 79 be 23 2a cf bd 48 d5 b6 be fb 88 a9 be
       -0.24396461 -0.10115459 -0.35709596 -0.3311232
000010 3b 9d 33 be 9d 82 cf be b6 0f 2f be 21 c6 e5 bd
       -0.17540447 -0.40529338 -0.17095837 -0.11219431
000020 f1 1e 2d 3d 37 c3 40 be f6 93 f7 bc fe ec 25 3c
       0.042265836 -0.18824469 -0.03022192 0.010127304
000030 53 aa 7e 3d ca 06 08 bf 94 43 56 be cf d2 53 be
       0.062174153 -0.5313536 -0.20924217 -0.20685886
000040 5b 4e ab 3e c8 96 6f be 30 19 28 be 66 9f c9 3c
       0.33458218 -0.23397362 -0.16415858 0.02461214
000050 d6 3e ab be 34 17 5a bd 0d 9b e1 3d ea 72 2b 3d
       -0.33446378 -0.053244784 0.11015902 0.041857637
000060 ec 9f a1 bc 71 30 dd 3d 6e 0a 9c be 4c 46 2b be
       -0.019729577 0.10800255 -0.30476707 -0.16726035
000070 e2 3c 93 be 26 62 09 be a7 74 80 be 6e 2c cd be
       -0.28757387 -0.13416347 -0.25089 -0.4007296
000080 64 b2 34 be 91 fc 95 3d 42 c4 ae be ea 2c 03 be
       -0.17646176 0.07323564 -0.34134108 -0.12810102
000090 2e 85 10 3d 09 e9 59 be b6 88 20 be ed af 7a be
       0.03528326 -0.21280302 -0.15677151 -0.24481173
0000a0 fb b3 12 3d e0 7d 08 be 74 f1 44 be 43 98 d2 be
       0.035816174 -0.13329268 -0.19232732 -0.4113179
0000b0 b8 2e 17 be 9e 89 aa be 6d 72 02 be 3b d6 eb bd
       -0.14763916 -0.3330812 -0.12738962 -0.115154706
0000c0 ba 63 f1 bd 2a 00 f4 be 5d 19 e8 bd 38 16 86 be
       -0.117865995 -0.47656375 -0.11332963 -0.26188827
0000d0 6a 2a 3e be b4 0b f3 3c e2 5d cd bd 4b 23 25 bd
       -0.18570867 0.029668666 -0.10027672 -0.04031686
0000e0 4b 55 b4 be 2f 3f cb be 49 cb c0 bd 47 02 04 bd
       -0.35221323 -0.39696643 -0.094137736 -0.032228734
0000f0 fb d7 b6 bd c3 21 7b bd 46 51 1a 3e 53 99 d9 3c
       -0.08927914 -0.061311495 0.15070066 0.026562368
000100 be 2f 72 be 56 61 fa 3b 16 15 ea be 3e b9 6c be
       -0.23651025 0.007640998 -0.45719212 -0.2311754
000110 13 92 bf bd 3a b9 f1 be 6f 65 9c be e1 b5 b1 3d
       -0.09354033 -0.4721163 -0.30546138 0.08677269
000120 93 36 9d be f0 a1 3f be be a1 5d be 57 32 02 be
       -0.307057 -0.18714118 -0.21643731 -0.12714516
000130 9a 7b f1 bd e8 7e 09 be 7c fc 46 be 5b 87 37 bd
       -0.11791153 -0.13427317 -0.19432253 -0.04480682
000140 fd 6e d5 3c 1a 3d fc be 84 43 82 bd e3 30 29 3d
       0.0260539 -0.49265367 -0.06360534 0.041306388
000150 ba 45 0e 3d ec 53 db bd 6d 32 e2 bd 77 26 b3 3d
       0.034734465 -0.10709366 -0.11044774 0.08747571
000160 d8 77 91 be a6 3f 5f be 4d 91 04 3e 85 61 73 be
       -0.28411746 -0.21801624 0.12946053 -0.2376767
000170 94 75 36 be 47 ca 17 3e 54 26 5c be f0 11 9a 3c
       -0.1781829 0.14823256 -0.21498996 0.018807381
000180 3b 99 88 be 24 ee 14 bc 10 15 ae be cc 25 ac bd
       -0.26679406 -0.00908998 -0.34000444 -0.08405647
000190 b9 c2 84 be 55 eb 47 be 88 ae 91 be de 96 fb be
       -0.25929812 -0.19523366 -0.2845347 -0.4913854
0001a0 fc 8a b1 be 55 9b 8c 3e ea 38 78 be 6c 10 c9 3e
       -0.3467635 0.2746226 -0.24240461 0.3927034
0001b0 05 55 b7 bd e7 5d 20 be d3 c3 f1 be ce a6 8f be
       -0.08951763 -0.15660821 -0.47219715 -0.2805695
0001c0 ea 41 85 be cd 7b 38 3c 8c e3 0a 3d b4 6a b1 bc
       -0.2602685 0.011259985 0.03390841 -0.021657325
0001d0 99 75 76 bd ec 09 2c bf 11 7b 09 be 53 d4 59 be
       -0.060170744 -0.6720264 -0.13425852 -0.21272402
0001e0 00 11 25 be 30 7e 23 be 0c 83 a8 be 6b 76 cd 3d
       -0.16119766 -0.15966105 -0.3291248 0.10032352
0001f0 05 bf 5e be 80 47 1b 3e ed 14 f8 bd e2 06 b8 3d
       -0.21752556 0.15163994 -0.12113366 0.08985688

a2c_network.actor_mlp.4.weight f4 [64, 128]
000000 0b 14 18 3e 49 17 a2 3d 02 ba 1b be 24 c2 84 3e
       0.14851396 0.079145975 -0.15207675 0.25929368
000010 95 08 bb be a6 6e a3 bd d1 82 ae 3d 30 0d 4c be
       -0.36529985 -0.07980089 0.08521045 -0.19926906
000020 e4 8d b1 be 28 70 2a be 4d 59 61 3e 9a 0d 9a bc
       -0.34678566 -0.16644347 0.22006722 -0.018805314
000030 cf 52 32 be 7b 03 62 be ee e5 fb bd 11 20 60 3e
       -0.17414401 -0.2207164 -0.12299715 0.21887232
000040 cf 6b c4 be 9c 66 10 3e 24 03 2b bd b4 76 e6 be
       -0.383635 0.14101642 -0.041751042 -0.45012438
000050 96 c5 40 3e 93 ee d7 3e a3 93 7a be e0 54 bd be
       0.18825373 0.42174205 -0.24470381 -0.36978817
000060 86 cc 02 bf f3 28 01 bf 37 71 de 3e ee 4e fd bd
       -0.5109333 -0.5045311 0.4344575 -0.1236857
000070 69 0d d4 bd 46 94 5f be 58 e5 27 bd 0a bf 9d be
       -0.1035412 -0.21833906 -0.040990204 -0.30809814
000080 b6 c4 78 3c b3 e5 05 3e aa 81 49 3d 6e 18 f7 bd
       0.015183618 0.13075905 0.049195923 -0.120652065
000090 9a 63 10 be d6 65 b5 be 73 43 47 3e 13 cb e4 3b
       -0.14100495 -0.35429257 0.19459324 0.006982216
0000a0 ea 91 e9 be c0 fc ce bd 16 2f ae be fa 8e ad 3d
       -0.45619136 -0.10106802 -0.340203 0.08474536
0000b0 9b 88 88 be 55 06 40 be 70 2e da bd a5 f6 62 bc
       -0.26666722 -0.18752415 -0.106533885 -0.01385275
0000c0 a3 48 3b bb 5f e7 ac 3d 28 d1 b6 3d 9c bf 58 bd
       -0.002857723 0.08442568 0.08926612 -0.052917108
0000d0 75 a1 85 be 16 be a8 be 43 d6 35 3d cc 53 fa bd
       -0.26099744 -0.32957524 0.04439379 -0.12223014
0000e0 6b 64 36 3e 39 3c 46 be 72 2a 78 3e 2c 93 41 be
       0.17811744 -0.1935891 0.24234942 -0.18903798
0000f0 c7 d3 b6 be e6 ca ac be 68 77 5a be 23 ec bc bd
       -0.35708448 -0.3374855 -0.21334612 -0.09224727
000100 8d d9 56 be 68 2d bb be af 19 ea 3d 5a 5d 6a 3d
       -0.20981427 -0.3655808 0.1143068 0.057217933
000110 0f 24 c8 bc 5c 6a d9 3c c5 1b 9f 3c 93 8d a8 be
       -0.024431257 0.026539974 0.019422421 -0.32920513
000120 82 ee 13 be 9b d1 1f bf 2a bf bf 3d c4 0d 65 3d
       -0.14446452 -0.6242921 0.093626335 0.05592133
000130 d8 de 01 be 83 5a 8d be 2f 08 5a 3c c5 24 bb 3b
       -0.12682664 -0.27608117 0.013307615 0.0057111704
000140 49 84 a5 3b 91 2c 61 3e 9f df bf 3e 44 a4 c1 3d
       0.00505117 0.21989657 0.37475297 0.09455159
000150 2e e7 a5 be 9c d8 ab 3d a6 e6 77 3e 48 2b ea be
       -0.3240294 0.08390924 0.24209079 -0.45736146
000160 a7 c1 22 3e 38 35 fe 3b a1 66 04 be fc fd 94 3e
       0.15894185 0.007757809 -0.12929775 0.29100025
000170 43 f9 72 3d 75 e3 d9 be e7 da cc bd 87 cb 74 be
       0.059319746 -0.42556348 -0.1000269 -0.23905765
000180 a4 e9 f9 3a d0 f0 14 bf d2 a6 b0 bd ea 44 d8 3d
       0.0019066823 -0.5817995 -0.086255684 0.10560019
000190 3c a6 83 3d 47 2e cc bd 68 ba 6d 3d 2e f7 70 3e
       0.06428191 -0.09969764 0.0580391 0.23531792
0001a0 1a 1e b0 bd b4 9e 61 3d 47 21 da 3e 21 52 68 be
       -0.085994914 0.05508299 0.42603514 -0.2268758
0001b0 8f b4 d3 3d f1 1e 80 be b7 6f 8a 3e 62 6b c7 3d
       0.10337173 -0.25023606 0.27038357 0.097372785
0001c0 7f da 7d 3e 82 59 99 3e 30 7d 43 bd 49 17 89 be
       0.24790381 0.29951102 -0.04772681 -0.26775578
0001d0 d5 66 1a 3e 52 25 af 3e ca 17 91 bd e9 37 c2 3e
       0.1507829 0.3420816 -0.070846155 0.3793328
0001e0 b7 ee 64 3e 5f ed 8b 3c 63 f7 89 be 53 98 2e bf
       0.22356687 0.01708096 -0.26946554 -0.6820118
0001f0 88 63 93 be 06 3f e3 be e0 83 01 3e b9 16 09 3e
       -0.28786874 -0.4438402 0.12647963 0.13387574
000200 28 a4 e3 3d b1 b0 53 be df 5f 09 3e d1 61 96 3e
       0.11115295 -0.20672871 0.13415478 0.29371503
000210 70 dc f5 3d aa a9 05 3e cc 27 76 3e 61 37 2b be
       0.12004936 0.13053003 0.24038619 -0.16720344
000220 69 b1 0d be 07 b1 16 bd 01 90 2a bd dd 88 74 bd
       -0.13837208 -0.03678992 -0.04164124 -0.059700835
000230 2b ce 1e bf e8 59 47 3d 90 9f eb bd 61 ec 53 3e
       -0.6203334 0.048669726 -0.115050435 0.2069564
000240 d9 cc 82 bd 6d 06 19 3e e4 43 73 3d f0 e2 96 be
       -0.06386728 0.14943857 0.059390917 -0.29470015
000250 24 c0 3d 3e c4 02 c8 bd e8 15 a2 be 6f dc f1 bc
       0.18530327 -0.097661525 -0.31657338 -0.029524056
000260 44 67 41 be 93 9b bf be 69 45 c6 bd bd 94 5c 3d
       -0.18887049 -0.3742338 -0.09681208 0.053852785
000270 95 45 19 be 32 18 aa 3d 73 64 0f 3e cb 87 db 3e
       -0.1496795 0.08305396 0.14003162 0.4287704
000280 8a ec 7c bd ad 41 49 be af b3 19 3e c2 63 be bd
       -0.06174902 -0.1965396 0.1500995 -0.09296371
000290 3c 24 b3 3d 89 0b 85 3e cd ac b4 3c 78 2f 6b 3e
       0.087471455 0.25985363 0.022055054 0.22967327
0002a0 57 f7 92 3d 74 b2 d3 bc 0a ff 85 3e 9a 0d 49 3e
       0.071760826 -0.025841929 0.26171142 0.19634095
0002b0 18 bc 19 bd e6 8e 7e be 31 36 a3 bc 9c 29 5a bd
       -0.037532896 -0.24859199 -0.019923301 -0.053262338
0002c0 1f b3 24 be 07 2e 21 3e 96 be 20 be e7 92 43 3d
       -0.16083954 0.15740214 -0.15697703 0.04774752
0002d0 98 1a dc 3e f7 e3 82 be b7 b4 92 3d 70 fe 9d bd
       0.4298904 -0.25564548 0.07163375 -0.07714546
0002e0 e7 6b af 3e 90 80 36 be 87 16 56 3d 6a 9b e2 3d
       0.3426201 -0.1782248 0.052267577 0.11064799
0002f0 cb 47 d7 be cb 70 4f bc 1c a9 c7 be 8a 54 35 be
       -0.4204696 -0.012661169 -0.38996208 -0.1770803
000300 53 48 78 be 48 92 fe bd 16 c0 f0 bd f2 7e 07 3e
       -0.2424634 -0.12430245 -0.117553875 0.1323202
000310 5b b4 40 bd 37 b9 c1 3e 79 05 79 bd 82 40 1f bf
       -0.047047 0.3783662 -0.060796235 -0.62207806
000320 3f 72 0a bc 73 73 13 3d f7 37 c9 bd 20 8e 62 be
       -0.00845009 0.035998773 -0.098251276 -0.22124529
000330 bd 1b c9 bd cf 2c 20 3e bb 47 16 3e fc 58 48 be
       -0.09819744 0.15642093 0.146758 -0.19565195
000340 09 a9 4d 3e 80 3c d3 3e b5 20 ca ba e5 00 cb 3c
       0.20084013 0.41257095 -0.0015421124 0.0247807
000350 fe ba 50 bd ff 8f 81 3e 41 9f c4 bb b2 66 49 be
       -0.05095958 0.25305173 -0.00600043 -0.19668081
000360 ac 20 5c 3e ad 33 c0 3e 57 10 12 3d f2 be ca ba
       0.21496838 0.37539425 0.035660114 -0.0015468283
000370 71 f3 cb 3d 77 be f5 bd 50 df 80 bd f1 43 5e bb
       0.09958542 -0.11999219 -0.062925935 -0.0033915008
000380 de 2a 09 3e 1d 8f 45 3d 6c a9 29 be 17 b5 17 be
       0.13395259 0.048232187 -0.16568536 -0.14815174
000390 da 9f b8 be a7 c9 46 3d 56 21 89 be df 0b 9f 3e
       -0.36059457 0.048532154 -0.26783246 0.31063744
0003a0 70 a8 d8 3b 9c 87 ec 3c f8 c6 81 bd 0c a4 72 ba
       0.006611876 0.028873257 -0.063367784 -0.0009256012
0003b0 c6 dd 03 be c0 71 db 3c 08 6a fc 3c 78 4a ed 3b
       -0.12877569 0.026787639 0.030812278 0.0072415434
0003c0 c4 03 38 3e 9a de ee 3b 04 b1 cb 3d 55 8e f9 bd
       0.17970186 0.00728972 0.099458724 -0.12185351
0003d0 e8 66 53 3e 3a 51 2f 3c c5 03 3e be 5c 38 87 3e
       0.20644724 0.010700518 -0.18556125 0.26410186
0003e0 9f cd b6 bb 1a e9 6d bd b8 b4 08 bd 8b 33 70 bb
       -0.005578711 -0.05808363 -0.03337547 -0.0036651816
0003f0 01 3b 83 3d 06 fa 78 3d 74 55 16 3d b2 46 8f be
       0.064077385 0.060785316 0.03670259 -0.27983624

a2c_network.actor_mlp.4.bias f4 [64]
000000 7a 29 82 be 36 c9 95 bd 7f 7f 1f be 0c da bc bd
       -0.2542227 -0.073137686 -0.1557598 -0.09221277
000010 11 c8 7d be e9 f7 cb bd 73 6c e8 bd a6 bd a5 bd
       -0.2478335 -0.099593945 -0.1134881 -0.08092813
000020 14 2e 7d be c5 ed 86 bd 71 d4 e6 bd 56 a5 bf be
       -0.24724609 -0.0658832 -0.11270989 -0.3743083
000030 c7 35 05 be c1 df c4 bd 47 a9 42 be 34 b9 04 be
       -0.13008796 -0.0961299 -0.19009887 -0.12961274
000040 cb 82 cf bd 34 22 be bd fc c5 65 bd 00 5d 89 be
       -0.10132369 -0.092838675 -0.056097016 -0.26828766
000050 3f 41 82 be 28 98 1b bd 4d bc 56 be 84 11 b1 be
       -0.25440404 -0.037986904 -0.20970269 -0.34583676
000060 7d 7b 81 be ca 74 cf bd 6d 42 c5 bd a3 2d c0 bd
       -0.25289527 -0.101296976 -0.0963181 -0.093837045
000070 94 48 70 3e 6b 16 74 bd 50 6f a3 3d f1 0d 24 be
       0.23465186 -0.059591692 0.079802155 -0.16020943
000080 55 29 f3 bd 9c 1a d1 be 2e c2 de bd 7f b6 84 bd
       -0.11873118 -0.40840614 -0.108768806 -0.06480121
000090 a9 e4 95 be f1 42 e6 bd fd 32 fe bd 7d 63 34 be
       -0.29276016 -0.11243237 -0.12412069 -0.17616077
0000a0 f5 7a 93 bd 9c 7f 07 be 6a 82 ab bd 37 5d 74 bd
       -0.072011866 -0.13232273 -0.08374484 -0.05965921
0000b0 72 f3 ca bc bc 5e 6d bd d0 0c d3 bd a9 e6 c5 bd
       -0.024774287 -0.057951674 -0.10305178 -0.096631356
0000c0 ea a5 ab bd 92 dc fa bd b5 b0 cf bd 3b 06 aa be
       -0.08381255 -0.12249102 -0.10141126 -0.33207878
0000d0 f7 8b 4e be fb 4f 2d bd 2b b9 44 bd 9c 4d fa bd
       -0.2017058 -0.042312603 -0.048028152 -0.12221834
0000e0 db 63 85 bc 40 21 d8 bd ee 99 18 be 3d e0 05 be
       -0.016282966 -0.10553217 -0.1490247 -0.13073821
0000f0 6a 86 ff bc 1e 1a b3 3e 8d 00 06 be e7 fe c9 bd
       -0.031192023 0.34980863 -0.13086148 -0.09863072

a2c_network.value.weight f4 [1, 64]
000000 95 13 8e bc 76 8b e1 bb f8 4f 5d bb e4 ea 23 bc
       -0.017343322 -0.00688308 -0.003376959 -0.010004733
000010 88 5b 6a bb ff 80 1f bc f0 44 28 3c f9 3e cf bb
       -0.0035760123 -0.009735345 0.010270342 -0.0063246456
000020 fa 3c 02 bc bc cc 55 bc a9 ca 8d bc 0f f8 ee bc
       -0.007949108 -0.013049301 -0.01730855 -0.029171018
000030 45 e2 a5 bc e9 1c 7a bc a2 02 f1 3c 3e 64 1b bc
       -0.020249495 -0.015265682 0.0294202 -0.009484349
000040 15 d5 e7 bb a3 43 e1 bb d7 a6 14 3d b4 b1 c9 3e
       -0.007074962 -0.006874518 0.036291923 0.3939339
000050 04 a5 23 bc 1f 80 8b bb de 9d 82 bc 86 7c a8 bc
       -0.009988073 -0.0042572166 -0.015944418 -0.02056719
000060 40 ff a1 bc 2c 5c b3 bc 86 27 e6 3c be c4 49 3d
       -0.019775033 -0.021894537 0.028095018 0.049259894
000070 d5 e9 39 be 84 b6 b3 3a d9 3e 5a bc 7b 65 ec 3c
       -0.18155606 0.001371101 -0.013320648 0.028856983
000080 3e 41 38 bc 61 e1 d5 bb 3b 13 8e 3d a2 58 7e 3c
       -0.011246024 -0.0065271114 0.06937262 0.015524061
000090 1a 6e b9 bb 6e 15 97 bb 3f eb 83 bc 77 6c bf 3b
       -0.005658877 -0.004610709 -0.016103385 0.0058417874
0000a0 19 61 8d bc 93 94 1a 3d e7 55 86 3b 37 eb 5a bc
       -0.017258214 0.037739348 0.004099596 -0.013361744
0000b0 3a 5a 7b bc 68 33 b3 bc da 10 07 bd 29 e1 03 bc
       -0.015341336 -0.021875098 -0.032975055 -0.008049288
0000c0 58 45 74 bc e4 85 ae bb df 64 5f bc 97 e2 c3 bc
       -0.014909111 -0.0053260196 -0.013634889 -0.023911757
0000d0 a5 5c 89 3c c5 69 93 bb b3 e7 22 bd cf 62 2b bb
       0.01676781 -0.0044986927 -0.039771747 -0.0026151424
0000e0 bb ce 9d bb 6b 57 1f 3c 02 8e 36 bc 83 8c 4a 3d
       -0.004815904 0.009725432 -0.011142256 0.04945041
0000f0 60 fd a0 bb 5e 37 bf be 51 44 42 3b c5 ea 39 3a
       -0.004913017 -0.3734693 0.002964277 0.00070921733

a2c_network.mu.weight f4 [12, 64]
000000 db 83 94 bc 14 ab 8e 3d 3c 6d af bd 06 4f 21 be
       -0.01812928 0.06966224 -0.08565757 -0.15752801
000010 a1 ac 5c 3c 32 eb 90 be f7 20 9b 3e 57 1e 1f be
       0.013468892 -0.2830444 0.30298588 -0.15538917
000020 77 06 48 be 0f da 86 bd 53 42 8e bd 82 66 4e bd
       -0.19533716 -0.0658456 -0.06946244 -0.050390728
000030 46 5e bb 3b e1 89 bc 3c 93 17 63 bd 79 86 27 3c
       0.0057180254 0.023014965 -0.055442404 0.010224932
000040 50 fd ac bc 21 67 04 3e 2f 77 89 bd 46 c9 a2 be
       -0.021116883 0.12929966 -0.067121856 -0.31794184
000050 9d fb 94 b9 23 33 c4 3d 67 a4 62 3e 49 4d 9b 3c
       -0.00028416226 0.09580066 0.22133027 0.01895775
000060 89 10 e3 bc bf c6 b9 3a 87 20 36 be 15 5e 89 bd
       -0.027717846 0.0014173611 -0.17785846 -0.06707398
000070 bc 9e 1e 3e ec 49 d9 bc 5e 59 38 bd 77 54 07 3e
       0.1549024 -0.026524507 -0.045007102 0.13215815
000080 6d 84 eb 3d 12 5f 49 be 4d 37 33 3d eb 09 0e 3e
       0.114998676 -0.19665173 0.04375391 0.13870971
000090 39 ae 18 bc 3b b8 6a be cf 10 d0 3e d8 61 cb 3c
       -0.009318882 -0.22921841 0.40637824 0.024826929
0000a0 7d 02 47 bd 32 25 c5 be b4 16 19 3e 38 11 45 bc
       -0.048586357 -0.3850494 0.14950067 -0.012028031
0000b0 92 da 7e bc 3c 53 09 3e 83 f1 27 3e 54 7a 77 bd
       -0.015555041 0.13410658 0.16400723 -0.060419396
0000c0 9d 3e 2d 3e 15 80 bf bd 1d 54 c6 be 3e 0b 9c 3e
       0.16918416 -0.093506016 -0.38736048 0.30477327
0000d0 9b 51 45 bd 91 8f 42 bd 58 8a 5a 3e 2d 0c 99 3d
       -0.04817353 -0.047500197 0.21341836 0.074730255
0000e0 12 51 ae bd 9d c0 c2 be 26 fd 75 be 1e e4 c9 3d
       -0.08511557 -0.38037577 -0.2402235 0.09857963
0000f0 87 9c b6 3e 42 0e 2a bc bc b6 ad 3d 2e a4 67 be
       0.35666296 -0.010379376 0.084821194 -0.22621223
000100 85 cc 58 be bd c0 6d 3e a3 51 88 3e 1c 44 12 be
       -0.21171768 0.23218055 0.26624784 -0.14283794
000110 7e 40 18 3e 57 cf f6 bd 4d d9 66 be 96 ca 2a 3e
       0.14868352 -0.12051266 -0.22543831 0.16678843
000120 71 82 69 be 11 8b f8 3d a0 18 8c bc 7a 28 56 bd
       -0.22803666 0.121359 -0.017101586 -0.052284695
000130 0e 83 97 be ba d2 3b be af 0f 8c 3b aa 29 d8 3d
       -0.29592174 -0.18342105 0.0042743306 0.10554822
000140 dc 93 e2 3d 35 5d 12 bd 61 62 66 3c a1 97 5a 3d
       0.11063358 -0.03573342 0.014061541 0.05336726
000150 49 f1 62 be f2 b9 38 3d f7 39 ba bd 83 16 da bd
       -0.22162355 0.045099206 -0.09093087 -0.10648825
000160 94 3b 52 be 24 81 28 3e d5 e3 1c be c1 6e cd bd
       -0.2053054 0.16455513 -0.15321286 -0.1003089
000170 dd b5 4c 3d cd 34 89 3e 21 bf ed bd 0a fc c5 3d
       0.049978126 0.26798096 -0.116087206 0.09667213
000180 37 3c b9 be f2 8b f5 3d d3 34 43 bd d6 1a e6 bd
       -0.36178753 0.11989583 -0.0476578 -0.11235587
000190 14 d9 80 3e cf 99 82 be 4f 5b 58 3e 13 cd 8e 3d
       0.25165617 -0.25507972 0.21128581 0.069727086
0001a0 00 0d 3b 3c 9c d4 72 3d 63 81 20 be 5b f7 1c 3e
       0.011416674 0.05928479 -0.15674357 0.15328734
0001b0 a9 ab 82 3e 62 33 42 3e c3 33 3b 3e 54 73 07 be
       0.2552159 0.18964913 0.18281464 -0.13227588
0001c0 e5 c9 79 be 0d 08 ab 3d ec 19 f4 bd 7e 2a ea 3b
       -0.24393423 0.08351145 -0.11919007 0.0071461787
0001d0 85 a6 46 be df 22 18 3e f1 7c d7 3d 06 61 29 3d
       -0.1939946 0.14857052 0.105218776 0.041352294
0001e0 33 df 01 3d a7 e9 98 3e f7 f0 90 bd 7e e0 89 3d
       0.031707 0.29865763 -0.070772104 0.067322716
0001f0 51 34 79 3e ff 46 8b bd 29 2b 4e be 5d dd 77 3e
       0.24336363 -0.06800651 -0.20133652 0.24205537
000200 f2 04 ee 3d 79 1f 1e be 7e 09 06 3e 5e 52 73 bd
       0.11622037 -0.15441693 0.13089558 -0.059404723
000210 98 27 6f 3e 9d 22 5d be ab 9e 3b 3e 8d 38 1a be
       0.23354948 -0.21595235 0.18322246 -0.15060635
000220 f2 e0 93 3e 46 db d4 bd ca 0a 88 bb be a4 6c be
       0.28882557 -0.103933856 -0.004151677 -0.23109719
000230 aa 99 cf 3d 2e 8f 55 be 87 cb 81 bd 14 18 a4 3e
       0.10136731 -0.208554 -0.06337648 0.3204962
000240 b3 23 0a 3d 4c cb 6d be 47 be 48 3d 17 34 52 3e
       0.03372545 -0.23222083 0.049009588 0.20527683
000250 05 4c bb 3d 48 42 80 bd ca c6 17 be 0f fa 10 be
       0.09145359 -0.06262642 -0.14821926 -0.1415789
000260 f5 78 d4 3d 9c 4a 62 3d 28 48 46 3e 6a 2d 0c bc
       0.10374633 0.055246934 0.19363463 -0.008555749
000270 0a d3 c2 bc 8f 96 cc bd f4 0c d6 bd c0 42 8c bc
       -0.023782272 -0.09989654 -0.10451689 -0.017121673
000280 6b eb 02 3e f1 3e 6b 3e cb f1 4b 3d 3a bc 87 3d
       0.12785117 0.22973229 0.04979114 0.06627698
000290 f6 09 df 3c d1 4b 8e 3d 56 b4 0d 3e bb 92 48 3e
       0.02722643 0.069480546 0.13838324 0.19587223
0002a0 cd b9 6e 3d 3e a5 01 bd 9f 4b e6 3d ab 35 90 bd
       0.058282662 -0.031651728 0.11244892 -0.07041486
0002b0 cd 51 dd bd 1a 75 9b be c0 38 78 be 09 e8 a0 be
       -0.10806618 -0.3036278 -0.24240398 -0.3142703
0002c0 80 47 8b 3d 9e f8 46 bc 0b 5e eb bd 79 ff 0a 3c
       0.06800747 -0.012144236 -0.11492547 0.008483761
0002d0 23 d2 21 3e fd ce 32 3e 97 1b ad 3d fe c5 8f bd
       0.15802817 0.17461772 0.08452528 -0.07020186
0002e0 63 9a 80 be 9b 85 9a bb bf 8f a3 bd 16 9b 73 3e
       -0.25117788 -0.004715634 -0.07986402 0.2378963
0002f0 6f 28 5b be d2 7e 4f 3d 56 3d ac 3d 18 cc f1 bd
       -0.21402143 0.050658055 0.084101364 -0.11806506
000300 1c d6 3f be 4b 75 04 bb b0 50 9a bd 65 29 c7 3d
       -0.1873402 -0.0020211514 -0.07534921 0.09724692
000310 d4 4e 9e bd 84 70 50 bd 77 59 3f be 88 e5 51 be
       -0.07729879 -0.050888553 -0.18686472 -0.20497715
000320 25 2c d3 bc 95 56 7b 3e 34 52 0e be ff 89 f6 bd
       -0.025777886 0.24544747 -0.13898546 -0.120380394
000330 bf 24 79 be 05 e4 15 3e d3 f8 2c 3e 24 ab 72 be
       -0.24330424 0.14637764 0.16891794 -0.23698097
000340 0e 8c 51 3e 30 f7 0a bd 71 66 8a 3d b0 21 3d 3d
       0.20463583 -0.033927143 0.067578204 0.046174705
000350 c8 c8 60 3e be 44 7c bd 3e a5 ac bd 6e 47 18 be
       0.21951592 -0.061588995 -0.08429955 -0.14870998
000360 0c 11 8e be 56 be ef 3d 51 08 be bc b5 d2 0d bd
       -0.2774738 0.117062256 -0.023197325 -0.034624774
000370 81 3c 03 3d f7 6b 36 be b5 bb 2d 3e 66 31 bb bb
       0.032040123 -0.17814623 0.16966136 -0.005712676
000380 a1 7b aa 3e dc 0c d4 3b c5 68 89 3c 5c a6 96 bd
       0.33297446 0.0064712595 0.01677359 -0.07355949
000390 1f ca 58 bc cb 2a 01 be c2 0e 15 bd d9 39 93 3e
       -0.013231783 -0.1261398 -0.036391027 0.28755072
0003a0 60 73 12 3e 39 88 cf bc fc cf 21 3e 49 51 4a be
       0.14301825 -0.02533351 0.15801996 -0.1975757
0003b0 cd d6 f5 3d 30 14 e4 bd d6 25 90 3d a6 d7 48 3c
       0.120038606 -0.11136663 0.07038467 0.012258446
0003c0 ae 8a dc 3e b5 7d f4 bd 1e d7 12 3d 84 95 1d 3e
       0.43074554 -0.11938039 0.035849683 0.15389067
0003d0 7a 03 07 3d d6 9d 3c 3d 4d 81 fc 3c 5a 69 c0 bd
       0.0329623 0.04604896 0.030823374 -0.09395094
0003e0 1d 5a 8a 3d 6b 42 b9 3d 49 90 78 bd 2b fe 87 3b
       0.06755469 0.09045871 -0.060684476 0.004150172
0003f0 2a 9e e8 3d 5a 59 da bd e3 de ea bd c1 04 bb bc
       0.113582924 -0.10661574 -0.114682935 -0.022829415

a2c_network.mu.bias f4 [12]
000000 88 98 b5 bc 1a 0b 5a 3a 3f 92 3b bd 95 9a c8 3d
       -0.02216746 0.00083176943 -0.045793768 0.09795109
000010 d7 d5 13 be e4 71 7d 3c 24 78 46 3d 33 87 6c 3d
       -0.14437042 0.015469048 0.04845442 0.057746124
000020 59 99 3d bd 2b 27 fe bd 47 61 7e 3e 20 63 14 3d
       -0.04628882 -0.124098144 0.24841796 0.036227345

exp_avg f4 [12]
000000 f3 1f b5 3a 1e 10 89 3a 59 81 36 ba e8 b0 50 3a
       0.0013818726 0.0010457074 -0.00069620233 0.00079609314
000010 e7 75 be 3a ef 55 50 ba 3b 9c f2 38 14 7c 9c 38
       0.0014530987 -0.00079473754 0.000115685594 7.461771e-05
000020 21 21 61 3a ba 24 02 39 af fc 6b 3a 77 d3 98 3a
       0.00085880054 0.00012411448 0.00090021914 0.0011659701

exp_avg_sq f4 [12]
000000 1e 7a 3e 38 56 f0 5d 38 61 c4 42 38 e4 d7 4f 38
       4.541326e-05 5.2914336e-05 4.6436096e-05 4.955371e-05
000010 34 8b 44 38 ac 01 4d 38 7b 7b 50 38 0e 04 49 38
       4.6859685e-05 4.8877366e-05 4.9706065e-05 4.792591e-05
000020 d5 43 61 38 3d a2 48 38 dd 9e 43 38 1f 24 3a 38
       5.3707354e-05 4.7834812e-05 4.6639576e-05 4.4379496e-05
