omniisaacgymenvs/scripts/runs/Anymal/nn/last_Anymal_ep_650_rew_-0.9583126.pth (torch, 672599 bytes, 36 tensors)

value_mean_std.running_mean f8 [1]
-1.9002769776561994
00000000: 6800 06d5 8867 febf

value_mean_std.running_var f8 [1]
83.73838738604553
00000000: 0cb6 2abd 41ef 5440

value_mean_std.count f8 []
127795201.0
00000000: 0000 0004 0078 9e41

running_mean_std.running_mean f8 [48]
0.043677062509624394 0.016921988585247585 -0.5999405845565794 -0.018810189284254233 -0.0019536289984567992 -0.0012911746314539492 0.003366414643183195 0.007232289955097483
-0.9619731143948288 -0.17646652701074178 0.025181774411347443 -0.00025057883227603834 -0.164213745994753 -0.14264752693461197 0.12452894106140058 0.14310692944046832
0.014511946979658212 0.08218617816953493 -0.018103664059038724 -0.0020222573970275774 0.08786925227486375 -0.15308674517715842 0.13398276266840234 -0.10122500577180199
-0.027290791199440067 -0.01910427312652803 0.02940758538378559 0.02672530167521921 -0.004141820681158806 0.02320494752215854 -0.011150697387618286 0.005933552255815496
0.012497682515997869 -0.029632134090709885 0.03335526417941553 -0.022399777999770627 -0.0827176720570236 -0.054545807378817035 0.08198581263923911 0.06652055419778741
0.016504572704758295 0.05727059123768125 -0.021020876940023654 0.0038501197221303325 0.032337119441229745 -0.06901875147190942 0.09874199874193912 -0.04517619428089529
00000000: c9dc 2006 d75c a63f 344a 3a6e ff53 913f
00000010: 11d6 c698 b632 e3bf f7d1 3a6f fa42 93bf
00000020: 793c 0595 0e01 60bf f978 3134 9427 55bf
00000030: d60c 8319 e293 6b3f 683c 510d 9b9f 7d3f
00000040: 35a0 3ed7 7bc8 eebf 72c7 2c85 7496 c6bf
00000050: 0f3c 3546 40c9 993f ce14 c3e3 036c 30bf
00000060: 57f1 4cbe f404 c5bf 4a0c 852f 4642 c2bf
00000070: 62a4 43f1 20e1 bf3f a88e e3ee 5351 c23f
00000080: 8f6c 6e8d 70b8 8d3f abdf 6b43 270a b53f
00000090: dc0d 4954 c489 92bf 4169 4c2c fb90 60bf
000000a0: 0832 d86c 997e b63f 6655 feb1 5898 c3bf
000000b0: f3ba f1df 5826 c13f fcc9 53c9 e1e9 b9bf
000000c0: 13f7 bbfe 1df2 9bbf f44d 2b11 1290 93bf
000000d0: b526 e9a5 051d 9e3f 55e6 aea2 e05d 9b3f
000000e0: 368e f185 03f7 70bf 472e daaa 09c3 973f
000000f0: 70fb db44 2dd6 86bf 0992 34ce c74d 783f
00000100: 62bd 748d 6298 893f 6736 52db e257 9ebf
00000110: 879d 99f1 f013 a13f 3565 c9a7 f7ef 96bf
00000120: 6642 4940 fc2c b5bf e8e0 a695 6ded abbf
00000130: 0982 05b0 05fd b43f 2492 cab4 7d07 b13f
00000140: ae6c 0120 93e6 903f a9df c628 9252 ad3f
00000150: e56a f62b 7f86 95bf edfb 5949 498a 6f3f
00000160: b0d3 e4ac 7d8e a03f 42f2 6180 36ab b1bf
00000170: f09a 56d7 2747 b93f 2506 fd89 5521 a7bf

running_mean_std.running_var f8 [48]
0.5888533792606867 0.49948153892243413 0.7545506736930409 0.17145207313312613 0.05087776398161777 0.0901434574692056 0.020496018766808843 0.04557454440762013
0.008475560984304844 5.333010778790337 1.3026822206619477 0.02052755875074904 0.12536123701035332 0.13830150158663168 0.14125508627483896 0.14234670127082438
0.10796995887820521 0.12914427973932183 0.11949758441560651 0.12006220459572635 0.18191919038882035 0.21929526100223967 0.1882108711919316 0.21554832224453846
0.007487020831780217 0.00850498752275989 0.009408471138447297 0.009051486398555847 0.008514041375874613 0.008771356826050158 0.008263843138267796 0.008647314601043503
0.026681634248645933 0.028482296922853645 0.030038983197019805 0.032005310089178396 0.5145912655417435 0.5131262853394931 0.5190435995948551 0.5023620193409457
0.5151797352911667 0.5189083337559612 0.5097438995863414 0.5200653893938886 0.5102186376943388 0.5015558569617145 0.5140086320764016 0.5235174953794125
00000000: 1c0a c20a e3d7 e23f b12a a86a 81f7 df3f
00000010: cff6 5574 4725 e83f 2f16 783b 24f2 c53f
00000020: 3b10 ca78 a60c aa3f a852 c741 a413 b73f
00000030: c0e2 3489 e8fc 943f 448b 85f3 8b55 a73f
00000040: 9b57 f189 a25b 813f de7a 10c7 0055 1540
00000050: f62d ed4f c9d7 f43f d636 0126 2d05 953f
00000060: 1da2 9246 d60b c03f f4b0 2615 ddb3 c13f
00000070: 00d8 f88b a514 c23f 006a 53ad 6a38 c23f
00000080: 4c15 5552 eba3 bb3f 0712 f9bc cc87 c03f
00000090: 7e1a 04c9 6497 be3f 176c 398a 65bc be3f
000000a0: 4d0d 9ec6 2049 c73f 5211 16fb dd11 cc3f
000000b0: 9db0 4238 4b17 c83f 38bd 5f61 1697 cb3f
000000c0: 8718 dfd9 b5aa 7e3f 14ea 1a1a 106b 813f
000000d0: a88a c29e bf44 833f 9df2 7ef0 9589 823f
000000e0: f21e 214a cf6f 813f 93ea ac95 b7f6 813f
000000f0: 8a23 2540 a2ec 803f 7c13 47eb aeb5 813f
00000100: 6ccf 012a 6e52 9b3f e0c8 3197 762a 9d3f
00000110: bfc3 be09 8ac2 9e3f a041 4300 0063 a03f
00000120: a8e3 091a 8877 e03f e808 c8d0 876b e03f
00000130: 1da8 ae52 019c e03f da4c 7a83 5913 e03f
00000140: 6266 5436 5a7c e03f 9051 63a6 e59a e03f
00000150: 0de2 4170 d24f e03f e14d e72b 60a4 e03f
00000160: 959e 5609 b653 e03f f691 58de be0c e03f
00000170: a927 143b c272 e03f a33a 31c3 a7c0 e03f

running_mean_std.count f8 []
63897601.0
00000000: 0000 0008 0078 8e41

a2c_network.sigma f4 [12]
3.4236522 3.4494736 3.5785024 3.603334 3.3436224 3.332943 3.4774222 3.3088033
3.372656 3.4965901 3.6189394 3.4336574
00000000: 1e1d 5b40 2dc4 5c40 2f06 6540 069d 6640
00000010: e9fd 5540 f04e 5540 168e 5e40 6fc3 5340
00000020: 99d9 5740 22c8 5f40 b49c 6740 0bc1 5b40

a2c_network.actor_mlp.0.weight f4 [256, 48]
0.49033967 -0.40150398 0.10373146 0.0794734 -0.51298964 0.1856524 0.3444459 -0.03868883
0.39160952 0.14994904 0.3980388 -0.43885988 -0.3303158 0.023138715 -0.16269013 0.32595068
0.096275404 -0.5000426 -0.00011193312 -0.14812878 -0.3095986 0.18001351 0.27761763 0.063185744
0.047432505 -0.045662794 -0.14557488 0.07702094 -0.16580097 0.023994595 -0.18307163 0.1770012
-0.36349997 -0.108184196 0.87087715 -0.030561749 0.14927752 0.069628626 0.10088256 -0.3200617
0.13839109 0.20962282 0.29050758 -0.61442214 0.28275055 0.61224025 -0.3959153 -0.40218037
0.18309897 -0.09891474 0.29345027 -0.037681937 -0.20657414 0.051043987 -0.19352233 -0.75253874
-0.080948256 -0.24161999 0.08881842 -0.026286127 0.26815006 -0.13666287 0.39648846 0.14885864
0.5899943 -0.19084284 -0.20446676 -0.24968854 0.15223594 -0.335286 0.38723257 -0.2876232
0.531173 -0.18348327 -0.15665089 -0.6573514 -0.36924714 -0.41041815 -0.08085394 -0.3621927
0.62191945 0.26440787 0.17196478 0.046776798 -0.73868126 0.23871385 0.38526028 0.23831752
-0.5748733 -0.069291815 -0.1402225 -0.049865417 0.34102196 -0.28746572 0.19100355 -0.47409326
-0.40797415 -0.1765279 1.0411396 0.6471423 0.45810634 -0.06348091 0.31097138 0.2801031
-0.006442412 0.04338009 0.08517598 -0.31426376 0.41325465 0.061762698 0.097536236 -0.2067772
0.31499103 -0.1044816 -0.26116285 -0.4384463 0.4720737 0.19797206 -0.07334179 0.27164054
0.18256836 -0.3560265 -0.37282568 -0.3668583 0.81068 -0.34941953 -0.257191 -0.33446303
-0.10514144 0.7218443 0.1713719 -0.45183563 0.25825688 0.3801689 -0.8049087 -0.33497408
0.8927669 -0.04962483 0.39770365 -0.70799214 0.19509421 0.12119272 -0.06568978 0.07159851
-0.091949314 0.55683 0.015470314 -0.08461551 -0.35076514 0.39742428 -0.070330895 -0.0143634435
-0.00590187 0.06323204 0.088335246 0.07855822 0.052085627 -0.31327632 -0.6207911 -0.043231208
-0.49429 -0.09132007 0.028544093 0.04204406 -0.2628138 -0.38934743 0.02607198 0.47053054
0.05720408 0.41145006 0.41866925 0.12330339 -0.11197678 -0.16871826 -0.20073056 5.7174537e-05
0.024571186 0.12400873 0.10326143 -0.13204163 -0.18330885 -0.15757918 -0.011519416 0.066972
0.017103119 0.0050114784 0.005002364 0.014721605 0.038024284 -0.24114294 -0.11716908 -0.33848527
0.63702106 -0.096449204 -0.33480346 0.38354778 -0.26005673 0.80808264 -0.33297312 0.048594464
0.23263206 -0.22233573 -0.44822854 -0.095569804 -0.17245652 0.091722354 -0.2830428 -0.85055405
0.16674158 -0.15067656 0.13678809 -0.122901276 0.12178775 -0.43967795 0.8228717 -0.481885
-0.098291144 0.54960895 0.07412931 -0.26754802 -0.411596 -0.5593144 0.29563805 -0.6339487
0.70723635 0.33780715 0.46264434 -0.36738354 -1.0998051 0.534465 0.91517925 -0.25295952
0.10936595 -0.30615658 -0.20452331 -0.20097247 -0.46153527 0.2516624 -0.31369823 -0.19775651
0.49061173 0.19653887 -0.487877 -0.4314749 0.16855393 -0.115164176 -0.28207746 0.06989459
-1.069933 0.5457235 0.028435545 -0.28233165 0.12178463 0.34015262 -0.7092178 -0.2945391
00000000: cd0d fb3e ee91 cdbe 2971 d43d f3c2 a23d
00000010: 4a53 03bf aa1b 3e3e 375b b03e 2e78 1ebd
00000020: 0b81 c83e 3e8c 193e becb cb3e 3eb2 e0be
00000030: 271f a9be 678d bd3c 3e98 26be 02e3 a63e
00000040: 0a2c c53d cb02 00bf a3bd eab8 12af 17be
00000050: b583 9ebe 7655 383e e623 8e3e 8767 813d
00000060: 9648 423d e908 3bbd 9511 15be 28bd 9d3d
00000070: bbc7 29be 5090 c43c 2177 3bbe cd3f 353e
00000080: ab1c babe ad8f ddbd cef1 5e3f a25c fabc
00000090: 35dc 183e 7499 8e3d 849b ce3d 21df a3be
000000a0: 65b6 0d3e 5da7 563e 69bd 943e c54a 1dbf
000000b0: aec4 903e c7bb 1c3f 69b5 cabe 96ea cdbe
000000c0: 4c7e 3b3e d093 cabd 1d3f 963e 6058 1abd
000000d0: 2c88 53be 8013 513d b82a 46be 61a6 40bf
000000e0: 33c8 a5bd 3b6b 77be 6fe6 b53d 0156 d7bc
000000f0: f74a 893e 5af1 0bbe 8900 cb3e 666e 183e
00000100: de09 173f 4e6c 43be bc5f 51be 5aae 7fbe
00000110: bde3 1b3e 9baa abbe 5943 c63e 5943 93be
00000120: f4fa 073f 0ae3 3bbe 1769 20be 2e48 28bf
00000130: f60d bdbe 5422 d2be c096 a5bd 5271 b9be
00000140: 1d36 1f3f 7860 873e 8917 303e 0799 3f3d
00000150: 371a 3dbf 6771 743e d640 c53e 8209 743e
00000160: e62a 13bf dee8 8dbd 7d96 0fbe ae3f 4cbd
00000170: 6e9a ae3e b52e 93be 6f96 433e 5abc f2be
00000180: fde1 d0be bbc3 34be 1044 853f 1eab 253f
00000190: ea8c ea3e 4802 82bd a437 9f3e ac69 8f3e
000001a0: de1a d3bb 52af 313d bf70 ae3d 2ee7 a0be
000001b0: 1d96 d33e e2fa 7c3d 14c1 c73d 67bd 53be
000001c0: 8146 a13e 73fa d5bd 23b7 85be 097c e0be
000001d0: a5b3 f13e 30b9 4a3e 3834 96bd 7814 8b3e
000001e0: 33f3 3a3e 1b49 b6be 02e3 bebe dad4 bbbe
000001f0: b988 4f3f 1ee7 b2be 8aae 83be bd3e abbe
00000200: 6554 d7bd caca 383f 1e7c 2f3e 0057 e7be
00000210: 3f3a 843e 80a5 c23e 7f0e 4ebf b981 abbe
00000220: 5f8c 643f 6843 4bbd d09f cb3e f93e 35bf
00000230: c7c6 473e e433 f83d 5d88 86bd 3da2 923d
00000240: ec4f bcbd 698c 0e3f 3377 7d3c e64a adbd
00000250: 7d97 b3be 327b cb3e a509 90bd a654 6bbc
00000260: 7964 c1bb cd7f 813d 1ce9 b43d 22e3 a03d
00000270: bd57 553d c165 a0be 2aec 1ebf 3513 31bd
00000280: 9413 fdbe 0406 bbbd 4dd5 e93c 6436 2c3d
00000290: 888f 86be 8c58 c7be e894 d53c 61e9 f03e
000002a0: d34e 6a3d 95a9 d23e d15b d63e 7d86 fc3d
000002b0: 1554 e5bd 7bc4 2cbe 508c 4dbe b1ce 6f38
000002c0: 8349 c93c 4af8 fd3d bb7a d33d ec35 07be
000002d0: 51b5 3bbe 705c 21be efbb 3cbc 9e28 893d
000002e0: d71b 8c3c 5437 a43b dfea a33b e332 713c
000002f0: 5abf 1b3d 2dee 76be 58f6 efbd f14d adbe
00000300: d013 233f 2987 c5bd 5c6b abbe 6060 c43e
00000310: 2826 85be 81de 4e3f 747b aabe fd0a 473d
00000320: 1937 6e3e faab 63be 367e e5be 1aba c3bd
00000330: 7198 30be eed8 bb3d fcea 90be e9bd 59bf
00000340: 4ebe 2a3e f54a 1abe 2d12 0c3e aab3 fbbd
00000350: db6b f93d 781d e1be b8a7 523f a1b9 f6be
00000360: de4c c9bd 2cb3 0c3f 1cd1 973d 0efc 88be
00000370: b6bc d2be 3b2f 0fbf df5d 973e 764a 22bf
00000380: 710d 353f 0ff5 ac3e b8df ec3e b219 bcbe
00000390: 6ac6 8cbf b3d2 083f 3049 6a3f e983 81be
000003a0: 41fb df3d 8ec0 9cbe 8f6e 51be bacb 4dbe
000003b0: 5a4e ecbe e5d9 803e 0e9d a0be af80 4abe
000003c0: 7631 fb3e 7c41 493e 04cb f9be 47ea dcbe
000003d0: 6799 2c3e 32db ebbd 756c 90be e524 8f3d
000003e0: 91f3 88bf 89b4 0b3f a9f1 e83c c68d 90be
000003f0: 386a f93d 7c28 ae3e 4c8f 35bf d4cd 96be

a2c_network.actor_mlp.0.bias f4 [256]
-0.84287596 -0.17088266 0.5793224 -0.782386 0.17580806 -0.04434041 -0.6847441 -0.606248
-0.9845626 -1.0036948 -0.39452267 -0.5231551 -0.20953448 -0.59197146 -0.75351423 -0.8331157
0.33075714 0.227759 -1.0737743 -1.0138295 0.23255593 -0.28979835 0.19324505 -0.3175787
0.3574786 -0.88031244 -0.19989802 -0.7887235 -0.8492398 0.9872237 -0.62365866 -0.90893203
-0.33000508 -0.5516097 -0.76407534 -1.4585838 -0.28553417 -0.41847584 -0.73248404 -0.5937468
0.22955799 -0.36818606 -0.11211759 0.18980184 0.71480465 -0.48995787 -0.74638206 -0.47833553
-0.7220269 -0.85500485 0.18436709 -0.55947423 -1.2702236 -0.9576011 -0.51722 0.30024356
0.5638003 -0.57678515 -0.6932273 -0.7333033 -0.5902452 -0.94944036 -0.7029422 -0.573676
-0.85163593 -1.0687165 -0.8234267 -0.8988539 -1.3423543 -0.24784833 -0.69465053 -0.6997096
-0.43904504 -0.31891426 0.39079347 -0.15734345 -0.954805 -0.27161944 -0.8844929 -1.1254914
0.2838532 0.25692892 0.7639961 -0.8153914 -0.77549815 -0.16575955 -0.389785 0.26629537
-0.4649243 0.26762092 0.5846875 -0.93828857 -1.3499466 -0.91104174 -0.3314636 -0.17236672
-0.6680201 -0.7224397 -0.55605006 -0.5368109 -1.1089295 0.30103803 -0.73204595 -0.7229979
-0.68454903 0.5246665 0.29806378 0.4103217 -0.016010819 0.9050989 0.1760481 0.19479783
-0.7502557 -0.6756721 -1.0257058 -0.35841483 -0.5653684 0.49664173 -0.4107995 0.19910502
0.14066738 0.18984868 -0.9022648 -0.13007066 -0.05990854 0.1827227 -0.7860626 -0.6524267
-0.45480028 -0.54163337 -0.8308146 0.20562053 -0.7071528 -0.44859925 -0.12020913 -0.14624512
-0.61789733 0.096183315 -1.0897014 -0.71471554 -0.45398977 -0.5476323 -0.7309998 0.09724693
-0.45060164 -0.9458829 -1.0813094 -0.9191661 -0.7948876 -0.60496783 -0.3752388 -0.6494309
-0.2721842 0.23360191 -0.2484156 0.052328717 -0.6425625 -0.30634654 -0.7070823 -0.4839569
0.2746151 -0.81858194 -0.10188588 -0.6452008 -0.38468114 -0.8288879 0.71334875 -0.4580068
-1.1989125 0.19989991 -0.5581793 -0.88011557 -1.379494 -0.19057645 -0.40544358 0.26513854
-0.4919606 -0.61872625 -0.45996058 0.69083285 -0.8382867 -0.30775815 0.43479893 -0.34959906
-0.95948666 -0.3151628 -0.81172925 -0.908024 -0.63337827 -0.89011663 -0.2699592 -0.21591923
-0.40684736 -0.047924675 0.27993986 -0.80515534 0.14815152 -0.495147 -0.26525435 -0.59325117
-0.63759404 0.35379717 -0.7561681 -0.5345171 0.42456177 0.38196102 -0.75117856 -0.54396284
-0.66521317 -0.39536276 -0.79686177 -0.559564 0.4850916 0.37334135 -0.025156604 -0.41164356
-0.49798286 -0.58804476 -0.079574384 -0.6591545 -0.64540255 0.3038059 0.12845883 -0.8961486
-1.1731383 -0.34843764 -0.5746792 -0.8463752 -0.15598083 0.22267655 -1.0895123 -0.7118955
0.1958068 -0.6899285 -0.7263753 -0.7585242 0.24016851 -0.4668888 -0.46124053 -0.37090117
-0.3318898 -1.1593287 -0.4881869 -0.54060334 0.061897133 0.05465066 -0.65284693 0.1130445
-0.9459824 -0.23078458 -1.1665181 -0.5161099 0.4473102 -0.5933084 -0.06955568 -0.13820328
00000000: b8c6 57bf ddfb 2ebe 794e 143f 734a 48bf
00000010: 0707 343e 4a9e 35bd 644b 2fbf 1233 1bbf
00000020: 4b0c 7cbf 1279 80bf e0fe c9be 7eed 05bf
00000030: 3590 56be 718b 17bf 4fe6 40bf 1247 55bf
00000040: 0059 a93e a839 693e 7071 89bf 2ac5 81bf
00000050: 2423 6e3e 7360 94be 08e2 453e ad99 a2be
00000060: 6f07 b73e 285c 61bf 11b2 4cbe c9e9 49bf
00000070: c867 59bf b1ba 7c3f 18a8 1fbf c5af 68bf
00000080: 6df6 a8be 4b36 0dbf 719a 43bf e0b2 babf
00000090: 8931 92be 7742 d6be 1384 3bbf caff 17bf
000000a0: 4011 6b3e e282 bcbe e89d e5bd 6a5b 423e
000000b0: 70fd 363f c2db fabe e512 3fbf 65e8 f4be
000000c0: c1d6 38bf 99e1 5abf baca 3c3e b439 0fbf
000000d0: b096 a2bf 5825 75bf 8868 04bf 86b9 993e
000000e0: 3755 103f 31a8 13bf 5877 31bf c4b9 3bbf
000000f0: 4f1a 17bf 860e 73bf 05f4 33bf 6edc 12bf
00000100: d004 5abf b4cb 88bf 18cc 52bf 4a1b 66bf
00000110: 44d2 abbf f4cb 7dbe 9ed4 31bf 2b20 33bf
00000120: 83ca e0be bb48 a3be 1516 c83e a41e 21be
00000130: 1a6e 74bf b411 8bbe 206e 62bf 1a10 90bf
00000140: 3555 913e 308c 833e 4095 433f 7ebd 50bf
00000150: 0c87 46bf dfbc 29be e691 c7be de57 883e
00000160: 8f0a eebe 9c05 893e 14ae 153f ae33 70bf
00000170: 0dcb acbf 083a 69bf 99b5 a9be e780 30be
00000180: 5e03 2bbf cff1 38bf 4c59 0ebf 706c 09bf
00000190: 67f1 8dbf a821 9a3e 5d67 3bbf 6416 39bf
000001a0: 9b3e 2fbf 8b50 063f d19b 983e b015 d23e
000001b0: 1f29 83bc 90b4 673f f445 343e 1579 473e
000001c0: c210 40bf d9f8 2cbf 544a 83bf 2682 b7be
000001d0: fcbb 10bf d347 fe3e 5054 d2be 30e2 4b3e
000001e0: 1c0b 103e b167 423e d3fa 66bf 3e31 05be
000001f0: a862 75bd a91b 3b3e 663b 49bf 7005 27bf
00000200: 95db e8be 7ca8 0abf 44b0 54bf 308e 523e
00000210: f707 35bf cdae e5be 3430 f6bd 48c1 15be
00000220: 852e 1ebf c2fb c43d 567b 8bbf 99f7 36bf
00000230: 5971 e8be a131 0cbf ce22 3bbf 6629 c73d
00000240: 42b5 e6be 6225 72bf 5968 8abf 784e 6bbf
00000250: c17d 4bbf 2cdf 1abf 4d1f c0be 1a41 26bf
00000260: ba5b 8bbe 5735 6f3e a960 7ebe a356 563d
00000270: fa7e 24bf 74d9 9cbe 5803 35bf 33c9 f7be
00000280: 5a9a 8c3e 968e 51bf 8ba9 d0bd e12b 25bf
00000290: edf4 c4be ff31 54bf 069e 363f de7f eabe
000002a0: f775 99bf 90b2 4c3e d7e4 0ebf 414f 61bf
000002b0: 4293 b0bf 7926 43be 4d96 cfbe 3dc0 873e
000002c0: 42e2 fbbe d864 1ebf f47f ebbe 6cda 303f
000002d0: f599 56bf 7a92 9dbe f79d de3e a6fe b2be
000002e0: eba0 75bf 055d a1be 7dcd 4fbf 4374 68bf
000002f0: 1425 22bf afde 63bf 1838 8abe ee19 5dbe
00000300: 4c4e d0be aa4c 44bd 4754 8f3e a91e 4ebf
00000310: 08b5 173e e883 fdbe 6bcf 87be 4fdf 17bf
00000320: 5d39 23bf e724 b53e 3c94 41bf 1dd6 08bf
00000330: 2960 d93e 6590 c33e 3d4d 40bf 2641 0bbf
00000340: 694b 2abf fd6c cabe 22ff 4bbf 963f 0fbf
00000350: ed5d f83e 9926 bf3e 3915 cebc f2c2 d2be
00000360: 9cf7 febe 1a8a 16bf e5f7 a2bd 59be 28bf
00000370: 1a39 25bf 728c 9b3e b68a 033e ff69 65bf
00000380: 6529 96bf 6b66 b2be 2d1e 13bf 0cac 58bf
00000390: 70b9 1fbe 5205 643e 2475 8bbf c93e 36bf
000003a0: 9481 483e 279f 30bf bbf3 39bf a42e 42bf
000003b0: bcee 753e 0c0c efbe b827 ecbe c2e6 bdbe
000003c0: 76ed a9be e264 94bf a2f3 f9be fb64 0abf
000003d0: d987 7d3d 5fd9 5f3d fa20 27bf e083 e73d
000003e0: e72b 72bf cb52 6cbe 7750 95bf c71f 04bf
000003f0: d805 e53e 0fe3 17bf 3573 8ebd 2985 0dbe

a2c_network.actor_mlp.2.weight f4 [128, 256]
-0.13878444 -0.19969569 -0.25025737 0.15076414 -0.07111626 -0.13584346 0.117276184 0.03545194
0.221685 0.11861778 0.023498952 0.053384397 -0.060871605 0.13188313 0.049397483 0.08237593
-0.23684885 -0.3409688 0.22593418 -0.12961474 -0.1870957 -0.1456268 -0.10948458 0.03206276
-0.43280226 0.1444259 -0.013701572 0.047943607 0.027344976 -0.18528405 -0.08341849 -0.015919987
-0.02174645 0.0052784528 0.01444547 0.121557385 -0.22600214 -0.24821799 0.07125431 0.11420383
-0.24464755 0.10672741 -0.19318248 -0.3859352 -0.35184532 0.09073427 0.32516506 -0.14028955
-0.11363492 -0.034888208 -0.34191942 0.017598175 0.023699993 0.11164237 -0.018182715 -0.31533045
-0.2155862 -0.18299957 -0.27054814 -0.09942008 -0.037579026 -0.003960884 -0.020774933 0.067329295
-0.032694846 -0.1820509 0.09286515 -0.047540165 0.023037428 -0.155829 -0.052607186 0.058229163
-0.032997064 -0.16462329 -0.30592388 -0.1080523 -0.0036053166 -0.06383367 -0.101571165 0.18522218
-0.13255985 -0.31801614 -0.35764772 0.19870885 0.23010448 -0.08173567 -0.10451055 -0.20546678
-0.08859041 -0.2795192 -0.3330864 0.07212627 0.19895151 -0.06897988 -0.19052362 -0.31684622
0.12618192 0.08961664 0.027263138 -0.12682436 0.1950327 -0.30899572 0.06327208 0.057540238
0.1210864 -0.454133 -0.08030759 -0.062011898 -0.18025891 -0.32498524 -0.096357755 -0.24307758
0.04327123 -0.07135814 0.05647604 -0.11478641 0.16878062 -0.23408604 -0.053825732 -0.116711736
-0.3232662 -0.08343003 -0.08364119 -0.14096598 0.1291407 -0.16126327 0.012439804 -0.053143296
0.02834876 -0.052085213 0.042721905 -0.01550742 0.023026997 -0.03828651 -0.053095225 -0.32122654
-0.027526382 -0.19627297 0.028066585 -0.21277362 -0.034765657 -0.17932048 -0.06408394 -0.05530221
0.15447009 0.22486095 0.1505563 -0.09853884 0.03205618 0.046029583 -0.04131185 -0.07082478
-0.07156204 0.026943924 -0.15673111 -0.18902716 0.17291912 0.035403416 0.06579472 0.043221816
-0.1956031 0.07903326 0.06217779 -0.083807744 -0.22261177 0.11104201 -0.32965833 -0.15029044
0.16897136 -0.17110798 -0.109122634 0.06443498 0.018290631 -0.051606175 -0.07772629 -0.065814964
-0.070525825 -0.16034041 0.17884602 -0.34582838 0.049915288 -0.18683377 -0.06993617 -0.033125374
0.026818678 -0.11742372 -0.0043010497 0.012878218 -0.13745858 -0.12889868 0.06634814 -0.019859623
-0.011223394 -0.1617193 -0.15907037 0.06424923 -0.2549841 -0.008797458 -0.1794573 0.09267418
0.14173329 -0.17726086 -0.09291163 0.073823735 -0.22566375 -0.1056516 -0.0026073942 -0.0078173
0.06260227 -0.0211384 -0.09305065 0.10593254 -0.21786441 0.045726415 -0.15496571 -0.11798693
-0.18877342 -0.05426322 -0.22635184 0.007081679 -0.19083233 -0.18994802 -0.1338251 0.07839962
0.03341978 0.0077229524 -0.13654938 -0.124378555 -0.020560777 -0.250806 -0.052881576 -0.022288447
-0.2376126 -0.17682682 -0.01727362 0.076723576 -0.09163356 -0.038743693 -0.16232495 -0.031459365
0.07552094 0.17048122 -0.09190697 -0.15940018 -0.24414705 -0.09758793 0.06609861 -0.007128832
0.089602105 -0.15902314 -0.06564106 -0.17852908 -0.051144555 -0.18872273 -0.22534575 0.016995074
00000000: 821d 0ebe 077d 4cbe bc21 80be ea61 1a3e
00000010: 67a5 91bd 8c1a 0bbe 7f2e f03d 0e36 113d
00000020: 6501 633e e1ed f23d e080 c03c 99a9 5a3d
00000030: 8154 79bd 5f0c 073e 0455 4a3d b6b4 a83d
00000040: 8188 72be 7693 aebe 4a5b 673e bab9 04be
00000050: 0496 3fbe 311f 15be 7439 e0bd 3e54 033d
00000060: 4298 ddbe 62e4 133e 8f7c 60bc 8460 443d
00000070: 9202 e03c 1abb 3dbe 50d7 aabd a26a 82bc
00000080: 9c25 b2bc dff6 ac3b b1ac 6c3c 14f3 f83d
00000090: 1b6d 67be db2c 7ebe c8ed 913d b3e3 e93d
000000a0: e384 7abe e693 da3d a1d1 45be 4c99 c5be
000000b0: 1225 b4be e4d2 b93d 097c a63e 10a8 0fbe
000000c0: 6db9 e8bd f0e6 0ebd 1010 afbe 0c2a 903c
000000d0: 7d26 c23c c1a4 e43d ebf3 94bc fe72 a1be
000000e0: a1c2 5cbe 3d64 3bbe 4985 8abe c19c cbbd
000000f0: 77ec 19bd 4eca 81bb 3130 aabc f1e3 893d
00000100: 08eb 05bd 8d6b 3abe 1530 be3d 7ab9 42bd
00000110: fdb8 bc3c a391 1fbe a27a 57bd b481 6e3d
00000120: ee27 07bd 0293 28be 0ea2 9cbe 864a ddbd
00000130: 2d47 6cbb 3abb 82bd 8b04 d0bd e2aa 3d3e
00000140: c5bd 07be 03d3 a2be 9a1d b7be 557a 4b3e
00000150: 82a0 6b3e 0865 a7bd a109 d6bd e265 52be
00000160: e46e b5bd 241d 8fbe 4d8a aabe f0b6 933d
00000170: f2b9 4b3e 5345 8dbd a018 43be ab39 a2be
00000180: d535 013e ee88 b73d f256 df3c 3fde 01be
00000190: a7b6 473e b034 9ebe cb94 813d 50af 6b3d
000001a0: 25fc f73d 1f84 e8be 4e78 a4bd 3000 7ebd
000001b0: cb95 38be 7764 a6be 3757 c5bd 54e9 78be
000001c0: 2c3d 313d 3724 92bd 6c53 673d 2315 ebbd
000001d0: d4d4 2c3e 40b4 6fbe 5f78 5cbd 9006 efbd
000001e0: 2683 a5be 5ddd aabd 124c abbd 6359 10be
000001f0: 763d 043e 3322 25be 52d0 4b3c c9ac 59bd
00000200: a93b e83c 4e57 55bd 2afd 2e3d d512 7ebc
00000210: 1da3 bc3c 51d2 1cbd 617a 59bd ce77 a4be
00000220: 027f e1bc c8fb 48be e5eb e53c 54e1 59be
00000230: 6f66 0ebd ca9f 37be 713e 83bd 9284 62bd
00000240: 682d 1e3e f341 663e 6e2b 1a3e bbce c9bd
00000250: 574d 033d 8489 3c3d 9d36 29bd 950c 91bd
00000260: 1e8f 92bd 81b9 dc3c 1f7e 20be 5690 41be
00000270: b611 313e 2c03 113d 62bf 863d 5c09 313d
00000280: 2e4c 48be 31dc a13d 23ae 7e3d 65a3 abbd
00000290: 57f4 63be fe69 e33d fac8 a8be bde5 19be
000002a0: d406 2d3e ee36 2fbe b07b dfbd 7df6 833d
000002b0: 3cd6 953c ff60 53bd f62e 9fbd ffc9 86bd
000002c0: d86f 90bd 4730 24be 6923 373e 6b10 b1be
000002d0: f973 4c3d 5a51 3fbe b23a 8fbd 79ae 07bd
000002e0: d8b2 db3c d97b f0bd d2ef 8cbb 29ff 523c
000002f0: f1c1 0cbe 04fe 03be 89e1 873d a6b0 a2bc
00000300: 54e2 37bc bf99 25be 58e3 22be 1a95 833d
00000310: 478d 82be 3723 10bc a8c3 37be f6cb bd3d
00000320: 8822 113e df83 35be 7448 bebd e630 973d
00000330: 6614 67be de5f d8bd d1e0 2abb 2214 00bc
00000340: 9e35 803d 702a adbc 5791 bebd 29f3 d83d
00000350: d917 5fbe 9f4b 3b3d 55af 1ebe 22a3 f1bd
00000360: d24d 41be 1c43 5ebd c7c8 67be 6e0d e83b
00000370: 8d69 43be bc81 42be 7209 09be fb8f a03d
00000380: 2ee3 083d d210 fd3b 9ad3 0bbe 2fba febd
00000390: 136f a8bc a569 80be 5a9a 58bd 4396 b6bc
000003a0: b850 73be 1712 35be 6881 8dbc 4021 9d3d
000003b0: 60aa bbbd b5b1 1ebd 8338 26be 89db 00bd
000003c0: b9aa 9a3d a192 2e3e b939 bcbd cd39 23be
000003d0: af01 7abe 2edc c7bd b55e 873d fa98 e9bb
000003e0: 4f81 b73d f6d6 22be d26e 86bd 54d0 36be
000003f0: f47c 51bd 8840 41be 09c1 66be 4139 8b3c

a2c_network.actor_mlp.2.bias f4 [128]
-0.26379988 -0.26223305 -0.63930357 -0.47251618 -0.4323893 -0.43940195 -0.30361247 -0.30444086
0.059831087 -0.30263105 0.072835885 -0.18180057 0.03830357 -0.62028193 -0.46668407 -0.34023008
0.3583959 -0.44600496 -0.38366592 0.07223623 -0.4146188 -0.105222516 -0.14732754 -0.019032026
-0.15466869 -0.0767942 -0.36571208 -0.42823267 -0.4936267 -0.42344004 -0.289157 -0.4672959
-0.27859512 -0.2798355 -0.35651153 -0.19708875 0.17467795 -0.58498037 -0.30392364 -0.30525917
-0.016453253 -0.41316432 -0.30139142 -0.4220986 -0.34508944 -0.5333913 -0.3008221 -0.25998244
-0.26968864 -0.58601224 -0.22066747 -0.2800604 -0.4902021 -0.20595145 -0.18160003 -0.19613467
-0.42855406 -0.52313566 -0.38051346 -0.07049929 -0.17651124 -0.013969468 0.015337476 0.0038566932
-0.3938284 -0.24837194 -0.4680544 -0.44256192 -0.16076165 -0.55460215 -0.54933417 -0.0028146394
-0.37165505 -0.32381883 -0.37701702 -0.26774016 -0.29875255 -0.33249712 -0.21898672 -0.17469169
0.07782456 -0.52235156 -0.30724245 -0.07423442 0.007451168 -0.27396685 -0.26387367 0.13983858
-0.5890672 -0.39073032 0.06566259 -0.3598886 -0.33193824 -0.050100204 -0.42349386 -0.13462739
-0.54483265 -0.15976849 -0.71882325 -0.20099324 -0.52053064 -0.36681268 -0.611263 -0.555338
-0.50259256 0.17488262 -0.28303254 0.32456228 -0.18543315 -0.41340068 -0.51617664 -0.49741834
-0.2863724 -0.087587886 0.14392652 -0.11046903 -0.29457393 -0.6805927 -0.2831331 -0.50533044
-0.4719405 -0.477543 -0.57218724 0.02014822 -0.5349211 0.10184577 -0.3460418 0.14216883
00000000: c710 87be 6943 86be 66a9 23bf a4ed f1be
00000010: 2162 ddbe 4bf9 e0be 1873 9bbe acdf 9bbe
00000020: 7111 753d 75f2 9abe fb2a 953d ee29 3abe
00000030: 34e4 1c3d ccca 1ebf 37f1 eebe a332 aebe
00000040: ab7f b73e c35a e4be dc6f c4be 97f0 933d
00000050: ea48 d4be e77e d7bd 08dd 16be 0de9 9bbc
00000060: 7861 1ebe 4746 9dbd 9d3e bbbe 5041 dbbe
00000070: a4bc fcbe 22cd d8be 630c 94be 6941 efbe
00000080: 05a4 8ebe 9946 8fbe ae88 b6be a2d1 49be
00000090: c7de 323e 46c1 15bf e19b 9bbe ee4a 9cbe
000000a0: f9c8 86bc 468a d3be fa4f 9abe 4f1d d8be
000000b0: 90af b0be 558c 08bf 5b05 9abe 6b1c 85be
000000c0: a114 8abe e604 16bf a7f6 61be 1464 8fbe
000000d0: c5fb fabe f0e4 52be 5cf5 39be 87d7 48be
000000e0: 706b dbbe 38ec 05bf a9d2 c2be ef61 90bd
000000f0: 5dbf 34be 32e0 64bc 094a 7b3c 93c0 7c3b
00000100: e0a3 c9be 3755 7ebe d4a4 efbe 7a97 e2be
00000110: b49e 24be 68fa 0dbf 2aa1 0cbf d075 38bb
00000120: 9249 bebe 95cb a5be 6008 c1be 3d15 89be
00000130: 18f6 98be 103d aabe 0e3e 60be 61e2 32be
00000140: 7c62 9f3d d5b8 05bf e24e 9dbe 3708 98bd
00000150: ed28 f43b 6245 8cbe 731a 87be d831 0f3e
00000160: 1ccd 16bf ce0d c8be 1c7a 863d 5243 b8be
00000170: cff3 a9be df35 4dbd 30d4 d8be c3db 09be
00000180: 277a 0bbf 5a9a 23be cd04 38bf 2cd1 4dbe
00000190: 7f41 05bf dfce bbbe bb7b 1cbf a22a 0ebf
000001a0: e8a9 00bf 6e14 333e a4e9 90be 072d a63e
000001b0: 30e2 3dbe 41a9 d3be 2724 04bf 9ead febe
000001c0: 679f 92be 4761 b3bd 7961 133e 963d e2bd
000001d0: 65d2 96be 533b 2ebf d2f6 90be 565d 01bf
000001e0: 2fa2 f1be 8480 f4be dd7a 12bf e10d a53c
000001f0: 97f0 08bf 8494 d03d 642c b1be b594 113e

a2c_network.actor_mlp.4.weight f4 [64, 128]
0.4872502 0.12460673 0.14803609 0.32766825 -0.030566959 0.20250788 0.29139 -0.17181575
-0.17464316 0.2751458 0.4165405 0.03622726 -0.067714795 0.12228027 0.12795016 0.36655062
-0.6471591 -0.049076512 -0.13343067 -0.38444722 0.4029866 -0.14859518 -0.21542981 -0.2370238
-0.36038345 -0.43836066 0.40011522 -0.34058392 0.34191164 -0.22589484 0.35983312 0.14907889
0.3880878 0.36334604 0.35263416 -0.059789047 -0.2309837 -0.3232127 0.32967678 0.3715946
-0.352575 0.09551562 -0.18807013 0.45182666 -0.25101143 0.080907166 -0.04119072 -0.28545845
0.20201178 0.42810816 0.21811402 0.4596971 0.00061295147 -0.13319553 0.39773196 -0.12606135
0.53169775 0.1545618 0.0462671 -0.11325599 -0.12286714 -0.33230323 -0.24507578 0.044908762
-0.105236605 -0.5492738 0.36128318 0.26473033 0.1941364 0.3764174 0.16424029 -0.5351754
0.13156201 -0.25992808 0.21793634 0.38653436 -0.2813316 -0.20872849 0.34754673 -0.1880292
-0.00018597323 0.536649 0.17897011 0.13268389 -0.42097637 -0.01656956 0.1694238 -0.73262423
0.0578854 -0.10641069 -0.37723556 0.451149 0.093675226 -0.2657745 0.25233185 -0.049502935
-0.025238896 -0.6304054 0.0126444595 0.22372985 0.31002575 0.18270048 0.30974847 0.3588807
-0.022036208 -0.37025368 0.5854159 -0.34988603 0.5266208 -0.03243755 0.5324215 0.055700317
0.6256136 -0.065489136 -0.27255625 -0.14720705 0.30332676 0.5969127 -0.2546686 0.14626198
0.12258754 0.24363685 0.1255484 -0.40685353 -0.17487961 -0.36477283 0.018294616 0.097121656
0.3487416 -0.25071895 0.3253057 0.5440419 0.20786873 0.3337004 0.53645414 -0.27608913
-0.29751614 0.14268222 -0.20277585 -0.015952319 -0.30977413 0.2104874 -0.08085142 0.3165889
-0.11297923 -0.18639544 -0.05533948 -0.65614265 0.34776586 -0.32980543 -0.4768833 0.16526607
-0.13340358 -0.27392092 0.10407429 -0.06945739 0.024898442 -0.1878026 0.34290093 0.5977967
0.19535787 -0.15869771 0.36819813 0.2034817 -0.21556334 0.10252729 0.21332859 0.29757702
0.006376472 -0.045621324 -0.121722594 0.44098946 0.117305696 -0.058499884 0.1620455 0.023007963
-0.058318846 0.2886117 -0.012693182 0.21852352 0.25547197 0.11186493 0.20769891 0.034300547
0.5508126 0.013739087 -0.22028549 -0.071023054 -0.2496337 -0.020441307 -0.50154346 -0.09394272
-0.15775868 -0.21820012 0.11496225 0.16423863 0.24756323 0.5379641 -0.24548043 -0.57498354
0.20246674 0.07036774 0.08428534 -0.0331887 -0.032635514 0.1917628 0.3079041 -0.30126676
0.1338738 0.6000949 0.036258705 0.049284022 0.09206555 -0.08964087 -0.08922679 -0.4929072
0.20316094 0.12826948 0.023229867 -0.0097810235 0.026488587 -0.24591012 -0.10876995 0.013215809
0.15840773 -0.13816705 -0.040428165 0.04066356 -0.32468933 0.12425194 -0.47643426 0.3405793
0.099191844 -0.32213435 0.15864182 -0.07935067 0.13147718 0.12366006 0.22999851 0.19859222
0.42669526 -0.3716682 -0.14724204 -0.11755823 0.07789128 0.23200403 -0.062351067 0.23331165
-0.019509718 -0.037019763 0.18027581 -0.13740598 0.09166796 0.18555197 -0.25738713 -0.30995753
00000000: dc78 f93e d031 ff3d c696 173e 22c4 a73e
00000010: 8f67 fabc 3a5e 4f3e 1231 953e 78f0 2fbe
00000020: a8d5 32be e9df 8c3e cc44 d53e 0963 143d
00000030: 0eae 8abd 146e fa3d 5e05 033e 86ac bb3e
00000040: 38ac 25bf 7404 49bd 0da2 08be 44d6 c4be
00000050: 4254 ce3e 5629 18be a299 5cbe 5eb6 72be
00000060: 2e84 b8be cf70 e0be e7db cc3e 0461 aebe
00000070: 0b0f af3e fa50 67be 0c3c b83e 23a8 183e
00000080: 72b3 c63e 7e08 ba3e 778c b43e 5ce5 74bd
00000090: fe86 6cbe 237c a5be 65cb a83e a641 be3e
000000a0: b684 b4be b29d c33d 7595 40be d355 e73e
000000b0: 9284 80be a8b2 a53d 9ab7 28bd 9c27 92be
000000c0: 2ddc 4e3e fe30 db3e 4859 5f3e 6b5d eb3e
000000d0: 7aae 203a 6964 08be 86a3 cb3e 3a16 01be
000000e0: 581d 083f 7345 1e3e 9282 3d3d c2f2 e7bd
000000f0: c4a1 fbbd a623 aabe 25f5 7abe 40f2 373d
00000100: 4a86 d7bd 359d 0cbf 1cfa b83e bc8a 873e
00000110: b1cb 463e c8b9 c03e 9b2e 283e 4101 09bf
00000120: 31b8 063e 4b15 85be b42a 5f3e d5e7 c53e
00000130: b20a 90be ecbc 55be a5f1 b13e ba8a 40be
00000140: cf01 43b9 d461 093f f143 373e 49de 073e
00000150: 378a d7be e3bc 87bc 6f7d 2d3e 438d 3bbf
00000160: 3e19 6d3d d9ed d9bd 0525 c1be 00fd e63e
00000170: ccd8 bf3d 9813 88be a431 813e 97c3 4abd
00000180: cdc1 cebc 4062 21bf b52a 4f3c 7019 653e
00000190: b2bb 9e3e d615 3b3e 5a97 9e3e 36bf b73e
000001a0: 4785 b4bc e491 bdbe d1dd 153f 4324 b3be
000001b0: 9fd0 063f 3ddd 04bd c74c 083f 0426 643d
000001c0: 3628 203f 2b1f 86bd 7e8c 8bbe 72bd 16be
000001d0: a54d 9b3e 45cf 183f ec63 82be b3c5 153e
000001e0: 2d0f fb3d f07b 793e c38f 003e 1b4f d0be
000001f0: a413 33be 81c3 babe 97de 953c b8e7 c63d
00000200: 428e b23e 3c5e 80be 788e a63e 5446 0b3f
00000210: 8adb 543e c7da aa3e 0f55 093f 8e5b 8dbe
00000220: 0954 98be 4a1b 123e 79a4 4fbe 70ae 82bc
00000230: b79a 9ebe 028a 573e 6e95 a5bd f117 a23e
00000240: a861 e7bd 72de 3ebe a7ab 62bd f7f8 27bf
00000250: 5e0e b23e 42dc a8be 0c2a f4be 823b 293e
00000260: f39a 08be 5d3f 8cbe e724 d53d ad3f 8ebd
00000270: d1f7 cb3c 534f 40be b690 af3e 3409 193f
00000280: e50b 483e a781 22be 7784 bc3e 825d 503e
00000290: a3bc 5cbe d4f9 d13d cf72 5a3e 045c 983e
000002a0: b9f1 d03b 6ddd 3abd b249 f9bd 5fc9 e13e
000002b0: f83d f03d 939d 6fbd 41ef 253e 327b bc3c
000002c0: bedf 6ebd eac4 933e 10f7 4fbc a1c4 5f3e
000002d0: 39cd 823e 7119 e53d 06af 543e bb7e 0c3d
000002e0: 0e02 0d3f e819 613c 8592 61be 8974 91bd
000002f0: fa9f 7fbe 8774 a7bc 2765 00bf 0a65 c0bd
00000300: 7e8b 21be da6f 5fbe 5471 eb3d 2c2e 283e
00000310: 3781 7d3e 04b8 093f 395f 7bbe 1f32 13bf
00000320: 7153 4f3e f61c 903d cb9d ac3d e0f0 07bd
00000330: d1ac 05bd 785d 443e 9ba5 9d3e a33f 9abe
00000340: 3716 093e d29f 193f 0284 143d 0bde 493d
00000350: dd8c bc3d a295 b7bd 89bc b6bd 555e fcbe
00000360: 6c09 503e 1359 033e 904c be3c 9640 20bc
00000370: 98fe d83c ddcf 7bbe c8c2 debd 1f87 583c
00000380: a335 223e aa7b 0dbe 0198 25bd d58e 263d
00000390: ae3d a6be cd77 fe3d 31ef f3be 6960 ae3e
000003a0: 1825 cb3d cbee a4be 0073 223e 9b82 a2bd
000003b0: f4a1 063e 7c41 fd3d bb84 6b3e c25b 4b3e
000003c0: cd77 da3e 4b4b bebe 9ec6 16be 5fc2 f0bd
000003d0: 7785 9f3d 7792 6d3e d563 7fbd 40e9 6e3e
000003e0: d8d2 9fbc 09a2 17bd 399a 383e 27b4 0cbe
000003f0: 69bc bb3d 5601 3e3e 3fc8 83be c1b2 9ebe

a2c_network.actor_mlp.4.bias f4 [64]
-0.6092077 -0.21336779 -0.38447723 -0.19553508 -0.44639474 -0.23524144 -0.22979425 -0.22362785
-0.41923591 -0.16661927 -0.21976793 -0.54225576 -0.34767956 -0.26126644 -0.44908443 -0.1858827
-0.309458 -0.21580203 -0.15501185 -0.32292768 -0.56476253 -0.19065589 -0.4206445 -0.6739655
-0.44980547 -0.23817912 -0.17176054 -0.18360642 0.29027674 -0.19742642 -0.08205216 -0.2955573
-0.28659388 -0.60871863 -0.16773334 -0.22908328 -0.5302685 -0.25472024 -0.17662738 -0.28231058
-0.21131644 -0.22043844 -0.2763671 -0.21298891 -0.16353413 -0.1378386 -0.22361666 -0.24301404
-0.2919025 -0.20541066 -0.2896177 -0.5590295 -0.3675157 -0.21010958 -0.1261879 -0.33404383
-0.20869254 -0.15261504 -0.26098573 -0.37580526 -0.15516558 0.51403534 -0.35553122 -0.34241748
00000000: 09f5 1bbf 167d 5abe 33da c4be 593a 48be
00000010: da8d e4be 22e3 70be 2f4f 6bbe b3fe 64be
00000020: 17a6 d6be 3e9e 2abe d80a 61be 46d1 0abf
00000030: 0e03 b2be b7c4 85be 65ee e5be 0958 3ebe
00000040: 4771 9ebe 35fb 5cbe 6dbb 1ebe c756 a5be
00000050: 4794 10bf 4c3b 43be b75e d7be 0189 2cbf
00000060: e74c e6be 3ae5 73be ffe1 2fbe 5203 3cbe
00000070: 279f 943e 272a 4abe f60a a8bd 4953 97be
00000080: 6fbc 92be fcd4 1bbf 4ac2 2bbe cf94 6abe
00000090: adbf 07bf b16a 82be cfdd 34be 038b 90be
000000a0: 5663 58be 9dba 61be fd7f 8dbe c419 5abe
000000b0: 7e75 27be 9025 0dbe c4fb 64be acd8 78be
000000c0: 3f74 95be 2c57 52be c548 94be 8f1c 0fbf
000000d0: 052b bcbe f726 57be 6737 01be cb07 abbe
000000e0: 7fb3 55be 1e47 1cbe ec9f 85be 8c69 c0be
000000f0: bae3 1ebe d297 033f 3008 b6be 5851 afbe

a2c_network.value.weight f4 [1, 64]
0.0043846825 0.0031069482 0.01898561 0.016208414 0.03520973 0.022771148 0.014124037 0.023915691
0.02182306 0.03163927 0.007499615 0.03648682 0.035270013 -0.1138732 -0.1918796 0.008884537
0.029543424 0.007154241 0.026970768 0.25231755 0.010696 -0.17750567 0.0015570293 0.03143069
-0.0047566467 0.030246 0.07078384 0.030971302 -0.12565266 0.002495 -0.168396 -0.09864283
0.031466834 0.008717649 0.113577634 0.030430973 -0.07368088 0.003971426 0.042187996 0.019195715
-0.020602135 0.07190046 0.029404128 -0.0051231347 0.0029519114 0.014327181 0.032730687 0.036285795
0.0060027647 0.02826581 -0.1517745 0.03091962 -0.18263291 0.004129771 0.012799797 0.016213482
0.020915346 0.05164619 0.011166117 0.031299792 -0.021317625 -0.27302322 -0.18627644 0.00046851527
00000000: 62ad 8f3b f19d 4b3b b687 9b3c 82c7 843c
00000010: 1438 103d 8f8a ba3c 8168 673c d7ea c33c
00000020: 46c6 b23c 2e98 013d 55bf f53b 3473 153d
00000030: 4a77 103d 5a36 e9bd 167c 44be 7390 113c
00000040: 0d05 f23c 206e ea3b cdf1 dc3c c42f 813e
00000050: 473e 2f3c 0cc4 35be 3c15 cc3a 78bd 003d
00000060: a5dd 9bbb 76c6 f73c 1ef7 903d 87b7 fd3c
00000070: 17ab 00be 2783 233b 0070 2cbe 4105 cabd
00000080: 5ee3 003d 78d4 0e3c 649b e83d 604a f93c
00000090: 00e6 96bd bc22 823b 52cd 2c3d 5540 9d3c
000000a0: cfc5 a8bc 8c40 933d ede0 f03c f8df a7bb
000000b0: db74 413b 8dbc 6a3c 9d10 063d 6aa0 143d
000000c0: d7b2 c43b b38d e73c c66a 1bbe 254b fd3c
000000d0: 1f04 3bbe 0853 873b 3db6 513c 23d2 843c
000000e0: a956 ab3c f58a 533d 17f2 363c 3634 003d
000000f0: 4da2 aebc b3c9 8bbe 40bf 3ebe 0ea3 f539

a2c_network.mu.weight f4 [12, 64]
0.11166086 -0.33247495 0.115023196 -0.1296034 -0.18099591 -0.123144396 0.08880396 -0.25758582
-0.021306919 -0.39088362 -0.21566913 -0.08189387 -0.10105507 0.15731734 0.1503692 -0.10447774
-0.11496743 0.0868044 0.06214017 -0.00047553133 -0.21643813 -0.21113722 -0.10859232 0.17339861
-0.18944506 -0.03529143 -0.083813824 0.20032294 -0.057803646 -0.18098782 -0.06859012 0.22552453
0.04934445 -0.05444468 0.12680368 -0.030400835 0.20369428 0.14955042 0.38197938 -0.12447569
0.11376412 -0.29529566 0.1987701 -0.0695192 0.10570953 0.16875385 -0.112585284 -0.11293909
0.09076569 0.011710566 -0.08621121 0.070911124 -0.01650149 -0.028506191 0.278696 -0.26999944
0.10791755 -0.40843245 0.016523471 0.11172023 0.032299485 0.027872005 -0.059601728 -0.005332191
-0.2030865 0.05240734 0.3205409 -0.03850878 0.027357716 0.08397292 -0.20151995 0.08297929
-0.14375389 0.006923854 0.004260534 0.06153455 0.00631759 -0.32528505 -0.021248931 0.076536395
0.11812841 -0.14735986 0.1754508 -0.17791218 -0.167912 0.061082616 0.08067484 -0.01921048
-0.195593 0.083398595 -0.1632359 -0.24050795 -0.064553276 0.093067 -0.019317662 0.05698451
-0.3490952 0.3201397 -0.04726032 0.009377288 0.1366162 0.04188235 0.13025543 -0.12104763
-0.028898781 0.076391526 -0.1410762 0.010476276 0.009169046 0.17073038 0.16257685 -0.09560769
-0.038952973 0.24447878 -0.01908605 -0.09344857 -0.20254464 0.054500073 0.07000728 -0.046936356
-0.027450785 0.18726674 -0.15988465 -0.04864732 0.107004955 0.104639225 -0.006516163 -0.13558054
-0.15726879 -0.14130561 0.19269615 -0.28400606 0.35385028 -0.06824276 0.10448202 0.013968924
0.04889139 0.008068069 -0.16385393 -0.08367039 0.018974787 0.0665821 -0.049653452 0.26788807
-0.017388621 -0.07090829 0.054598458 -0.09911589 -0.13763684 -0.053100396 -0.34092623 -0.10204478
-0.059425898 -0.21039869 0.20901658 -0.15719569 0.02143271 -0.15354341 -0.013096831 -0.04556491
0.013416612 0.15580906 0.06991247 -0.16084653 -0.04861561 -0.18000129 0.15008755 0.14868097
0.015779532 -0.036507357 0.20629968 0.18439445 0.07000868 0.059808485 0.09678243 -0.032574054
-0.10041082 0.15105708 -0.19583209 0.07984781 0.091124065 0.08437935 0.063537695 -0.12344676
0.19815284 0.06552948 0.12402721 0.1794398 0.14159365 0.061003447 -0.0054401173 -0.13697137
-0.020883618 0.023242876 -0.12168512 0.2855416 -0.054218926 -0.28816807 -0.040674243 -0.06273943
-0.28665012 0.08900842 -0.029956032 -0.04818881 -0.356495 0.1679862 -0.11835939 -0.035462726
-0.087117255 -0.24473521 -0.21588331 0.06423793 0.21449454 -0.030547464 0.19348438 -0.07476922
0.08203761 0.3599761 0.075319506 -0.037539642 -0.03771359 -0.06770974 -0.21352991 -0.3877555
0.27621424 -0.21372195 0.0876092 -0.21253856 -0.23129061 -0.22935732 -0.07740234 0.30064517
0.1864666 0.09160986 0.019268762 -0.052888554 -0.21384288 -0.2096029 -0.08908085 0.0857466
0.39502135 -0.18498027 -0.06905165 0.07556813 0.06920928 0.09881117 0.07629654 0.016863666
0.1119443 0.10113231 0.0441157 0.0014125737 0.15588883 0.0010991602 -0.061717283 -0.04626877
00000000: 73ae e43d 283a aabe 4891 eb3d c1b6 04be
00000010: fe56 39be 2133 fcbd dade b53d 4ae2 83be
00000020: d98b aebc e621 c8be 5ed8 5cbe f9b7 a7bd
00000030: f6f5 cebd cc17 213e 62fa 193e 6df8 d5bd
00000040: 0b74 ebbd 81c6 b13d b186 7e3d bc50 f9b9
00000050: f5a1 5dbe 5b34 58be a665 debd 688f 313e
00000060: e3fd 41be bf8d 10bd 95a6 abbd 7521 4d3e
00000070: 84c3 6cbd df54 39be fa78 8cbd e7ef 663e
00000080: 681d 4a3d 6301 5fbd d3d8 013e 2c0b f9bc
00000090: 3c95 503e bf23 193e cd92 c33e 1ced febd
000000a0: 2afd e83d fe30 97be 648a 4b3e 1560 8ebd
000000b0: 3d7e d83d cfcd 2c3e 1d93 e6bd 9c4c e7bd
000000c0: 5de3 b93d acdd 3f3c 818f b0bd da39 913d
000000d0: 222e 87bc d185 e9bc 3eb1 8e3e 5e3d 8abe
000000e0: e003 dd3d 0f1e d1be 3b5c 873c 93cd e43d
000000f0: 774c 043d d553 e43c f120 74bd a9b9 aebb
00000100: e8f5 4fbe 14a9 563d f01d a43e 62bb 1dbd
00000110: 4a1d e03c fff9 ab3d 3f5b 4ebe 0cf1 a93d
00000120: 3834 13be 7fe1 e23b f39b 8b3b a70b 7c3d
00000130: c903 cf3b c38b a6be 3d12 aebc 1dbf 9c3d
00000140: 4fed f13d 81e5 16be 60a9 333e 9c2e 36be
00000150: 20f1 2bbe c431 7a3d da38 a53d 4c5f 9dbc
00000160: 8849 48be e2cc aa3d 5027 27be b747 76be
00000170: 8234 84bd e999 be3d 1340 9ebc 9768 693d
00000180: 9bbc b2be 5ae9 a33e 0a94 41bd 32a3 193c
00000190: 1ee5 0b3e d48c 2b3d ae61 053e d2e7 f7bd
000001a0: 23bd ecbc 2973 9c3d 4876 10be b0a4 2b3c
000001b0: c439 163c f2d3 2e3e 8c7a 263e f7cd c3bd
000001c0: 278d 1fbd a558 7a3e 595a 9cbc f761 bfbd
000001d0: dd67 4fbe 783b 5f3d fa5f 8f3d 5640 40bd
000001e0: 78e0 e0bc dac2 3f3e cdb8 23be 6a42 47bd
000001f0: 6a25 db3d 174d d63d 8985 d5bb a0d5 0abe
00000200: 120b 21be 6bb2 10be 2452 453e 3e69 91be
00000210: dd2b b53e dcc2 8bbd abfa d53d eadd 643c
00000220: 5742 483d ef2f 043c 53c9 27be 625b abbd
00000230: 0371 9b3c 325c 883d 6b61 4bbd a028 893e
00000240: 9572 8ebc 5e38 91bd a2a2 5f3d 46fd cabd
00000250: acf0 0cbe cd7f 59bd e28d aebe dbfc d0bd
00000260: 9268 73bd c172 57be 7108 563e e8f7 20be
00000270: a793 af3c 7c3a 1dbe 1794 56bc 45a2 3abd
00000280: 59d1 5b3c 698c 1f3e 452e 8f3d f4b4 24be
00000290: 2921 47bd 4252 38be 8db0 193e d33f 183e
000002a0: 1444 813c bd88 15bd 3940 533e e6d1 3c3e
000002b0: b660 8f3d bef9 743d de35 c63d 5f6c 05bd
000002c0: 30a4 cdbd b5ae 1a3e 3588 48be 4087 a33d
000002d0: 419f ba3d 15cf ac3d 0d20 823d a8d1 fcbd
000002e0: 94e8 4a3e 5234 863d fa01 fe3d 11bf 373e
000002f0: edfd 103e c0de 793d 0343 b2bb 3942 0cbe
00000300: 1f14 abbc d867 be3c 0c36 f9bd 8232 923e
00000310: aa14 5ebd c48a 93be 099a 26bd 887d 80bd
00000320: cec3 92be 0c4a b63d 5a66 f5bc a161 45bd
00000330: 8386 b6be 9304 2c3e 6866 f2bd 5d41 11bd
00000340: 886a b2bd de9b 7abe 8410 5dbe 2d8f 833d
00000350: 75a4 5b3e ad3e fabc c520 463e 9b20 99bd
00000360: 5603 a83d ca4e b83e 1d41 9a3d 2bc3 19bd
00000370: 9179 1abd 67ab 8abd 96a7 5abe e487 c6be
00000380: f46b 8d3e edd9 5abe 746c b33d b5a3 59be
00000390: 72d7 6cbe a5dc 6abe 1e85 9ebd 2aee 993e
000003a0: 1af1 3e3e f39d bb3d 86d9 9d3c aba1 58bd
000003b0: a1f9 5abe 25a2 56be 0570 b6bd ea9b af3d
000003c0: 3d40 ca3e 786b 3dbe f46a 8dbd 77c3 9a3d
000003d0: 98bd 8d3d 835d ca3d 5c41 9c3d ac25 8a3c
000003e0: 0e43 e53d 751e cf3d aab2 343d 1c26 b93a
000003f0: 52a1 1f3e b211 903a 43cb 7cbd 5284 3dbd

a2c_network.mu.bias f4 [12]
-0.11657429 -0.006953141 -0.06695442 0.003286618 -0.24795532 0.0033386978 -0.00492698 0.05508444
-0.020763574 -0.15568225 0.15287417 0.08928074
00000000: 80be eebd 2dd7 e3bb 661f 89bd 4d64 573b
00000010: 00e8 7dbe 0ece 5a3b 8172 a1bb 39a0 613d
00000020: 5f18 aabc 2b6b 1fbe 0c8b 1c3e d2d8 b63d

exp_avg f4 [12]
-0.00014511055 0.00123681 -3.319324e-05 0.0018032453 -0.00019220925 -0.0007833025 0.0016998083 -0.0015806622
0.0008108764 -0.0003231078 0.0011852679 -0.0020504894
00000000: d128 18b9 751c a23a f838 0bb8 df5a ec3a
00000010: c78b 49b9 8a56 4dba 1acc de3a 392e cfba
00000020: fe90 543a cb66 a9b9 fe5a 9b3a 8161 06bb

exp_avg_sq f4 [12]
5.3995984e-05 5.7466346e-05 6.00343e-05 5.993246e-05 6.871683e-05 7.090724e-05 6.212131e-05 6.034749e-05
5.394956e-05 6.2351275e-05 5.5814508e-05 6.188794e-05
00000000: bf79 6238 0508 7138 57cd 7b38 fd5f 7b38
00000010: 111c 9038 09b4 9438 2047 8238 a01d 7d38
00000020: e647 6238 96c2 8238 5f1a 6a38 d6c9 8138

exp_avg f4 [256, 48]
-3.6374965e-06 4.9155096e-06 -9.456144e-07 1.3386756e-06 -5.473753e-06 1.1740786e-06 1.1072315e-05 -3.8406183e-06
3.6175294e-07 5.163566e-06 -5.4731486e-06 1.0122786e-05 -3.671268e-06 4.582718e-06 1.6364202e-06 2.8272082e-06
-4.8791544e-06 8.279849e-07 -5.3265203e-06 -2.3596801e-06 -1.014572e-06 6.8311497e-06 2.1434678e-06 -1.1431273e-05
-7.5692856e-06 3.0993047e-07 -5.9352233e-06 -1.593787e-06 -3.4205943e-06 -3.115191e-06 5.4938617e-08 4.146191e-06
6.434685e-07 5.0629965e-06 -1.429331e-06 1.6139654e-07 -6.487495e-06 1.862041e-06 -2.6587884e-06 3.2317812e-06
-1.0431793e-05 2.455307e-07 -2.3872083e-06 1.4174649e-06 2.9422106e-06 1.4328159e-06 2.1693245e-06 5.3448696e-07
-3.5820335e-06 -1.687153e-07 -5.382248e-07 -1.8633418e-06 -5.60225e-06 2.6368862e-06 5.5591468e-06 6.0152406e-06
-3.8360004e-06 -4.5488062e-07 7.865006e-06 -2.4307217e-06 1.1341554e-06 -1.6378972e-06 -2.02528e-06 9.958328e-07
-3.704133e-06 1.0506445e-06 -4.038246e-07 1.837202e-08 2.410018e-06 -1.28107395e-05 9.344005e-06 2.429152e-06
4.629158e-06 -2.8661486e-06 1.3123557e-06 -5.2902524e-06 -7.0313667e-06 2.4817327e-06 -3.768285e-06 -2.1308838e-06
-2.9424891e-06 -7.721026e-07 4.3222108e-06 -2.9637065e-06 6.226428e-06 -7.760306e-06 -8.989132e-07 -4.675707e-06
-7.959179e-06 1.2622095e-06 3.4337584e-06 -2.7106043e-07 -8.077602e-06 8.091267e-08 -5.988075e-06 3.1001732e-06
3.2130504e-06 4.100066e-06 5.3855492e-06 -1.0872297e-06 3.0342064e-06 1.2562601e-05 7.025173e-06 -1.6766333e-05
7.794118e-07 9.24705e-06 -1.4701795e-05 1.974166e-05 2.9698037e-06 2.2705057e-05 -2.1919607e-06 7.900206e-06
-1.5171879e-05 4.9318596e-06 -2.1042047e-06 -1.9695358e-06 1.9330197e-07 5.2318455e-06 6.728548e-06 -2.1047988e-05
1.6369595e-06 6.833086e-06 -2.0546282e-05 1.2240085e-05 -7.684719e-06 4.02055e-06 -9.992286e-06 7.3108604e-06
1.0131921e-06 6.6226744e-06 6.3392185e-06 1.4456417e-06 3.503104e-07 1.0200247e-05 -4.941693e-06 1.702362e-05
-1.240923e-05 7.1095023e-06 -9.295285e-06 -1.5958118e-06 1.1011896e-05 4.610464e-06 1.484389e-05 1.1446123e-05
-8.6803027e-07 -1.8660027e-06 9.267461e-06 -1.3356879e-06 1.0512739e-06 -6.015763e-07 -3.6088813e-06 7.0719653e-07
4.6920395e-06 1.2495319e-07 3.0203187e-06 -1.5827142e-07 -1.5020769e-06 -4.0230635e-08 3.9278657e-06 -2.1736134e-06
9.471183e-06 1.7016689e-06 2.4073177e-06 -8.992425e-07 2.622424e-06 -5.586342e-06 -8.339758e-07 3.720135e-06
3.2766206e-06 -2.890487e-06 2.8874488e-06 2.4630835e-06 5.4021684e-06 1.0073863e-06 5.97957e-07 1.4187533e-07
4.196185e-06 -5.894463e-07 -3.1533366e-06 1.2599276e-06 1.4643402e-06 -6.1182136e-06 1.6124837e-07 -3.5818568e-06
4.135882e-06 2.2163435e-06 1.9036107e-06 4.23485e-06 -4.732305e-06 -2.1646426e-06 1.6620761e-06 3.519053e-06
2.242395e-06 7.370862e-06 -5.528876e-06 -5.5327955e-06 4.551977e-06 7.7454985e-07 -7.15058e-07 -9.049107e-06
7.51148e-06 1.1209166e-05 -3.4821232e-06 1.30737235e-05 2.1201167e-06 2.1707636e-05 -2.1113146e-06 8.652573e-06
-7.9384e-06 5.867792e-06 -1.3240216e-05 -5.085604e-06 -1.1388143e-05 -7.883571e-06 -3.6139247e-06 -1.3399596e-05
-3.0882177e-06 7.5350695e-06 -1.2690345e-05 3.262143e-06 -4.8410366e-06 9.3575045e-06 -7.888529e-06 -3.0389065e-06
-8.633905e-06 3.6484927e-08 -9.627415e-06 -3.2109094e-06 -2.3017074e-06 1.2334226e-06 -8.2794795e-06 1.1716931e-05
-9.262777e-06 1.0093342e-05 2.6979685e-06 5.8556753e-07 -6.9883163e-06 -7.8650584e-07 -8.437688e-06 2.677139e-06
-4.7480335e-06 -3.9514784e-06 -1.5257053e-06 5.095056e-06 -1.0579095e-06 3.8337494e-06 -7.754131e-06 -7.569578e-06
1.7200882e-06 -4.4425824e-06 -5.5202872e-06 4.0587393e-06 4.226674e-06 -7.0229135e-06 5.5420505e-06 7.644745e-06
00000000: b71b 74b6 e8ef a436 20d6 7db5 8bac b335
00000010: 2eab b7b6 0995 9d35 3bc3 3937 a9de 80b6
00000020: f236 c234 b242 ad36 fda5 b7b6 09d5 2937
00000030: e75f 76b6 3fc5 9936 f8a2 db35 11bb 3d36
00000040: 9eb7 a3b6 b042 5e35 76ba b2b6 ff5a 1eb6
00000050: 6e2c 88b5 2137 e536 7fd8 0f36 f2c8 3fb7
00000060: abfb fdb6 8564 a634 2e27 c7b6 1bea d5b5
00000070: 5d8d 65b6 930e 51b6 a6f5 6b33 821f 8b36
00000080: d2ba 2c35 cfe2 a936 70d7 bfb5 584c 2d34
00000090: 28af d9b6 3eeb f935 a36d 32b6 94e1 5836
000000a0: 3604 2fb7 7cd1 8334 ed33 20b6 b93f be35
000000b0: cb72 4536 2e4f c035 b694 1136 aa79 0f35
000000c0: de62 70b6 1c28 35b4 877a 10b5 f017 fab5
000000d0: f6fa bbb6 5cf5 3036 b588 ba36 86d6 c936
000000e0: feb6 80b6 5136 f4b4 f2f3 0337 7b1f 23b6
000000f0: 4839 9835 b8d5 dbb5 0cea 07b6 8ea8 8535
00000100: 8594 78b6 df03 8d35 3bcd d8b4 80d0 9d32
00000110: cbbb 2136 b5ed 56b7 32c4 1c37 8304 2336
00000120: 2a54 9b36 0f58 40b6 3324 b035 ec82 b1b6
00000130: fbee ebb6 d88b 2636 a5e2 7cb6 4e00 0fb6
00000140: 9477 45b6 7d42 4fb5 8207 9136 17e4 46b6
00000150: 9cec d036 4332 02b7 d84c 71b5 04e4 9cb6
00000160: 6a88 05b7 3069 a935 856f 6636 4386 91b4
00000170: 0985 07b7 36c2 ad33 2ced c8b6 920c 5036
00000180: c99f 5736 4c93 8936 84b5 b436 eeec 91b5
00000190: 459f 4b36 f6c3 5237 c7b9 eb36 6da5 8cb7
000001a0: c538 5135 c723 1b37 bba7 76b7 e49a a537
000001b0: d74c 4736 bd76 be37 9919 13b6 208b 0437
000001c0: b98a 7eb7 5a7c a536 f635 0db6 5e2c 04b6
000001d0: 718e 4f34 368d af36 cac5 e136 3690 b0b7
000001e0: 80b5 db35 c347 e536 ce5a acb7 c45a 4d37
000001f0: 9eed 00b7 43e8 8636 8ba4 27b7 d04f f536
00000200: 04fd 8735 5738 de36 79b5 d436 df07 c235
00000210: 4b12 bc34 ba21 2b37 d2d0 a5b6 f2cd 8e37
00000220: 3d31 50b7 298e ee36 f2f2 1bb7 ad2f d6b5
00000230: bcbf 3837 96b3 9a36 060a 7937 b908 4037
00000240: 9602 69b5 5d73 fab5 717b 1b37 e345 b3b5
00000250: 7f19 8d35 027c 21b5 1c30 72b6 2dd6 3d35
00000260: 5070 9d36 df2a 0634 aeb0 4a36 51f1 29b4
00000270: f89a c9b5 0dca 2cb3 1ccc 8336 65de 11b6
00000280: 6ce6 1e37 e664 e435 678d 2136 7963 71b5
00000290: e7fc 2f36 5072 bbb6 61de 5fb5 6fa7 7936
000002a0: eae3 5b36 30fa 41b6 fec5 4136 744b 2536
000002b0: 4644 b536 8835 8735 4b83 2035 6556 1834
000002c0: f4cc 8c36 713a 1eb5 e99d 53b6 c81a a935
000002d0: 598a c435 0e4b cdb6 9d23 2d34 d55f 70b6
000002e0: f5c6 8a36 7ebc 1436 917f ff35 1619 8e36
000002f0: 31ca 9eb6 4744 11b6 8014 df35 df28 6c36
00000300: 0e7c 1636 3953 f736 af84 b9b6 5aa6 b9b6
00000310: 2fbd 9836 a9ea 4f35 69f2 3fb5 9ed1 17b7
00000320: 1f0b fc36 000f 3c37 6cae 69b6 3757 5b37
00000330: 5447 0e36 cb18 b637 1cb0 0db6 852a 1137
00000340: 2b2f 05b7 f3e3 c436 4b22 5eb7 01a5 aab6
00000350: b40f 3fb7 ae43 04b7 c186 72b6 d4ce 60b7
00000360: 2d3f 4fb6 c1d5 fc36 9ee8 54b7 31eb 5a36
00000370: 3070 a2b6 2dfe 1c37 f958 04b7 04f0 4bb6
00000380: 57da 10b7 9ab3 1c33 6f85 21b7 017b 57b6
00000390: 0877 1ab6 148c a535 18e8 0ab7 d693 4437
000003a0: 5367 1bb7 9356 2937 bf0e 3536 e52f 1d35
000003b0: 2e7d eab6 4520 53b5 988f 0db7 e6a8 3336
000003c0: 4c51 9fb6 f196 84b6 d6c6 ccb5 33f6 aa36
000003d0: 7efd 8db5 a8a3 8036 bd17 02b7 2efe fdb6
000003e0: c8dd e635 7e11 95b6 e83a b9b6 4e30 8836
000003f0: dad2 8d36 5ea6 ebb6 daf5 b936 ee41 0037
