omniisaacgymenvs/scripts/runs/Anymal/nn/last_Anymal_ep_700_rew_-0.9743177.pth (torch, 672599 bytes, 36 tensors)

value_mean_std.running_mean f8 [1]
-1.9944115850686666
00000000: 9722 4a1f 1ce9 ffbf

value_mean_std.running_var f8 [1]
81.15858118959596
00000000: d4c4 b731 264a 5440

value_mean_std.count f8 []
137625601.0
00000000: 0000 0002 0068 a041

running_mean_std.running_mean f8 [48]
0.04149494587157432 0.016267464705109914 -0.624751170423126 -0.01782547105326363 -0.0021486245256910116 -0.0012303381173724124 0.0033903861404773914 0.007066300810498304
-0.9624692422496631 -0.16958733786938027 0.024766514668596296 -0.0002939620130756177 -0.1579182388807104 -0.1372883551096411 0.1201433119242761 0.13774526217684424
0.01395268640216989 0.07747263389013219 -0.017451380011305487 -0.00109244854259422 0.08413318319950157 -0.146000242151559 0.12806576802474706 -0.09613769752029327
-0.02605274030580795 -0.018273198967995827 0.028042601929644948 0.02558166206323299 -0.004171521887943258 0.022015138311924913 -0.010871945600456885 0.00599332673779408
0.011676339578039662 -0.028057270358664746 0.031679577997192024 -0.020927906641175338 -0.07838382721862795 -0.05175938640006511 0.07791935774829784 0.06396177554529744
0.015425682144940814 0.05293971138585958 -0.019941542027764582 0.0037381479821005335 0.03033953896355987 -0.06469625705566316 0.09362026516880356 -0.04254412945056778
00000000: a076 ef56 d33e a53f edd0 9613 6ba8 903f
00000010: 8f5c a32a f6fd e3bf 6997 d61c d740 92bf
00000020: 4c1a 3702 fe99 61bf 7568 897e 6928 54bf
00000030: 2660 03b3 27c6 6b3f ff17 28ae 8df1 7c3f
00000040: 55c8 db4b 8ccc eebf fb7a fbb2 09b5 c5bf
00000050: 0d6d 26aa 645c 993f ed46 803b dd43 33bf
00000060: e39f b733 aa36 c4bf 40a5 a831 aa92 c1bf
00000070: b242 8c4b b6c1 be3f 383f 1d02 a3a1 c13f
00000080: da2e 4fde 3993 8c3f 23a2 e41c 3fd5 b33f
00000090: 14ac ac49 c6de 91bf 1513 d5b0 0fe6 51bf
000000a0: 0fa9 5996 c089 b53f 1ae0 9fcc 22b0 c2bf
000000b0: faa2 b386 7564 c03f a42c c3ea 7a9c b8bf
000000c0: 3fa8 56ce 91ad 9abf 3ce7 d79f 35b6 92bf
000000d0: 09f4 ba28 33b7 9c3f 8371 c147 1432 9a3f
000000e0: 200d 5561 2816 71bf be3b 44ec 228b 963f
000000f0: f700 62d6 0744 86bf 0d3f 5465 758c 783f
00000100: 6653 ffc4 c3e9 873f f406 6c8a 0bbb 9cbf
00000110: 12e6 e53e 4e38 a03f 72ee 630a 206e 95bf
00000120: 6377 7066 f610 b4bf 58d8 b2cf 3480 aabf
00000130: 6817 41e5 85f2 b33f ce40 2986 cc5f b03f
00000140: 95e9 a502 8097 8f3f 5ab7 1ff2 e91a ab3f
00000150: 6a3e 5d3b 8e6b 94bf 7857 95ea 769f 6e3f
00000160: 3830 7ffe 5311 9f3f 6749 3a14 ef8f b0bf
00000170: 6c92 2469 7ff7 b73f 6603 4119 58c8 a5bf

running_mean_std.running_var f8 [48]
0.5842339564071637 0.4925836701389702 0.769885334327141 0.17259961182442862 0.050963004790568804 0.08882773347650964 0.020129137364380163 0.044998808150768906
0.008465587020754214 5.334544527586031 1.3040610364837326 0.02053925052642193 0.126506552306281 0.13851580377001796 0.14141784131256738 0.1423909580380922
0.1088567166458767 0.12964125022180426 0.12002909082178724 0.120350637043587 0.18025665671510274 0.2162792978497822 0.18636264535275263 0.21228665311479797
0.007847737179078077 0.008815732431609172 0.009761572027562674 0.009420046533717624 0.008859393165847053 0.009136851493817235 0.008619999156226623 0.008980127807047806
0.02674288054825439 0.028715820325786835 0.030190120724848654 0.03190458642356096 0.5376949563157006 0.5362358514586386 0.5420311599090868 0.5259231939019959
0.5378188064273152 0.5417048047236321 0.5328372516042541 0.5424814690307 0.533072638782567 0.525267337456969 0.5374569869326916 0.5460406890703914
00000000: 1a68 ff68 0bb2 e23f 0698 72a8 7d86 df3f
00000010: f45c 9391 e6a2 e83f a84a 0b7c be17 c63f
00000020: cf44 c3ad d217 aa3f e968 4212 6abd b63f
00000030: 02f2 b48a bb9c 943f e9a9 bb72 150a a73f
00000040: 9826 2adb 6756 813f ae26 34d7 9256 1540
00000050: c9f7 fa1a 6fdd f43f c46b 2ec5 3d08 953f
00000060: ea4d 71e0 5d31 c03f cdef 95c7 e2ba c13f
00000070: 1313 c1d5 fa19 c23f 0086 02ee dd39 c23f
00000080: a0a8 f1a5 08de bb3f 5725 f5a0 1598 c03f
00000090: c7ef a5fb 39ba be3f 44ac 27a2 4ccf be3f
000000a0: 2124 bd6e a612 c73f 3d88 883f 0aaf cb3f
000000b0: 2539 7e2d bbda c73f 6faf 4084 352c cb3f
000000c0: cf02 4174 7912 803f 8854 df93 fb0d 823f
000000d0: c26c ed04 e0fd 833f b61b 503e d14a 833f
000000e0: c11a 479f df24 823f 6eb7 d572 57b6 823f
000000f0: 1b86 bdb3 5ca7 813f f71b f659 2c64 823f
00000100: 0a1f 6c55 7c62 9b3f ed50 b514 ae67 9d3f
00000110: acba b3b4 28ea 9e3f de2d 9046 cc55 a03f
00000120: e133 930d cc34 e13f 63a4 9e16 d828 e13f
00000130: 821e 27bb 5158 e13f c48a c0e0 5cd4 e03f
00000140: 2bee 18c9 cf35 e13f 5af8 8b50 a555 e13f
00000150: ac62 37b5 000d e13f 5888 0519 025c e13f
00000160: 60d5 be59 ee0e e13f 141c 8172 fdce e03f
00000170: 573e bcfe d832 e13f dff6 ba52 2a79 e13f

running_mean_std.count f8 []
68812801.0
00000000: 0000 0004 0068 9041

a2c_network.sigma f4 [12]
3.3172195 3.3675697 3.317136 3.5304193 3.172661 3.230831 3.4398642 3.27535
3.126017 3.3264568 3.4875283 3.3611174
00000000: 534d 5440 4386 5740 f54b 5440 64f2 6140
00000010: e10c 4b40 efc5 4e40 bc26 5c40 569f 5140
00000020: aa10 4840 abe4 5440 aa33 5f40 8c1c 5740

a2c_network.actor_mlp.0.weight f4 [256, 48]
0.5023595 -0.3359649 0.24589714 -0.029088965 -0.5353672 0.19422714 0.29822955 -0.17741656
0.3368652 0.11043738 0.54512787 -0.28116527 -0.3983451 -0.05368153 -0.054168653 0.40463984
0.10732411 -0.37318662 0.12769012 -0.22225809 -0.14563373 0.2783986 0.21752219 -0.10649556
-0.024082987 -0.12713629 -0.029932093 0.046628725 -0.10133393 0.017213168 -0.17319906 0.23410401
-0.28816694 -0.11148398 0.9011303 -0.14546105 0.08059618 -0.06859133 0.049216885 -0.27357492
0.17019342 0.17797475 0.3848181 -0.58197904 0.36947235 0.714622 -0.33145058 -0.4632885
0.17297979 -0.1607974 0.10738372 -0.05896449 -0.18153381 0.0026949928 -0.25800046 -0.6834258
-0.20435546 -0.19403966 -0.10550049 -0.032823097 0.3959147 -0.19196245 0.35289004 0.048556264
0.6408046 -0.2957236 -0.35458672 -0.3675107 0.0020588352 -0.32801282 0.30092278 -0.16669542
0.7067453 -0.24330075 -0.25241554 -0.69592094 -0.35730413 -0.55728847 -0.1716247 -0.56528777
0.5644449 0.22555172 0.18774377 0.28423187 -0.57061017 0.23238373 0.32162794 0.18796024
-0.59866905 -0.14158046 -0.17879309 0.01432417 0.31729627 -0.35807273 0.23652576 -0.50653076
-0.3748186 -0.1783339 0.83139145 0.63285124 0.5245469 -0.14065495 0.2591049 0.27216268
-0.023068344 0.112957545 0.14939764 -0.27246353 0.4594724 0.122226104 0.036737897 -0.27730444
0.31456485 -0.06675938 -0.27035147 -0.4713181 0.42675376 0.3403145 -0.10721577 0.32442707
0.2082412 -0.3684947 -0.43013993 -0.33873165 0.87293583 -0.37237245 -0.19710954 -0.3855665
-0.09781392 0.8133532 0.1458179 -0.48198026 0.21665342 0.3683577 -0.7919126 -0.23562923
0.99409086 -0.10129493 0.40879706 -0.75484294 0.3047532 0.10089754 -0.08848411 -0.048948545
-0.10722099 0.5363855 0.18021215 -0.08216534 -0.36766073 0.4007582 -0.05085405 0.03023092
-0.021551676 0.054879323 0.095969185 0.052411027 -0.0046712416 -0.3873336 -0.6575056 -0.045189314
-0.45843965 -0.10890511 -0.042905588 0.016127182 -0.107950516 -0.4224735 0.027948141 0.40595776
0.04339203 0.33594754 0.47694942 0.20980388 -0.015898153 -0.13918735 -0.30543524 -0.021028826
0.16447912 0.14769389 0.1128291 -0.22115329 -0.195773 -0.21073571 0.06564778 0.08503432
0.038022723 0.063330084 0.024842912 -0.046178542 0.09715485 -0.17959644 -0.08741555 -0.26396313
0.5163378 -0.05849228 -0.40128613 0.3674939 -0.2631216 0.7914972 -0.41116354 0.07981108
0.36090592 -0.27682588 -0.3498304 -0.09070712 -0.19113624 0.011079034 -0.22590809 -0.9539966
0.18449399 -0.18459344 0.05890525 -0.10698283 0.1551205 -0.42836186 0.78518707 -0.5006441
-0.024782931 0.55477285 0.054725997 -0.33092245 -0.38474518 -0.64269584 0.16057914 -0.60079235
0.73449534 0.3752062 0.3343044 -0.29021856 -1.1526129 0.5159413 0.80152625 -0.22153062
0.0056726146 -0.24131037 -0.22540987 -0.1466489 -0.42714283 0.24735129 -0.43046346 -0.38943824
0.47408405 0.12476955 -0.3852773 -0.38705218 0.10375245 -0.14132412 -0.19050243 0.21849626
-0.99646497 0.5217317 0.059798673 -0.3475314 2.5214596e-05 0.19855867 -0.62674004 -0.2802681
00000000: a29a 003f 9703 acbe 76cc 7b3e fb4b eebc
00000010: d30d 09bf 7be3 463e 8bb1 983e b0ac 35be
00000020: 9879 ac3e fe2c e23d 808d 0b3f e5f4 8fbe
00000030: e4f3 cbbe 2ae1 5bbd f3df 5dbd f42c cf3e
00000040: becc db3d 5112 bfbe 33c1 023e a097 63be
00000050: 0221 15be 438a 8e3e 23be 5e3e 581a dabd
00000060: af49 c5bc 0430 02be 2634 f5bc c3fd 3e3d
00000070: 2a88 cfbd a102 8d3c 185b 31be f6b8 6f3e
00000080: 9e8a 93be b751 e4bd 7ab0 663f bef3 14be
00000090: 9c0f a53d 9c79 8cbd a597 493d 0312 8cbe
000000a0: 2f47 2e3e 033f 363e e106 c53e 94fc 14bf
000000b0: 7b2b bd3e 78f1 363f e4b3 a9be 2634 edbe
000000c0: 9d21 313e 13a8 24be ffeb db3d c084 71bd
000000d0: 00e4 39be 7a9e 303b a318 84be fef4 2ebf
000000e0: 8f42 51be 55b2 46be a410 d8bd 8371 06bd
000000f0: 55b5 ca3e ce91 44be 01ae b43e efe2 463d
00000100: c50b 243f 1569 97be 648c b5be 5d2a bcbe
00000110: 86ed 063b 4cf1 a7be 8d12 9a3e 34b2 2abe
00000120: 43ed 343f d523 79be 9c3c 81be e027 32bf
00000130: 91f0 b6be 75aa 0ebf 63be 2fbe b3b6 10bf
00000140: 767f 103f 08f7 663e e73f 403e d786 913e
00000150: 8213 12bf 00f6 6d3e 6bac a43e a678 403e
00000160: 6042 19bf 78fa 10be 8915 37be ecaf 6a3c
00000170: a874 a23e 4f55 b7be cf33 723e 00ac 01bf
00000180: 39e8 bfbe 299d 36be 12d6 543f 8a02 223f
00000190: b548 063f da07 10be 66a9 843e e858 8b3e
000001a0: d3f9 bcbc 4956 e73d b2fb 183e 5780 8bbe
000001b0: f73f eb3e ae51 fa3d 7a7a 163d d9fa 8dbe
000001c0: a50e a13e 24b9 88bd 826b 8abe 9b50 f1be
000001d0: 787f da3e b43d ae3e f193 dbbd 4e1b a63e
000001e0: 2e3d 553e 56ab bcbe 4d3b dcbe 3c6e adbe
000001f0: b978 5f3f 9aa7 bebe 15d7 49be f968 c5be
00000200: aa52 c8bd ea37 503f 4a51 153e 1ec6 f6be
00000210: 65da 5d3e 6199 bc3e c9ba 4abf ca48 71be
00000220: bd7c 7e3f b773 cfbd d94d d13e 633d 41bf
00000230: 9d08 9c3e 5fa3 ce3d 2837 b5bd 457e 48bd
00000240: ae96 dbbd 8f50 093f 8989 383e 4d46 a8bd
00000250: 073e bcbe 2e30 cd3e 564c 50bd d6a6 f73c
00000260: 248d b0bc 24c9 603d 7e8b c43d f2ac 563d
00000270: 3711 99bb 9750 c6be 4952 28bf 6e18 39bd
00000280: 9ab8 eabe a409 dfbd c5bd 2fbd 271d 843c
00000290: 2915 ddbd 724e d8be 80f3 e43c b2d9 cf3e
000002a0: d7bb 313d 5101 ac3e b732 f43e d4d6 563e
000002b0: d83c 82bc 2187 0ebe 0262 9cbe a544 acbc
000002c0: 376d 283e 113d 173e f112 e73d 0276 62be
000002d0: b878 48be 1acb 57be 5872 863d 7926 ae3d
000002e0: b7bd 1b3d 34b3 813d 5d83 cb3c b625 3dbd
000002f0: 1ff9 c63d 21e8 37be ed06 b3bd 2d26 87be
00000300: b72e 043f 9a95 6fbd 6075 cdbe 2928 bc3e
00000310: e0b7 86be 8f9f 4a3f 0784 d2be fe73 a33d
00000320: a9c8 b83e 1fbc 8dbe f81c b3be a8c4 b9bd
00000330: 38b9 43be d684 353c 7354 67be 1f39 74bf
00000340: feeb 3c3e 1006 3dbe a246 713d d019 dbbd
00000350: e9d7 1e3e 3f52 dbbe 0502 493f 362a 00bf
00000360: 9305 cbbc 9805 0e3f 5e28 603d ab6e a9be
00000370: 52fd c4be b787 24bf dc6e 243e 87cd 19bf
00000380: e307 3c3f 071b c03e f229 ab3e 8797 94be
00000390: d288 93bf bb14 043f d330 4d3f ecd8 62be
000003a0: 57e1 b93b 111a 77be d8d1 66be 212b 16be
000003b0: 77b2 dabe a849 7d3e b565 dcbe 7364 c7be
000003c0: 25bb f23e 2e87 ff3d 1143 c5be b42b c6be
000003d0: 2a7c d43d 45b7 10be 1213 43be 7cbd 5f3e
000003e0: 5418 7fbf 3590 053f 74ef 743d a3ef b1be
000003f0: ef83 d337 f752 4b3e 0972 20bf 4d7f 8fbe

a2c_network.actor_mlp.0.bias f4 [256]
-0.8741093 -0.019564498 0.6150579 -0.8397605 0.18621913 -0.053443167 -0.72267914 -0.65161896
-1.1493986 -1.172244 -0.37429345 -0.700082 -0.26307717 -0.71803635 -0.71775764 -0.90681124
0.29850775 0.36720145 -1.0888976 -1.0369792 0.3176821 -0.37098113 0.14678138 -0.36121547
0.27303687 -0.93868697 -0.04506084 -0.73544896 -0.99206644 0.884414 -0.66745013 -0.9848314
-0.37413675 -0.6126231 -0.8424272 -1.7174954 -0.28672194 -0.27208433 -0.8246903 -0.60451
0.18639642 -0.4629646 -0.18490507 0.2520069 0.83889973 -0.43766445 -0.7597368 -0.53409207
-0.7968408 -1.0192424 0.20806941 -0.55339664 -1.2257533 -0.996804 -0.5962357 0.29573014
0.51775485 -0.46595997 -0.6012852 -0.9813716 -0.6864165 -1.1877626 -0.71401954 -0.55394834
-0.9540043 -1.036432 -0.9221874 -1.0171043 -1.3783809 -0.16263726 -0.76922864 -0.6369626
-0.51798624 -0.4049243 0.41325763 -0.011422933 -1.1230451 -0.29534668 -0.9632913 -1.2235805
0.059311908 0.30714986 0.7950028 -0.88590807 -0.82022226 -0.088641465 -0.40785995 0.25004652
-0.5426223 0.25932547 0.6111572 -1.033894 -1.2738317 -1.1723895 -0.31980374 -0.38917384
-0.7095874 -0.7989996 -0.6364829 -0.6295717 -1.1000291 0.371853 -0.9120295 -0.86095005
-0.5988431 0.58049613 0.318792 0.43254113 -0.14566237 0.8577675 0.23243156 0.17859918
-0.74750906 -0.82647026 -0.91664535 -0.3899533 -0.59307736 0.5503586 -0.42198163 0.28032202
0.2299674 0.25459954 -0.9619362 -0.020149186 -0.06788152 0.30449167 -0.8171255 -0.60018206
-0.4379777 -0.5747636 -0.79578817 0.31678057 -0.8054497 -0.35216567 0.022524862 -0.115652815
-0.6837725 -0.0796685 -1.0658518 -0.67458564 -0.53709334 -0.6292479 -0.8021389 -0.0011043354
-0.52177536 -1.0987271 -1.2424175 -0.89365643 -0.88835335 -0.6499433 -0.25035095 -0.65172434
-0.3928973 0.24328688 -0.20977716 0.055674363 -0.7118653 -0.47542328 -0.66895396 -0.62113667
0.25002328 -1.0418617 -0.058367707 -0.735555 -0.36572978 -0.9221179 0.5832713 -0.6618145
-1.2729356 0.2988221 -0.4924673 -1.0040832 -1.444871 -0.33309 -0.2871063 0.34657785
-0.6637794 -0.7129551 -0.4683982 0.7146737 -0.86657465 -0.2825175 0.45710927 -0.29372087
-1.0593351 -0.4685398 -0.87232924 -1.0187693 -0.6571188 -0.8952797 -0.29236642 -0.18305969
-0.48549402 0.09487439 0.38952565 -0.87447876 0.21876562 -0.5773983 -0.29585832 -0.84350806
-0.69950545 0.42964658 -0.85710496 -0.62911737 0.44971 0.31996614 -0.86153144 -0.6202897
-0.8579864 -0.40767676 -1.0297455 -0.6944611 0.3537051 0.44459283 -0.17831394 -0.49919277
-0.6075252 -0.845138 -0.3296227 -0.6513222 -0.7437861 0.29507998 0.069856726 -0.9862473
-1.1688548 -0.17951961 -0.64173603 -0.8870342 -0.01393762 0.28516585 -1.0502443 -0.7353021
0.29662508 -0.9122871 -0.9604308 -0.86797446 0.28384563 -0.5784089 -0.4422872 -0.32892278
-0.29606107 -1.2133211 -0.56133443 -0.6292161 0.06238721 0.052256845 -0.67498296 0.21727239
-1.0547895 -0.21360283 -1.1573105 -0.55693156 0.46981812 -0.68692565 0.054135364 -0.08089708
00000000: a1c5 5fbf ba45 a0bc 6f74 1d3f 8bfa 56bf
00000010: 3ab0 3e3e 39e7 5abd 8001 39bf 80d0 26bf
00000020: 7e1f 93bf 170c 96bf 64a3 bfbe 9338 33bf
00000030: 0db2 86be 3bd1 37bf f7be 37bf c824 68bf
00000040: 02d6 983e d401 bc3e ff60 8bbf bcbb 84bf
00000050: 3aa7 a23e 3df1 bdbe dc4d 163e 3cf1 b8be
00000060: 7dcb 8b3e ca4d 70bf b791 38bd 6246 3cbf
00000070: 11f8 7dbf f568 623f 03de 2abf e91d 7cbf
00000080: da8e bfbe ded4 1cbf 4fa9 57bf e4d6 dbbf
00000090: 38cd 92be a34e 8bbe e71e 53bf 2bc1 1abf
000000a0: b4de 3e3e b209 edbe c157 3dbe 0c07 813e
000000b0: 22c2 563f 8e15 e0be 1c7e 42bf 42ba 08bf
000000c0: c2fd 4bbf 8976 82bf 2610 553e 67ab 0dbf
000000d0: 7ce5 9cbf 8c2e 7fbf e7a2 18bf f169 973e
000000e0: 958b 043f 4e92 eebe d4ed 19bf 2b3b 7bbf
000000f0: feb8 2fbf 9b08 98bf fcc9 36bf 8fcf 0dbf
00000100: a039 74bf cea9 84bf 7914 6cbf 7930 82bf
00000110: c96e b0bf 628a 26be 2bec 44bf fb0f 23bf
00000120: bf9a 04bf 3d52 cfbe 8196 d33e 4127 3bbc
00000130: f1bf 8fbf ae37 97be 429a 76bf 499e 9cbf
00000140: 0bf1 723d bf42 9d3e 4e85 4b3f dfca 62bf
00000150: 16fa 51bf a889 b5bd 05d3 d0be 1906 803e
00000160: 4ce9 0abf 4fc6 843e cc74 1c3f a356 84bf
00000170: eb0c a3bf dc10 96bf 51bd a3be cb41 c7be
00000180: 85a7 35bf 3d8b 4cbf 8bf0 22bf 9c2b 21bf
00000190: c1cd 8cbf 8463 be3e c47a 69bf 3967 5cbf
000001a0: c84d 19bf 659b 143f b438 a33e 0876 dd3e
000001b0: 8428 15be a796 5b3f 8a02 6e3e b4e2 363e
000001c0: c15c 3fbf 8e93 53bf 45a9 6abf f5a7 c7be
000001d0: ebd3 17bf 4de4 0c3f fa0d d8be 5e86 8f3e
000001e0: 937c 6b3e df5a 823e 7341 76bf e80f a5bc
000001f0: 7705 8bbd 55e6 9b3e 232f 51bf 88a5 19bf
00000200: 9d3e e0be b523 13bf c6b8 4bbf 1031 a23e
00000210: f431 4ebf 0f4f b4be 0f86 b83c 62db ecbd
00000220: b70b 2fbf 3d29 a3bd d56d 88bf a5b1 2cbf
00000230: f37e 09bf 6416 21bf fa58 4dbf 59bf 90ba
00000240: 1293 05bf 17a3 8cbf 8907 9fbf abc6 64bf
00000250: 206b 63bf af62 26bf 002e 80be 68d7 26bf
00000260: d629 c9be 3220 793e d3cf 56be cd0a 643d
00000270: ce3c 36bf ae6a f3be 9140 2bbf d002 1fbf
00000280: 0d03 803e b95b 85bf fa12 6fbd 554d 3cbf
00000290: ef40 bbbe eb0f 6cbf 4551 153f ad6c 29bf
000002a0: 8eef a2bf 36ff 983e ad24 fcbe cc85 80bf
000002b0: 88f1 b8bf c68a aabe 99ff 92be a772 b13e
000002c0: 72ed 29bf 3a84 36bf e4d1 efbe dbf4 363f
000002d0: d6d7 5dbf 22a6 90be 3a0a ea3e 9562 96be
000002e0: 4b98 87bf 73e4 efbe f850 5fbf 0867 82bf
000002f0: f038 28bf 0d31 65bf 0db1 95be 0074 3bbe
00000300: ac92 f8be 814d c23d e86f c73e d7dd 5fbf
00000310: 1804 603e 60d0 13bf be7a 97be 25f0 57bf
00000320: ca12 33bf a3fa db3e 3b6b 5bbf d60d 21bf
00000330: 6440 e63e 9ad2 a33e 538d 5cbf 4ecb 1ebf
00000340: ffa4 5bbf 02bb d0be b3ce 83bf 34c8 31bf
00000350: d618 b53e aca1 e33e ee97 36be 3296 ffbe
00000360: c686 1bbf f75a 58bf 4ec4 a8be 0dbd 26bf
00000370: c468 3ebf b914 973e 0b11 8f3d b47a 7cbf
00000380: 099d 95bf fdd3 37be d048 24bf ac14 63bf
00000390: 9e5a 64bc 4201 923e 686e 86bf c23c 3cbf
000003a0: 3edf 973e a68b 69bf cbde 75bf 9333 5ebf
000003b0: 3754 913e 9b12 14bf 7873 e2be 9168 a8be
000003c0: 5195 97be 1b4e 9bbf 9db3 0fbf 4e14 21bf
000003d0: bb89 7f3d 460b 563d afcb 2cbf a77c 5e3e
000003e0: 5803 87bf b3ba 5abe c022 94bf 1193 0ebf
000003f0: 008c f03e 5cda 2fbf 0bbd 5d3d 5ead a5bd

a2c_network.actor_mlp.2.weight f4 [128, 256]
-0.1384221 -0.19988915 -0.2503158 0.15075512 -0.07117261 -0.13591607 0.11731358 0.035464093
0.22167096 0.11861514 0.023505181 0.05339873 -0.060872052 0.13182488 0.04977865 0.08235672
-0.23676994 -0.3409647 0.22568949 -0.1296625 -0.18707265 -0.14593837 -0.10944555 0.032049708
-0.43277866 0.14430663 -0.012778663 0.04838267 0.02728553 -0.18512031 -0.083716385 -0.016201328
-0.021718593 0.005189256 0.01417518 0.12150562 -0.22614062 -0.24829052 0.07115079 0.11419222
-0.2445696 0.10698387 -0.19329104 -0.38624322 -0.35155252 0.09052682 0.32573906 -0.14046566
-0.11331106 -0.03452084 -0.34197742 0.017520797 0.02368442 0.11152987 -0.018180879 -0.31573617
-0.21593758 -0.18306018 -0.27033362 -0.09940274 -0.03762005 -0.003983291 -0.020779008 0.067312986
-0.032722134 -0.18213259 0.092793256 -0.047179535 0.022989877 -0.15583807 -0.052817337 0.058583934
-0.032920882 -0.16496572 -0.3056132 -0.10803286 -0.003628653 -0.06379649 -0.10156995 0.18519036
-0.13216904 -0.31780013 -0.35793406 0.19914545 0.23017502 -0.08168735 -0.10374332 -0.2054425
-0.088491835 -0.27862924 -0.3331005 0.07218343 0.19892342 -0.069311015 -0.19040503 -0.31693482
0.12624058 0.08945556 0.027277902 -0.12684514 0.19490056 -0.30873314 0.06289666 0.057529416
0.121100545 -0.45372874 -0.08067247 -0.062090497 -0.17948839 -0.3241282 -0.09638323 -0.24258666
0.043365836 -0.0712957 0.056479935 -0.115044355 0.16876402 -0.23406754 -0.053836867 -0.115989976
-0.32345244 -0.08243819 -0.08367019 -0.14094608 0.12898521 -0.1612977 0.0124988025 -0.05339979
0.028277257 -0.05207463 0.042432036 -0.015538581 0.023021016 -0.038319748 -0.05305217 -0.32133976
-0.027454054 -0.1963389 0.02807308 -0.21263658 -0.03496135 -0.17899804 -0.06413953 -0.05533571
0.154904 0.22483133 0.15035959 -0.09873977 0.03202784 0.046371654 -0.041071545 -0.07085573
-0.071790084 0.026743766 -0.1567512 -0.18913431 0.17291783 0.035593443 0.06616934 0.04306494
-0.19590071 0.07911408 0.06219462 -0.08391568 -0.22247718 0.111173205 -0.329881 -0.15044256
0.16895348 -0.1709643 -0.10904083 0.06454681 0.01830796 -0.051634908 -0.07773196 -0.06593981
-0.07024263 -0.16036765 0.17901051 -0.34597623 0.05012572 -0.18687259 -0.06981162 -0.03329864
0.026984882 -0.11748373 -0.0043943613 0.012847515 -0.13751084 -0.12886819 0.06735976 -0.019795626
-0.011202359 -0.16147396 -0.15903194 0.06426353 -0.25453448 -0.008750938 -0.17949347 0.09259418
0.14189884 -0.17723665 -0.09304348 0.07410305 -0.2258055 -0.10566034 -0.0027199592 -0.0082149925
0.06260557 -0.021245973 -0.093120985 0.10638176 -0.21809277 0.045751885 -0.15497172 -0.11806697
-0.18882866 -0.05427857 -0.22634685 0.0069550755 -0.1908028 -0.1900002 -0.13382894 0.07819653
0.03324795 0.0076199532 -0.13664608 -0.12467134 -0.020730203 -0.25039098 -0.053082872 -0.022226801
-0.23773105 -0.17687948 -0.017328791 0.07658816 -0.09171441 -0.03896831 -0.16247532 -0.03163365
0.0755065 0.17050298 -0.09191592 -0.15960942 -0.24432696 -0.097469404 0.066203624 -0.0071716616
0.08946815 -0.15903205 -0.06565585 -0.17860831 -0.05131617 -0.18873838 -0.22535868 0.016983032
00000000: 86be 0dbe beaf 4cbe 6429 80be 8d5f 1a3e
00000010: f2c2 91bd 952d 0bbe 1a42 f03d cc42 113d
00000020: b6fd 623e 7fec f23d f08d c03c a0b8 5a3d
00000030: f954 79bd 1afd 063e b3e4 4b3d a4aa a83d
00000040: d273 72be ed92 aebe 251b 673e 3fc6 04be
00000050: f98f 3fbe de70 15be fd24 e0bd 8e46 033d
00000060: 2a95 ddbe 1ec5 133e 995d 51bc e82c 463d
00000070: e785 df3c 2e90 3dbe 7f73 abbd a6b8 84bc
00000080: 31eb b1bc a20a aa3b 043f 683c f0d7 f83d
00000090: 6891 67be df3f 7ebe 81b7 913d 9cdd e93d
000000a0: 7470 7abe 5c1a db3d 16ee 45be acc1 c5be
000000b0: b1fe b3be 2066 b93d 45c7 a63e 3bd6 0fbe
000000c0: a10f e8bd b965 0dbd aa17 afbe c687 8f3c
000000d0: d405 c23c c669 e43d 11f0 94bc 2ca8 a1be
000000e0: be1e 5dbe 2174 3bbe 2b69 8abe aa93 cbbd
000000f0: 7b17 1abd 4486 82bb bd38 aabc 64db 893d
00000100: a507 06bd f780 3abe 640a be3d 543f 41bd
00000110: 4455 bc3c 0494 1fbe fe56 58bd b5f5 6f3d
00000120: 0cd8 06bd c6ec 28be 5579 9cbe 5540 ddbd
00000130: b2ce 6dbb bca7 82bd e803 d0bd 8ba2 3d3e
00000140: 5257 07be b3b6 a2be 2243 b7be c9ec 4b3e
00000150: 00b3 6b3e b34b a7bd 6177 d4bd 855f 52be
00000160: 353b b5bd 7ea8 8ebe 268c aabe e8d4 933d
00000170: 95b2 4b3e eff2 8dbd 89f9 42be 4845 a2be
00000180: 3645 013e 7a34 b73d e875 df3c b1e3 01be
00000190: 0394 473e 4512 9ebe f7cf 803d f7a3 6b3d
000001a0: 9003 f83d 224f e8be 9c37 a5bd 9b52 7ebd
000001b0: cecb 37be 22f4 a5be 9264 c5bd a368 78be
000001c0: 60a0 313d 7b03 92bd 8157 673d 609c ebbd
000001d0: 7ad0 2c3e 67af 6fbe 0c84 5cbd 278c edbd
000001e0: 8f9b a5be 5bd5 a8bd 475b abbd 2b54 10be
000001f0: b314 043e 392b 25be c7c7 4c3c bdb9 5abd
00000200: b5a5 e73c 354c 55bd 37cd 2d3d 8895 7ebc
00000210: 9296 bc3c 2bf5 1cbd 3b4d 59bd a586 a4be
00000220: 53e7 e0bc 110d 49be 84f9 e53c 67bd 59be
00000230: a233 0fbd 434b 37be 965b 83bd b3a7 62bd
00000240: 279f 1e3e 2f3a 663e ddf7 193e 1438 cabd
00000250: a02f 033d 34f0 3d3d a33a 28bd cf1c 91bd
00000260: ae06 93bd be15 db3c 6383 20be 6dac 41be
00000270: 5f11 313e 6eca 113d ca83 873d dd64 303d
00000280: 329a 48be 9006 a23d c9bf 7e3d fcdb abbd
00000290: 0fd1 63be c7ae e33d 2ae6 a8be 9d0d 1abe
000002a0: 2402 2d3e 4411 2fbe cc50 dfbd 1e31 843d
000002b0: 93fa 953c 207f 53bd ef31 9fbd 730b 87bd
000002c0: 5edb 8fbd 6b37 24be 884e 373e cc23 b1be
000002d0: a150 4d3d 875b 3fbe 65f9 8ebd 2864 08bd
000002e0: 660f dd3c 4f9b f0bd 93fe 8fbb 627e 523c
000002f0: a4cf 0cbe 06f6 03be eaf3 893d 702a a2bc
00000300: 198a 37bc 6e59 25be 45d9 22be 999c 833d
00000310: 5852 82be 1860 0fbc 23cd 37be 04a2 bd3d
00000320: ee4d 113e 867d 35be 948d bebd 57c3 973d
00000330: 8f39 67be 7364 d8bd 5841 32bb 2d98 06bc
00000340: 5937 803d 090c aebc 37b6 bebd aede d93d
00000350: b653 5fbe 5466 3b3d e8b0 1ebe 18cd f1bd
00000360: 4d5c 41be 3553 5ebd 78c7 67be 67e7 e33b
00000370: cf61 43be 6a8f 42be 740a 09be 8125 a03d
00000380: 012f 083d cdb0 f93b f3ec 0bbe b053 ffbd
00000390: 63d2 a9bc 3f33 80be 6d6d 59bd fb14 b6bc
000003a0: c56f 73be e51f 35be 1cf5 8dbc 41da 9c3d
000003b0: c4d4 bbbd 3c9d 1fbd ee5f 26be 4992 01bd
000003c0: 27a3 9a3d 5598 2e3e 6a3e bcbd a770 23be
000003d0: d930 7abe 0a9e c7bd c495 873d 4200 ebbb
000003e0: 143b b73d 4cd9 22be 9376 86bd 19e5 36be
000003f0: e730 52bd a244 41be 6dc4 66be 0020 8b3c

a2c_network.actor_mlp.2.bias f4 [128]
-0.2637935 -0.2950161 -0.61220664 -0.4719903 -0.43368763 -0.4382181 -0.31848428 -0.3973785
0.044981383 -0.3072217 0.17892964 -0.17153655 0.036663327 -0.6198221 -0.45557806 -0.34662327
0.16431822 -0.5289601 -0.4478089 0.10784955 -0.41478467 -0.07712049 -0.15952653 -0.19866334
-0.2311649 -0.09297109 -0.36578265 -0.45391038 -0.4933676 -0.445305 -0.28920966 -0.46718875
-0.2779123 -0.32369214 -0.35645193 -0.19707023 0.1354707 -0.64875746 -0.31549665 -0.30309406
0.03199945 -0.4042831 -0.39419872 -0.42193666 -0.34385952 -0.54269224 -0.30133146 -0.2685174
-0.2720756 -0.6092921 -0.22172837 -0.27779466 -0.48746103 -0.26709908 -0.18330757 -0.1910536
-0.4284879 -0.53615487 -0.4863814 0.03270869 -0.16930069 0.012226937 -0.01770073 -0.034528635
-0.4078011 -0.3097904 -0.46800807 -0.4443991 -0.16338716 -0.57265884 -0.55277264 -0.24748413
-0.371715 -0.46407887 -0.3232466 -0.27504715 -0.30711433 -0.43559703 -0.22393444 -0.28318426
0.13546112 -0.5223327 -0.33880976 -0.049003515 -0.0014081682 -0.40099916 -0.2677881 0.09085027
-0.6043528 -0.42122677 -0.0008258797 -0.3596396 -0.40093246 -0.09613574 -0.4348813 -0.14684407
-0.5426885 -0.022141093 -0.7230337 -0.22265688 -0.5116142 -0.3432904 -0.6526032 -0.55559313
-0.49580967 -0.019627353 -0.28153986 0.33740646 -0.17402658 -0.4694845 -0.5174406 -0.45841363
-0.28615165 -0.25791433 0.2656954 -0.15647918 -0.22375888 -0.68059534 -0.43391547 -0.5030604
-0.474694 -0.5303092 -0.57223153 0.10324135 -0.5442815 0.11844735 -0.42774224 0.15465711
00000000: f10f 87be 5a0c 97be 93b9 1cbf b6a8 f1be
00000010: 4e0c debe 1f5e e0be 5f10 a3be 3275 cbbe
00000020: 663e 383d 2a4c 9dbe 5539 373e 47a7 2fbe
00000030: 492c 163d a9ac 1ebf 8741 e9be 9b78 b1be
00000040: 0943 283e ee69 07bf 3547 e5be 3ae0 dc3d
00000050: a85e d4be 59f1 9dbd ec5a 23be 676e 4bbe
00000060: 7eb6 6cbe a067 bebd dd47 bbbe f166 e8be
00000070: ae9a fcbe 04ff e3be 4a13 94be 5d33 efbe
00000080: 854a 8ebe faba a5be de80 b6be c7cc 49be
00000090: d5b8 0a3e f814 26bf c788 a1be 252f 9bbe
000000a0: db11 033d 32fe cebe 6ad4 c9be 1508 d8be
000000b0: 5b0e b0be e1ed 0abf 1e48 9abe 1d7b 89be
000000c0: 7e4d 8bbe 91fa 1bbf c30c 63be 1a3b 8ebe
000000d0: 7e94 f9be 36c1 88be fbb4 3bbe 8ea3 43be
000000e0: c462 dbbe 7241 09bf fc06 f9be 8cf9 053d
000000f0: 295d 2dbe 7e53 483c 1f01 91bc e66d 0dbd
00000100: 4ecb d0be d99c 9ebe c19e efbe 4788 e3be
00000110: f74e 27be c599 12bf 8282 0dbf 7b6c 7dbe
00000120: 6e51 bebe bf9b edbe 9480 a5be fbd2 8cbe
00000130: 173e 9dbe 9306 dfbe 124f 65be 87fd 90be
00000140: 52b6 0a3e 99b7 05bf 7978 adbe e9b7 48bd
00000150: 4992 b8ba c34f cdbe 861b 89be b50f ba3d
00000160: ddb6 1abf 09ab d7be d97f 58ba af22 b8be
00000170: 0547 cdbe d1e2 c4bd c3a8 debe 4b5e 16be
00000180: a2ed 0abf 3d61 b5bc bd18 39bf 2a00 64be
00000190: 26f9 02bf c2c3 afbe 0111 27bf 5a3b 0ebf
000001a0: c4da fdbe 8bc9 a0bc fe25 90be 8ac0 ac3e
000001b0: 0634 32be 4660 f0be fd76 04bf 31b5 eabe
000001c0: 7882 92be 590d 84be 3a09 883e 143c 20be
000001d0: 0c21 65be 7f3b 2ebf 2b2a debe 91c8 00bf
000001e0: 180b f3be 58c2 07bf c47d 12bf 3370 d33d
000001f0: 0856 0bbf 8694 f23d 0801 dbbe 6f5e 1e3e

a2c_network.actor_mlp.4.weight f4 [64, 128]
0.49813354 0.31025591 0.15996253 0.34124887 -0.019926367 0.21494874 0.30430752 -0.14472608
-0.5686324 0.32688916 0.41098958 0.062406767 -0.030207047 0.13253087 0.11543208 0.3803495
-0.8148068 -0.03789358 -0.122886375 -0.23539293 0.41677397 -0.31525812 -0.20588864 -0.35119963
-0.35275146 -0.30236685 0.41367972 -0.32396618 0.3556459 -0.21298468 0.36741018 0.15985791
0.39692074 0.37074196 0.36466774 -0.0458669 0.106653035 -0.30843067 0.35754865 0.38361734
-0.16955638 0.109013006 -0.17433567 0.46109897 -0.23793684 0.09282201 -0.040821113 -0.2717983
0.2117818 0.29937962 0.2320482 0.4716746 0.011726495 -0.11905089 0.4099069 -0.11366885
0.5418741 0.18615952 0.029958233 -0.6657805 -0.10380169 -0.5145187 -0.24339776 -0.0010115817
-0.0914273 -0.5253532 0.37481102 0.27846503 0.041298 0.38634172 0.17644897 -0.16869566
0.14449571 -0.24986093 -0.05375563 0.39969155 -0.20420848 -0.32732058 0.35666624 -0.16565126
0.013766206 0.5481674 0.18819082 -0.12858382 -0.4394579 -0.011929007 0.18220575 -0.72378224
0.07032765 -0.06859682 -0.13669996 0.46496412 0.18248099 -0.24887578 0.2657979 -0.027455484
-0.011436644 -1.1220177 0.02638363 0.23677158 0.3225741 -0.27854857 0.32301673 0.3727016
-0.008202413 -0.44844213 0.59856 -0.32223323 0.53814036 0.0011428407 0.54578143 0.12763137
0.6343891 -0.05117427 -0.63811857 -0.021458792 0.17183627 0.6103281 -0.17859896 0.17330118
0.1339724 0.25738037 0.13851689 -0.6391906 -0.16204923 -0.45464766 0.0074766516 0.49617735
0.33069095 -0.2618071 0.3198418 0.5335204 0.19818684 0.31845373 0.52353126 -0.28257626
-0.45099074 0.13140295 -0.22907834 -0.11812071 -0.3271266 0.19678205 -0.0843184 0.3037497
-0.12109749 -0.19227368 -0.06109845 -0.69818985 0.3348503 -0.34472236 -0.48377213 0.15591554
-0.14157626 -0.28388113 0.08975878 -0.07633617 0.009322421 -0.19558457 0.3273282 0.5842105
0.17576386 -0.16484034 0.35154405 0.18871024 -0.22947419 0.0387739 0.20242463 0.28462905
-0.011461835 -0.05555081 -0.1269519 0.42241192 0.10803427 -0.07665197 0.14916894 0.013809834
-0.06957933 0.27567682 -0.029497895 0.20388407 0.26186594 0.0009066341 0.19409512 0.020397753
0.5354397 -0.0013175082 -0.22722161 -0.04777995 -0.26405704 -0.096967675 -0.504614 -0.15051362
-0.17120484 -0.22613746 0.09724066 0.15396194 0.24668175 0.61957765 -0.2576268 -0.582886
0.18631335 0.05835496 0.062236395 -0.050521545 -0.042437986 0.18023083 0.29843453 -0.30938166
0.054837532 0.58466005 0.028556759 0.05345399 0.09081924 -0.09346789 -0.101293646 -0.48027986
0.19585657 0.11777527 0.017423695 -0.023154238 0.018724775 -0.25514638 -0.122925624 0.006355241
0.1503723 -0.19679002 -0.054509018 0.02986673 -0.33929718 0.10874109 -0.49144238 0.32807213
0.08775602 -0.32608154 0.1434369 -0.07835095 0.117199875 0.1164919 0.2143448 0.22502391
0.40789172 -0.37579295 -0.22170757 -0.12732127 0.031171186 0.21508645 -0.07441159 0.22524011
-0.027318416 -0.04655822 0.16769284 -0.15812626 0.08123308 0.14449784 -0.27792174 -0.32412502
00000000: 5c0b ff3e ddd9 9e3e 38cd 233e 2cb8 ae3e
00000010: 9f3c a3bc 861b 5c3e 32ce 9b3e 1333 14be
00000020: e591 11bf 045e a73e 3a6d d23e 3d9e 7f3d
00000030: c574 f7bc 2cb6 073e a867 ec3d 2bbd c23e
00000040: 2e97 50bf 4c36 1bbd daab fbbd d80a 71be
00000050: 6663 d53e 8369 a1be 79d4 52be 70d0 b3be
00000060: d79b b4be d4cf 9abe d4cd d33e e5de a5be
00000070: 3817 b63e a818 5abe 301d bc3e cbb1 233e
00000080: 3239 cb3e e4d1 bd3e bbb5 ba3e eede 3bbd
00000090: e86c da3d a0ea 9dbe 9e10 b73e 7e69 c43e
000000a0: 30a0 2dbe 3642 df3d 0d85 32be 2a15 ec3e
000000b0: b7a5 73be 7719 be3d 0a34 27bd 2629 8bbe
000000c0: 54dd 583e 4948 993e 0b9e 6d3e 557f f13e
000000d0: 7c20 403c f4d0 f3bd 51df d13e 37cb e8bd
000000e0: 43b8 0a3f 9aa0 3e3e f86a f53c 9770 2abf
000000f0: fb95 d4bd 7fb7 03bf 433d 79be 0d97 84ba
00000100: 3c3e bbbd 8c7d 06bf 3be7 bf3e f892 8e3e
00000110: 1728 293d 95ce c53e 0aaf 343e 8ebe 2cbe
00000120: aff6 133e 8bdb 7fbe dd2e 5cbd 5fa4 cc3e
00000130: 071c 51be 9096 a7be f59c b63e 7ca0 29be
00000140: a78b 613c b354 0c3f 18b5 403e 7aab 03be
00000150: a000 e1be e271 43bc 2594 3a3e cb49 39bf
00000160: f107 903d 7d7c 8cbd 13fb 0bbe c70f ee3e
00000170: 4cdc 3a3e 4bd9 7ebe aa16 883e 53ea e0bc
00000180: c360 3bbc 479e 8fbf 7b22 d83c 4074 723e
00000190: 6f28 a53e eb9d 8ebe 7362 a53e bed2 be3e
000001a0: 6a63 06bc 359a e5be 3a3b 193f c1fb a4be
000001b0: 91c3 093f 5fcb 953a 55b8 0b3f ccb1 023e
000001c0: 5367 223f 1d9c 51bd bd5b 23bf 59ca afbc
000001d0: d9f5 2f3e 763e 1c3f a5e2 36be dd75 313e
000001e0: 1030 093e 5cc7 833e 5fd7 0d3e ffa1 23bf
000001f0: 3cf0 25be 94c7 e8be b3fe f43b f50a fe3e
00000200: 5350 a93e 950b 86be 4ec2 a33e cb94 083f
00000210: 7ef1 4a3e 5e0c a33e 2506 063f d6ad 90be
00000220: 42e8 e6be 7f8e 063e 8393 6abe 45e9 f1bd
00000230: 237d a7be 3c81 493e 20af acbd 1585 9b3e
00000240: f601 f8bd 64e3 44be 5e42 7abd 92bc 32bf
00000250: 8071 ab3e 737f b0be fbb0 f7be 53a8 1f3e
00000260: 5ef9 10be de58 91be 74d3 b73d 2356 9cbd
00000270: 11bd 183c 5247 48be 9097 a73e d28e 153f
00000280: 71fb 333e e8cb 28be 95fd b33e 423d 413e
00000290: 48fb 6abe 62d1 1e3d 6748 4f3e e6ba 913e
000002a0: 6cca 3bbc 3f89 63bd aeff 01be 6046 d83e
000002b0: 1241 dd3d b5fb 9cbd bebf 183e a442 623c
000002c0: 9c7f 8ebd 8325 8d3e 92a5 f1bc fcc6 503e
000002d0: 4b13 863e 2fab 6d3a dfc0 463e 3019 a73c
000002e0: 9412 093f 3db0 acba c8ac 68be e9b4 43bd
000002f0: 7c32 87be fd96 c6bd 622e 01bf 3e20 1abe
00000300: 5250 2fbe 9490 67be 1c26 c73d 33a8 1d3e
00000310: 249a 7c3e a49c 1e3f a9e7 83be 0438 15bf
00000320: edc8 3e3e 9c05 6f3d 97eb 7e3d aeef 4ebd
00000330: 74d3 2dbd 6e8e 383e 69cc 983e 4667 9ebe
00000340: 529d 603d 48ac 153f ddef e93c 92f2 5a3d
00000350: 70ff b93d 186c bfbd 0b73 cfbd 3ee7 f5be
00000360: a08e 483e 2934 f13d 23bc 8e3c f5ad bdbc
00000370: b364 993c 8ca2 82be 6ec0 fbbd a03f d03b
00000380: 32fb 193e 5383 49be d944 5fbd 13ab f43c
00000390: 5cb8 adbe a6b3 de3d 569e fbbe 12f9 a73e
000003a0: 6eb9 b33d 29f4 a6be 1fe1 123e 7676 a0bd
000003b0: 7d06 f03d 4e93 ee3d 347d 5b3e ab6c 663e
000003c0: 2fd7 d03e ef67 c0be 4f07 63be 8260 02be
000003d0: b75a ff3c 9f3f 5c3e 1b65 98bd 58a5 663e
000003e0: dfca dfbc d5b3 3ebd acb7 2b3e daeb 21be
000003f0: 875d a63d 3ef7 133e c24b 8ebe b7f3 a5be

a2c_network.actor_mlp.4.bias f4 [64]
-0.6189985 -0.20249861 -0.26917312 -0.21153985 -0.5983747 -0.23983467 -0.23515488 -0.26758397
-0.44926316 -0.18236788 -0.2214925 -0.5102189 -0.3704336 -0.37307996 -0.6179245 -0.21950844
-0.29211947 -0.23434375 -0.15664339 -0.26545802 -0.5861538 -0.23596899 -0.46522263 -0.67483383
-0.33875516 -0.2393555 -0.2069429 -0.2026265 0.18747346 -0.15745543 -0.100739226 -0.38056305
-0.2947852 -0.67509025 -0.25294757 -0.232708 -0.5586661 -0.25881258 -0.2187788 -0.3403818
-0.2360965 -0.25077084 -0.27538246 -0.21459717 -0.17806475 -0.17240997 -0.21479769 -0.21550068
-0.3086268 -0.2147491 -0.36508018 -0.58332497 -0.48745 -0.21043494 -0.13353413 -0.32232234
-0.21706556 -0.1712344 -0.28900155 -0.38124442 -0.14186507 0.41606686 -0.43060085 -0.33289376
00000000: b076 1ebf cc5b 4fbe 0fd1 89be e79d 58be
00000010: 162f 19bf 3897 75be 71cc 70be c400 89be
00000020: d205 e6be a5be 3abe eece 62be b59d 02bf
00000030: 79a9 bdbe 5604 bfbe 4d30 1ebf d2c6 60be
00000040: af90 95be cff7 6fbe 2067 20be 1dea 87be
00000050: 2d0e 16bf dba1 71be a931 eebe e9c1 2cbf
00000060: 5171 adbe 9c19 75be d7e8 53be 527d 4fbe
00000070: 0bf9 3f3e ff3b 21be 5e50 cebd 29d9 c2be
00000080: 16ee 96be b7d2 2cbf 5882 81be 024b 6ebe
00000090: be04 0fbf 1583 84be 8d07 60be 8646 aebe
000000a0: 48c3 71be 0965 80be eefe 8cbe 5cbf 5bbe
000000b0: 9b56 36be 3d8c 30be edf3 5bbe 36ac 5cbe
000000c0: 5504 9ebe 30e7 5bbe caeb babe c954 15bf
000000d0: 0c93 f9be 427c 57be 2cbd 08be 6f07 a5be
000000e0: 6f46 5ebe 1258 2fbe 03f8 93be 7832 c3be
000000f0: 1445 11be b706 d53e b777 dcbe 0d71 aabe

a2c_network.value.weight f4 [1, 64]
-0.018746946 0.005952507 0.015364616 0.0010071914 0.0346705 0.025315601 0.01600415 -0.045710184
0.021502249 0.032146495 0.009693665 0.020023778 0.037376277 -0.09419974 -0.16859637 -0.0011316387
0.02842403 -0.005327267 0.025145043 0.2787744 0.011781195 -0.16417798 0.0037597208 0.016129034
-0.0034947318 0.0304098 0.072670765 0.03249568 -0.06699378 0.001769871 -0.16130677 -0.07740978
0.030880312 -0.00013406575 0.109241486 0.0327151 -0.06783553 0.006348605 0.03920775 0.011969011
-0.017910201 0.074348405 0.03194564 -0.0039821994 0.0045130425 0.012656415 0.035073962 0.029463708
0.008930756 0.030340964 -0.15052709 0.032914072 -0.18462846 0.007226196 0.015108452 0.012746963
0.023390278 0.052361652 -0.005784161 0.033799287 -0.01695119 -0.19569911 -0.18808119 0.0015185345
00000000: 3293 99bc 3f0d c33b dfbb 7b3c bc03 843a
00000010: a702 0e3d aa62 cf3c 231b 833c 9a3a 3bbd
00000020: 7c25 b03c 0bac 033d 2ed2 1e3c e808 a43c
00000030: de17 193d cbeb c0bd 87a4 2cbe 7e53 94ba
00000040: 83d9 e83c 5b90 aebb fafc cd3c 85bb 8e3e
00000050: ea05 413c 461e 28be a665 763b 0921 843c
00000060: df07 65bb f91d f93c 69d4 943d 311a 053d
00000070: 0934 89bd 04fb e73a 9a2d 25be 0589 9ebd
00000080: b5f8 fc3c 0094 0cb9 00ba df3d 4500 063d
00000090: 5bed 8abd f507 d03b 4e98 203d ac19 443c
000000a0: 6ab8 92bc fa43 983d 6ed9 023d 1c7d 82bb
000000b0: 25e2 933b da5c 4f3c b7a9 0f3d e05d f13c
000000c0: 4e52 123c 9d8d f83c c623 1abe e8d0 063d
000000d0: 3e0f 3dbe bac9 ec3b 7189 773c a3d8 503c
000000e0: f89c bf3c 2c79 563d 0f89 bdbb 1f71 0a3d
000000f0: 39dd 8abc 5965 48be 5b98 40be 9009 c73a

a2c_network.mu.weight f4 [12, 64]
-0.012414452 -0.2911778 -0.013582687 0.08699505 -0.014515653 -0.08995658 0.13161801 0.04757301
0.03153081 -0.36976674 -0.17080654 -0.018519444 -0.06857178 0.063783064 -0.23636898 -0.113838494
-0.14441186 0.2747451 0.26531813 0.23049137 -0.19879039 -0.10059058 -0.10172861 0.27671808
-0.2760544 -0.0031778277 -0.041661963 0.2511948 -0.075408995 -0.09645185 0.0737935 0.14113154
0.106525026 -0.03214727 0.13203718 0.00555121 0.2634185 0.17981091 0.3493546 -0.19921961
0.13569096 -0.2644955 0.22685061 -0.0028205735 0.11807508 0.17552444 -0.092950985 -0.2093839
0.122832 0.03771956 0.050578237 0.105454706 -0.069167905 0.006178766 0.3240069 -0.054731533
0.15073471 -0.36168835 -0.06777951 0.15092184 0.05940771 -0.02573097 0.018498441 0.10010297
-0.0042936574 0.0602943 -0.022970682 -0.086680405 0.079135396 0.10401773 -0.19562271 -0.043218754
-0.16599922 -0.0012204534 0.02222215 0.07082778 0.022821007 0.069816 0.21033673 0.09704377
0.12008446 -0.28488812 0.25442663 -0.10887974 -0.15434042 0.11982627 0.09806802 -0.042861003
-0.06890439 0.104627594 -0.14595975 -0.23587307 -0.010876604 0.24165995 -0.048264366 0.34505528
-0.30214676 0.2590065 -0.0015868804 0.030397216 0.10546363 0.061421175 0.14819163 -0.13750921
0.008100611 0.09241424 -0.1144027 -0.015953852 -0.05781744 0.15689754 0.19974402 -0.13294023
-0.021717189 0.2601732 -0.0536576 -0.07211807 0.07035326 0.054253843 0.08500597 -0.11693835
-0.0065972637 0.2018763 -0.12112673 -0.020587988 0.1578602 0.13742548 0.035589393 -0.13123514
0.0004575699 -0.15129003 0.19201195 -0.42680308 0.3229722 -0.095643416 0.08596774 0.010927235
0.06791231 -0.044109054 -0.19860315 -0.0033951872 0.0012787866 0.028927526 -0.081406154 0.14942136
-0.042509932 -0.19933899 0.050143905 0.019646753 -0.15755612 -0.1054921 -0.33844972 -0.19714867
-0.030618535 -0.24090534 0.18982533 -0.16047713 -0.03770583 -0.19435273 0.102214925 -0.12732223
-0.025130033 0.3422473 0.053204194 -0.19716236 -0.08061634 -0.20006035 0.122235656 0.092952095
-0.013919893 -0.06335166 0.19046168 -0.08207725 0.12976311 0.02304165 0.07243376 0.005819892
-0.1236225 0.13029447 -0.1520981 0.048583884 0.12069843 0.09361646 0.042928774 -0.23352905
0.15843949 0.027433595 -0.13261424 0.14731197 0.15523735 0.08341653 -0.14617793 -0.17661917
-0.15886927 0.030126445 -0.06750358 0.11158441 -0.024545059 -0.2847362 -0.026789464 -0.015730022
-0.34168124 0.095842905 -0.02695179 0.043316495 -0.34505635 0.16737126 -0.038248036 -0.18619025
-0.08770544 -0.16202788 -0.27108505 0.040039677 0.21952221 0.06872676 0.18364905 -0.076529175
0.02261535 0.35772553 0.084795885 -0.06036559 -0.12045269 -0.11817654 -0.022352742 -0.30453515
0.25097176 -0.24585256 0.10100338 -0.20698518 -0.22019026 -0.22651447 -0.07894497 0.40060154
0.17989768 0.100841746 0.024434457 -0.1031098 -0.14933905 -0.14297627 -0.08630768 0.079874545
0.39305395 -0.18531165 -0.09525943 0.07268891 -0.048676822 0.1057453 0.079477176 0.08748269
0.11903157 0.103524745 -0.033734534 0.008546391 0.108930334 -0.049782433 -0.15968972 -0.07414685
00000000: fc65 4bbc 4215 95be eb89 5ebc 762a b23d
00000010: 10d3 6dbc 283b b8bd dfc6 063e ebdb 423d
00000020: 7326 013d 1152 bdbe e9e7 2ebe 17b6 97bc
00000030: 5d6f 8cbd b2a0 823d b60a 72be 2824 e9bd
00000040: b4e0 13be 64ab 8c3e c7d7 873e ee05 6c3e
00000050: b58f 4bbe 6f02 cebd 1757 d0bd fead 8d3e
00000060: 0157 8dbe 1a43 50bb bca5 2abd 9b9c 803e
00000070: 0870 9abd 8c88 c5bd 0c21 973d c984 103e
00000080: cb29 da3d dbac 03bd c134 073e ede6 b53b
00000090: cade 863e 5a20 383e 9bde b23e 3a00 4cbe
000000a0: 92f2 0a3e f46b 87be 874b 683e 5fd9 38bb
000000b0: 59d1 f13d aebc 333e 165d bebd bc68 56be
000000c0: 588f fb3d d37f 1a3d 202b 4f3d a3f8 d73d
000000d0: e7a7 8dbd 3f77 ca3b 3be4 a53e 2c2e 60bd
000000e0: 335a 1a3e 372f b9be fccf 8abd 418b 1a3e
000000f0: 8055 733d c1c9 d2bc 0b8a 973c c902 cd3d
00000100: cfb1 8cbb 28f7 763d 032d bcbc 7f85 b1bd
00000110: bd11 a23d 3f07 d53d 5251 48be 2606 31bd
00000120: b3fb 29be 9ff7 9fba 3a0b b63c 280e 913d
00000130: 1ff3 ba3c b1fb 8e3d 8362 573e e2be c63d
00000140: d7ee f53d dbdc 91be 3544 823e 57fc debd
00000150: 6a0b 1ebe 7a67 f53d e3d7 c83d 058f 2fbd
00000160: bf1d 8dbd fe46 d63d 7976 15be b688 71be
00000170: c933 32bc b575 773e dbb0 45bd 16ab b03e
00000180: fbb2 9abe 809c 843e dffe cfba 9503 f93c
00000190: 51fd d73d c594 7b3d 8cbf 173e 37cf 0cbe
000001a0: 6db8 043c ad43 bd3d f64b eabd a7b1 82bc
000001b0: fbd1 6cbd c0a9 203e b289 4c3e 7c21 08be
000001c0: 3fe8 b1bc 6c35 853e 12c8 5bbd a4b2 93bd
000001d0: 5f15 903d 4739 5e3d 9c17 ae3d 607d efbd
000001e0: dc2d d8bb a9b8 4e3e 4b11 f8bd 24a8 a8bc
000001f0: 1ba6 213e 44b9 0c3e 2fc6 113d 8162 06be
00000200: fee5 ef39 c6eb 1abe c89e 443e ef85 dabe
00000210: 9d5c a53e b2e0 c3bd db0f b03d 2508 333c
00000220: 9c15 8b3d b2ab 34bd a05e 4bbe ca81 5ebb
00000230: f59c a73a 6bf9 ec3c 45b8 a6bd ea01 193e
00000240: e51e 2ebd 851f 4cbe b263 4d3d 3af2 a03c
00000250: 6456 21be 3e0c d8bd 4849 adbe 57e1 49be
00000260: b9d3 fabc e4af 76be 9261 423e 1e54 24be
00000270: 6e71 1abd 6704 47be 0f56 d13d c260 02be
00000280: 80dd cdbc 0a3b af3e a4ec 593d eee4 49be
00000290: 2e1a a5bd 9fdc 4cbe b056 fa3d ab5d be3d
000002a0: 4310 64bc 84be 81bd 6308 433e 1e18 a8bd
000002b0: 9fe0 043e d8c1 bc3c 2758 943d cbb4 be3b
000002c0: cb2d fdbd ea6b 053e 9bbf 1bbe e5ff 463d
000002d0: bd30 f73d fdb9 bf3d 15d6 2f3d 3d22 6fbe
000002e0: f63d 223e 6bbc e03c 07cc 07be f3d8 163e
000002f0: 8af6 1e3e 49d6 aa3d abaf 15be a8db 34be
00000300: a0ae 22be bccb f63c 513f 8abd 5e86 e43d
00000310: b812 c9bc f1c8 91be 9475 dbbc 3fdc 80bc
00000320: d8f0 aebe 4949 c43d 00ca dcbc a36c 313d
00000330: 3aab b0be 5f63 2b3e f9a9 1cbd a8a8 3ebe
00000340: e99e b3bd a3ea 25be a9cb 8abe a500 243d
00000350: 6eca 603e 9ec0 8c3d 7f0e 3c3e 54bb 9cbd
00000360: d443 b93c cd27 b73e 77a9 ad3d e941 77bd
00000370: e6af f6bd 8b06 f2bd 191d b7bc 08ec 9bbe
00000380: 5f7f 803e c6c0 7bbe dcda ce3d ecf3 53be
00000390: 8e79 61be 69f3 67be e7ad a1bd a51b cd3e
000003a0: 1937 383e 1e86 ce3d c52a c83c 3b2b d3bd
000003b0: 56ec 18be 5f68 12be 15c2 b0bd 4495 a33d
000003c0: 5e3e c93e 56c2 3dbe 6017 c3bd ecdd 943d
000003d0: 5961 47bd fe90 d83d eec4 a23d 202a b33d
000003e0: d3c6 f33d c804 d43d 392d 0abd 2906 0c3c
000003f0: de16 df3d aae8 4bbd b485 23be 4eda 97bd

a2c_network.mu.bias f4 [12]
-0.16001344 -0.03279348 -0.028694669 -0.004780606 -0.23894434 0.036032803 -0.024350764 0.10464679
-0.017146334 -0.17016692 0.16741654 0.10126688
00000000: 90da 23be 7552 06bd 1511 ebbc a1a6 9cbb
00000010: d3ad 74be 2297 133d 417b c7bc 0e51 d63d
00000020: 7876 8cbc 3d40 2ebe 3e6f 2b3e 0365 cf3d

exp_avg f4 [12]
-0.0018918532 -0.001226511 0.00059277716 -0.00052650046 0.0012372205 -0.00025027685 0.001165726 -0.00068694586
-0.0012917657 -0.0001734661 0.0015749976 0.0012585141
00000000: 0ff8 f7ba e1c2 a0ba 9a64 1b3a d904 0aba
00000010: 3b2a a23a 9737 83b9 46cb 983a 2814 34ba
00000020: 7750 a9ba 74e4 35b9 2670 ce3a baf4 a43a

exp_avg_sq f4 [12]
4.812919e-05 5.4374337e-05 5.742393e-05 5.3410517e-05 6.574923e-05 5.8940248e-05 5.313018e-05 5.365689e-05
5.0679766e-05 5.0752427e-05 5.391972e-05 5.2699103e-05
00000000: 53de 4938 0010 6438 7ada 7038 1b05 6038
00000010: d9e2 8938 9c36 7738 19d8 5e38 a60d 6138
00000020: fc90 5438 01df 5438 dc27 6238 3b09 5d38

exp_avg f4 [256, 48]
9.100145e-06 8.553297e-06 2.6430903e-06 -1.7449092e-05 -2.3448122e-06 6.782911e-08 1.2991337e-06 -2.765089e-06
-1.7137719e-06 -3.705638e-06 1.2727619e-06 -8.62193e-06 -9.074666e-06 1.3639748e-05 -8.7912855e-07 -5.458307e-06
-6.092598e-06 2.8484199e-06 4.907441e-06 9.7056945e-06 -8.404939e-06 5.878772e-06 3.0210322e-06 -1.1576955e-06
5.297325e-07 2.1766366e-06 1.3863937e-05 1.4282805e-06 2.8376573e-06 8.489742e-06 -1.7204713e-06 8.447456e-06
4.8493706e-07 -1.5271551e-07 2.2026786e-06 -7.762333e-06 3.6779898e-06 2.5044849e-06 1.0455181e-05 -3.169013e-06
7.475839e-06 9.92051e-06 -1.2729161e-05 2.0706502e-06 2.3874043e-06 -4.540662e-06 -3.3751844e-06 -3.1500806e-06
2.4958754e-07 -4.149053e-06 1.7393573e-06 1.16592355e-05 -1.2999271e-05 -6.1353417e-06 3.647823e-06 6.571099e-06
3.8191897e-06 3.399709e-06 -6.4717466e-07 1.3442055e-05 1.5463767e-05 1.2482408e-05 -1.4997419e-06 -4.66459e-06
-5.3760696e-06 1.0983734e-05 -1.2327321e-06 -3.6636432e-06 -2.5281618e-06 6.3800844e-06 -9.6439735e-06 -1.2110362e-05
1.2754829e-05 -1.1209775e-06 3.728974e-06 7.921862e-06 2.2951144e-06 9.842678e-06 -3.8994153e-06 1.0749838e-05
-3.0535857e-06 2.422254e-06 2.221206e-06 -5.023079e-08 9.279969e-06 -1.2461101e-05 1.1164381e-05 7.799147e-07
4.8026764e-06 1.7041817e-05 3.2876258e-06 1.0435207e-06 1.0975766e-05 1.882998e-05 -6.389852e-06 8.977192e-06
-3.9620027e-06 -3.3024953e-06 8.757533e-06 6.433522e-06 1.6357462e-06 2.9807006e-06 -3.884871e-06 8.079712e-06
1.1985497e-06 1.2313251e-06 -6.9817515e-06 -4.2233946e-06 5.9535405e-06 -1.0361751e-05 8.727043e-06 1.058959e-05
1.1831486e-05 -7.5032226e-06 -1.8940334e-06 8.754934e-06 -3.3816864e-06 -1.4059318e-05 4.1543803e-06 -3.4766117e-06
-2.653719e-06 -1.3861203e-06 1.1693218e-05 -1.4636137e-05 -3.8022831e-06 -1.0694903e-05 -8.209507e-06 1.527868e-06
1.6646173e-06 -2.9570376e-07 1.1392993e-06 1.6376157e-06 1.0374563e-05 3.5135586e-06 1.1627901e-05 -1.279866e-05
-1.998074e-05 -1.6506683e-05 3.5155374e-06 -1.3924532e-05 6.8363483e-06 -2.5937854e-05 1.0127973e-05 -6.2576173e-06
-1.081265e-05 -7.045365e-06 -3.574381e-06 1.3922432e-05 2.7048086e-06 -2.1631051e-06 -1.7995104e-06 -6.2447515e-07
-2.0249734e-06 6.4083056e-06 6.1495894e-07 -1.1642039e-05 5.3940294e-06 7.84772e-06 -3.5878716e-06 -7.5159924e-06
-4.5995293e-06 1.613249e-06 -1.0353522e-06 -7.401711e-06 -2.5431077e-06 3.0133658e-06 3.1397935e-06 1.3505747e-06
-5.6030503e-06 1.9998029e-06 -9.662746e-06 -2.0213547e-05 -2.440324e-06 1.6511609e-06 9.534616e-06 6.3698e-06
1.0135656e-06 -7.3488286e-06 -1.2654943e-05 -1.0841067e-05 -6.536593e-06 -7.1603054e-06 -9.553383e-06 -2.430553e-05
3.3112233e-06 3.9946794e-06 9.582043e-06 7.5053194e-06 -1.3052178e-05 -5.85658e-06 -1.5595428e-05 -7.591105e-07
6.348588e-06 -1.9198485e-06 -3.4211869e-06 -1.181346e-05 6.1218498e-06 -4.389052e-06 1.4341947e-06 -2.97754e-07
-1.6786651e-05 -5.768729e-06 -4.3095524e-06 4.3869677e-06 -3.5250928e-06 1.3052364e-05 -5.518858e-07 -2.6815674e-06
-6.1864835e-06 5.830366e-06 -9.710728e-06 -2.2566228e-05 -1.36057e-05 -1.6169093e-06 -4.979215e-06 -8.143717e-06
-1.3265612e-05 1.004924e-06 1.0402366e-05 2.8768907e-06 1.0248222e-05 1.1594047e-05 1.0145647e-05 -4.3876876e-06
-1.873517e-05 3.6641723e-06 -4.0441873e-06 -4.8191864e-06 -8.6295495e-06 3.0436195e-06 5.054039e-06 5.4819675e-06
3.5801013e-06 1.463292e-07 1.13630285e-05 2.7341107e-06 1.688077e-06 1.3398306e-05 -2.0333007e-06 1.0655496e-05
-1.4996458e-05 -6.2390477e-06 -3.6804129e-06 1.128084e-05 -3.671633e-07 8.059198e-06 1.9025293e-06 1.3069106e-07
-5.866302e-06 1.5776681e-06 7.774581e-06 -6.1194246e-06 1.9583533e-05 3.0765973e-06 -1.1205385e-05 -8.503095e-06
00000000: d3ac 1837 2280 0f37 f25f 3136 a45f 92b7
00000010: 915b 1db6 73a9 9133 e55d ae35 de8f 39b6
00000020: c104 e6b5 60ae 78b6 c4d3 aa35 e8a6 10b7
00000030: 653f 18b7 46d6 6437 41fd 6bb5 8026 b7b6
00000040: 056f ccb6 7b27 3f36 99aa a436 a4d5 2237
00000050: f002 0db7 4442 c536 f0bc 4a36 1d62 9bb5
00000060: f132 0e35 5512 1236 2899 6837 58b3 bf35
00000070: 956e 3e36 2a6f 0e37 f2ea e6b5 8cb9 0d37
00000080: 9f2c 0235 1ffa 23b4 bbd1 1336 f73a 02b7
00000090: 62d3 7636 b912 2836 a968 2f37 3bab 54b6
000000a0: f8d8 fa36 4470 2637 558f 55b7 80f5 0a36
000000b0: 4b37 2036 fd5b 98b6 3a81 62b6 f965 53b6
000000c0: 0dff 8534 1838 8bb6 dd73 e935 099c 4337
000000d0: 7217 5ab7 2fde cdb6 1fcd 7436 507d dc36
000000e0: 9726 8036 8e26 6436 81b9 2db5 3085 6137
000000f0: 30b8 8137 896b 5137 bd4a c9b5 8684 9cb6
00000100: 1664 b4b6 c746 3837 5a74 a5b5 e9dc 75b6
00000110: 7da9 29b6 8214 d636 8dcc 21b7 9c2d 4bb7
00000120: 93fd 5537 7e74 96b5 493f 7a36 23e8 0437
00000130: c405 1a36 fb21 2537 b9d7 82b6 345a 3437
00000140: 34ec 4cb6 028e 2236 0710 1536 56bd 57b3
00000150: 2ab1 1b37 0510 51b7 a74e 3b37 555b 5135
00000160: ad26 a136 06f5 8e37 fba0 5c36 190f 8c35
00000170: 8e24 3837 13f5 9d37 6968 d6b6 bf9c 1637
00000180: 58f1 84b6 70a0 5db6 51ed 1237 88df d736
00000190: d08b db35 0c08 4836 ca5a 82b6 198e 0737
000001a0: dbdd a035 0244 a535 ca44 eab6 afb6 8db6
000001b0: 86c4 c736 62d7 2db7 5d6a 1237 f1a9 3137
000001c0: d87f 4637 31c4 fbb6 7e36 feb5 28e2 1237
000001d0: eef0 62b6 50e0 6bb7 db65 8b36 bc4f 69b6
000001e0: 8c16 32b6 bb0a bab5 fd2d 4437 bb8d 75b7
000001f0: ba2a 7fb6 426e 33b7 90bb 09b7 2511 cd35
00000200: d16b df35 37c1 9eb4 07ea 9835 0ccc db35
00000210: 690e 2e37 7aca 6b36 7415 4337 d3b9 56b7
00000220: 509c a7b7 d577 8ab7 79ec 6b36 699d 69b7
00000230: c963 e536 1e95 d9b7 50eb 2937 86f8 d1b6
00000240: fa67 35b7 3967 ecb6 66df 6fb6 6494 6937
00000250: 4284 3536 dd29 11b6 b586 f1b5 9ba1 27b5
00000260: c7e4 07b6 ed06 d736 a813 2535 2d52 43b7
00000270: 5cfe b436 b3a9 0337 2ac7 70b6 e231 fcb6
00000280: a855 9ab6 d086 d835 6ef6 8ab5 375c f8b6
00000290: 42aa 2ab6 3b39 4a36 3eb5 5236 6545 b535
000002a0: d601 bcb6 5a34 0636 2e1d 22b7 4390 a9b7
000002b0: 72c4 23b6 759d dd35 ddf6 1f37 2abc d536
000002c0: d909 8835 f595 f6b6 9150 54b7 07e2 35b7
000002d0: e854 dbb6 8e42 f0b6 7847 20b7 bae3 cbb7
000002e0: 6236 5e36 090a 8636 90c2 2037 34d6 fb36
000002f0: adfa 5ab7 a483 c4b6 edd2 82b7 adc5 4bb5
00000300: f505 d536 bfd6 00b6 8b97 65b6 6d32 46b7
00000310: 4a6a cd36 ab45 93b6 8e7e c035 00db 9fb4
00000320: 0fd1 8cb7 0191 c1b6 c69a 90b6 c433 9336
00000330: a290 6cb6 7afb 5a37 4e25 14b5 faf4 33b6
00000340: 7d95 cfb6 76a2 c336 42eb 22b7 9b4c bdb7
00000350: 0944 64b7 9504 d9b5 2213 a7b6 00a1 08b7
00000360: 5f8f 5eb7 ede0 8635 d285 2e37 9b10 4136
00000370: c7ef 2b37 0d84 4237 3937 2a37 f339 93b6
00000380: 7929 9db7 00e6 7536 4eb3 87b6 7fb4 a1b6
00000390: a2c7 10b7 fc40 4c36 dd95 a936 bef1 b736
000003a0: ac41 7036 aa1e 1d34 d6a3 3e37 aa7b 3736
000003b0: e291 e235 49c9 6037 d773 08b6 02c5 3237
000003c0: 4c99 7bb7 0359 d1b6 03fd 76b6 d742 3d37
000003d0: 8a1e c5b4 fe35 0737 695a ff35 1654 0c34
000003e0: 27d7 c4b6 43c0 d335 926f 0237 7555 cdb6
000003f0: 5147 a437 8a77 4e36 c3fe 3bb7 84a8 0eb7
