omniisaacgymenvs/scripts/runs/Anymal/nn/last_Anymal_ep_450_rew_-0.9583126.pth (torch, 672599 bytes, 36 tensors)

value_mean_std.running_mean f8 [1]
000000 73 08 3c 8b ab 4a fc bf
       -1.7682300032470522

value_mean_std.running_var f8 [1]
000000 dd 04 b0 d9 ec 48 51 40
       69.13945619763713

value_mean_std.count f8 []
000000 00 00 00 04 00 18 95 41
       88473601.0

running_mean_std.running_mean f8 [48]
000000 9c 9b d0 9b f5 5c a6 3f 7f 36 8d 54 a9 53 91 3f
       0.043677974005098735 0.016920705590840242
000010 37 e9 da fd ca 37 e3 bf 89 2a f9 e8 04 3b 93 bf
       -0.6005606611354669 -0.018779827804147806
000020 ec 48 01 a9 9c 11 60 bf 57 08 07 09 75 22 55 bf
       -0.0019615230340060876 -0.0012899535105224313
000030 58 f1 39 a7 38 90 6b 3f 3c 6c f0 aa 12 a0 7d 3f
       0.0033646685131413605 0.0072327355583424145
000040 70 6e 21 c5 d9 c8 ee bf 33 8c 72 5a f8 8f c6 bf
       -0.9620179033476699 -0.17626861969356042
000050 6f 67 bc 4d 3b b6 99 3f 53 5d 12 10 94 7f 30 bf
       0.025109221095682196 -0.0002517448884388946
000060 9b 47 a1 17 c0 fd c4 bf 5a 58 21 0e 14 3c c2 bf
       -0.16399384645279444 -0.14245844545320346
000070 53 72 eb 8b f1 d3 bf 3f 53 22 71 9b b2 4a c2 3f
       0.12432775178917525 0.14290459241807926
000080 b2 f8 03 51 87 c2 8d 3f 3e 05 fd 31 db 03 b5 3f
       0.01453119007100798 0.08209009142321563
000090 ab a0 c1 79 75 82 92 bf 62 33 91 90 25 99 60 bf
       -0.018075786167543722 -0.0020261510549403486
0000a0 dd f9 f9 21 e2 73 b6 3f b0 7a a2 77 96 8e c3 bf
       0.08770573930266985 -0.15278893319642384
0000b0 78 8b b5 51 51 1e c1 3f af fa 27 f8 95 de b9 bf
       0.13373772134499595 -0.10105264004230706
0000c0 70 6f 97 2d b5 e9 9b bf 88 fb 36 c8 06 8b 93 bf
       -0.027258711726843854 -0.019085031480922804
0000d0 f4 45 13 9f 2e 10 9e 3f 01 ab 71 07 4a 55 9b 3f
       0.029358604869065233 0.026692539886805203
0000e0 f9 d5 ab e2 ea ee 70 bf 2e 78 3c 13 8f bf 97 3f
       -0.004134099503735105 0.023191676663479814
0000f0 ee e1 c3 4b 83 d2 86 bf a9 12 55 b3 af 4e 78 3f
       -0.011143708944005373 0.005934416132110578
000100 a5 03 15 51 97 8d 89 3f 7f 4e ee 03 a7 48 9e bf
       0.012477094804696007 -0.02957402192585201
000110 c0 86 3f 98 7f 0c a1 3f de 95 b4 c7 d8 e6 96 bf
       0.0332984803533356 -0.022364985646296513
000120 da 6d 0d 7e 97 26 b5 bf c8 78 c4 a8 f5 e5 ab bf
       -0.08262011363461089 -0.054488827563760334
000130 5c 5a 6a b2 93 f3 b4 3f 53 11 f7 63 8d 02 b1 3f
       0.08184168916555151 0.06644519510797879
000140 b6 44 0b cd 49 e7 90 3f 6b f6 63 44 6d 4c ad 3f
       0.01650729478825915 0.05722371539921486
000150 c0 c7 38 57 49 7b 95 bf f9 c0 22 1e 5d 72 6f 3f
       -0.020978113125415865 0.0038387125688005255
000160 93 a1 d0 df e5 8a a0 3f 11 f8 e4 d5 85 a5 b1 bf
       0.03230970723263051 -0.06893192741424083
000170 de d1 2a 7e 18 3f b9 3f ab 67 64 a1 42 20 a7 bf
       0.09861901359801759 -0.04516800136680329

running_mean_std.running_var f8 [48]
000000 75 34 db b7 d1 d4 e2 3f ea 66 28 f5 bd f0 df 3f
       0.5884789076750524 0.4990687269324626
000010 f2 c1 d9 6b f7 26 e8 3f 95 77 d5 66 36 ee c5 3f
       0.7547566515405022 0.17133216878113147
000020 bb cc f7 77 4f 08 aa 3f 11 94 7e d9 35 0f b7 3f
       0.050844653505828195 0.09007584152148264
000030 90 3c 5c ed 66 f6 94 3f e4 68 d5 60 0d 4f a7 3f
       0.020471199261973327 0.045524995871078194
000040 d6 c9 d9 3b 74 55 81 3f eb fa 4a 87 ce 54 15 40
       0.00846377189302398 5.332819093657899
000050 a0 63 5e d8 08 d8 f4 3f 31 a2 fb e5 78 05 95 3f
       1.3027428104307788 0.020528687512440583
000060 c0 8a bf 7b 5f 09 c0 3f a4 99 14 70 2c b0 c1 3f
       0.12528604071038352 0.13818889115027588
000070 14 0b 9c 99 31 11 c2 3f f2 7a 94 e7 a4 34 c2 3f
       0.141149711613331 0.1422315722238277
000080 1b 1b c2 4f 67 9f bb 3f 63 49 e6 36 9f 84 c0 3f
       0.10790105530950848 0.1290473001541371
000090 45 de 0e c8 33 92 be 3f 48 ab 7c 8c fd b5 be 3f
       0.11941836961965986 0.11996445350511664
0000a0 a2 c8 b7 68 1a 43 c7 3f a3 9b 1c a9 79 0a cc 3f
       0.18173532593897784 0.21906967885408077
0000b0 3d 82 b7 f2 69 11 c8 3f 8d d0 88 35 b1 8f cb 3f
       0.18803142882735982 0.21532263864503812
0000c0 51 8c 2d 31 32 ab 7e 3f 7c a7 8d 6b 7d 6a 81 3f
       0.007487484038253348 0.008503894657866821
0000d0 1a b5 90 90 23 44 83 3f f1 5e bd 61 19 89 82 3f
       0.009407308434755058 0.009050558371810765
0000e0 57 76 09 68 82 6f 81 3f d1 2d dc 11 66 f6 81 3f
       0.00851346855159389 0.00877074949268933
0000f0 ac 4e 8d 91 e3 ec 80 3f b3 8f f6 89 56 b5 81 3f
       0.00826432979525945 0.008646656117725948
000100 aa af a5 f7 c1 50 9b 3f cc fc 0a e6 b2 26 9d 3f
       0.026675253620325336 0.02846793679304653
000110 92 ec e3 8b 44 be 9e 3f 76 ba 0e 2e 22 61 a0 3f
       0.03002268890211874 0.03199106991029492
000120 a7 da 8c 1a 76 77 e0 3f 86 11 41 59 70 6b e0 3f
       0.5145826834257904 0.5131150954480723
000130 e7 f0 c2 97 dd 9b e0 3f dd 7f 9a 9b 7b 13 e0 3f
       0.5190265621272631 0.5023782767420887
000140 ab 01 d5 ec 4c 7c e0 3f 06 e1 7d 62 ba 9a e0 3f
       0.515173399508105 0.5188877032915407
000150 b3 0d c1 63 d5 4f e0 3f f9 c8 a5 40 31 a4 e0 3f
       0.5097453068087162 0.5200430166862865
000160 bc eb b8 53 b1 53 e0 3f c5 05 94 ff f0 0c e0 3f
       0.5102163920595255 0.5015797607194875
000170 a0 cb 64 a1 b1 72 e0 3f b9 27 fb ef 62 c0 e0 3f
       0.5140007164212541 0.5234846770410889

running_mean_std.count f8 []
000000 00 00 00 08 00 18 85 41
       44236801.0

a2c_network.sigma f4 [12]
000000 ce 03 34 40 c2 db 2c 40 7b 3a 28 40 bc fc 31 40
       2.8127322 2.700913 2.6285694 2.7810507
000010 6b 3f 2f 40 52 ec 30 40 ad fd 30 40 cc 28 2b 40
       2.7382457 2.7644238 2.7654831 2.674365
000020 18 d1 2d 40 ba d5 32 40 30 0a 2e 40 ff 85 2c 40
       2.715887 2.7942948 2.7193718 2.6956785

a2c_network.actor_mlp.0.weight f4 [256, 48]
000000 ec 81 88 3e fd d1 84 be 80 f0 1e 3d 3d 9f df 3d
       0.26661623 -0.25941458 0.038803577 0.10919044
000010 8f 2e fb be 30 5a 6b 3e 14 4c e9 3d d9 15 60 3d
       -0.4905896 0.22983623 0.11391464 0.054708336
000020 e9 ac 55 3e 81 3e b7 bd 93 67 a8 3e 0b df c7 be
       0.20866741 -0.089474685 0.3289152 -0.39037356
000030 4a 36 19 be 77 32 ba 3d 55 66 07 bd c0 84 b0 3d
       -0.14962116 0.09091657 -0.033056576 0.0861907
000040 a4 88 21 3d d7 41 e5 be f6 ea 39 3e c7 5f 76 be
       0.03943695 -0.44776794 0.18156037 -0.24059974
000050 25 31 4f be 41 ec ac 3d 5d 1c a3 3c c9 56 5c 3e
       -0.20233591 0.08443499 0.019910986 0.21517481
000060 25 26 89 3d c4 8f a8 bd f1 64 22 be 5f 54 a3 be
       0.066967286 -0.08230546 -0.15858819 -0.31900308
000070 e6 95 37 3c 78 49 d8 ba 03 11 67 be bf 69 83 3e
       0.011205172 -0.0016501388 -0.22565083 0.25666615
000080 cb 4f 88 be 66 69 aa 3d 3b 3e d2 3e 65 70 8a bb
       -0.26623377 0.083208844 0.41063103 -0.0042248243
000090 64 73 51 3e 09 bb 69 3d c9 76 01 3e e6 d8 37 be
       0.20454174 0.057063136 0.12642969 -0.17953834
0000a0 df fa 43 3d 36 df 80 3e d5 90 4e 3e 38 d9 cb be
       0.04784667 0.25170296 0.20172437 -0.39814162
0000b0 e2 ed 10 3e 23 78 b2 3e 7f 3d 7b be 9a de 8c be
       0.14153245 0.34857282 -0.24535178 -0.27513582
0000c0 ba fd fe 3d f1 a9 72 bd 54 2e 8c 3e 78 c2 88 be
       0.12450738 -0.0592441 0.27379096 -0.26710868
0000d0 93 e9 23 be 83 cd d3 3c 5c c8 34 3e 93 f7 14 bf
       -0.1600707 0.025854832 0.17654556 -0.5819027
0000e0 a2 9d 85 bc 70 07 96 bd 4c a3 61 3e 8a ec c4 be
       -0.016310517 -0.07325637 0.22034949 -0.38461715
0000f0 83 6c 9f 3d 78 00 c1 bd 7a ba d6 3d f2 62 50 3e
       0.07784369 -0.094239175 0.10484786 0.20350245
000100 b8 9d 4f 3e 11 90 88 be b7 2c a4 be c8 b9 00 be
       0.20275009 -0.26672414 -0.32065365 -0.1257087
000110 6b d2 3f bc 76 b6 16 be 7e e2 73 3e 5c 49 10 be
       -0.011707882 -0.14718041 0.23816869 -0.14090484
000120 5d 3e e4 3e cf 3a 26 be 53 16 d8 bc 11 99 0b bf
       0.4457883 -0.16233371 -0.026377833 -0.54530436
000130 7f 83 e7 be cf 69 f3 be 5e 15 37 be a2 3a 78 be
       -0.4521751 -0.47541663 -0.17879245 -0.24241117
000140 fb f5 f2 3e e5 57 84 3e 74 6c 6a 3d e4 ac 0e 3e
       0.47453293 0.25848308 0.057232335 0.1393314
000150 1d 1a f5 be 9a 11 00 3f e9 a1 93 3d cc 31 55 3d
       -0.47871485 0.5002686 0.07208616 0.052049443
000160 2e 81 0b bf 5f 03 32 be f5 49 41 be 1f 06 48 3d
       -0.5449399 -0.17384098 -0.18875869 0.048833963
000170 69 b0 d5 3e cd d5 a8 be dd 01 82 bd ee 73 46 be
       0.41736153 -0.32975617 -0.06348012 -0.19380161
000180 c8 92 77 be 59 6c 92 bd f4 60 43 3f d5 6a c1 3e
       -0.24177086 -0.07149572 0.76319814 0.3777682
000190 85 ad ea 3e 8a 2e d1 bd cd 1f 11 3e bd 5d 26 3e
       0.4583551 -0.10213955 0.14172287 0.16246696
0001a0 13 7c 35 3e f9 f7 9c 3d a5 c6 6f 3e 88 ff 8a be
       0.17723112 0.076644845 0.2341562 -0.2714808
0001b0 09 fb 5d 3e 0e 8c 0e be e3 f1 4e 3e 12 22 d8 3d
       0.21677794 -0.13920614 0.2020946 0.105533734
0001c0 48 2e 89 3e 9e e4 ed bd f3 23 15 be 6f bb 95 be
       0.26793122 -0.11615871 -0.14564495 -0.29244563
0001d0 0a 51 a8 3e 40 51 84 3e 1c 2c 5c be aa 3c 8c 3e
       0.32874328 0.2584324 -0.21501201 0.27390033
0001e0 8d 06 a9 3e 9b 90 b6 be 73 fa 8c be 80 e9 08 be
       0.3301281 -0.356572 -0.27534828 -0.13370323
0001f0 f9 39 38 3f 86 be a8 be 5e 13 ae be 74 ab db be
       0.7196346 -0.32957858 -0.3399915 -0.42904246
000200 29 37 0c be 5a 8c f2 3e ae 86 05 3e 91 d4 a3 be
       -0.13692917 0.47372705 0.13039657 -0.31998113
000210 4f 19 b5 3e 0a af d1 3e c0 b5 1b bf b9 5f 8a be
       0.3537087 0.40953857 -0.60824203 -0.27026156
000220 96 65 43 3f f6 6b 89 3d 9a 90 50 3e 4c 4d 5a bf
       0.7632688 0.06710045 0.20367661 -0.85274196
000230 1b 41 f8 bd a8 c5 5f 3e 54 22 e6 bd db ca df 3d
       -0.12121793 0.21852744 -0.11237016 0.109273635
000240 49 56 8b bc 42 42 e4 3e f7 a9 9b 3d a0 99 fe bc
       -0.017008917 0.445818 0.076007776 -0.031079113
000250 bf 5f 4a be 7c e1 80 3e d6 c7 26 bd 16 7b 13 bd
       -0.19763087 0.2517203 -0.040717922 -0.036006056
000260 70 9a ad bd b2 ec bd bd 42 46 18 3e 76 a1 1c 3d
       -0.08476722 -0.09273662 0.14870551 0.03823992
000270 a4 44 88 3d de 27 97 be c1 ad b2 be 92 bf 06 be
       0.06653717 -0.29522604 -0.3489819 -0.13159016
000280 24 16 9a be ad 63 3a be 57 8f de 3d c1 02 a3 3d
       -0.30095017 -0.18202086 0.10867184 0.0795951
000290 f7 ea bc be 42 5e 65 be 51 29 59 bd fa df dc 3e
       -0.36898014 -0.22399238 -0.053017918 0.4313963
0002a0 56 0c 58 3d b6 9b 73 3e d3 0c 7d 3e 75 1c f2 ba
       0.05274614 0.23789868 0.24711923 -0.0018471616
0002b0 dc 64 ae bc d9 9a c2 bd 21 4c 48 be a0 0f 8f bc
       -0.021288328 -0.09502191 -0.19560291 -0.017463505
0002c0 75 70 49 be bf 2d 5f 3d ce 03 89 3e 2d 2a c9 3c
       -0.19671805 0.054486986 0.26760715 0.024556244
0002d0 cf 16 55 be b3 ee 1d be ce 91 e2 bd 8a b3 cc bd
       -0.20809482 -0.15423088 -0.11062966 -0.09995182
0002e0 aa 08 58 3e 21 e7 22 3e 11 2c 3e 3e b0 f8 ab bd
       0.21097055 0.15908481 0.18571497 -0.08397043
0002f0 23 0e e8 bd 9f 67 09 be 48 17 0e 3d 47 0b 00 be
       -0.11330821 -0.13418435 0.03469017 -0.12504302
000300 d8 e0 61 3e 8d 87 b2 bc 03 b4 ca bd a8 e2 28 3e
       0.22058427 -0.021793151 -0.09897616 0.16492712
000310 45 85 8f be 89 9f e1 3e ed f6 a2 be bc 6e ea 3c
       -0.28031364 0.44067028 -0.31829014 0.028617255
000320 99 f4 fc 3d f5 d1 20 be 50 6c f5 be 0d 40 7e be
       0.12351341 -0.15705092 -0.47934198 -0.24829121
000330 3d 0c c5 bc 36 41 bf bc bf ec 2e be 2f 8a 2a bf
       -0.024053687 -0.023346525 -0.17082499 -0.666171
000340 01 99 72 3e 90 f9 04 be fd 75 1d 3e e0 82 32 3e
       0.23691179 -0.12985826 0.1537704 0.17432737
000350 cc d6 84 bb 59 23 08 bf 4b 33 0b 3f d3 a9 25 be
       -0.004053926 -0.53178936 0.5437514 -0.16178064
000360 c1 38 c7 3c 40 96 90 3e 9e 26 65 bc 4d 82 50 be
       0.024319055 0.28239632 -0.013986258 -0.20362206
000370 46 79 b3 be 9f 3a 81 be 1e c4 62 3e 6d 58 d9 be
       -0.35053462 -0.25240037 0.22145125 -0.42450276
000380 60 7b 2d 3f 80 a0 5f 3e 1e ee 8f 3c 06 79 b2 be
       0.6776638 0.2183857 0.017569598 -0.3485796
000390 c4 28 50 bf 13 52 b2 3e c0 b1 ab 3e 20 e5 f2 be
       -0.81312203 0.34828243 0.3353405 -0.47440434
0003a0 c9 23 e9 3d 39 93 ad 39 3c 13 75 be f3 8f 93 be
       0.113837786 0.0003310682 -0.23933119 -0.28820762
0003b0 a9 92 89 be 61 64 34 3e 80 8d 9c be 20 90 9e 3d
       -0.26869705 0.17616417 -0.30576706 0.077423334
0003c0 4b e2 c3 3e 49 41 04 3e a4 c2 8a be c9 91 bd be
       0.38258585 0.1291553 -0.27101624 -0.37025288
0003d0 35 b4 1e 3e e4 dd 43 bd e2 13 d5 be 03 ae 85 3d
       0.15498431 -0.047819033 -0.41616732 0.06527331
0003e0 be 31 29 bf 95 41 81 3e 16 ef db bc b6 c1 73 be
       -0.66091526 0.25245348 -0.026847403 -0.23804364
0003f0 fb b4 3d 3e ec 79 0c 3e 22 4d e4 be 8a 22 cb be
       0.1852607 0.13718385 -0.44590098 -0.3967479

a2c_network.actor_mlp.0.bias f4 [256]
000000 8c 96 12 bf 31 65 a3 bd ca a6 02 3f 23 c7 0c bf
       -0.57260966 -0.07978285 0.5103575 -0.5499136
000010 d5 38 90 3e 83 38 4c bd a6 92 d7 be 84 d3 f8 be
       0.2816836 -0.04985858 -0.4210407 -0.48598874
000020 ba c1 3d bf 8d 08 4e bf b4 a9 47 be ec 97 66 be
       -0.7412373 -0.804818 -0.1949833 -0.22518891
000030 6b 64 7f be 9b 40 fe be d3 69 fc be cd 88 0d bf
       -0.2494065 -0.49658665 -0.49299487 -0.55286866
000040 8f 52 bf 3e 90 53 76 3e c1 d7 16 bf 96 bc 0f bf
       0.37367675 0.24055314 -0.58922964 -0.56147134
000050 d2 9a 99 3e f5 b5 b2 be c5 ba 8f 3e ae 58 a2 be
       0.3000093 -0.34904447 0.2807218 -0.31708282
000060 ee 75 c0 3e 35 10 fc be 14 dc 46 bd 32 d6 d4 be
       0.37589973 -0.49231115 -0.048549727 -0.41569668
000070 29 f0 cd be 2c f2 6f 3f 96 6c 02 bf 15 29 f6 be
       -0.4022229 0.937289 -0.5094694 -0.48078218
000080 eb 86 d4 bd e1 11 f5 be 98 31 e9 be a4 57 76 bf
       -0.10377296 -0.47865203 -0.4554565 -0.9622748
000090 44 08 74 be 77 39 d9 bd ad 08 c8 be 27 4b 18 bf
       -0.23831278 -0.10606664 -0.3906912 -0.59489673
0000a0 c4 19 81 3e d3 44 66 be 3a cf 10 be 0b ba 4d 3d
       0.2521497 -0.22487192 -0.1414155 0.050226253
0000b0 01 bb 15 3f fd 92 cc be 8b 32 0a bf b5 73 c0 be
       0.5848847 -0.39955893 -0.5398337 -0.37588277
0000c0 6d 8d f3 be a9 19 15 bf e9 b2 82 3e 07 d0 d0 be
       -0.47568837 -0.5824228 0.25527123 -0.40783712
0000d0 16 84 35 bf 5e ef 16 bf 94 15 bc be 45 2d 83 3e
       -0.7090467 -0.58958995 -0.36735213 0.25620475
0000e0 de 6a e0 3e 55 78 b2 be 38 51 bf be 69 2f b1 be
       0.43831533 -0.3485743 -0.37366652 -0.34606484
0000f0 3a b5 db be 92 13 11 bf fd 5c 06 bf 66 94 b1 be
       -0.42911702 -0.56670487 -0.5248564 -0.34683532
000100 d6 76 12 bf 8e 45 4b bf ca 2b 41 bf 1e b6 26 bf
       -0.5721258 -0.7940301 -0.7545744 -0.6512164
000110 8a 09 87 bf 61 36 0a 3e 0a c2 e7 be 27 ac b7 be
       -1.0549786 0.13497306 -0.45265228 -0.3587353
000120 da 00 ff be bb ac 90 be aa 56 d1 3e 31 60 8b 3d
       -0.49805337 -0.28256783 0.40886432 0.068054564
000130 82 97 18 bf b9 bb 3f be 0b 64 d7 be 09 e1 3b bf
       -0.5960618 -0.18723954 -0.42068514 -0.7339025
000140 ef bb cb bd 81 03 7a 3e d7 7c 03 3f 0f 65 24 bf
       -0.09947955 0.24415399 0.51362365 -0.64216703
000150 ad de 11 bf 84 11 25 3d 3b 1c f4 3b 2f ff b1 3e
       -0.569804 0.040299907 0.0074496544 0.34765002
000160 81 fa 9b be 03 d8 95 3e ca 8c 03 3f 3a 5a 28 bf
       -0.30464557 0.29266366 0.513867 -0.65762675
000170 91 b8 6a bf a1 35 2e bf eb a3 44 be 86 c3 b9 bb
       -0.91687876 -0.6805058 -0.19203155 -0.00566906
000180 3e 58 03 bf 30 e1 04 bf 2e 40 d0 be 91 88 e7 be
       -0.5130652 -0.5190611 -0.40673965 -0.4522138
000190 72 df 4e bf 63 ab 9f 3e 77 51 27 bf 1b 79 cb be
       -0.808097 0.31185445 -0.6535868 -0.39740834
0001a0 9e ca b0 be 08 54 bf 3e c3 d9 c0 3e e5 f0 6c 3e
       -0.34529585 0.37368798 0.3766614 0.23138769
0001b0 50 51 98 bd d4 8b 32 3f 3e 9e 75 3e 06 28 2b 3e
       -0.07437384 0.6974461 0.23986146 0.16714486
0001c0 de ed 93 be 3c 09 24 bf 5a d6 28 bf 17 0b 73 be
       -0.28892416 -0.6407659 -0.65952075 -0.23734699
0001d0 85 94 80 be 8d e6 e6 3e 46 26 82 be f6 5c 8f 3e
       -0.2511331 0.4509777 -0.25419825 0.2800061
0001e0 a4 4e 12 bd ca c1 b6 3e 41 c1 46 bf e5 8b c0 bc
       -0.03571953 0.35694724 -0.7763863 -0.023504207
0001f0 c0 62 14 3e 4e 6c ad 3e 49 15 1f bf 7f 3e e9 be
       0.14490795 0.33871692 -0.62141854 -0.45555493
000200 a1 c6 2b be 29 43 b0 be 97 07 16 bf cc d9 ac 3d
       -0.1677499 -0.3442624 -0.5860533 0.08439979
000210 e1 34 fe be a1 45 ed bd df 82 34 bd 1d 3b 0a be
       -0.49649718 -0.11585546 -0.04407012 -0.13499112
000220 1d 42 ee be d5 42 54 3e 01 45 54 bf 4c c7 a1 be
       -0.46534815 0.2072862 -0.8291779 -0.31597364
000230 85 06 c0 be 26 f8 db be c0 c6 f3 be 0f 60 53 3e
       -0.37504974 -0.4296276 -0.47612572 0.20642112
000240 8a 41 b7 be 57 ec 18 bf d1 5f 2c bf 01 59 c5 be
       -0.3579219 -0.59735626 -0.67333704 -0.38544467
000250 1f 92 1d bf fb af 71 be ba fd a1 be 1e e3 f9 be
       -0.6155109 -0.23602287 -0.3163889 -0.4880609
000260 60 63 71 be fb 3a 64 3e 76 41 2b be cf 75 0a 3e
       -0.23573065 0.22288124 -0.1672419 0.13521503
000270 d0 1f ec be 9a 0b 25 be ad f3 10 bf ef 2f c2 be
       -0.4611802 -0.16117707 -0.5662182 -0.37927195
000280 b8 6e bb 3e 3e 7c 0a bf 41 51 df bc c3 3f ec be
       0.3660791 -0.5409583 -0.027260425 -0.46142396
000290 5b 97 bd be a2 4a 1f bf 0a 6e 35 3f a1 27 64 be
       -0.37029538 -0.62223256 0.7087103 -0.22280742
0002a0 41 86 4d bf 23 76 93 3e 87 70 e3 be 16 de 22 bf
       -0.8028298 0.2880107 -0.4442179 -0.63620126
0002b0 8f 91 60 bf 8c f5 6a bd e4 d6 99 be 83 bb a0 3e
       -0.87722105 -0.057363078 -0.3004676 0.3139306
0002c0 f1 fd e6 be 27 55 9c be a7 c8 b5 be e4 5c 33 3f
       -0.45115617 -0.30533716 -0.35504648 0.70063615
0002d0 3c f4 08 bf 78 f9 cc bd 51 84 3b 3e a2 10 a1 be
       -0.5349767 -0.1000852 0.18312193 -0.31458002
0002e0 1a 13 12 bf ec 4e 6f be b8 39 18 bf ae d7 21 bf
       -0.57060397 -0.2336995 -0.5946307 -0.63219726
0002f0 40 0f 04 bf 55 99 23 bf 3c e3 26 be 67 19 8e 3d
       -0.5158577 -0.6390584 -0.1629762 0.06938439
000300 d4 e2 ae be c3 13 a0 bb 57 be 8e 3e 51 5f 1b bf
       -0.3415743 -0.0048851683 0.27879593 -0.60692316
000310 83 c3 3a 3e ea 7a 7c be f9 27 8b be 9c 94 01 bf
       0.18238644 -0.24656263 -0.27178934 -0.50617385
000320 7b 42 e5 be ef b1 6f 3e 6c c3 0e bf cd b1 b1 be
       -0.44777283 0.2340772 -0.5576694 -0.34705964
000330 b3 49 ce 3e 2b 94 ec 3e 81 45 22 bf 0c 29 e2 be
       0.40290603 0.46206793 -0.63387305 -0.4417194
000340 c4 35 bf be ab e7 c0 be 39 b1 00 bf 3e 78 04 bf
       -0.37345707 -0.3767675 -0.5027042 -0.51745975
000350 86 72 f5 3e 95 20 9e 3e 14 cc 85 bc f6 cf 6b be
       0.47938937 0.30884233 -0.016332664 -0.2302855
000360 21 29 11 bf f1 1a 49 be 73 dc d4 bc 94 d1 f1 be
       -0.5670338 -0.19639184 -0.025984025 -0.47230208
000370 8b 73 97 be 58 9a 0f 3f 15 4e 27 3e 95 14 13 bf
       -0.2958034 0.56094885 0.1633838 -0.5745328
000380 a3 9f 18 bf c4 4e a6 be 01 ed b7 be 2c 5d 2b bf
       -0.59618586 -0.32481968 -0.35923007 -0.66939044
000390 e4 02 9a 3c 97 57 56 3e cb 81 3c bf dc 28 0a bf
       0.018800206 0.2093185 -0.7363555 -0.53968596
0003a0 b9 73 d5 3e af 1c 9e be 19 be d7 be 90 5e b3 be
       0.41689852 -0.3088126 -0.4213722 -0.35033083
0003b0 8a 2b 9a 3e f6 31 cb be 65 94 8d be d6 4f 88 be
       0.30111343 -0.39686555 -0.2765228 -0.2662341
0003c0 00 bc 7e be 24 53 45 bf 60 de 79 be 7a f0 03 bf
       -0.24876404 -0.7707999 -0.24401236 -0.51538813
0003d0 6b 36 f7 3d 15 b5 6c 3e 1c 39 f2 be 17 24 8e 3e
       0.12070926 0.23115952 -0.47309196 0.2776191
0003e0 c1 c4 f1 be b3 f0 f7 bd 49 3e 26 bf 33 2a f7 be
       -0.47220424 -0.121064566 -0.6493879 -0.48274383
0003f0 95 9d a7 3e 5f 2e 45 be 1d f7 c5 3d 34 ee ee bc
       0.32737413 -0.1925597 0.09666274 -0.029166318

a2c_network.actor_mlp.2.weight f4 [128, 256]
000000 96 d0 14 be c7 cf 36 be dc e5 7b be f6 f8 12 3e
       -0.14532694 -0.17852698 -0.24599403 0.14352784
000010 ca 36 a8 bd f2 ef 0d be 26 47 db 3d e1 49 d2 3c
       -0.08213575 -0.13861063 0.1070693 0.025669994
000020 9c d1 54 3e 1e 56 c7 3d 09 50 39 3c 2d 6e 1b 3d
       0.20783085 0.097332224 0.011310586 0.03794687
000030 db ac 7e 3c 4c e3 21 3e c9 aa bf 3d fa 5c ef 3d
       0.015544142 0.15809363 0.093587466 0.11687656
000040 23 2a 5a be 90 2f b7 be a8 6b 58 3e 94 cc e9 bd
       -0.21305136 -0.35778475 0.21134818 -0.11415973
000050 73 02 36 be 08 03 13 be 76 dd 6d bd 0d 4a 25 3d
       -0.17774372 -0.14356625 -0.05807253 0.040353823
000060 35 a4 e0 be dc eb 03 3e 5a a5 e7 bc c7 c6 19 3d
       -0.4387528 0.12882942 -0.028277088 0.037543084
000070 1e 69 41 3d d4 da 46 be c1 90 b1 bc 7d 3e 3d 3c
       0.04721939 -0.19419414 -0.02167547 0.011550543
000080 a8 c6 ba bc e2 fd 36 bb 0b 68 ce 3b 33 87 1d 3e
       -0.022799805 -0.0027922322 0.006299024 0.15383606
000090 ff 31 6c be 28 98 62 be d3 ff 4d 3d 52 11 d7 3d
       -0.23065947 -0.22128356 0.0502928 0.105013505
0000a0 d4 2a 85 be 20 bd ca 3d c6 0d 4d be b6 b0 c7 be
       -0.26009238 0.09899354 -0.20024785 -0.39002007
0000b0 0f c2 ae be c0 6a b9 3d 79 54 a0 3e 30 b6 04 be
       -0.3413243 0.09053564 0.31314448 -0.12960124
0000c0 92 cb c8 bd 85 27 5b bd ee fe b2 be 54 16 14 3d
       -0.09804453 -0.053504486 -0.3496012 0.036154106
0000d0 8c 23 9d 3c 3b 6a b3 3d 10 23 0f bd 05 9c a9 be
       0.01918199 0.08760496 -0.034945548 -0.33126846
0000e0 68 f7 61 be f8 ec 4a be d7 cb 8a be df 4f f3 bd
       -0.22067034 -0.19816959 -0.27108642 -0.118804686
0000f0 2b cf 6d 3c b9 84 8d bc f8 db 19 3d 3f e9 d2 3d
       0.014514725 -0.017275201 0.037563294 0.102983944
000100 1b f3 14 bd 92 c7 4c be 6d b3 ce 3d 1e fb 79 bc
       -0.036364656 -0.19998005 0.100928165 -0.015257625
000110 ca 40 95 3d 56 21 15 be 23 7f 81 bd 64 85 52 3d
       0.07287748 -0.14563498 -0.063230775 0.051396742
000120 41 46 39 bd 6b f2 23 be cd f1 8b be 99 57 fb bd
       -0.045233015 -0.16010444 -0.27332917 -0.12272567
000130 d7 63 c0 3b d8 57 d6 bc 8e 99 f0 bd 31 38 31 3e
       0.005871277 -0.026164934 -0.11748038 0.17306592
000140 2a e4 db bd 36 c2 a9 be aa 6c b7 be 4a 59 4d 3e
       -0.10736878 -0.33155984 -0.35825092 0.20053592
000150 81 e5 8a 3e 51 40 35 bd d5 6c ec bd 96 89 3a be
       0.27128223 -0.04425079 -0.115441956 -0.18216547
000160 73 3e cf bd b5 c0 92 be 90 fd a5 be cb 73 92 3d
       -0.10119333 -0.2866265 -0.32420015 0.07150992
000170 6a c6 68 3e 9d 2b 46 bd 38 ea 4d be b0 36 ab be
       0.22731939 -0.048381437 -0.20108879 -0.3344016
000180 6f e5 e0 3d 65 4f 9d 3d 0b b9 0e 3c ae ee a8 bd
       0.10981261 0.07681159 0.00871111 -0.082486495
000190 79 be 31 3e c5 6c 8f be dd 38 76 3d 49 b6 a9 3d
       0.17357816 -0.28012672 0.060112823 0.08286721
0001a0 b8 37 ce 3d e6 60 f2 be e5 5b 88 bd de c4 8e bd
       0.10069221 -0.47339553 -0.066581525 -0.06971143
0001b0 d8 0c 0d be 41 d6 ac be 3e ab 68 bd 41 98 6e be
       -0.13774431 -0.33757213 -0.056803934 -0.23300268
0001c0 16 86 f6 3c e7 83 a6 bd 46 36 45 3d 68 13 e0 bd
       0.030093234 -0.08130627 0.048147462 -0.109412014
0001d0 ea 0a 1d 3e c1 80 6e be ed 53 8f bd ec fa 09 be
       0.15336195 -0.23291303 -0.069984294 -0.13474625
0001e0 8e 28 9c be f0 38 d5 bd e9 cb 96 bd 57 f0 f4 bd
       -0.3049969 -0.104112506 -0.073631115 -0.11959904
0001f0 7f b7 d4 3d 60 f7 24 be 3b 55 0c 3d 14 05 95 bd
       0.103865616 -0.16109991 0.03426097 -0.07276359
000200 bc 83 b5 3b 21 b9 09 bd ce da 86 3d 68 d7 23 bc
       0.0055393856 -0.03362382 0.065847024 -0.010000087
000210 60 6e 02 3c b9 ec 73 bd 19 bb 90 bd 49 87 a9 be
       0.007960886 -0.05955193 -0.07066936 -0.33111027
000220 79 0e 01 bb 74 d8 40 be 5e b1 d3 3c 80 26 67 be
       -0.0019692464 -0.1883257 0.025841411 -0.2257328
000230 01 4c de bc 11 8a 05 be ab dd 62 bd 36 4a 74 bd
       -0.02713585 -0.1304095 -0.05538718 -0.059641086
000240 c6 85 1c 3e bd e7 53 3e 00 fb 18 3e ef 5b bb bd
       0.15285406 0.2069387 0.14939499 -0.09148394
000250 31 f2 4e 3d 52 ca fc 3c 5f 73 db 3c 6c 76 3b bd
       0.05052394 0.030858193 0.026788412 -0.045767233
000260 d7 74 d5 bc c4 27 21 3c 08 99 2f be 80 40 50 be
       -0.02605669 0.009836141 -0.1714822 -0.20337105
000270 29 a1 62 3e 93 d8 27 3d ad 28 68 3d 71 b5 bc 3c
       0.2213179 0.040978026 0.056679416 0.023035737
000280 7c 0b 51 be 9e ad 86 3d 19 52 53 3d d5 f9 5f bd
       -0.20414537 0.065760836 0.051591966 -0.054681618
000290 aa 10 0e be a5 ef c2 3d c0 73 a1 be a0 d6 28 be
       -0.13873544 0.09518365 -0.31533623 -0.16488123
0002a0 3f 5a 16 3e ce ff 2b be fd 24 d3 bd a5 55 86 3d
       0.14682864 -0.167968 -0.10309789 0.06559304
0002b0 25 91 33 b9 a0 9c 81 bd 04 0f 7d bd 24 33 95 bd
       -0.00017124841 -0.06328702 -0.0617819 -0.07285145
0002c0 79 65 4d bd b0 9c 1d be 5f 42 69 3e ab 7a a5 be
       -0.0501456 -0.15391803 0.22779225 -0.3232015
0002d0 61 08 4d 3d f0 09 2c be 7b 59 b5 bd af f8 15 bd
       0.05005682 -0.16800666 -0.08854958 -0.036614116
0002e0 94 17 fd 3c 22 98 b9 bd b0 a2 9b bc 9c 9e 0a 3d
       0.030895032 -0.0906222 -0.018998474 0.033842668
0002f0 23 c2 da bd 39 44 cf bd d3 1c 6c 3d ae 06 50 bc
       -0.1068156 -0.10120434 0.057644676 -0.012696905
000300 7a 59 bf 3c c1 15 3b be b5 7b 22 be 6f a1 51 3d
       0.023358095 -0.18270017 -0.15867503 0.051179346
000310 97 e9 8c be e1 0b b4 bc 87 51 2c be d0 33 aa 3d
       -0.27521965 -0.02197832 -0.16827975 0.08310664
000320 8f f9 04 3e 0e c5 1d be 5f 30 71 bd ab a9 e7 3d
       0.12985824 -0.15407202 -0.05888402 0.113116585
000330 4b 9c 5e be 00 4c d6 bd 9a b1 17 3c 13 5f d5 bb
       -0.21739309 -0.104637146 0.009258652 -0.006511578
000340 7a a1 35 3d 43 f0 ae 3b ab 41 da bd a2 2c 09 3e
       0.04434345 0.0053387 -0.106570564 0.13395932
000350 fc e8 6a be 68 63 6d 3d 7b 5e fb bd b4 fc ab bd
       -0.22940439 0.05795613 -0.1227388 -0.08397809
000360 55 8e 49 be fa fe 96 bd 52 d5 71 be a9 84 10 bc
       -0.19683202 -0.07372852 -0.23616531 -0.008820691
000370 ab f2 43 be 9c a1 34 be 74 ad d8 bd 25 56 85 3d
       -0.19135539 -0.17639774 -0.105799586 0.065105714
000380 21 34 85 3c 57 cc 2b 3d 6e 54 17 be 7a 55 d5 bd
       0.016260209 0.04194292 -0.14778301 -0.10416694
000390 f1 bd 18 bd dd f2 7f be 05 a9 56 bd 9d 3f fb 3c
       -0.037290517 -0.24994989 -0.052407283 0.030669982
0003a0 cc a9 80 be cb e6 28 be 26 1a f9 bc b8 95 95 3d
       -0.25129545 -0.1649429 -0.030407976 0.07303947
0003b0 61 f1 d1 bd af da 37 bd b6 9f 0b be be e1 3a bd
       -0.102511175 -0.044886287 -0.13635144 -0.04562544
0003c0 7d 50 a2 3d e9 4c 16 3e 6c 92 cf bd c9 2b 09 be
       0.07925508 0.14677776 -0.1013535 -0.13395609
0003d0 72 ba 80 be 54 8c db bd 0d eb 5c 3d 93 17 00 3d
       -0.25142246 -0.10720125 0.0539351 0.031272482
0003e0 72 19 a2 3d ed 0c 0d be 5f 00 af bd 09 d3 45 be
       0.079150096 -0.13774462 -0.08544993 -0.19318785
0003f0 3f 3c 31 bd 6c 69 2b be 0c 89 63 be 62 d3 8b 3b
       -0.043270346 -0.16739434 -0.22220248 0.004267142

a2c_network.actor_mlp.2.bias f4 [128]
000000 2b 90 82 be 24 f5 56 be 28 a2 c1 be ee eb eb be
       -0.25500616 -0.20991951 -0.37819028 -0.46078438
000010 be 3e 95 be 84 29 e1 be af c5 93 be 27 44 23 be
       -0.2914943 -0.43976986 -0.28861758 -0.15943967
000020 c0 e8 33 bd 5e 1e 91 be 7c fc ba 3c 64 4c 9e bc
       -0.04392314 -0.2834348 0.022825472 -0.019323535
000030 76 7e af 3d 6d 07 16 bf c2 71 c2 be c5 8c 9a be
       0.085690424 -0.5860508 -0.37977415 -0.30185524
000040 3c f5 de 3e 25 af ad be 47 b5 78 be 4d 85 74 3d
       0.43546474 -0.33922687 -0.24287902 0.059697438
000050 db 80 cb be 7c 9a d7 bd b5 ce 4b bd e3 4c 1f 3c
       -0.39746746 -0.105275124 -0.049757678 0.009722921
000060 5f 53 12 be ee 0b 6e 3d 07 73 b8 be 44 ea 68 be
       -0.14289616 0.058116846 -0.3602526 -0.22745615
000070 28 85 e8 be 53 c1 6a be c4 74 93 be 20 89 eb be
       -0.4541409 -0.2292531 -0.28800023 -0.46003056
000080 f9 42 2a be 71 dd 8b bd be ae b7 be 5e 50 44 be
       -0.1662711 -0.06829346 -0.35875505 -0.19171283
000090 92 27 60 3d 5f 68 bd be 0d b7 8e be 16 d3 9e be
       0.054725237 -0.3699369 -0.27874032 -0.3102042
0000a0 bf 26 c4 3d a5 4f 53 be 55 a3 9e be d0 67 d5 be
       0.09577703 -0.2063585 -0.30983987 -0.41680765
0000b0 d1 2f 82 be 84 5f dc be 01 52 73 be de 51 75 be
       -0.25427106 -0.43041623 -0.23761751 -0.23957011
0000c0 90 bd 50 be b0 34 f4 be b2 0e 58 be 6f 3a 91 be
       -0.20384812 -0.47696447 -0.21099356 -0.28364894
0000d0 12 a9 94 be 8d 9c 0f bd 09 0b 30 be 76 36 de bd
       -0.2903524 -0.035061408 -0.1719171 -0.10850231
0000e0 dc 2e c5 be 30 9d e2 be 71 a2 56 be 0a c5 8e bd
       -0.38512313 -0.4426055 -0.20960404 -0.06971176
0000f0 8a e0 0d be e9 f9 87 bd 2d 37 45 3d 36 f1 87 bd
       -0.13855186 -0.066394635 0.048148323 -0.06637804
000100 97 15 aa be c4 ca f0 bd f8 f3 ef be 7e 05 ae be
       -0.33219597 -0.117574245 -0.4686582 -0.33988565
000110 32 b5 9b bd 80 2e 08 bf bd de d1 be 24 1f c5 3d
       -0.0760292 -0.53195953 -0.40990248 0.0962508
000120 0a 26 bf be 5f f9 a3 be 70 fa b7 be 7e f5 5b be
       -0.3733371 -0.32026193 -0.35933256 -0.21480367
000130 3f 28 68 be f1 a8 6a be f2 f9 5c be 67 a5 eb bd
       -0.22671603 -0.22916009 -0.21579722 -0.11506157
000140 39 1a 6a 3d 4b 44 05 bf 5c 3e 40 be c9 89 f8 3d
       0.057153914 -0.5205733 -0.18773788 0.121356554
000150 14 31 b2 3c 26 8e 38 be 77 19 26 be c6 85 b2 3d
       0.021751918 -0.18022975 -0.16220652 0.087169215
000160 41 99 fa be 5e c9 a6 be 3a e9 a5 3d e4 f1 a7 be
       -0.48945048 -0.32575506 0.08101125 -0.32801735
000170 c1 29 8c be 69 51 15 3d de 0e 97 be 7a 2a 5f bd
       -0.27375606 0.036454592 -0.2950353 -0.05448387
000180 45 76 0c bf 48 c9 3a bd 1b c2 11 bf 16 21 22 be
       -0.54867965 -0.045602113 -0.56936806 -0.15832934
000190 70 a3 f3 be 65 1a 82 be b7 25 0f bf a4 01 07 bf
       -0.4758563 -0.25410762 -0.55916923 -0.5273688
0001a0 f8 4a ea be a6 60 b1 3e 9e dd 87 be ba 0c df 3e
       -0.45760322 0.3464405 -0.26536268 0.43564397
0001b0 36 a2 39 be 61 2b 89 be c5 96 02 bf 7d 7d ef be
       -0.18128285 -0.26790908 -0.51011306 -0.46775427
0001c0 1a c6 8c be ac 53 66 bc fd a0 55 3d 7c 37 bb bd
       -0.2749489 -0.014058035 0.052155484 -0.09141442
0001d0 4d be 0c be 63 f5 2e bf 26 f9 3f be c1 72 ae be
       -0.13744469 -0.6834318 -0.18747386 -0.34071925
0001e0 a5 9f b2 be 89 ae 6f be 11 2d 06 bf ba b1 a1 3d
       -0.34887424 -0.23406424 -0.52412516 0.07895227
0001f0 c0 30 d0 be af 16 d1 3d 6d 85 5a be 94 74 2f 3e
       -0.40662193 0.10209405 -0.2133996 0.17134315

a2c_network.actor_mlp.4.weight f4 [64, 128]
000000 72 b2 98 3e a0 7b 74 3e fa 35 0f bd a0 e8 63 3e
       0.29823643 0.23875284 -0.034963585 0.22256708
000010 cd e8 5a be 36 b7 19 3d 64 e8 04 3e 7f 33 09 be
       -0.21377869 0.03752824 0.12979275 -0.1339855
000020 1d d5 87 be f2 cf 04 3e f5 cc 12 be e0 24 6d 3d
       -0.2652978 0.1296995 -0.14335997 0.057896495
000030 db bb 3b be 8d 25 89 bd 28 d4 f9 3d 12 5e 5e 3e
       -0.1833338 -0.06696615 0.12198669 0.21715572
000040 0a dc 37 bf dd 5c 72 3e 74 1a 30 be 03 77 83 be
       -0.7182013 0.23668237 -0.17197591 -0.25676736
000050 00 6e 8c 3e a5 ae 10 3e 40 bd 7c be 6d 92 81 be
       0.27427673 0.14129122 -0.24681568 -0.25307027
000060 d8 0a 16 bf 2a da d8 be 08 31 86 3e 3a 8d b9 be
       -0.58610296 -0.42353946 0.26209283 -0.3624056
000070 b1 54 57 3e 97 8b 55 be 0a 3e 16 3e 7f 91 07 bd
       0.21028401 -0.2085403 0.14672104 -0.03309774
000080 ab 46 3f 3e 2f ff ee 3d dc 38 3e 3e 52 28 35 be
       0.18679301 0.11669766 0.18576378 -0.17691162
000090 38 92 d8 bb 33 6b b4 be 1c e6 c3 3e af d4 53 3e
       -0.0066092275 -0.35238037 0.38261497 0.20686601
0000a0 93 1e d0 be ef 2d ab bb fa af 93 be 0c 22 82 3e
       -0.40648326 -0.0052239816 -0.28845197 0.254166
0000b0 90 b5 8e be d0 f3 be bd 02 74 3d be 3a bc 77 be
       -0.27872896 -0.09323847 -0.18501285 -0.24192896
0000c0 d2 7b 11 3e c2 c8 82 3e 5a 8f c7 3d a8 70 95 3e
       0.1420739 0.2554379 0.09744139 0.29187512
0000d0 01 90 d9 be d6 ea 09 be c0 e3 77 3e f7 e0 8e be
       -0.4249268 -0.13468489 0.24207973 -0.2790601
0000e0 6c a4 af 3e 58 fe 00 bd 1c 93 9f 3e 26 3c 48 be
       0.3430513 -0.03149256 0.31166923 -0.19554195
0000f0 56 1d 74 be 11 e1 d6 be 51 d7 5c be 8d c2 20 be
       -0.23839316 -0.41968587 -0.21566512 -0.15699215
000100 5b 43 5b be 3a 04 0c bf 2f 41 63 3e 3c 78 3a 3e
       -0.21412413 -0.5469395 0.22192834 0.18209928
000110 d2 6c 6e 3c ea 3b 3f 3e ef f3 08 3e 17 65 05 bf
       0.014552312 0.18675199 0.13374303 -0.52107376
000120 89 2b aa bc 1d 57 de be f3 9c 3e 3e bf 5e 75 3e
       -0.020772712 -0.43425837 0.18614559 0.23961924
000130 f5 b8 c6 be 08 39 94 be ed 29 18 3e 01 40 13 be
       -0.38812986 -0.2894976 0.14859743 -0.14379884
000140 b9 0a fb bd f9 e6 b9 3e 69 c5 7f 3e a8 23 84 3d
       -0.122579046 0.3630903 0.2497765 0.064521134
000150 21 99 ef be a4 92 8a 3d 0a cb 99 3d 09 40 64 be
       -0.46796516 0.06766251 0.0750943 -0.22290052
000160 c2 8c 81 bb bb 4a 9a bd 31 ff 7a be bc 2f ac 3e
       -0.003953547 -0.07533785 -0.2451141 0.33630168
000170 18 45 51 3c 21 66 01 bf da 8f 20 3e 00 9b 27 be
       0.012772821 -0.5054646 0.15679875 -0.16367722
000180 15 e0 25 be f7 96 1d bf f8 a2 d7 bd fc 14 2c 3e
       -0.16198762 -0.6155848 -0.10529131 0.1680488
000190 a8 a5 39 3e 27 11 a7 3c ee 40 2e 3e 6f 58 6d 3e
       0.18129599 0.020393921 0.17016956 0.23178266
0001a0 1e 90 16 be 98 31 7e be 91 d7 fb 3e 93 38 bb be
       -0.14703414 -0.24823606 0.49187902 -0.365666
0001b0 eb b8 b5 3e a1 f7 0e be 94 ee c6 3e 4b fb 15 3d
       0.35492644 -0.1396165 0.38853896 0.036616605
0001c0 21 b5 d8 3e b0 33 66 3d 56 cd 90 be 9d a8 bd be
       0.4232569 0.056201637 -0.2828166 -0.37042704
0001d0 41 79 57 3e 90 a9 e8 3e a5 4a 8c bd 06 1a 96 3e
       0.21042348 0.45441866 -0.06850175 0.2931673
0001e0 8e 2a 18 3d fb 43 09 3e 92 37 da bc 77 6e e3 be
       0.03714996 0.13404839 -0.026637826 -0.44420215
0001f0 1a 16 82 be fe 49 01 bf d7 f2 0e be 54 ca ea 3c
       -0.25407487 -0.5050353 -0.13959824 0.02866093
000200 15 fa 2f 3e da db a0 be 08 b7 47 3e a1 55 e2 3e
       0.17185242 -0.31417733 0.19503415 0.44205955
000210 1f 8e 1f 3e 44 73 3d 3e 03 c9 d9 3e 95 f3 93 be
       0.15581559 0.18501002 0.42536172 -0.28896776
000220 ae 73 85 be 9f 9c 99 3c ae 48 6f be 9b fa a0 3d
       -0.2606482 0.01875144 -0.23367569 0.07860299
000230 bd 7d 11 bf a0 62 9e 3d aa a3 2c be 0d f3 46 3e
       -0.56832486 0.07733655 -0.16859308 0.19428654
000240 bc e1 a3 bd 1b 1f 36 3c 8a 4d 20 3d 3f 98 26 bf
       -0.0800204 0.011115815 0.039136447 -0.6507606
000250 58 9a 64 3e d0 4e 76 bd a4 bf 0a bf 20 e6 9e 3c
       0.22324502 -0.060133755 -0.5419867 0.019396842
000260 e0 6b 62 be a2 29 b7 be f5 68 10 bd ce 22 a7 bd
       -0.22111464 -0.3577395 -0.035256345 -0.08160935
000270 f8 f4 01 be 99 03 28 be 2b e4 42 3e 6b 6b ee 3e
       -0.12691104 -0.16407622 0.19032352 0.46566328
000280 b6 b4 20 3b af d2 2b be ac 5d 52 3e 3e e4 73 3d
       0.0024521775 -0.16779588 0.20543545 0.05954384
000290 3f 63 b2 3c fb 4b 04 3e b3 ce 1f 3e 16 fe 2f 3e
       0.02177584 0.12919609 0.15606193 0.1718677
0002a0 e8 b9 18 be b2 42 17 be 22 5d b4 3d c6 88 84 3e
       -0.14914668 -0.14771536 0.08806826 0.258856
0002b0 63 30 3b bc c4 74 77 be 14 e2 22 3d ed 32 2c 3e
       -0.0114251105 -0.24165636 0.039766386 0.16816302
0002c0 35 74 25 be d7 c2 52 3e 40 10 36 be 54 21 9b 3d
       -0.1615761 0.20582138 -0.17779636 0.07574716
0002d0 43 87 bc 3e f4 5e e4 bc a9 14 9a 3d 08 ba cf bd
       0.36821947 -0.027877308 0.07523472 -0.101429045
0002e0 95 2d cd 3e c5 30 07 be d4 e1 7b be 24 8d 51 bd
       0.4007384 -0.13202198 -0.24597865 -0.051159993
0002f0 12 bb c5 be bb c3 23 be 3f a8 c4 be 7d d3 e3 bd
       -0.38619286 -0.15992634 -0.38409612 -0.111243226
000300 14 8d 79 be 34 ce 82 be 18 c7 6f bd 6b ab 4e 3e
       -0.24370223 -0.25547945 -0.05853948 0.20182578
000310 46 4c 67 3d 5e 0f cc 3e 13 b6 9d be 8f f6 22 bf
       0.056469224 0.39855474 -0.30802974 -0.6365747
000320 43 34 37 3d 4a b8 41 bd 84 38 dc bd 06 2a 4c be
       0.044727575 -0.047294892 -0.10752967 -0.19937906
000330 3c 3d 0f be 56 4e 27 3e ba ec 3c 3e 36 f5 9b be
       -0.13988203 0.16338477 0.18449679 -0.3046052
000340 6b e1 96 3d a6 2a e6 3e e9 14 b9 3d 01 0b 56 3d
       0.07367214 0.44954413 0.090371914 0.052256588
000350 5a 27 a9 3d 18 9a 71 3e 11 7e 26 be 90 31 d8 be
       0.08259459 0.23593938 -0.16259028 -0.42225313
000360 e2 72 12 3e 5a fd 3b 3e 22 42 0f 3d 31 37 0f be
       0.14301637 0.18358365 0.03497518 -0.13985898
000370 d0 55 d2 3b 22 0b a4 be 48 11 60 be 19 b6 35 bd
       0.006418921 -0.32039744 -0.21881592 -0.044363115
000380 f2 f7 a5 3d 5c 9c a8 bd 5c 12 3c be 5c 0a d3 bd
       0.081039324 -0.08232948 -0.18366379 -0.1030471
000390 bc 41 e3 be e8 bf bd bc 78 03 84 be d6 5b 60 3e
       -0.4438609 -0.023162797 -0.25783896 0.21910033
0003a0 41 45 74 3b d6 7c bb bd 40 2e 18 3c 96 30 e3 3d
       0.0037272724 -0.0915467 0.009288371 0.110932514
0003b0 76 9f 8b bc ba 99 cb 3d a9 36 9e 3d 3c 5d c8 3d
       -0.01704381 0.099414304 0.07725269 0.09783408
0003c0 25 0c 78 3e d3 4e 08 be 3e 2a 42 be 99 c5 7f be
       0.24223383 -0.13311319 -0.18961427 -0.24977721
0003d0 4f 27 e3 3d 2e 63 88 3d 52 42 0c be 5a 37 3a 3e
       0.11091482 0.06659542 -0.13697174 0.18185177
0003e0 ba a9 c6 3c 35 4b 04 be e3 38 e2 3c 02 51 26 be
       0.024250854 -0.12919314 0.027615016 -0.1624184
0003f0 6f 64 b8 bd 74 87 c2 3d e3 01 a7 bd fa 2a ce be
       -0.09003531 0.09498492 -0.08154657 -0.40267164

a2c_network.actor_mlp.4.bias f4 [64]
000000 e2 97 d5 be 9b 21 dd bd 3a f1 7e be e6 7f 22 be
       -0.4171744 -0.10797425 -0.24896708 -0.15869102
000010 3a a9 a2 be fa 84 15 be e7 8e 26 be d1 70 0a be
       -0.31769735 -0.14601508 -0.1626545 -0.13519599
000020 7f 21 b2 be c3 8e 07 be d8 09 0f be b9 63 fa be
       -0.3479118 -0.13238053 -0.13968599 -0.48904207
000030 92 45 8f be 0c 30 67 be 81 0a 86 be 1c 76 1d be
       -0.27982765 -0.22576922 -0.2617989 -0.15377086
000040 8a d1 68 be 50 d4 25 be 7e e8 e2 bd 23 de a2 be
       -0.22736183 -0.16194272 -0.110795006 -0.31810102
000050 aa 91 d5 be 09 69 bf bd 94 32 ca be 9f 7c 08 bf
       -0.41712695 -0.09346206 -0.39491713 -0.53315157
000060 8c 64 bf be e4 17 59 be 0e 99 fb bd 91 54 db bd
       -0.373814 -0.2120052 -0.12285052 -0.10709489
000070 41 f4 9e 3e 7f 47 0e be ff 08 1c bc a8 52 14 be
       0.31045726 -0.13894461 -0.009523629 -0.14484656
000080 21 3f 63 be 14 d5 0b bf 98 ca 0e be f4 7b d0 bd
       -0.2219205 -0.54622006 -0.13944471 -0.10179892
000090 ea e7 db be cf 78 13 be 01 8a 15 be b8 88 38 be
       -0.42950374 -0.14401554 -0.14603426 -0.18020904
0000a0 db 38 1b be b2 c5 3d be 17 64 53 be ff 5c 12 be
       -0.15158407 -0.18532446 -0.2064365 -0.14293288
0000b0 81 eb ad bd 0e eb b9 bd 20 ff 13 be 23 50 45 be
       -0.084921844 -0.09078036 -0.14452791 -0.19268851
0000c0 3b 86 56 be a8 93 e4 bd 7f b4 5d be 17 68 ce be
       -0.20949642 -0.11160976 -0.21650885 -0.4031379
0000d0 d4 67 8d be 43 66 06 be 5b 17 ac bd 8c 73 56 be
       -0.27618277 -0.13124947 -0.08402892 -0.20942515
0000e0 08 d1 b9 bd 10 e5 f8 bd 0d 83 65 be a0 de 5c be
       -0.09073073 -0.12153065 -0.22413273 -0.215693
0000f0 ae 09 03 be 8f 42 f1 3e fc db 89 be 3b 0a 35 be
       -0.12796661 0.47121093 -0.26925647 -0.17679684

a2c_network.value.weight f4 [1, 64]
000000 54 c2 81 3a e3 0d 48 3b 31 d7 a9 bb ca 52 7d 3c
       0.0009899833 0.0030525855 -0.0051831235 0.015461633
000010 9b 5b a3 3a 5c 31 0f bb dd 6a e4 ba 98 1c 24 bb
       0.0012463214 -0.002184949 -0.0017426867 -0.0025041457
000020 68 55 7f 3a f8 c0 44 3a 60 a6 4c 3c 6a 1e 59 3b
       0.00097402046 0.0007505561 0.012490839 0.00331297
000030 59 ea 54 ba 9f 73 c6 3b 99 f9 2a 3c 51 28 4c b9
       -0.0008122079 0.0060562636 0.010435485 -0.00019469975
000040 21 7c 79 bb 92 2c de 39 36 c7 9d 3b f4 74 b2 3e
       -0.0038068371 0.00042376347 0.0048150076 0.34854853
000050 18 e8 19 3b 6e d9 f6 bb 92 e1 04 3b 66 63 e4 3b
       0.0023484286 -0.007533244 0.0020276052 0.006969857
000060 65 d3 ab 3b 1a 1a 94 3b 2d fd 22 3d 57 a6 ad 3c
       0.005243706 0.004519713 0.03979223 0.021197481
000070 b5 46 06 be ef 91 d3 bb ed fb 11 be d7 f5 51 3c
       -0.1311291 -0.0064566056 -0.14256258 0.01281496
000080 8b 93 2f 3c 00 60 73 bb c4 73 a3 3d 94 22 68 39
       0.010716329 -0.0037136078 0.07981065 0.00022138125
000090 ea c0 12 be 14 b4 cb 3a 0a 37 2c 3c 6d dd 9a bb
       -0.14331403 0.0015541338 0.010511169 -0.004726103
0000a0 7c cf 4b bd 8b 57 24 3d 08 9e 26 3b 9e f4 de 3b
       -0.04975842 0.04012255 0.0025423784 0.006804063
0000b0 30 a9 9a bb 43 d7 81 bb cd 7e a6 b7 53 df fa 3b
       -0.0047198758 -0.003962429 -1.9847788e-05 0.007656017
0000c0 b3 14 82 3c 23 f1 76 ba 19 23 09 be d1 ff 6b 3c
       0.01587901 -0.00094200874 -0.13392295 0.014404253
0000d0 32 fa 8e 3c 09 3b 0e ba 83 b7 ab bc 85 fb b8 bb
       0.017453287 -0.0005425667 -0.020961529 -0.005645218
0000e0 37 d4 f3 3a 2e 75 b6 3c 38 ed 30 bc 5d aa a8 b9
       0.0018602674 0.022272673 -0.010798745 -0.00032170388
0000f0 cf a7 5d bd 32 2d b1 be df cf 3d bb b5 f0 b3 3a
       -0.054115113 -0.34604794 -0.0028963012 0.0013728352

a2c_network.mu.weight f4 [12, 64]
000000 d6 c8 08 3d 88 68 37 be 83 dc 63 3e 58 53 05 3e
       0.033394657 -0.1791097 0.22252087 0.13020074
000010 94 2d 14 be 41 1e 93 be e4 3f a9 3e a2 e3 c4 bd
       -0.14470512 -0.2873402 0.33056557 -0.0961373
000020 1c af 92 3d 93 2f 0a be 8d 03 e5 bc 93 81 96 bd
       0.07162306 -0.1349471 -0.027955795 -0.07348933
000030 95 37 f8 bd 03 78 2d be 77 16 8f bb 64 4c a0 bc
       -0.121199764 -0.16940312 -0.0043666917 -0.019567676
000040 69 bb 24 bd ae cf 27 bd 12 e5 15 3e 53 02 6c be
       -0.04021779 -0.040969543 0.14638165 -0.23047762
000050 82 9c 61 be 17 81 4d 3e 22 28 92 be 48 4b 16 3e
       -0.22032359 0.20068775 -0.28546244 0.14677155
000060 e1 0a a8 3d 94 6f 63 3d b1 93 65 bd bd 69 93 bd
       0.082052 0.05552633 -0.056049053 -0.07197902
000070 53 75 47 3e d2 ea 39 bd c8 8d 02 be f9 e9 78 3e
       0.1947835 -0.045389958 -0.12749398 0.24308003
000080 1a 6c bb 3d 9f 42 f9 bd 5f 6f 15 3e f4 b5 32 3e
       0.09151478 -0.1217091 0.14593266 0.17452222
000090 41 e7 0e 3e 29 90 10 be 65 ab d8 3e 83 8a 9f be
       0.13955404 -0.14117493 0.42318264 -0.31160364
0000a0 11 2a 0d 3e 39 3d 89 be 83 84 9e 3e 69 69 c2 3d
       0.13785578 -0.26804522 0.30960473 0.09492762
0000b0 b5 11 fa 3d ec 7a 08 3e 8a e1 c6 3d 28 02 5a bd
       0.122104086 0.13328141 0.09710987 -0.053224713
0000c0 68 6b 09 3e 0b 49 1d be 11 42 6e be a8 91 07 3e
       0.13419878 -0.15359895 -0.2326739 0.13239157
0000d0 3e ff 84 3d 0c 1a 70 3d 0a 57 8e 3e fd f5 78 bd
       0.06493996 0.05861859 0.2780078 -0.060781468
0000e0 58 0e 42 be 97 a9 a5 be ee 4c 53 3d a8 05 cb 3e
       -0.18950784 -0.3235595 0.051587038 0.39652753
0000f0 08 96 a7 3d d7 1a 1b 3d 3e 1f ce bd c6 4d 97 be
       0.08182913 0.037867393 -0.10064553 -0.29551524
000100 e2 bf 05 be 96 a8 81 3e 51 0a 51 3e 29 7c 2a be
       -0.13061479 0.25323933 0.20414092 -0.16648926
000110 c0 48 1e 3c 99 27 25 be d6 b9 0a 3e 2c 99 18 3e
       0.0096609 -0.16128387 0.13547453 0.1490218
000120 8d 19 27 be 87 78 12 3d 52 a5 a1 bd 3b 1b 1b 3d
       -0.1631834 0.035759475 -0.078928605 0.037867766
000130 1e 95 9b bd 27 eb 2f be 43 32 44 bd 4c f1 9d 3d
       -0.07596801 -0.17179547 -0.047899496 0.07712039
000140 d2 3d 5a 3d 4c 64 63 bd 2c 38 4c 3e b1 94 4c 3c
       0.053281613 -0.055515572 0.19943303 0.012486623
000150 53 03 60 be 04 8a 2f 3e 9b e3 c0 3c 57 1e 4f be
       -0.21876268 0.17142493 0.02354603 -0.20226417
000160 39 4e 33 be 44 2f 70 3d 51 f7 43 be bc e2 2a be
       -0.17510308 0.058638826 -0.19137312 -0.16688055
000170 99 7d 0c bd cf 0a 73 bd 7d d5 12 3d e9 42 bb 3d
       -0.034299467 -0.05933648 0.03584813 0.091436215
000180 fb 75 b5 be e0 81 59 3e ef 88 9e bd bf 20 3a bd
       -0.35441574 0.2124095 -0.07740962 -0.045441385
000190 f4 42 d1 3d d2 5b 80 be cc 9a 13 3e d2 cd 3e 3e
       0.102178484 -0.25070053 0.14414519 0.18633202
0001a0 da ec ae bd 37 a8 62 3d e1 41 1b be 84 33 ce 3d
       -0.085412696 0.055336203 -0.1516185 0.100684196
0001b0 5f b0 6e 3e 3d 5d 1b 3e 9f 7c 41 3e 56 0c 18 be
       0.23309468 0.15172286 0.18895195 -0.14848456
0001c0 c0 db 38 be 21 52 24 be f8 ce 69 be 56 67 3b bd
       -0.18052578 -0.16046955 -0.22832859 -0.045752846
0001d0 27 e1 4d be ea c0 49 3e c4 0d b3 3d 2a c1 97 3d
       -0.2010542 0.19702497 0.0874286 0.0740989
0001e0 22 b9 52 be a0 9c 83 3e 10 2d 00 be 6b 22 ca bd
       -0.20578435 0.25705433 -0.1251719 -0.09869846
0001f0 76 47 01 3e 59 cc 87 3a 23 33 d8 3b 5f 48 b4 3b
       0.12624916 0.0010360583 0.006597893 0.0055017914
000200 32 6f 73 3d 46 0e 87 b9 5b 23 ac 3d 01 77 9a be
       0.059432216 -0.0002575984 0.08405181 -0.30168918
000210 7f 8a 9c 3e de 53 27 be ae 23 78 3e aa 8a 0a 3e
       0.30574414 -0.16340587 0.2423236 0.13529459
000220 b6 a0 a0 3d b1 ff 82 bc 44 41 8c bd 6c 99 00 be
       0.07843153 -0.015991064 -0.06848386 -0.12558526
000230 56 9f d2 bd e4 7b 2f bd d6 c1 9c bd 19 dd 59 3e
       -0.10284297 -0.04284276 -0.07654159 0.21275748
000240 59 eb 52 bd 17 c9 12 be 5d 25 9c bb 23 a2 bd bd
       -0.051493976 -0.14334522 -0.0047651962 -0.09259441
000250 21 e9 a1 bd 86 4c b1 be bf 60 48 be 60 bf 20 be
       -0.07905794 -0.34628695 -0.19568156 -0.15698004
000260 b7 93 9c bd d4 8b 33 be eb dd 20 3e 76 79 c0 bc
       -0.07645362 -0.17533809 0.15709655 -0.023495417
000270 9d 53 f5 3d 77 d6 3a be 5a ac 81 bd 8e b7 42 bb
       0.119788386 -0.18245874 -0.063317016 -0.0029711458
000280 58 ca 55 3c ea 7b db 3d 92 de 70 3c a9 92 69 be
       0.013048731 0.10716994 0.014701502 -0.22809853
000290 e8 1d 0f be 81 ac da bd 03 d4 60 3d a0 b5 59 3e
       -0.13976252 -0.10677434 0.05488969 0.2126069
0002a0 cf a1 88 3c 7d 94 bd bd b4 62 7a 3d b1 c7 51 3e
       0.016678719 -0.092568375 0.061129287 0.20486332
0002b0 0a d9 6e 3d b9 37 47 bd 7f f6 06 be f6 9a c8 bd
       0.058312453 -0.048637126 -0.13179968 -0.097951815
0002c0 63 2d e3 bd 1f eb 1a be 7d fc 28 3e 26 fe 16 3e
       -0.11092641 -0.15128754 0.16502567 0.14745387
0002d0 15 94 0e 3e 4e 70 f1 3d 55 dd 08 3d b7 02 c2 be
       0.13923676 0.117889985 0.033414204 -0.37892696
0002e0 98 35 3b 3e 10 00 80 3b 5f 93 97 3d 17 e9 dc 3d
       0.18282163 0.0039062575 0.07401156 0.10786646
0002f0 f2 a2 d3 3d 7c ca d8 bb f3 1a 27 be 78 03 26 be
       0.10333814 -0.006615935 -0.16318874 -0.1621226
000300 ad 93 a6 be 41 d9 98 3e a2 d2 6a be 2d e4 56 3e
       -0.32534543 0.29853252 -0.22931913 0.2098548
000310 67 94 9b bc 16 4f 40 be ef 77 3e be 49 91 41 3c
       -0.018991662 -0.18780169 -0.18600439 0.011814424
000320 c4 68 b7 be eb 07 14 3e a5 5a 8c bd 98 d5 91 bd
       -0.35822117 0.14456145 -0.068532266 -0.07120818
000330 f7 5b d0 be 93 b9 b4 bc e2 65 34 3e f6 51 33 be
       -0.40695164 -0.022061145 0.1761699 -0.17511734
000340 6e 91 2a be d1 6c 01 3e 59 62 ab be 7e c3 5e 3e
       -0.1665704 0.12639166 -0.3347347 0.21754262
000350 c0 be 20 3e c9 fa 21 3e aa 92 f1 3d 71 8a 64 be
       0.15697765 0.15818323 0.11795552 -0.22318436
000360 5f ce 4c 3d 7f 70 ab 3e c4 6f 03 3d aa b8 6f bd
       0.0500015 0.33484265 0.03208901 -0.05852572
000370 50 c3 9f 3d b5 9f ec bd 75 ec 9f 3a 87 b0 12 3e
       0.07800925 -0.11553899 0.0012201207 0.14325152
000380 1b 09 8d 3e 40 4e 47 be 90 a2 71 3d 15 8a 3c be
       0.2754601 -0.19463444 0.058992922 -0.18412049
000390 0f 8a 80 be 0a be 8f bd 92 9e 0e be d4 5c 88 3e
       -0.2510533 -0.07018669 -0.13927677 0.26633322
0003a0 ab ae 44 3e 69 4d 7d 3d bb 3f 0b be 0b a3 80 3d
       0.19207256 0.061841402 -0.1359853 0.06281098
0003b0 2d 71 4f bd c3 0f c2 bd 85 a1 5a be 01 22 fe 3d
       -0.050645042 -0.094756626 -0.21350677 0.124088295
0003c0 48 93 e8 3d 4f ac dc 3d 28 85 1e bd 24 9a 14 3e
       0.11356217 0.10775053 -0.038701206 0.14511925
0003d0 96 7c 57 3d 03 0e 30 3e 43 e8 a1 3d 58 3e ca 3d
       0.05260905 0.17192845 0.079056285 0.098751724
0003e0 1d b0 56 3e d4 26 06 3e 3a e6 4a bb f6 c3 41 be
       0.2096562 0.13100749 -0.003095998 -0.1892241
0003f0 2a f5 7a 3d 21 64 37 be d4 b8 14 be 4f 55 85 3d
       0.061268963 -0.1790929 -0.14523631 0.06510412

a2c_network.mu.bias f4 [12]
000000 cd 40 0a be 5e 5d b5 3c 80 09 34 bc fd 95 10 3d
       -0.13501282 0.022139248 -0.010988593 0.03529929
000010 bd fb 26 be 82 ef 26 3d 01 89 ab 3d b4 4a a5 3d
       -0.16306968 0.040755756 0.08375741 0.08070889
000020 15 b8 25 bc 43 55 de bd c5 6f 48 3e fd 5f 10 3d
       -0.010114689 -0.10856106 0.19573887 0.03524779

exp_avg f4 [12]
000000 8f c6 95 39 93 81 08 3a 89 ef 62 ba 40 39 36 b9
       0.00028567432 0.00052072963 -0.00086569093 -0.000173782
000010 06 5c 8f 3a 3b 9e 84 ba 8c 72 12 3a 8d 4e de 3a
       0.0010937459 -0.0010117957 0.0005586527 0.0016960666
000020 84 90 7f 39 0d 42 3a 3a 47 70 60 3a 0b 6b ac ba
       0.00024372531 0.0007105179 0.00085616525 -0.001315446

exp_avg_sq f4 [12]
000000 30 29 63 38 62 7b 66 38 bc b9 60 38 bd c4 76 38
       5.4159376e-05 5.4951182e-05 5.357874e-05 5.8834197e-05
000010 82 a5 75 38 ea 82 65 38 c1 74 64 38 7c b2 6e 38
       5.8566693e-05 5.4719778e-05 5.446817e-05 5.690985e-05
000020 98 76 76 38 c6 e2 6a 38 9b 2d 6f 38 f4 a9 7b 38
       5.876142e-05 5.6001147e-05 5.7024514e-05 6.0001345e-05
