omniisaacgymenvs/scripts/runs/Anymal/nn/last_Anymal_ep_750_rew_-0.97304595.pth (torch, 672651 bytes, 36 tensors)

value_mean_std.running_mean f8 [1]
-1.9219682964564482
00000000: 1fab 13d4 61c0 febf

value_mean_std.running_var f8 [1]
75.82173215099104
00000000: 02a5 7242 97f4 5240

value_mean_std.count f8 []
147456001.0
00000000: 0000 0002 0094 a141

running_mean_std.running_mean f8 [48]
0.039769506744997025 0.01543762031570699 -0.6472228421270021 -0.016836759273679145 -0.0024720497603976785 -0.0012243633777338022 0.0034391882682005687 0.007045246355811498
-0.9625200002508628 -0.15790881654584754 0.023373744064461494 -0.00027468552314898045 -0.1527578841978651 -0.13366100906190398 0.1173504204212631 0.13312730304867026
0.00943401386841975 0.07585401240743114 -0.019315590587627454 0.0024863326401151097 0.08405831556780763 -0.14058155229410305 0.1231176805707025 -0.09384460274436407
-0.02530045029213849 -0.017961405613422153 0.027351666781012654 0.024739278851710542 -0.0052161899772140115 0.021866813081355258 -0.011347379701540705 0.0069374973570812465
0.012069215877221021 -0.027084357860918458 0.030326744363566936 -0.02041213427572416 -0.07601725059424505 -0.050958819019760966 0.07611199993545471 0.062005324186016404
0.011404355181299201 0.05235017882405025 -0.02116127799765409 0.006448778261662943 0.03267971366065494 -0.06387557324122452 0.09007684541415496 -0.04296951274458939
00000000: a114 b235 ab5c a43f 997c 1253 c29d 8f3f
00000010: d01b 85ad 0cb6 e4bf 09e7 cdc9 a73d 91bf
00000020: 9ef0 ff9b 4340 64bf 2240 9c2a 5a0f 54bf
00000030: 20ea 5f24 802c 6c3f 022e 0ceb 79db 7c3f
00000040: 0759 5abe f6cc eebf d840 6829 5b36 c4bf
00000050: 8824 5e69 49ef 973f 171d af56 7500 32bf
00000060: 9501 6b02 928d c3bf 1aeb 55cf cd1b c1bf
00000070: b994 e159 ad0a be3f 743c 66c2 500a c13f
00000080: a46b 47e8 2352 833f 7e6f 8f26 2b6b b33f
00000090: 04d4 8157 77c7 93bf 056b 0aac 375e 643f
000000a0: a011 5284 d884 b53f 4315 c388 93fe c1bf
000000b0: 794c 9ceb a384 bf3f a472 b12b 3306 b8bf
000000c0: 2ab3 507a 5ce8 99bf 96a2 cc86 7964 92bf
000000d0: a41c 4349 1302 9c3f 99fe 60e6 4055 993f
000000e0: bd2a ca55 925d 75bf f56a 35fc 4064 963f
000000f0: 2011 b585 4b3d 87bf e76a 3c44 7e6a 7c3f
00000100: 5525 d9bb beb7 883f 62b4 fb7c 00bc 9bbf
00000110: 1654 f15c f90d 9f3f f788 9f24 ebe6 94bf
00000120: 3aef 3bd5 dd75 b3bf 81eb 433a 4617 aabf
00000130: 9151 8e76 137c b33f 4917 1d6f 29bf af3f
00000140: ef01 49a4 2a5b 873f 7164 fa83 a4cd aa3f
00000150: 9c15 c453 4dab 95bf 2f5c babb 086a 7a3f
00000160: 838f d43a 65bb a03f 7995 154a 265a b0bf
00000170: a13e 2eb1 460f b73f 1217 ed97 1900 a6bf

running_mean_std.running_var f8 [48]
0.584642784632264 0.48866161336417335 0.7826607328117757 0.1768431943175168 0.05146794087567096 0.0883710816296083 0.019925492554742002 0.044891378839757835
0.008678908032241478 5.33595589256852 1.306054758446586 0.02055998400127863 0.1295095221966688 0.1405040098050548 0.14314904961693706 0.14396405246452038
0.11244502017794282 0.13159363814077804 0.12270032847172879 0.12304066371466965 0.18050075907665822 0.21427627036359825 0.18612895566171506 0.21011059925965545
0.008323657010783532 0.009267854981909858 0.010198424751027264 0.00989931537685191 0.009340951398791337 0.009589495994822832 0.009112010749888032 0.00945916799331346
0.027212374884585236 0.029063982556201726 0.03043851149340933 0.03208744772745669 0.5670895323160184 0.5657433756448144 0.5708576108970987 0.5563466838937615
0.5671298280953893 0.5705897243712426 0.5625569631613289 0.5714656705929507 0.5622728114503123 0.5552745511299364 0.5671797654156555 0.5747948918667336
00000000: 73d0 fac8 64b5 e23f 126c 0d5c 3b46 df3f
00000010: 7147 6985 8e0b e93f 8794 0e3c cca2 c63f
00000020: cff9 b485 015a aa3f 7ae5 82b9 7c9f b63f
00000030: 6b69 842b 5967 943f 256c fab7 00fc a63f
00000040: c3c8 4e51 3fc6 813f cfeb 4dd2 0458 1540
00000050: 2403 a5ac 99e5 f43f 732d 912b ad0d 953f
00000060: c579 2d9d c493 c03f cbe7 880f 09fc c13f
00000070: f373 4743 b552 c23f 443f 9100 6a6d c23f
00000080: b327 4364 32c9 bc3f ff90 1672 0fd8 c03f
00000090: b499 fee9 4969 bf3f 4c8e bbca 977f bf3f
000000a0: 0d97 911c a61a c73f 06a0 c2a2 676d cb3f
000000b0: fced b3d8 12d3 c73f bf7c 2e74 e7e4 ca3f
000000c0: 44ce 2755 fe0b 813f 8436 6970 06fb 823f
000000d0: 3706 3666 e9e2 843f a4f6 5e9e 1746 843f
000000e0: 4ab1 2b46 5921 833f 7c8d 765d a8a3 833f
000000f0: d95f 5f61 51a9 823f b6e0 6d09 545f 833f
00000100: 1401 b490 8fdd 9b3f 2c17 48da f2c2 9d3f
00000110: b4c9 9ced 452b 9f3f 87fc 3315 c46d a03f
00000120: 8370 66f2 9825 e23f 0157 0ada 911a e23f
00000130: 3339 2f2e 7744 e23f e7f9 918f 97cd e13f
00000140: 812f 0874 ed25 e23f e475 b361 4542 e23f
00000150: 8d47 dd75 7700 e23f 4778 bf5f 7249 e23f
00000160: 777d 138d 23fe e13f daee ac22 cfc4 e13f
00000170: df38 ed2d 5626 e23f 1c37 cf41 b864 e23f

running_mean_std.count f8 []
73728001.0
00000000: 0000 0004 0094 9141

a2c_network.sigma f4 [12]
3.0783808 3.1523287 2.9435008 3.2924273 2.973497 2.9766948 3.1238508 3.0775914
2.7922661 3.0030894 3.2550826 3.1380603
00000000: 3104 4540 c1bf 4940 5162 3c40 21b7 5240
00000010: c64d 3e40 2b82 3e40 2ced 4740 42f7 4440
00000020: 7db4 3240 9e32 4040 4653 5040 fbd5 4840

a2c_network.actor_mlp.0.weight f4 [256, 48]
0.57969457 -0.31869823 0.27192944 0.08487726 -0.5008334 0.08007425 0.22463945 -0.20073149
0.31832722 0.25741878 0.6975074 -0.22421546 -0.3408928 0.044380363 0.048706163 0.44687387
0.40070835 -0.41993532 -0.027496422 -0.13416506 -0.07689653 0.05825597 0.3178658 -0.22619683
-0.105330504 -0.110166796 -0.08006521 0.009165543 0.091786265 0.004868995 -0.35334903 0.16267745
-0.36842543 -0.18690535 1.1111978 -0.08827254 0.030725276 -0.10151075 -0.042571437 -0.3616521
0.14950085 0.2986485 0.39488885 -0.76056975 0.27184722 0.7655425 -0.22288397 -0.48011085
0.08075852 -0.22323915 0.18697661 -0.04722824 -0.18808682 0.1653439 -0.25651997 -0.7847732
-0.1382119 -0.19711597 -0.13407114 -0.08120834 0.4069207 -0.20407344 0.34329814 0.12579228
0.5595384 -0.19009346 -0.2577244 -0.45057467 0.050570402 -0.40411913 0.20108941 -0.27265793
0.74052316 -0.28356922 -0.29938695 -0.5884741 -0.41087353 -0.5146988 -0.22799225 -0.5627759
0.7006314 0.1761062 0.13841406 0.24412902 -0.62231463 0.15590374 0.25257385 0.27451515
-0.5338894 -0.046122544 -0.20050518 0.006745698 0.3389726 -0.2839432 0.28997594 -0.5080184
-0.4177318 -0.15618119 0.731718 0.64616466 0.50068134 -0.217685 0.26865804 0.24776974
-0.013855678 0.25032246 0.16639139 -0.32977104 0.42474043 0.07468625 0.09362037 -0.31540146
0.35250485 -0.04017957 -0.34540763 -0.37374 0.45747638 0.33454645 -0.079833396 0.28580803
0.20047967 -0.3991666 -0.40170866 -0.43058187 0.95313764 -0.37783286 -0.26761553 -0.36558062
-0.08383819 0.74521625 0.15369646 -0.46946657 0.32505926 0.32138762 -0.74248886 -0.2482177
1.0962703 -0.12935373 0.41163665 -0.7114687 0.24370052 0.116178595 -0.102076426 -0.028358772
-0.012669271 0.5576685 0.21402502 -0.036688883 -0.3720884 0.33571157 -0.07044989 0.047505394
-0.052404173 0.07386592 0.10996058 0.05853496 0.030305345 -0.3579856 -0.5949163 -0.038184036
-0.3942197 -0.19802451 -0.09156832 -0.09920982 -0.1452805 -0.350914 -0.044822406 0.38842696
-0.0042251605 0.34017828 0.47238466 0.24196672 0.048251078 -0.14852294 -0.22622487 -0.059192535
0.1374347 0.0696418 0.1722093 -0.18669635 -0.19331515 -0.26932132 0.022581808 0.06852065
-0.00019349881 0.05910882 0.05955819 -0.01153425 0.11660663 -0.23283084 -0.0820616 -0.2609525
0.5231144 0.11167863 -0.5028626 0.27337098 -0.2658037 0.67086256 -0.5228553 -0.011620638
0.38412997 -0.294537 -0.2677916 -0.010767101 -0.12082007 0.03876251 -0.30067104 -0.9507381
0.36895877 -0.15805387 -0.12878993 -0.15883349 0.12309881 -0.33979642 0.80489445 -0.6061013
0.14617051 0.5490057 -0.019443365 -0.2943312 -0.3284049 -0.48151156 0.12595464 -0.5659807
0.54936844 0.46940795 0.29330978 -0.2793453 -1.1486733 0.52049875 0.6692782 -0.24815494
0.0743361 -0.14405064 -0.23863168 -0.15214948 -0.48902187 0.34669048 -0.42067534 -0.37566575
0.42324033 0.10833707 -0.3706398 -0.47274187 0.09601578 -0.012487206 -0.1794942 0.14087072
-0.90010685 0.49415827 -0.0912138 -0.32205826 -0.043277416 0.26191315 -0.6514671 -0.37337753
00000000: dd66 143f 6a2c a3be 563a 8b3e 21d4 ad3d
00000010: 9e36 00bf f8fd a33d e207 663e 8e8c 4dbe
00000020: c9fb a23e 65cc 833e d88f 323f bd98 65be
00000030: 8089 aebe 2fc8 353d 1d80 473d a7cc e43e
00000040: a529 cd3e c301 d7be 2d40 e1bc 9162 09be
00000050: ee7b 9dbd d09d 6e3d 4ebf a23e 24a0 67be
00000060: 85b7 d7bd 219f e1bd 3bf9 a3bd 132b 163c
00000070: 70fa bb3d 178c 9f3b 2aea b4be eb94 263e
00000080: 42a2 bcbe 1e64 3fbe bb3b 8e3f 3cc8 b4bd
00000090: 93b3 fb3c dee4 cfbd 635f 2ebd 772a b9be
000000a0: c016 193e 75e8 983e df2e ca3e b3b4 42bf
000000b0: 8f2f 8b3e 98fa 433f b23b 64be 17d1 f5be
000000c0: b964 a53d ce98 64be cc76 3f3e 6672 41bd
000000d0: d599 40be e94f 293e 9656 83be e5e6 48bf
000000e0: 6c87 0dbe c5d8 49be f249 09be 8f50 a6bd
000000f0: e957 d03e a1f8 50be c6c4 af3e b1cf 003e
00000100: e93d 0f3f dca7 42be 74f4 83be b9b1 e6be
00000110: e922 4f3d b4e8 cebe 62ea 4d3e d299 8bbe
00000120: ed92 3d3f fc2f 91be 3f49 99be 3da6 16bf
00000130: 045e d2be 4dc3 03bf cd76 69be 1512 10bf
00000140: 945c 333f 2f55 343e 6abc 0d3e f5fc 793e
00000150: 0350 1fbf 3ba5 1f3e 5c51 813e 408d 8c3e
00000160: faac 08bf feea 3cbd 3b51 4dbe 040b dd3b
00000170: d18d ad3e 0161 91be ba77 943e 7e0d 02bf
00000180: f1e0 d5be f6ed 1fbe df51 3b3f 0c6b 253f
00000190: a72c 003f d1e8 5ebe 8c8d 893e 5ab7 7d3e
000001a0: ed02 63bc 442a 803e 8162 2a3e c0d7 a8be
000001b0: 9477 d93e 1bf5 983d 09bc bf3d 4d7c a1be
000001c0: 847b b43e 5593 24bd 45d9 b0be d95a bfbe
000001d0: 583a ea3e ac49 ab3e b17f a3bd 6e55 923e
000001e0: 8b4a 4d3e 915f ccbe c2ac cdbe 3a75 dcbe
000001f0: d400 743f 4f73 c1be e704 89be 622d bbbe
00000200: 5bb3 abbd 7ec6 3e3f 9b62 1d3e ec5d f0be
00000210: 2b6e a63e eb8c a43e c013 3ebf c82c 7ebe
00000220: 9652 8c3f 4e75 04be 0ac2 d23e d022 36bf
00000230: a18c 793e 0bef ed3d 720d d1bd a850 e8bc
00000240: c692 4fbc 5dc3 0e3f 6029 5b3e 1547 16bd
00000250: 5f82 bebe 63e2 ab3e 0848 90bd 0495 423d
00000260: c2a5 56bd 0447 973d 0333 e13d 5bc2 6f3d
00000270: ea42 f83c e349 b7be 6f4c 18bf dd66 1cbd
00000280: 2ad7 c9be f0c6 4abe 2c88 bbbd 852e cbbd
00000290: 69c4 14be 00ab b3be b397 37bd e6df c63e
000002a0: 3773 8abb d92b ae3e 67dc f13e 20c6 773e
000002b0: eca2 453d 6616 18be 7ea7 67be df73 72bd
000002c0: afbb 0c3e 5ca0 8e3d a257 303e 542d 3fbe
000002d0: 68f4 45be 7ce4 89be 7cfd b83c 8e54 8c3d
000002e0: f1e5 4ab9 171c 723d 4af3 733d 27fa 3cbc
000002f0: 75cf ee3d 356b 6ebe ea0f a8bd 919b 85be
00000300: d3ea 053f c4b7 e43d 9abb 00bf 48f7 8b3e
00000310: 6c17 88be a6bd 2b3f d8d9 05bf 7d64 3ebc
00000320: afac c43e 8ecd 96be fb1b 89be 7f68 30bc
00000330: 8370 f7bd 70c5 1e3d 8ef1 99be 9263 73bf
00000340: 2ae8 bc3e e0d8 21be 82e1 03be 3fa5 22be
00000350: 3b1b fc3d ccf9 adbe 900d 4e3f 7429 1bbf
00000360: b9ad 153e a38b 0c3f b147 9fbc 94b2 96be
00000370: b024 a8be af88 f6be 41fa 003e 1ce4 10bf
00000380: 69a3 0c3f 3d56 f03e b32c 963e 5906 8fbe
00000390: ba07 93bf 683f 053f d155 2b3f 541c 7ebe
000003a0: 863d 983d 0382 13be dd5b 74be 13cd 1bbe
000003b0: 1361 fabe 6a81 b13e c262 d7be 4357 c0be
000003c0: f5b2 d83e d3df dd3d 80c4 bdbe 390b f2be
000003d0: eca3 c43d 2397 4cbc 54cd 37be 6a40 103e
000003e0: 676d 66bf 5002 fd3e 4dce babd d2e4 a4be
000003f0: a943 31bd 7b19 863e 8cc6 26bf 572b bfbe

a2c_network.actor_mlp.0.bias f4 [256]
-0.8516009 -0.015786992 0.6925571 -0.8748493 0.14064147 -0.088734165 -0.82679564 -0.6961595
-0.95055676 -1.2352666 -0.51154864 -0.7452896 -0.26979804 -0.7326226 -0.7919737 -0.92148334
0.3496181 0.36330095 -1.1376723 -1.0799769 0.30647707 -0.39919773 0.24641322 -0.33764818
0.3495189 -1.0541544 -0.13754672 -0.67553294 -1.0358237 0.8971057 -0.69989747 -0.8963102
-0.350331 -0.63673776 -0.8672012 -1.7044828 -0.32952622 -0.26355428 -0.94976336 -0.6344809
0.14513437 -0.43942457 -0.27671224 0.2742432 0.79245734 -0.5386961 -0.864023 -0.4781501
-0.92320436 -1.0766644 0.2761583 -0.66644907 -1.1900586 -1.0885279 -0.6060428 0.30425504
0.3495817 -0.5903591 -0.60427827 -1.080229 -0.67992043 -1.21581 -0.7085617 -0.6394039
-0.96821356 -1.0940881 -0.94213957 -1.0528767 -1.3647325 -0.14967622 -0.79978305 -0.6372074
-0.4755749 -0.43828866 0.41215795 -0.06482745 -1.1526457 -0.32283413 -0.9460037 -1.1501573
0.12876603 0.34637314 0.80756384 -0.90625876 -0.83192074 -0.087289505 -0.4696054 0.20000742
-0.6134557 0.33206996 0.6614698 -1.0331258 -1.2729505 -1.3038952 -0.31989887 -0.39422956
-0.7306839 -0.7880391 -0.64612895 -0.6492585 -1.2283574 0.3816913 -0.7835185 -0.6279089
-0.7011929 0.5811664 0.35798058 0.48938757 -0.13582534 0.886716 0.18676691 0.2186291
-0.6771599 -0.780123 -0.97295696 -0.32573035 -0.6804545 0.62473595 -0.406617 0.31714928
0.23034701 0.20829125 -0.9602797 -0.07393372 -0.1104892 0.30707842 -0.7986513 -0.6429036
-0.5347657 -0.52583927 -0.75484496 0.3437118 -0.7757494 -0.4732712 -0.045547273 -0.03488015
-0.7018258 -0.11426867 -1.0551478 -0.6152326 -0.5304242 -0.6428973 -0.80995244 0.0004663963
-0.5274007 -1.0469553 -1.1245806 -0.831224 -0.87878144 -0.587134 -0.307077 -0.72825146
-0.4254346 0.3038131 -0.24165392 0.11004181 -0.73828316 -0.44968864 -0.7355841 -0.6305134
0.2984416 -0.9745192 -0.13639307 -0.7577149 -0.38858265 -1.0068144 0.56692725 -0.62696433
-1.3582402 0.35165393 -0.49092507 -0.92131203 -1.4882896 -0.37676007 -0.2900568 0.38448274
-0.6484218 -0.7493203 -0.51358074 0.73800963 -0.92284447 -0.30619988 0.5643732 -0.32703117
-1.0259393 -0.5421538 -0.90503883 -1.0380496 -0.58608824 -0.84834564 -0.3258273 -0.16664371
-0.4953157 0.10030362 0.39584076 -0.8304724 0.21589772 -0.60871655 -0.3528565 -0.8571964
-0.70810735 0.44547468 -0.8571676 -0.6084051 0.48352042 0.30256063 -0.94047284 -0.61376244
-0.81038064 -0.48463628 -0.9402898 -0.6449789 0.34239575 0.43051007 -0.09723968 -0.568608
-0.6245875 -0.8464668 -0.34858942 -0.70370644 -0.72366244 0.30622193 0.17333174 -1.0750227
-1.1784692 -0.27131912 -0.66277426 -0.9067147 -0.027189689 0.30574378 -1.0434613 -0.74999547
0.3031258 -1.0763302 -0.9845273 -0.9852317 0.32803613 -0.58469296 -0.4147601 -0.3249063
-0.34000754 -1.2769889 -0.48816693 -0.6811021 -0.0019374391 0.08394447 -0.6573675 0.16966897
-0.9951814 -0.15189297 -1.208009 -0.55544376 0.49598193 -0.76225746 0.03731355 -0.07803193
00000000: 8402 5abf b953 81bc 6c4b 313f 20f6 5fbf
00000010: 5104 103e 42ba b5bd e1a8 53bf 8237 32bf
00000020: b057 73bf 371d 9ebf daf4 02bf 4dcb 3ebf
00000030: f822 8abe 288d 3bbf cabe 4abf 55e6 6bbf
00000040: 2501 b33e 9502 ba3e 3f9f 91bf af3c 8abf
00000050: 90ea 9c3e a563 ccbe bf53 7c3e 39e0 acbe
00000060: 24f4 b23e 88ee 86bf 0cd9 0cbe baef 2cbf
00000070: df95 84bf b8a8 653f 7b2c 33bf 9674 65bf
00000080: 965e b3be 3f01 23bf e600 5ebf 7e2c dabf
00000090: a9b7 a8be 96f0 86be b123 73bf 576d 22bf
000000a0: 1b9e 143e 42fc e0be 3aad 8dbe 9b69 8c3e
000000b0: 7cde 4a3f fde7 09bf 9c30 5dbf 17d0 f4be
000000c0: 1f57 6cbf 24d0 89bf 9f64 8d3e 689c 2abf
000000d0: d753 98bf e254 8bbf 9f25 1bbf 51c7 9b3e
000000e0: 5ffc b23e c621 17bf fbb1 1abf f244 8abf
000000f0: 440f 2ebf a99f 9bbf 4d64 35bf f9af 23bf
00000100: d8dc 77bf 140b 8cbf 0f30 71bf aac4 86bf
00000110: 8eaf aebf b944 19be 95be 4cbf 0620 23bf
00000120: 8e7e f3be 5f67 e0be 5e06 d33e 41c4 84bd
00000130: e589 93bf 844a a5be 4c2d 72bf 5b38 93bf
00000140: 3edb 033e d257 b13e 81bc 4e3f 9300 68bf
00000150: c2f8 54bf d7c4 b2bd 1e70 f0be bfce 4c3e
00000160: 6f0b 1dbf 1305 aa3e 1656 293f 773d 84bf
00000170: 0bf0 a2bf 0ae6 a6bf c9c9 a3be 75d8 c9be
00000180: 1a0e 3bbf eebc 49bf b568 25bf ce35 26bf
00000190: d13a 9dbf 0b6d c33e ab94 48bf a3be 20bf
000001a0: 6181 33bf 52c7 143f 3b49 b73e 0291 fa3e
000001b0: cc15 0bbe d2ff 623f d33f 3f3e 4fe0 5f3e
000001c0: 5a5a 2dbf 24b6 47bf b513 79bf 21c6 a6be
000001d0: 4432 2ebf b2ee 1f3f 1a30 d0be 6461 a23e
000001e0: 16e0 6b3e 4d4a 553e e4d4 75bf 906a 97bd
000001f0: 2948 e2bd 6239 9d3e 6974 4cbf 5595 24bf
00000200: 68e6 08bf 679d 06bf 853d 41bf fefa af3e
00000210: 8397 46bf 9a50 f2be c78f 3abd 7dde 0ebd
00000220: dbaa 33bf b105 eabd 150f 87bf e27f 1dbf
00000230: e1c9 07bf eb94 24bf 0b59 4fbf a786 f439
00000240: bb03 07bf a202 86bf 42f2 8fbf 19cb 54bf
00000250: d2f7 60bf 6a4e 16bf 3239 9dbe b06e 3abf
00000260: 90d2 d9be 648d 9b3e 2074 77be 9a5d e13d
00000270: 2000 3dbf 973d e6be 3d4f 3cbf 5469 21bf
00000280: 56cd 983e 177a 79bf a0aa 0bbe 9bf9 41bf
00000290: 4ef4 c6be 4bdf 80bf 2522 113f bc80 20bf
000002a0: d1da adbf fc0b b43e 885a fbbe 1bdb 6bbf
000002b0: 4680 bebf b2e6 c0be 5382 94be ecda c43e
000002c0: f9fe 25bf 75d3 3fbf 077a 03bf 33ee 3c3f
000002d0: 893f 6cbf 3bc6 9cbe c37a 103f a170 a7be
000002e0: fb51 83bf 97ca 0abf a0b0 67bf cfde 84bf
000002f0: e109 16bf 2e2d 59bf d6d2 a6be a6a4 2abe
00000300: 059a fdbe fc6b cd3d a4ab ca3e d799 54bf
00000310: 4b14 5d3e d9d4 1bbf 9ba9 b4be 3971 5bbf
00000320: 8646 35bf 4215 e43e 566f 5bbf 70c0 1bbf
00000330: fd8f f73e 3ae9 9a3e d4c2 70bf 891f 1dbf
00000340: 1b75 4fbf 3f22 f8be d5b6 70bf 561d 25bf
00000350: 7f4e af3e d16b dc3e 9925 c7bd 4b90 11bf
00000360: f7e4 1fbf 0cb2 58bf 507a b2be 1b26 34bf
00000370: f141 39bf 1fc9 9c3e e07d 313e 589a 89bf
00000380: 14d8 96bf 57ea 8abe 93ab 29bf 741e 68bf
00000390: e9bc debc 738a 9c3e 2490 85bf b4ff 3fbf
000003a0: 4e33 9b3e 30c5 89bf fb09 7cbf 2538 7cbf
000003b0: 5af4 a73e 70ae 15bf 705b d4be 1e5a a6be
000003c0: 7815 aebe 5f74 a3bf 04f1 f9be b55c 2ebf
000003d0: abf1 fdba 14eb ab3d 3d49 28bf b4bd 2d3e
000003e0: 35c4 7ebf d589 1bbe 0aa0 9abf 9031 0ebf
000003f0: 58f1 fd3e 4e23 43bf 18d6 183d 34cf 9fbd

a2c_network.actor_mlp.2.weight f4 [128, 256]
-0.141588 -0.20328178 -0.24896602 0.1514793 -0.071660765 -0.14000246 0.11400977 0.0358186
0.22060582 0.115384445 0.018515063 0.048135452 -0.060411718 0.12824515 0.04424278 0.08344253
-0.23771012 -0.34132412 0.22113055 -0.12903892 -0.1875033 -0.14875297 -0.10805307 0.028218273
-0.4367083 0.14749838 -0.0138157355 0.048511878 0.027466033 -0.18484096 -0.08014364 -0.017035337
-0.016647741 0.0031569987 0.008383181 0.12139972 -0.22637796 -0.24838138 0.07163692 0.11085947
-0.24219792 0.10757912 -0.19286397 -0.38900873 -0.3527787 0.08750263 0.3179701 -0.13999239
-0.11466459 -0.036546893 -0.342428 0.018097514 0.024042616 0.111105576 -0.01749934 -0.3199828
-0.21883725 -0.18118975 -0.27035874 -0.09907685 -0.040346794 -0.004285311 -0.020085478 0.063889034
-0.03239027 -0.18167369 0.09330854 -0.04944411 0.023456868 -0.15599169 -0.053136587 0.056875117
-0.032896303 -0.16675697 -0.30616066 -0.1074875 -0.006012025 -0.0631848 -0.10308216 0.17959113
-0.13279355 -0.3172076 -0.35861713 0.18957514 0.22728539 -0.081003726 -0.10614245 -0.20404582
-0.09202277 -0.27811968 -0.3336715 0.06831442 0.19949956 -0.06896098 -0.18985496 -0.3126825
0.12364417 0.090602905 0.02812948 -0.12808238 0.19357719 -0.30820978 0.06351677 0.05615521
0.121690534 -0.45200825 -0.08110246 -0.066298984 -0.18469417 -0.3271188 -0.095131546 -0.24378109
0.04394492 -0.07074808 0.059995763 -0.11942658 0.1713198 -0.23678882 -0.05329045 -0.1170915
-0.3221824 -0.08721907 -0.084670134 -0.14217187 0.12451392 -0.1615002 0.013433674 -0.05372624
0.027261741 -0.05558162 0.043119114 -0.01713129 0.018366857 -0.03792807 -0.051691033 -0.3225165
-0.030029109 -0.1963029 0.028002143 -0.2075022 -0.034683615 -0.1799313 -0.061778363 -0.056450102
0.1557499 0.22543515 0.15326905 -0.09836144 0.03049405 0.042582754 -0.04318625 -0.07023214
-0.0708252 0.024665166 -0.15930906 -0.19284704 0.16881835 0.03596144 0.061022565 0.045537326
-0.19540988 0.0770248 0.058684222 -0.08247781 -0.22211555 0.111997426 -0.32978824 -0.15012154
0.16897036 -0.17861749 -0.10936391 0.06554951 0.019021383 -0.051220488 -0.0772233 -0.06694646
-0.07059234 -0.1599863 0.17731735 -0.34321517 0.045871135 -0.18711855 -0.0693999 -0.043393485
0.025771713 -0.118757755 -0.0054145562 0.010494128 -0.13776892 -0.12835279 0.0685218 -0.025813706
-0.009738746 -0.16282788 -0.15753168 0.06442917 -0.25568017 -0.014203506 -0.18196401 0.09271176
0.14219038 -0.17770104 -0.089676864 0.07265146 -0.22638524 -0.10494024 -0.004362258 -0.0049796253
0.06366772 -0.025394063 -0.09295126 0.10184654 -0.21851003 0.04608102 -0.15499449 -0.119272
-0.18841976 -0.053343445 -0.22931673 0.008442175 -0.19207865 -0.19110611 -0.13496055 0.07900939
0.027644752 0.0070287893 -0.13587834 -0.12320688 -0.021058623 -0.25384402 -0.052983914 -0.021745635
-0.24166654 -0.17693065 -0.017477015 0.075980335 -0.0893167 -0.039354097 -0.1655088 -0.03488786
0.06950986 0.17195249 -0.08909539 -0.15819846 -0.24400394 -0.11061951 0.06793921 -0.009174821
0.09187269 -0.15838374 -0.06424311 -0.17925984 -0.051015474 -0.18881223 -0.22507894 0.017126156
00000000: 72fc 10be 1929 50be f3f0 7ebe 641d 1b3e
00000010: e1c2 92bd ce5c 0fbe f47d e93d 86b6 123d
00000020: 7ee6 613e ae4e ec3d e7ac 973c ae29 453d
00000030: 4772 77bd b252 033e eb37 353d ebe3 aa3d
00000040: 486a 73be 09c2 aebe 0c70 623e c722 04be
00000050: dd00 40be b352 18be ee4a ddbd 022a e73c
00000060: 3b98 dfbe d109 173e 655b 62bc 64b4 463d
00000070: 7200 e13c f346 3dbe 5922 a4bd b18d 8bbc
00000080: d860 88bc a6e5 4e3b 9c59 093c 6ba0 f83d
00000090: a0cf 67be b057 7ebe 61b6 923d 4a0a e33d
000000a0: bb02 78be 7152 dc3d 227e 45be 272c c7be
000000b0: 699f b4be 9434 b33d facc a23e 2a5a 0fbe
000000c0: 45d5 eabd 32b2 15bd b952 afbe 3d41 943c
000000d0: 05f5 c43c 528b e33d c75a 8fbc c9d4 a3be
000000e0: df16 60be ce89 39be 766c 8abe cee8 cabd
000000f0: ae42 25bd cb6b 8cbb 4d8a a4bc 41d8 823d
00000100: a9ab 04bd ab08 3abe 8c18 bf3d e885 4abd
00000110: 9e28 c03c 49bc 1fbe c0a5 59bd e2f5 683d
00000120: 46be 06bd 57c2 2abe 17c1 9cbe 6822 dcbd
00000130: 8500 c5bb 0867 81bd bd1c d3bd bde6 373e
00000140: 08fb 07be 0969 a2be aa9c b7be fc1f 423e
00000150: 80bd 683e 48e5 a5bd 3661 d9bd 63f1 50be
00000160: 6f76 bcbd b465 8ebe fed6 aabe 6ee8 8b3d
00000170: 9d49 4c3e 6a3b 8dbd 5769 42be ec17 a0be
00000180: 2839 fd3d 048e b93d cc6f e63c 0728 03be
00000190: 1939 463e accd 9dbe 1515 823d 0103 663d
000001a0: e338 f93d a06d e7be 0c19 a6bd c3c7 87bd
000001b0: 7820 3dbe 1e7c a7be 54d4 c2bd c0a1 79be
000001c0: 97ff 333d 5fe4 90bd 1ebe 753d ec95 f4bd
000001d0: 756e 2f3e c578 72be 1647 5abd abcd efbd
000001e0: 17f5 a4be e99f b2bd 8967 adbd 8195 11be
000001f0: 2701 ff3d 4f60 25be ea18 5c3c 0c10 5cbd
00000200: 0454 df3c 8ea9 63bd ab9d 303d eb56 8cbc
00000210: 1776 963c 775a 1bbd fab9 53bd e220 a5be
00000220: 9bff f5bc a103 49be c064 e53c 757b 54be
00000230: 6810 0ebd e93f 38be 4f0b 7dbd 3938 67bd
00000240: e77c 1f3e 79d8 663e 90f2 1c3e b971 c9bd
00000250: a8ce f93c 416b 2e3d 11e4 30bd ded5 8fbd
00000260: cd0c 91bd 9a0e ca3c ea21 23be b279 45be
00000270: b8de 2c3e 4e4c 133d ccf2 793d 5985 3a3d
00000280: 8719 48be 2ebf 9d3d de5e 703d 20ea a8bd
00000290: 4272 63be e85e e53d 01da a8be 76b9 19be
000002a0: 9106 2d3e 81e7 36be 30fa dfbd d23e 863d
000002b0: bbd2 9b3c 93cc 51bd 4027 9ebd 3a1b 89bd
000002c0: b792 90bd 73d3 23be ae92 353e e6b9 afbe
000002d0: 5fe3 3b3d 019c 3fbe 8921 8ebd 5ebd 31bd
000002e0: 331f d33c 4437 f3bd 976c b1bb 90ef 2b3c
000002f0: 4c13 0dbe ea6e 03be 2855 8c3d 4477 d3bc
00000300: 438f 1fbc 5abc 26be fc4f 21be 71f3 833d
00000310: 83e8 82be d2b5 68bc c654 3abe aadf bd3d
00000320: 5b9a 113e 43f7 35be 81a8 b7bd 4aca 943d
00000330: 88d1 67be e9ea d6bd 46f1 8ebb 202c a3bb
00000340: 3964 823d 3607 d0bc 3b5d bebd eb94 d03d
00000350: 18c1 5fbe 74bf 3c3d e0b6 1ebe e144 f4bd
00000360: 1cf1 40be a87e 5abd 01d2 6abe 0c51 0a3c
00000370: 44b0 44be 52b1 43be 1933 0abe adcf a13d
00000380: 3f77 e23c c251 e63b b123 0bbe e453 fcbd
00000390: 2283 acbc d8f7 81be a905 59bd e723 b2bc
000003a0: 6f77 77be 4f2d 35be f52b 8fbc 949b 9b3d
000003b0: adeb b6bd c331 21bd 247b 29be 93e6 0ebd
000003c0: 2f5b 8e3d 5014 303e a577 b6bd c7fe 21be
000003d0: 2bdc 79be 7b8c e2bd b623 8b3d fd51 16bc
000003e0: c027 bc3d 592f 22be e491 83bd e48f 37be
000003f0: 9af5 50bd fe57 41be 187b 66be 274c 8c3c

a2c_network.actor_mlp.2.bias f4 [128]
-0.2640598 -0.3389663 -0.6313875 -0.47197264 -0.43368506 -0.4395498 -0.3190887 -0.4151917
0.05039531 -0.32319894 0.15538666 -0.17203228 0.0075324476 -0.6199558 -0.4875677 -0.34657094
0.16192538 -0.52917004 -0.44706082 0.19797559 -0.41482818 -0.0877576 -0.16266797 -0.1911243
-0.23167975 0.028785795 -0.36572936 -0.46583876 -0.493313 -0.45039317 -0.28937963 -0.4672819
-0.28476584 -0.323709 -0.35647982 -0.19934733 0.13392682 -0.66916406 -0.32262328 -0.30339348
0.057053443 -0.40416834 -0.4027031 -0.4219339 -0.3455143 -0.5428554 -0.29201284 -0.2725909
-0.27211452 -0.63193774 -0.22101887 -0.376403 -0.51126987 -0.2493134 -0.18331577 -0.18969238
-0.42852476 -0.6658191 -0.4874906 0.005051035 -0.18596272 0.027608678 0.030711494 -0.020665545
-0.4061074 -0.32818907 -0.46801174 -0.4444038 -0.19437672 -0.58874214 -0.57054526 -0.18594703
-0.37145358 -0.4724575 -0.33651412 -0.27519736 -0.3692554 -0.4751834 -0.22966865 -0.24668534
0.1917767 -0.52233267 -0.3372088 -0.032042082 0.0035780775 -0.40274638 -0.26707613 0.21112184
-0.60451424 -0.4283389 0.018255543 -0.3595583 -0.40948325 -0.09989904 -0.43491316 -0.21023342
-0.54478323 -0.018611884 -0.73877335 -0.22287127 -0.5170788 -0.33823216 -0.6540602 -0.55567396
-0.4949432 -0.027222339 -0.28779274 0.3109165 -0.1781267 -0.46822795 -0.51742494 -0.55892074
-0.28616852 -0.25263357 0.2939386 -0.24151121 -0.2579797 -0.6806003 -0.4186968 -0.49311265
-0.47473896 -0.53030705 -0.5722372 0.16069584 -0.54380965 0.26185155 -0.41771078 0.17050365
00000000: d932 87be fe8c adbe 9ca2 21bf 66a6 f1be
00000010: f80b debe ac0c e1be 985f a3be 0294 d4be
00000020: 506b 4e3d 557a a5be ae1d 1f3e 3b29 30be
00000030: c0d2 f63b 6cb5 1ebf 79a2 f9be bf71 b1be
00000040: c4cf 253e b077 07bf 28e5 e4be 1dba 4a3e
00000050: 5c64 d4be 42ba b3bd 6f92 26be 17b6 43be
00000060: 753d 6dbe 30d0 eb3c e140 bbbe 6b82 eebe
00000070: 8693 fcbe ef99 e6be 9129 94be 933f efbe
00000080: d4cc 91be 30bd a5be 8684 b6be b521 4cbe
00000090: 1d24 093e 564e 2bbf e12e a5be 6456 9bbe
000000a0: dfb0 693d 27ef cebe 1a2f cebe b807 d8be
000000b0: 40e7 b0be 92f8 0abf b582 95be 0991 8bbe
000000c0: 9852 8bbe acc6 21bf c552 62be e5b7 c0be
000000d0: 95e2 02bf 034c 7fbe 21b7 3bbe b83e 42be
000000e0: 9967 dbbe 1f73 2abf 5e98 f9be 2783 a53b
000000f0: 036d 3ebe 982b e23c ac96 fb3c ca4a a9bc
00000100: 4fed cfbe 6608 a8be 3c9f efbe e588 e3be
00000110: b10a 47be ceb7 16bf 410f 12bf e668 3ebe
00000120: 2a2f bebe f3e5 f1be 944b acbe abe6 8cbe
00000130: 0b0f bdbe 3d4b f3be 422e 6bbe 159b 7cbe
00000140: 1c61 443e 98b7 05bf a2a6 acbe 8f3e 03bd
00000150: 2e7e 6a3b c634 cebe 34be 88be 5330 583e
00000160: 72c1 1abf 3c4f dbbe a68c 953c 0718 b8be
00000170: caa7 d1be de97 ccbd f0ac debe 6e47 57be
00000180: ea76 0bbf f377 98bc 4020 3dbf 5e38 64be
00000190: 475f 04bf c42c adbe 7d70 27bf a640 0ebf
000001a0: 3269 fdbe 6201 dfbc 9259 93be 7330 9f3e
000001b0: d866 36be 93bb efbe f675 04bf 6e15 0fbf
000001c0: ae84 92be 3059 81be 1f7f 963e b74e 77be
000001d0: ea15 84be d23b 2ebf 6d5f d6be 4379 fcbe
000001e0: fc10 f3be 34c2 07bf 237e 12bf 738d 243e
000001f0: 1c37 0bbf 6811 863e 30de d5be 8298 2e3e

a2c_network.actor_mlp.4.weight f4 [64, 128]
0.5121382 0.7413001 0.12916888 0.3510944 -0.005802713 0.22827838 0.31704578 -0.1419941
-0.5751313 0.36191562 0.35953978 0.014741274 -0.35806724 0.14691044 0.032177947 0.39154387
-0.78525513 -0.038306434 -0.11640089 0.12665077 0.42817622 -0.40348655 -0.18010806 -0.34447214
-0.38402918 -0.074273065 0.42563596 -0.3011267 0.367225 -0.19211738 0.38255724 0.17392105
0.41173777 0.37478048 0.37808153 -0.027829884 -0.079460055 -0.12080002 0.36668938 0.39614734
-0.17720543 0.119043544 -0.1683312 0.47574127 -0.161451 0.10636253 -0.038545784 -0.2607611
0.21560208 0.28100035 0.24423857 0.46207172 0.05912814 -0.017197844 0.4232368 -0.10077478
0.55615026 -0.22079656 0.035333525 -0.7629941 0.028842865 -0.53300345 -0.29281858 -0.035231788
-0.08073441 -0.51631004 0.38683623 0.28999043 0.35093093 0.40069154 0.18702362 -0.26165256
0.1571613 -0.23302606 -0.07705048 0.4119618 -0.11040773 -0.38659298 0.36140746 -0.21372373
0.027908541 0.5618736 0.20972377 -0.24961154 -0.62197834 -0.025129315 0.19084074 0.014650475
0.07849663 -0.05865159 -0.42427912 0.47548243 0.13158515 -0.24362001 0.27533782 0.5174
0.0004431043 -1.1558994 0.0379531 0.24619445 0.33416486 -0.55452895 0.33402193 0.38400888
0.0029891287 -0.40359807 0.6076018 -0.3575155 0.5433119 0.0014935784 0.55805576 0.06462863
0.64918935 -0.06873633 -0.6777891 -0.0059030172 0.12036194 0.6225259 -0.08252578 0.18740343
0.14094324 0.26753578 0.15122624 -0.98960227 -0.15347226 -0.24202225 0.0067708446 0.475362
0.36731505 -0.21162474 0.2602632 0.5550877 0.21804833 0.34952503 0.55016947 -0.26990104
-0.519363 0.15378919 -0.4250416 -0.20164092 -0.2734106 0.22477284 -0.06180236 0.3299786
-0.16207218 -0.18275072 -0.049288042 -0.09444569 0.36127862 -0.6831309 -0.46963203 0.17627135
-0.12304368 -0.617567 0.11897116 -0.0644582 0.041050103 -0.17965344 0.3591803 0.61196125
0.2155327 -0.15126494 0.38541207 0.21768282 -0.26424634 0.05098538 0.18459818 0.31109765
0.041215956 -0.035199393 -0.11534689 0.4600721 0.12830457 -0.03982825 0.14787717 0.040213056
-0.046474624 0.24537753 0.0047306437 0.15524681 0.24891306 0.02363477 0.22192001 0.048799112
0.5667614 0.081633344 -0.22399841 -0.122123726 -0.23253259 -0.13041514 -0.49390775 -0.21343313
-0.14310046 -0.20987402 0.13321759 0.175032 0.43507686 0.6781401 -0.2319196 -0.68984634
0.21918933 0.08290519 0.05953412 -0.015311672 -0.008189035 0.23528269 0.3253759 -0.29591152
-0.26666597 0.61610603 0.043892723 0.07201056 0.040852156 -0.088274516 -0.07661217 -0.67899776
0.21087013 0.13929848 0.028733516 0.004169205 0.047701012 -0.23407096 -0.094035685 0.023584807
0.16693555 -0.20977388 -0.025832843 0.051991016 -0.309493 0.14940724 -0.4608247 0.35365286
0.11114823 -0.3129949 0.17444228 -0.10816504 0.14517535 0.13137062 0.24622715 0.38956437
0.44599503 -0.35887662 -0.4388561 -0.12780826 -0.016626788 0.2494761 -0.07476781 0.1797876
-0.011257696 -0.026988676 0.19342615 -0.33983383 0.102618106 -0.08936712 -0.26614374 -0.29368347
00000000: 7d1b 033f d8c5 3d3f d944 043e a5c2 b33e
00000010: af24 bebb cfc1 693e d353 a23e e766 11be
00000020: ce3b 13bf 014d b93e 9915 b83e 6285 713c
00000030: 9754 b7be b16f 163e 06cd 033d 7078 c83e
00000040: 7b06 49bf 35e7 1cbd 9763 eebd bdb0 013e
00000050: ea39 db3e ca95 cebe 3f6e 38be a75e b0be
00000060: 799f c4be 7a1c 98bd f5ec d93e 472d 9abe
00000070: ea04 bc3e 6bba 44be 8bde c33e 5c18 323e
00000080: 4bcf d23e 3ae3 bf3e e793 c13e 7ffb e3bc
00000090: f4bb a2bd 0066 f7bd b6be bb3e d3d3 ca3e
000000a0: 5775 35be 1acd f33d 045f 2cbe 5c94 f33e
000000b0: 6953 25be 99d4 d93d 2fe2 1dbd 7b82 85be
000000c0: cbc6 5c3e 47df 8f3e ad19 7a3e aa94 ec3e
000000d0: 5930 723d 7ee2 8cbc 7eb2 d83e 0263 cebd
000000e0: dd5f 0e3f 7e18 62be e3b9 103d 9553 43bf
000000f0: df47 ec3c ea72 08bf 51ec 95be 354f 10bd
00000100: 1558 a5bd e52c 04bf 660f c63e a079 943e
00000110: 38ad b33e 7127 cd3e 1f83 3f3e 53f7 85be
00000120: e4ee 203e 629e 6ebe a4cc 9dbd a8ec d23e
00000130: 731d e2bd 84ef c5be 660a b93e 65da 5abe
00000140: 74a0 e43c f3d6 0f3f d4c1 563e 2b9a 7fbe
00000150: f939 1fbf fedb cdbc c16b 433e 8c08 703c
00000160: d7c2 a03d a63c 70bd 1d3b d9be 6f72 f33e
00000170: 42be 063e 8677 79be 14f9 8c3e 5474 043f
00000180: 7450 e839 83f4 93bf b674 1b3d 661a 7c3e
00000190: a817 ab3e 9cf5 0dbf ec04 ab3e d09c c43e
000001a0: 42e5 433b 68a4 cebe cb8b 1b3f 460c b7be
000001b0: 7d16 0b3f 2dc4 c33a bedc 0e3f 045c 843d
000001c0: 4631 263f a2c5 8cbd 9683 2dbf 196e c1bb
000001d0: 5280 f63d db5d 1f3f 4703 a9bd afe6 3f3e
000001e0: 6d53 103e 73fa 883e 0ddb 1a3e 9356 7dbf
000001f0: d527 1dbe aed4 77be f6dd dd3b a662 f33e
00000200: b810 bc3e 28b4 58be 3841 853e 3a1a 0e3f
00000210: 1048 5f3e f2f4 b23e e8d7 0c3f 7830 8abe
00000220: f9f4 04bf ea7a 1d3e 0d9f d9be f57a 4ebe
00000230: 79fc 8bbe da2a 663e 7924 7dbd f4f2 a83e
00000240: 40f6 25be 0123 3bbe 42e2 49bd be6c c1bd
00000250: 83f9 b83e abe1 2ebf 9c73 f0be 7a80 343e
00000260: 53fe fbbd df18 1ebf 27a7 f33d a902 84bd
00000270: 2724 283d 12f7 37be 7be6 b73e 7ea9 1c3f
00000280: 9bb4 5c3e 32e5 1abe bb54 c53e 3fe8 5e3e
00000290: 4c4b 87be 0cd6 503d 4e07 3d3e 3148 9f3e
000002a0: 10d2 283d 3d2d 10bd fe3a ecbd 928e eb3e
000002b0: 4662 033e f222 23bd 1d6d 173e 72b6 243d
000002c0: 2d5c 3ebd 3f44 7b3e 8403 9b3b 05f9 1e3e
000002d0: 11e3 7e3e b59d c13c 003f 633e 94e1 473d
000002e0: 4617 113f 622f a73d d75f 65be 011c fabd
000002f0: 061d 6ebe 8c8b 05be 7ae1 fcbe 378e 5abe
00000300: ed88 12be 37e9 56be 316a 083e 973b 333e
00000310: 65c2 de3e 979a 2d3f 557c 6dbe c599 30bf
00000320: 2b73 603e 32ca a93d 0dda 733d cfdd 7abc
00000330: 4d2b 06bc f2ed 703e ac97 a63e b781 97be
00000340: 7188 88be 20b9 1d3f dbc8 333d 467a 933d
00000350: 9754 273d 45c9 b4bd d7e6 9cbd ccd2 2dbf
00000360: 57ee 573e 43a4 0e3e 8d62 eb3c d49d 883b
00000370: 2362 433d 4cb0 6fbe c895 c0bd ed34 c13c
00000380: 27f1 2a3e f7ce 56be 669f d3bc 88f4 543d
00000390: de75 9ebe 36fe 183e 37f1 ebbe fd11 b53e
000003a0: afa1 e33d de40 a0be ffa0 323e a285 ddbd
000003b0: d9a8 143e 0586 063e f822 7c3e fb74 c73e
000003c0: 7659 e43e adbe b7be bfb1 e0be 2be0 02be
000003d0: e734 88bc aa76 7f3e de1f 99bd 3e1a 383e
000003e0: 3372 38bc 5b17 ddbc 8111 463e b3fe adbe
000003f0: 7129 d23d 1c06 b7bd fe43 88be ae5d 96be

a2c_network.actor_mlp.4.bias f4 [64]
-0.6334427 -0.22477204 -0.2801203 -0.27441943 -0.6044019 -0.23877741 -0.23951969 -0.2727925
-0.4667226 -0.1982589 -0.27548847 -0.5902852 -0.3753402 -0.3820337 -0.6303498 -0.22779553
-0.25760013 -0.28481737 -0.18782999 -0.26836872 -0.612346 -0.23801854 -0.47175753 -0.7914925
-0.41079026 -0.24678122 -0.21354541 -0.23662728 0.18549982 -0.14636837 -0.11736144 -0.38295326
-0.49022803 -0.5567467 -0.25493458 -0.23488152 -0.6662711 -0.26095736 -0.22190748 -0.44967288
-0.23650022 -0.30507708 -0.28594154 -0.26391596 -0.1815333 -0.17684779 -0.3093053 -0.3175702
-0.31772685 -0.2142907 -0.3888052 -0.5888558 -0.519377 -0.20855701 -0.13742073 -0.42165753
-0.21890141 -0.17182195 -0.2988431 -0.387189 -0.1835222 0.4104751 -0.42276257 -0.42193484
00000000: 4d29 22bf a42a 66be ee6b 8fbe b480 8cbe
00000010: 15ba 1abf 1182 74be a644 75be 75ab 8bbe
00000020: 44f6 eebe 6204 4bbe d30c 8dbe ee1c 17bf
00000030: 972c c0be ec99 c3be 9b5e 21bf 3b43 69be
00000040: 2ae4 83be 95d3 91be 8156 40be a067 89be
00000050: b5c2 1cbf 22bb 73be 348a f1be 419f 4abf
00000060: 1a53 d2be 37b4 7cbe a6ab 5abe 6c4e 72be
00000070: aaf3 3d3e 97e1 15be 325b f0bd 7312 c4be
00000080: 2bff fabe f486 0ebf c986 82be c884 70be
00000090: be90 2abf 349c 85be b73b 63be 863b e6be
000000a0: 1d2d 72be 1033 9cbe ee66 92be fe1f 87be
000000b0: dee3 39be 9617 35be 445d 9ebe 9098 a2be
000000c0: 18ad a2be 056f 5bbe 7a11 c7be 41bf 16bf
000000d0: e4f5 04bf f88f 55be 05b8 0cbe 7fe3 d7be
000000e0: b127 60be 18f2 2fbe f601 99be a33d c6be
000000f0: 3eed 3bbe cb29 d23e 5674 d8be d807 d8be

a2c_network.value.weight f4 [1, 64]
0.0007878788 0.0031218568 0.015212815 -4.414346e-05 0.037237667 0.027925005 0.017708346 -0.043335397
0.020987181 0.03456753 0.00040525338 0.015807716 0.039730344 -0.09095605 -0.16526373 -0.00032331343
0.00029843173 -0.0018508228 0.00022232372 0.2715829 0.014195107 -0.16153237 0.0063734083 0.0023709154
-0.00011020065 0.033000812 0.07511678 -0.0028840378 -0.06549572 0.00074397225 -0.15808767 -0.07473053
0.0019484059 0.0003051285 0.11185956 0.03478908 -0.0006037429 0.008961834 0.041834522 0.0056569423
-3.8328373e-05 0.075822204 0.034421913 1.2672549e-05 0.0014666726 0.015279086 0.0029863627 0.020090405
0.011641116 0.032834552 -0.14732714 0.033667717 -0.1819331 0.009116067 0.017685682 0.0015733829
0.025920564 0.054997668 -0.000726218 0.03628974 1.158119e-05 -0.19687644 -0.18536144 0.0009396716
00000000: a789 4e3a 1198 4c3b 2c3f 793c ae26 39b8
00000010: 8686 183d fbc2 e43c 1811 913c 7580 31bd
00000020: 4fed ab3c af96 0d3d 3078 d439 2f7f 813c
00000030: 49bc 223d 2a47 babd e53a 29be 6582 a9b9
00000040: d476 9c39 4f97 f2ba 921f 6939 ea0c 8b3e
00000050: 9892 683c be68 25be 06d8 d03b 5c61 1b3b
00000060: 861b e7b8 dc2b 073d d4d6 993d 2002 3dbb
00000070: 9f22 86bd 2207 433a bce1 21be 520c 99bd
00000080: a761 ff3a a7f9 9f39 a016 e53d ff7e 0e3d
00000090: 8044 1eba a8d4 123c ad5a 2b3d df5d b93b
000000a0: c7c2 20b8 ac48 9b3d fefd 0c3d 2f9c 5437
000000b0: 5e3d c03a 2255 7a3c dab6 433b a294 a43c
000000c0: 61ba 3e3c 867d 063d eddc 16be 29e7 093d
000000d0: ac4c 3abe 8e5b 153c 90e1 903c f839 ce3a
000000e0: 5d57 d43c 3c45 613d aa5f 3eba 8da4 143d
000000f0: d54c 4237 fa99 49be 64cf 3dbe 4b54 763a

a2c_network.mu.weight f4 [12, 64]
0.16453466 -0.36110264 -0.0061784373 0.049084608 -0.048913237 -0.121711895 0.050726946 0.010687015
-0.0021297403 -0.40063986 0.0010701895 0.16311713 -0.13954566 0.047797713 -0.18354467 -0.08283067
0.12437754 0.37148938 0.026639486 0.21065655 -0.21886013 -0.12589213 -0.12956132 0.23750512
-0.0597147 -0.03142318 -0.07987576 -0.17680632 -0.073247336 0.10010163 0.089423634 0.1146885
0.033647057 -0.15025228 0.09351206 -0.044349708 0.49800363 0.15161107 0.31365743 0.047031093
0.28793594 -0.32788217 0.18983537 0.016637232 0.11523184 0.14209427 0.22242758 -0.114051044
0.100231014 0.0073337327 0.039003976 0.06098592 -0.093909174 -0.036197215 0.28920352 0.17153445
0.11659349 -0.39602238 -0.04506091 0.11389213 -0.057125606 -0.03559404 0.008233987 0.14875203
0.020005375 0.14976168 -0.049501963 -0.1513023 0.07627748 0.101438746 -0.19631496 -0.03623298
-0.19406788 -0.0062113237 0.00082195445 0.038429208 0.02557504 0.11262644 0.24805485 0.031289842
0.06870153 -0.11934415 0.29480344 -0.19112565 -0.16469462 0.10125146 0.09397607 -0.23713064
0.044929 0.10039945 -0.15178223 -0.37080154 -0.011115455 0.5048064 -0.07252691 0.34644282
-0.37723318 0.21882962 -0.0046378924 0.03495105 0.23885268 0.05987871 0.14401008 -0.21939981
-0.06553934 0.08127668 -0.104637116 0.0070189754 -0.025489343 0.1529966 0.53108937 -0.20320094
-0.02604191 0.25885537 -0.052005503 -0.10113271 0.06859452 0.017973764 0.08019864 -0.012972954
-0.009722502 0.19846259 0.04951088 -0.019482486 0.10025275 0.08058025 0.03715934 -0.063471176
0.13522081 -0.1124107 0.1698934 -0.29165673 0.32383996 -0.09415355 0.092276976 0.0018982207
0.102528095 -0.056114748 -0.26803467 -0.10113457 0.0071573206 -0.00025088742 -0.058571186 0.046181936
-0.072394654 -0.25979388 0.42805257 0.00060673256 -0.1437603 -0.09673697 -0.33374205 -0.08640251
0.16390692 -0.24002136 0.1905985 -0.35253066 -0.032690257 -0.108667836 0.08270833 -0.11150861
-0.33344716 0.26053134 0.053857658 -0.2075293 -0.403515 -0.19869152 0.12467964 0.0987574
0.009184164 -0.048570808 0.2122058 0.053164043 0.06474099 0.025202483 0.17647642 -0.0008744573
-0.119812526 0.12884024 -0.1337088 0.06576092 0.120048255 0.083645664 0.044943776 -0.16151492
0.15986979 0.02811892 -0.18594123 0.15501805 0.008607359 0.0751389 -0.14427464 -0.3815156
-0.3570352 0.05877413 -0.066246405 0.090753466 -0.00014315412 -0.26670113 -0.0094684465 -0.0011893056
-0.43300894 0.11997333 0.083080724 0.20233844 -0.32146102 0.17742594 -0.043141287 -0.11612551
-0.3408807 -0.10726369 -0.33697757 0.057605598 0.23472343 0.07071353 0.19853555 0.06534729
-0.06953276 0.37465045 0.10450522 -0.20373838 -0.1120633 -0.09425884 -0.022946954 -0.2909724
-0.07933094 -0.20742135 0.12302234 -0.1952507 -0.75947 -0.20956238 -0.057611857 0.41475508
0.08975635 0.08778555 0.04476737 0.020474985 -0.104405016 -0.1232525 -0.11368129 0.18746015
0.40942243 -0.162841 -0.08041832 0.0966749 -0.031344842 0.13256659 0.09852525 0.09375642
0.1388902 0.1234304 0.042181402 0.031605527 0.0371646 -0.040026233 -0.14383745 0.060379833
00000000: c67b 283e 72e2 b8be 7d74 cabb f10c 493d
00000010: 3f59 48bd 1644 f9bd 0fc7 4f3d 9718 2f3c
00000020: 1d93 0bbb ab20 cdbe 9a45 8c3a 2d08 273e
00000030: 0fe5 0ebe 89c7 433d 22f3 3bbe 20a3 a9bd
00000040: a7b9 fe3d db33 be3e 0d3b da3c 5ab6 573e
00000050: df1c 60be dee9 00be b9ab 04be 8b34 733e
00000060: 6797 74bd 98b5 00bd e795 a3bd b70c 35be
00000070: b302 96bd 1502 cd3d bd23 b73d cee1 ea3d
00000080: 7fd1 093d bcdb 19be 4083 bf3d 0aa8 35bd
00000090: 55fa fe3e ef3f 1b3e b597 a03e ada3 403d
000000a0: 576c 933e 2ce0 a7be 3464 423e ce4a 883c
000000b0: acfe eb3d 2981 113e 0ec4 633e 9893 e9bd
000000c0: eb45 cd3d cf4f f03b a2c2 1f3d 5fcc 793d
000000d0: 7453 c0bd 8843 14bd 7c12 943e baa6 2f3e
000000e0: 91c8 ee3d 72c3 cabe ca91 38bd 4740 e93d
000000f0: 8afc 69bd 0ecb 11bd d8e7 063c 7452 183e
00000100: 50e2 a33c 205b 193e 92c2 4abd fdee 1abe
00000110: 5e37 9c3d 1ebf cf3d ca06 49be 0969 14bd
00000120: bbb9 46be 5c88 cbbb 6e78 573a f267 1d3d
00000130: bf82 d13c b1a8 e63d 1702 7e3e c729 003d
00000140: 63b3 8c3d b56a f4bd 7af0 963e 71b6 43be
00000150: b5a5 28be ed5c cf3d 8776 c03d 60d2 72be
00000160: 7907 383d 3a9e cd3d cd6c 1bbe b3d9 bdbe
00000170: 991d 36bc fe3a 013f fd88 94bd f460 b13e
00000180: b524 c1be df14 603e 76f9 97bb d528 0f3d
00000190: cc95 743e 6143 753d 6177 133e 58aa 60be
000001a0: 7d39 86bd 6374 a63d fc4b d6bd 6fff e53b
000001b0: 07cf d0bc 24ab 1c3e 79f5 073f e813 50be
000001c0: d855 d5bc b188 843e b903 55bd ab1e cfbd
000001d0: 497b 8c3d b73d 933c 2f3f a43d 838c 54bc
000001e0: 214b 1fbc c739 4b3e eccb 4a3d bc99 9fbc
000001f0: 5051 cd3d 4207 a53d 6434 183d 2dfd 81bd
00000200: 5377 0a3e 9537 e6bd 89f8 2d3e 0854 95be
00000210: 5ace a53e 94d3 c0bd b6fb bc3d b8cd f83a
00000220: 40fa d13d 94d8 65bd d73b 89be a41f cfbd
00000230: f587 ea3b 8a89 83b9 57e8 6fbd 4529 3d3d
00000240: a643 94bd b403 85be b529 db3e 220d 1f3a
00000250: e635 13be 081e c6bd 3de0 aabe cdf3 b0bd
00000260: 37d7 273e 29c8 75be 412c 433e e67e b4be
00000270: 38e6 05bd 3e8d debd fc62 a93d a05e e4bd
00000280: 96b9 aabe 5d64 853e d999 5c3d 9082 54be
00000290: 8599 cebe ca75 4bbe 0a58 ff3d 5241 ca3d
000002a0: 2d79 163c 2ff2 46bd 7a4c 593e 8ac2 593d
000002b0: ed96 843d 7075 ce3c 3cb6 343e d63b 65ba
000002c0: 4560 f5bd b2ee 033e f6ea 08be a9ad 863d
000002d0: dcdb f53d 6b4e ab3d f716 383d 2b64 25be
000002e0: e8b4 233e a659 e63c 6167 3ebe 0dbd 1e3e
000002f0: e105 0d3c 6ce2 993d bbbc 13be 0356 c3be
00000300: 51cd b6be 24bd 703d 32ac 87bd f4dc b93d
00000310: a41b 16b9 0d8d 88be 8b21 1bbc 79e2 9bba
00000320: 59b3 ddbe 94b4 f53d 3a26 aa3d cf31 4f3e
00000330: 8a96 a4be 25af 353e ebb4 30bd 36d3 edbd
00000340: ea87 aebe 11ad dbbd 5388 acbe d9f3 6b3d
00000350: 575b 703e 41d2 903d e74c 4b3e cdd4 853d
00000360: 3167 8ebd 2fd2 bf3e d506 d63d cba0 50be
00000370: 7281 e5bd c70a c1bd 40fb bbbc 56fa 94be
00000380: 4378 a2bd 4366 54be 23f3 fb3d cdef 47be
00000390: a06c 42bf 8597 56be 69fa 6bbd c75a d43e
000003a0: 2dd2 b73d e9c8 b33d fd5d 373d 28bb a73c
000003b0: 4cd2 d5bd cf6b fcbd bcd1 e8bd 8ef5 3f3e
000003c0: d19f d13e cbbf 26be 5cb2 a4bd 7dfd c53d
000003d0: 7363 00bd 89bf 073e 9bc7 c93d 5e03 c03d
000003e0: 3c39 0e3e 14c9 fc3d 68c6 2c3d cc74 013d
000003f0: e839 183d 8cf2 23bd 204a 13be d850 773d

a2c_network.mu.bias f4 [12]
-0.12136686 -0.029226469 -0.029086765 -0.028927851 -0.26251784 0.04872298 -0.030973505 0.075491145
-0.004738179 -0.14964437 0.13202937 0.11323136
00000000: 308f f8bd 596c efbc 5e47 eebc 1afa ecbc
00000010: bd68 86be bf91 473d 26bc fdbc 1a9b 9a3d
00000020: ba42 9bbb 603c 19be b532 073e d8e5 e73d

exp_avg f4 [12]
-0.002679749 -0.0005548404 -0.001524376 -0.00095145404 0.0006352672 0.0004880146 0.000371557 0.00033984677
0.0012191089 0.0019049238 -0.0026539166 -0.00038387591
00000000: ba9e 2fbb b572 11ba 92cd c7ba 006b 79ba
00000010: 0f88 263a 36dc ff39 89cd c239 762d b239
00000020: 82ca 9f3a a3ae f93a 55ed 2dbb f442 c9b9

exp_avg_sq f4 [12]
5.800095e-05 5.6008925e-05 5.372131e-05 5.532296e-05 5.945495e-05 6.187078e-05 5.9757407e-05 5.224824e-05
5.960369e-05 6.470351e-05 5.5661403e-05 5.3407795e-05
00000000: 0c46 7338 20eb 6a38 d152 6138 930a 6838
00000010: 445f 7938 9fc0 8138 07a4 7a38 1f25 5b38
00000020: fafe 7938 6fb1 8738 fa75 6938 2f02 6038

exp_avg f4 [256, 48]
1.058181e-06 -5.007322e-07 1.1370454e-06 7.782222e-07 -5.4199916e-07 1.4794241e-06 -8.2929245e-07 8.771089e-07
-1.0142901e-06 -1.3488334e-07 4.0923487e-07 2.7134112e-08 6.792957e-07 6.284904e-07 -1.1530542e-06 -2.5469214e-07
-5.435662e-07 7.6986595e-07 -4.1904323e-07 5.2941477e-08 -5.678412e-07 1.1826558e-06 4.398612e-08 2.1676355e-07
-7.7624605e-08 1.1386331e-06 -2.1248697e-07 6.6268655e-07 -1.8522791e-06 -8.63424e-07 7.7494667e-07 1.4695757e-06
-4.4891274e-07 1.4240153e-07 5.2681725e-07 -1.1911703e-06 7.07531e-07 -7.216676e-07 3.9948372e-07 1.0103307e-06
-2.7087592e-09 6.5670326e-07 1.1665496e-06 2.0856278e-06 8.4522566e-07 2.0516318e-07 2.0055138e-06 1.4971548e-07
-3.3793603e-07 -1.162325e-06 3.6178596e-07 3.5740175e-07 2.499731e-06 -9.3157104e-07 -2.9915682e-06 2.1884227e-06
-1.478327e-06 -3.289847e-07 -1.1652618e-07 -1.0717249e-06 -6.325871e-08 3.2349544e-06 -1.2742372e-06 -1.905408e-06
8.9276926e-07 5.6957865e-06 1.5957848e-08 -3.5502276e-06 1.6591024e-07 1.7515716e-06 -2.0158418e-06 9.954925e-07
-1.8434158e-06 8.549832e-07 2.785909e-07 5.9384643e-08 1.340115e-07 2.4754816e-06 1.3502953e-06 -3.7206792e-06
1.1752443e-06 7.9982686e-07 -7.9307176e-07 2.0509158e-07 -1.0311886e-06 -1.4513536e-06 -1.9934008e-07 4.2878742e-08
-5.100345e-07 -2.2857462e-08 2.8733757e-07 -2.5522895e-06 2.5681786e-06 7.944769e-07 -4.4372968e-07 -7.5299863e-07
1.0428524e-06 1.03997166e-07 6.9019785e-07 1.2398158e-06 2.6713963e-07 8.988768e-08 6.284084e-08 1.0953478e-06
-5.997568e-09 -7.5427675e-07 1.4036506e-06 6.653229e-07 -4.241367e-07 -9.610319e-07 -5.5913773e-07 -1.457765e-06
-1.9826723e-06 -2.6579048e-06 8.4787496e-07 2.1985245e-06 -2.0191117e-06 -2.1590414e-07 9.586344e-07 7.110478e-09
-1.4855115e-07 -1.7234039e-06 -3.0283704e-07 -1.8009313e-06 -1.2296001e-06 -1.2587749e-06 -3.711972e-07 2.7421165e-06
-6.95853e-07 -1.8220918e-06 1.1279099e-06 -7.087622e-07 -6.667393e-07 -2.7937872e-07 -1.165492e-06 -1.3127735e-07
2.7158976e-07 -6.9496224e-07 -1.030647e-06 3.8345286e-07 -2.1867122e-07 -1.3245632e-06 6.0156657e-07 5.4906457e-07
2.971412e-07 1.1327515e-06 9.533175e-08 -2.1876397e-06 1.8482855e-07 2.3697312e-07 -1.2299384e-06 -4.620534e-07
2.8946693e-07 5.961282e-07 -1.0230729e-06 3.6023707e-07 -2.7147567e-07 -2.1119333e-06 -2.0169682e-07 6.99839e-07
-4.2139214e-07 -1.0730391e-06 2.5873933e-07 9.743587e-07 1.4124901e-06 -1.0608898e-06 -8.917677e-08 -1.999154e-06
6.6356426e-07 -3.8157657e-07 2.3528621e-07 8.376562e-07 -1.9112241e-07 -9.414958e-07 -6.8775444e-07 1.0182035e-06
8.6152454e-07 -9.844717e-07 -4.5950056e-08 1.7531673e-07 7.03868e-07 -2.9561622e-07 -2.4749514e-07 -1.5538296e-06
-1.8520429e-07 -2.8184274e-07 -6.718789e-07 1.125563e-06 -2.4360585e-07 1.1708789e-06 1.0775246e-07 7.0521867e-07
-2.3571283e-07 4.6397145e-07 -2.3154588e-07 -9.783491e-07 -1.0796289e-07 1.6220959e-07 -6.144335e-07 -4.985834e-07
-1.2560587e-06 -7.734802e-07 9.075439e-08 1.8805194e-06 2.26667e-06 3.9742216e-07 -8.5589045e-07 9.543606e-07
6.700382e-07 3.3104095e-06 5.4929507e-07 -1.2323909e-06 1.6570863e-06 4.3061962e-07 -2.310439e-06 7.473424e-08
1.0653226e-06 1.9267845e-06 1.2720697e-06 -1.5199917e-07 -1.3945566e-06 3.6480216e-07 2.0650289e-06 1.2474454e-06
1.1637079e-06 6.5923814e-07 -6.853762e-07 -2.1459118e-06 -2.4223768e-08 2.891606e-06 1.7733494e-06 1.6081268e-07
-9.118089e-07 4.3788572e-07 -9.434141e-07 -6.914555e-08 7.600558e-07 1.947278e-07 1.4413175e-06 -5.180177e-07
-8.694266e-07 1.2058096e-06 -9.453434e-07 -9.698429e-07 4.5145003e-07 -5.670843e-07 3.039698e-07 -1.2170152e-06
-1.23953905e-08 -4.372566e-08 1.6149113e-07 1.6473741e-07 1.26773e-06 -1.7471212e-06 8.274905e-07 2.6155809e-07
00000000: d306 8e35 0e6a 06b5 959c 9835 06e7 5035
00000010: e67d 11b5 a090 c635 8b9c 5eb5 7772 6b35
00000020: be22 88b5 73d4 10b4 d0b4 db34 8b14 e932
00000030: d858 3635 88b5 2835 a4c2 9ab5 9fbc 88b4
00000040: 96e9 11b5 c9a8 4e35 ddf8 e0b4 c561 6333
00000050: c06d 18b5 bebb 9e35 40eb 3c33 83bf 6834
00000060: 94b2 a6b3 23d3 9835 f927 64b4 79e3 3135
00000070: d39b f8b5 0cc6 67b5 ee05 5035 3d3e c535
00000080: 1902 f1b4 09e7 1834 9b6a 0d35 4de0 9fb5
00000090: 29ed 3d35 9fb8 41b5 a078 d634 b39a 8735
000000a0: ff24 3ab1 4e48 3035 5792 9c35 d0f6 0b36
000000b0: 77e3 6235 d34a 5c34 7796 0636 7ac1 2034
000000c0: 936d b5b4 2f01 9cb5 7c3b c234 ece0 bf34
000000d0: 0dc1 2736 1311 7ab5 c0c2 48b6 d1dc 1236
000000e0: ee6a c6b5 509f b0b4 f23c fab3 30d8 8fb5
000000f0: d8d8 87b3 1818 5936 7506 abb5 52bd ffb5
00000100: a3a6 6f35 6f1e bf36 ae13 8932 7240 6eb6
00000110: 0f25 3234 8b17 eb35 e647 07b6 dd9c 8535
00000120: 496b f7b5 0082 6535 3e91 9534 1b0e 7f33
00000130: cde4 0f34 7320 2636 cb3b b535 c8b0 79b6
00000140: 16bd 9d35 afb3 5635 7ae3 54b5 2537 5c34
00000150: 5f67 8ab5 21cc c2b5 2f0a 56b4 ad29 3833
00000160: 4ee9 08b5 1758 c4b2 6043 9a34 0048 2bb6
00000170: f958 2c36 0944 5535 be39 eeb4 ac21 4ab5
00000180: 23f8 8b35 0c55 df33 0946 3935 bf67 a635
00000190: 646b 8f34 4608 c133 1ef3 8633 dd03 9335
000001a0: 2b13 ceb1 8179 4ab5 1165 bc35 a498 3235
000001b0: e7b4 e3b4 cefc 80b5 a717 16b5 6da8 c3b5
000001c0: 0d0e 05b6 755e 32b6 8699 6335 5d8a 1336
000001d0: 1380 07b6 47d3 67b4 6daa 8035 6d50 f431
000001e0: 6e81 1fb4 b54f e7b5 9b95 a2b4 87b7 f1b5
000001f0: bd08 a5b5 2df3 a8b5 f448 c7b4 3405 3836
00000200: a7ca 3ab5 998e f4b5 b062 9735 c441 3eb5
00000210: faf9 32b5 85fd 95b4 006e 9cb5 3ef5 0cb4
00000220: 03cf 9134 718d 3ab5 c354 8ab5 5cdd cd34
00000230: e3cb 6ab4 a5c7 b1b5 577b 2135 6e63 1335
00000240: c786 9f34 0c09 9835 2fb9 cc33 5dcf 12b6
00000250: 4975 4634 ad72 7e34 5d14 a5b5 2310 f8b4
00000260: 0868 9b34 9e05 2035 8450 89b5 9b66 c134
00000270: 55bf 91b4 bdba 0db6 0092 58b4 92dc 3b35
00000280: b23b e2b4 5805 90b5 dde8 8a34 b6c6 8235
00000290: ca94 bd35 e563 8eb5 7381 bfb3 3429 06b6
000002a0: ca1f 3235 7cdb ccb4 fba2 7c34 4cdb 6035
000002b0: 5437 4db4 19bb 7cb5 209e 38b5 35a9 8835
000002c0: 8443 6735 3122 84b5 9f5a 45b3 b23e 3c34
000002d0: 71f1 3c35 2fb5 9eb4 79df 84b4 2e8d d0b5
000002e0: 91dc 46b4 2c50 97b4 2b5b 34b5 0d12 9735
000002f0: efc8 82b4 1827 9d35 8b65 e733 424e 3d35
00000300: 4018 7db4 c017 f934 d99e 78b4 d24f 83b5
00000310: 3ad9 e7b3 d52b 2e34 8cef 24b5 64d6 05b5
00000320: d995 a8b5 28a1 4fb5 c1e4 c233 2866 fc35
00000330: 181d 1836 495d d534 58c0 65b5 9517 8035
00000340: addc 3335 6728 5e36 4573 1335 a168 a5b5
00000350: 0d69 de35 e92f e734 0a0d 1bb6 957d a033
00000360: 35fc 8e35 e84d 0136 fbbb aa35 3735 23b4
00000370: 9a2c bbb5 07da c334 ed94 0a36 e66d a735
00000380: b330 9c35 80f6 3035 b2fa 37b5 7c02 10b6
00000390: a114 d0b2 6a0d 4236 d203 ee35 daab 2c34
000003a0: 08c3 74b5 8e16 eb34 ec3e 7db5 2b7d 94b3
000003b0: a306 4c35 5f16 5134 4b73 c135 e80d 0bb5
000003c0: 8a62 69b5 4dd7 a135 81c3 7db5 8c2b 82b5
000003d0: d25e f234 bd39 18b5 4b31 a334 5358 a3b5
000003e0: 81f3 54b2 dfcc 3bb3 5866 2d34 ade2 3034
000003f0: df26 aa35 a17e eab5 b720 5e35 456c 8c34
