omniisaacgymenvs/scripts/runs/Anymal/nn/last_Anymal_ep_600_rew_-0.9583126.pth (torch, 672599 bytes, 36 tensors)

value_mean_std.running_mean f8 [1]
000000 bc 3a 17 02 eb c7 fd bf
       -1.8613081056279688

value_mean_std.running_var f8 [1]
000000 94 28 68 a6 e8 13 54 40
       80.3110748307393

value_mean_std.count f8 []
000000 00 00 00 04 00 20 9c 41
       117964801.0

running_mean_std.running_mean f8 [48]
000000 1c d1 31 c2 dc 5c a6 3f fa d4 69 49 ef 53 91 3f
       0.0436772334150268 0.01692174802379485
000010 c4 b0 ba 6b aa 33 e3 bf 5d 5e 0e 66 7c 41 93 bf
       -0.6000568489157776 -0.018804496506702118
000020 2b ca c4 38 29 04 60 bf 8c 6c 19 5c 9e 26 55 bf
       -0.0019551091301306576 -0.0012909456712779958
000030 03 47 15 54 32 93 6b 3f 81 17 df 7a b1 9f 7d 3f
       0.0033660872437985003 0.007232373505706381
000040 8d 28 d9 73 8d c8 ee bf d0 be 29 3d 3d 95 c6 bf
       -0.9619815123235341 -0.1764294193885605
000050 a4 3d 9e 57 af c5 99 3f 71 4b 12 ec ae 6f 30 bf
       0.025168170664583336 -0.00025079746780780956
000060 ba a0 0c df 9a 03 c5 bf 59 3e 42 c9 1c 41 c2 bf
       -0.1641725148304028 -0.14261207415664748
000070 00 df 42 0e a8 de bf 3f 29 fc 3d af 15 50 c2 3f
       0.12449121807264518 0.1430689912485559
000080 c2 a4 1a d2 54 ba 8d 3f 10 fa 26 00 f9 08 b5 3f
       0.014515555059306687 0.08216816190449827
000090 23 88 4f 8b 65 88 92 bf 51 74 19 1f 83 92 60 bf
       -0.01809843695435388 -0.002022987457890348
0000a0 ba 56 ce 0e 97 7c b6 3f f9 ef 0c 47 84 96 c3 bf
       0.08783859359240412 -0.15303090543045508
0000b0 7f 4d 46 75 d7 24 c1 3f b6 5f 1b 92 c3 e7 b9 bf
       0.13393681742000393 -0.10119268719733907
0000c0 5e f7 84 57 8a f0 9b bf 8e 67 7d f3 1f 8f 93 bf
       -0.027284776298294282 -0.01910066531795667
0000d0 23 d2 a0 54 9d 1a 9e 3f 21 44 93 65 44 5c 9b 3f
       0.029398401537223628 0.026719158839856875
0000e0 ca 56 54 e7 7e f5 70 bf 48 8c 6c ae 62 c2 97 3f
       -0.004140372960383673 0.023202459236142198
0000f0 f9 65 27 66 7d d5 86 bf 48 ae 2a 49 f3 4d 78 3f
       -0.011149387054433456 0.005933714232621741
000100 6c 99 22 72 5c 96 89 3f 99 35 ef a2 07 55 9e bf
       0.01249382232010695 -0.029621238059737463
000110 64 97 d8 b0 8b 12 a1 3f d4 54 c5 dd 41 ee 96 bf
       0.03334461721196538 -0.02239325443345737
000120 71 ed dd 5b c9 2b b5 bf 67 4b 3c 19 07 ec ab bf
       -0.08269937985271782 -0.05453512366343354
000130 9b 3f 78 50 40 fb b4 3f 82 d3 a2 a5 90 06 b1 3f
       0.08195878948776995 0.06650642436836843
000140 6d 48 73 60 b5 e6 90 3f f7 37 f4 3d 6b 51 ad 3f
       0.016505083095417584 0.05726180201791913
000150 46 a9 12 14 65 84 95 bf 03 34 3f 01 cd 85 6f 3f
       -0.021012858724739368 0.0038479808808689077
000160 f2 f9 70 36 d1 8d a0 3f 70 69 6a 60 25 aa b1 bf
       0.03233197965208835 -0.06900247196100451
000170 90 40 9e f6 a4 45 b9 3f 8a 63 60 fe 21 21 a7 bf
       0.09871893902732354 -0.04517465810949435

running_mean_std.running_var f8 [48]
000000 86 b8 36 cb 4f d7 e2 3f e2 28 a0 c4 3c f6 df 3f
       0.5887831658381095 0.4994041366741283
000010 6d 3f 31 92 98 25 e8 3f d7 ba e6 a3 67 f1 c5 3f
       0.7545893531150633 0.1714295912074337
000020 29 70 b7 28 d6 0b aa 3f b3 da 39 8e cf 12 b7 3f
       0.05087155577686559 0.09013077947916308
000030 f6 30 fe 3b b0 fb 94 3f 4f 78 04 38 54 54 a7 3f
       0.020491365110090386 0.04556525405699629
000040 b0 fb cc e5 79 5a 81 3f ab f4 81 5b f7 54 15 40
       0.008473350835286414 5.332974843794697
000050 f3 84 b9 39 d5 d7 f4 3f 88 15 01 5a 3b 05 95 3f
       1.3026935820456031 0.02052777039377454
000060 19 e6 5c 10 60 0b c0 3f 97 83 e5 01 2c b3 c1 3f
       0.12534714507073444 0.1382803925762601
000070 b3 6a c5 db ff 13 c2 3f f2 5e a4 a5 b5 37 c2 3f
       0.14123533469213143 0.142325120811385
000080 7f 78 17 92 12 a3 bb 3f a6 be da 36 34 87 c0 3f
       0.1079570395154139 0.12912609747353548
000090 a9 35 58 99 6b 96 be 3f e2 74 a8 0a 32 bb be 3f
       0.11948273175968062 0.12004387626844307
0000a0 25 00 c2 9d ff 47 c7 3f e1 47 bb 48 7b 10 cc 3f
       0.18188471987741753 0.21925297786088918
0000b0 f8 63 dd 0e 31 16 c8 3f 94 92 df 72 b3 95 cb 3f
       0.188177234895903 0.21550601109551748
0000c0 f9 d7 03 35 cd aa 7e 3f 46 8d 50 9b f4 6a 81 3f
       0.00748710783977024 0.00850478266699518
0000d0 42 0a a8 68 a2 44 83 3f ae f1 58 9b 7e 89 82 3f
       0.009408253496990263 0.009051312557056015
0000e0 4e 91 0c e0 c0 6f 81 3f d0 c5 e1 4d a8 f6 81 3f
       0.00851393398040359 0.008771242977874488
0000f0 ae 1e aa 7f ae ec 80 3f 34 f9 08 59 9e b5 81 3f
       0.00826393439389447 0.00864719113553445
000100 e0 7e ac e1 1d 52 9b 3f 78 19 d1 ee c1 29 9d 3f
       0.026680437945400537 0.028479604912968054
000110 d4 0d 96 0a bd c1 9e 3f 3f e7 6e 6a a6 62 a0 3f
       0.030035928507926205 0.032002640240035955
000120 5c b9 e9 ba 84 77 e0 3f d0 b4 a2 6a 83 6b e0 3f
       0.5145896578449469 0.5131241877294546
000130 3c 5f 55 a1 fa 9b e0 3f 19 3f 77 e8 5f 13 e0 3f
       0.5190404082340829 0.5023650684688362
000140 00 ab 8c b8 57 7c e0 3f b6 4d d6 89 dd 9a e0 3f
       0.5151785473329653 0.5189044658786119
000150 97 04 10 fe d2 4f e0 3f 8e bd cd 5f 57 a4 e0 3f
       0.5097441637191363 0.5200611945310116
000160 b4 c8 58 27 b5 53 e0 3f 64 8f 31 45 c8 0c e0 3f
       0.5102182167522842 0.5015603400647533
000170 c3 f7 7f 1f bf 72 e0 3f a4 7d 98 db 9a c0 e0 3f
       0.5140071501953049 0.5235113419511674

running_mean_std.count f8 []
000000 00 00 00 08 00 20 8c 41
       58982401.0

a2c_network.sigma f4 [12]
000000 1c 2e 54 40 a8 bb 4f 40 d9 f9 5c 40 f1 ee 59 40
       3.3153143 3.2458286 3.4527495 3.4052088
000010 86 37 4b 40 71 62 52 40 03 63 58 40 2c 38 52 40
       3.175264 3.2872584 3.3810432 3.2846785
000020 30 d4 50 40 b7 21 57 40 5e f4 58 40 a8 01 56 40
       3.262951 3.3614328 3.389915 3.343851

a2c_network.actor_mlp.0.weight f4 [256, 48]
000000 d3 06 ef 3e fd 20 d4 be f6 2e a0 3d 79 22 b7 3d
       0.46684894 -0.41431418 0.07821457 0.08942122
000010 fb 97 02 bf a6 81 31 3e da 1a b2 3e d2 77 8f bd
       -0.51013154 0.17334613 0.3478611 -0.07005276
000020 da c0 dc 3e 46 aa 34 3e a2 29 b9 3e 8e d9 e4 be
       0.43115884 0.17643079 0.36164576 -0.4469723
000030 0f 69 ae be 07 a8 39 3d ee c6 2b be b0 85 b1 3e
       -0.34064528 0.04532626 -0.16775104 0.34672308
000040 bd 48 14 3e fb 36 fa be 49 26 85 bb 5e 56 07 be
       0.14480872 -0.48870072 -0.004063402 -0.1321654
000050 3d 23 99 be da d0 46 3e 65 43 a0 3e fc 16 db 3d
       -0.29909697 0.19415608 0.31301418 0.10697743
000060 e6 fc 53 3c b9 c6 ba 3c a8 e7 14 be 93 b8 71 3d
       0.012938714 0.022799836 -0.14541495 0.059013914
000070 e6 40 21 be 9c e5 1e 3d 8f ba 2a be 45 24 7a 3e
       -0.15747413 0.03879319 -0.16672729 0.24427898
000080 b1 24 b5 be ad b4 ca bd 63 17 64 3f 4b 1b 81 bd
       -0.35379556 -0.098977424 0.89098185 -0.06304034
000090 90 5d 03 3e d5 7f 20 3e be 88 dd 3d 43 5e ae be
       0.1282866 0.15673764 0.10817097 -0.3405629
0000a0 1e 23 01 3e 23 a0 5d 3e 69 0b a3 3e c7 c7 10 bf
       0.12611052 0.21643119 0.31844643 -0.56554836
0000b0 d5 b7 a2 3e d4 52 21 3f 24 21 c0 be cc 27 ed be
       0.31780878 0.6301701 -0.37525284 -0.46319425
0000c0 d8 c2 2a 3e d9 41 72 bd 7a 53 85 3e 23 e5 fb bc
       0.1667589 -0.05914483 0.2604025 -0.03074891
0000d0 69 74 25 be dd 8d 33 3d 29 7d 34 be 8a 86 4b bf
       -0.16157688 0.043836463 -0.1762587 -0.79502165
0000e0 e0 ce 99 bd 08 20 14 be df 09 b7 3d f6 20 91 bc
       -0.075101614 -0.14465344 0.0893743 -0.017715912
0000f0 30 8f 84 3e fd 27 c0 bd 8a a5 ce 3e cf 78 4d 3e
       0.25890493 -0.09382627 0.4036067 0.20065616
000100 7b b3 1e 3f 49 8f 21 be c9 ee 5b be c4 e7 76 be
       0.61992615 -0.15777315 -0.21477808 -0.24111849
000110 23 97 38 3e c5 98 b4 be 4f a5 da 3e 70 30 9e be
       0.18026404 -0.35272804 0.42704245 -0.3089633
000120 55 cb 13 3f 1f 85 26 be ea 8a 30 be e1 ce 27 bf
       0.57732135 -0.16261719 -0.17240492 -0.6555005
000130 4b 1a ad be e9 31 b8 be e4 8a dd bd 67 a0 bd be
       -0.33809122 -0.35975578 -0.10817507 -0.3703644
000140 dd 6f 21 3f b6 33 82 3e e9 e9 4d 3e d9 f0 4d 3d
       0.63061315 0.25430077 0.20108761 0.05027852
000150 5a a1 2e bf f2 a1 98 3e 10 1e 9b 3e 68 1e 8b 3e
       -0.6821495 0.29811054 0.30296373 0.27171636
000160 d3 fa 25 bf 07 cd a8 bd 21 fe 2d be cb 41 8f bd
       -0.6483585 -0.08242231 -0.16991474 -0.06994971
000170 db 72 8e 3e 00 df 68 be 82 e8 18 3e d7 67 ea be
       0.27822003 -0.22741318 0.14932445 -0.4578235
000180 38 4d cb be 12 3a 04 be 6b fd 7c 3f 9f a9 1d 3f
       -0.3970735 -0.12912777 0.98824185 0.61586946
000190 5f a7 f1 3e 44 de a0 bd be 05 8e 3e 96 c5 6e 3e
       0.47198007 -0.07854894 0.27738756 0.2331756
0001a0 cc b1 26 3d 1b 62 8e 3d 75 12 79 3d 6e 0d b3 be
       0.040696904 0.06952306 0.060808618 -0.34971184
0001b0 44 ab cc 3e 8b 3d ae 3d 12 e8 00 3e 47 c0 59 be
       0.39974415 0.08507832 0.12588528 -0.21264754
0001c0 30 c8 b6 3e ab 09 09 be ac e4 94 be b0 16 ce be
       0.35699606 -0.13382594 -0.29080713 -0.40251684
0001d0 01 9e fc 3e bd 3f 5a 3e bc 03 67 bd 53 21 8b 3e
       0.49339297 0.21313377 -0.056400046 0.27173862
0001e0 45 b0 48 3e c6 bc bb be 62 88 df be b1 09 e2 be
       0.19598491 -0.3666746 -0.4365874 -0.4414802
0001f0 6f fe 59 3f 65 1a d8 be 16 99 9c be 78 e1 ae be
       0.8515386 -0.42207637 -0.30585545 -0.34156394
000200 d3 5f d2 bd 71 65 2a 3f d3 c2 25 3e 77 d2 d6 be
       -0.10272183 0.6656104 0.16187601 -0.41957447
000210 2b 94 7e 3e f3 3d cb 3e 5a 08 56 bf 6b 10 b9 be
       0.24861209 0.396957 -0.83606493 -0.36145338
000220 d8 28 63 3f db 1f b6 bd 10 0d c6 3e ce 7e 42 bf
       0.887342 -0.08892795 0.3868184 -0.7597474
000230 09 38 2d 3e bd 23 02 3e 38 30 07 bd 2b 14 84 3d
       0.16915907 0.12708946 -0.03300497 0.06449159
000240 24 21 ef bd bb 63 14 3f a9 ab b5 3b 8c d7 00 be
       -0.11676243 0.57964677 0.005544145 -0.12582225
000250 12 26 c0 be be 1e d8 3e 48 72 13 bd 92 e6 2b bd
       -0.37529045 0.42210954 -0.03599766 -0.041967936
000260 14 94 21 3d 3e 58 a3 3d 0d 2a 13 3e 78 79 99 3d
       0.03944786 0.07975815 0.1437151 0.074938715
000270 03 17 a2 3c 20 60 be be af 56 1a bf 4e 8f 3b bd
       0.019786363 -0.37182713 -0.6028852 -0.045790963
000280 ec 0f f9 be 28 7b 87 bd 2f 12 b6 3c 27 2b 7c 3d
       -0.4864496 -0.06615287 0.022225467 0.06156459
000290 ab ea 7c be 9e d6 d5 be 8e 0f 60 3d a4 f1 01 3f
       -0.24698894 -0.41765302 0.054702334 0.5075934
0002a0 75 fc 37 3d 37 f9 cc 3e bd 2e db 3e cf 22 28 3e
       0.044918496 0.40033886 0.42809096 0.16419528
0002b0 93 b3 78 bd 32 95 46 be cc a0 6e be 63 0a a3 bc
       -0.06071813 -0.19392851 -0.23303527 -0.019902414
0002c0 90 69 81 bb 8d 00 0f 3e 6e 8c 09 3e 5d 11 03 be
       -0.0039493516 0.13965054 0.13432476 -0.12799592
0002d0 c4 04 37 be f9 a7 35 be ed 85 2c bc e5 00 b8 3d
       -0.17872912 -0.17739858 -0.010529977 0.089845456
0002e0 cd f8 12 3d fd 1a b1 3b 9f 61 36 bb b1 db 51 3c
       0.035881806 0.0054048286 -0.0027829183 0.012808726
0002f0 53 bf 58 3c 42 2b 81 be f8 16 eb bd 3b a7 ad be
       0.013229209 -0.25228316 -0.1147899 -0.3391665
000300 64 31 1d 3f 37 fc c8 bc c1 0f be be 37 e1 a9 3e
       0.6140349 -0.024534328 -0.37121394 0.33179638
000310 18 95 55 be 1e d5 43 3f b4 c7 ac be e0 25 87 3c
       -0.20857656 0.76497066 -0.3374611 0.016497552
000320 27 ed 73 3e b2 ae 47 be f1 33 c9 be a8 33 e9 bd
       0.23820935 -0.19500235 -0.3929744 -0.11386806
000330 bf 67 7e be 1c 1a c6 3d f7 81 8d be fa c3 56 bf
       -0.24844263 0.09672949 -0.27638218 -0.83892787
000340 a4 1f 5a 3e eb 5c 01 be 89 b8 20 3d f2 db 18 be
       0.21301132 -0.12633102 0.039238486 -0.14927652
000350 31 13 af 3d e7 cf e4 be 9e d4 5a 3f 95 dd f9 be
       0.08548582 -0.44689867 0.8548068 -0.48801866
000360 f7 2b 15 be 1b fc 0d 3f 77 5e 94 3c 51 9e 73 be
       -0.14567553 0.5546281 0.01811145 -0.23790862
000370 2c b1 b8 be 43 5c 1b bf c9 3d 48 3e d1 2f 2b bf
       -0.3607267 -0.60687655 0.19554819 -0.6686984
000380 c9 0a 1c 3f 4f a9 92 3e df 7b f3 3e b3 83 bc be
       0.60953957 0.28644797 0.47555444 -0.3681923
000390 19 30 97 bf 05 16 02 3f ad 8b 5d 3f 1c af 80 be
       -1.1811553 0.5081485 0.86541253 -0.25133598
0003a0 18 8f 03 3e 7b 20 a0 be 4d 9d 52 be 69 b9 88 be
       0.12847555 -0.3127478 -0.20567818 -0.26703957
0003b0 d5 51 00 bf 68 d7 7d 3e 3d d6 98 be 0a 22 2d be
       -0.50124866 0.24789202 -0.2985095 -0.16907516
0003c0 26 4e 02 3f ff 49 53 3e cd 7b 0c bf 4e e7 da be
       0.50900495 0.20633696 -0.54876405 -0.42754596
0003d0 a3 95 52 3e a3 9f 27 be fc 06 a2 be 3a a5 b0 3d
       0.20564894 -0.1636949 -0.31645954 0.086252645
0003e0 1a fc 83 bf 0b 1d 0c 3f d4 e5 29 3d 60 9c 9e be
       -1.031131 0.54731816 0.041478947 -0.3097868
0003f0 4c 6c 00 3e a7 d5 a2 3e b8 ad 2f bf 61 c0 a2 be
       0.12541312 0.3180363 -0.6862445 -0.31787398

a2c_network.actor_mlp.0.bias f4 [256]
000000 60 db 4d bf 4c fa 20 be 2c 79 15 3f 04 7c 3e bf
       -0.80412865 -0.1572048 0.5838802 -0.7440798
000010 99 7a 2a 3e dc 58 27 bd b7 f2 30 bf f5 3c 1c bf
       0.1664833 -0.040856227 -0.69120353 -0.61030513
000020 dd fb 69 bf 19 78 76 bf 0e e2 c4 be 4a 1e 06 bf
       -0.9139994 -0.96277004 -0.38453716 -0.5238997
000030 80 1f 3d be 32 27 14 bf 62 2b 41 bf 0f 34 53 bf
       -0.18469048 -0.5787231 -0.7545682 -0.8250131
000040 62 5b bf 3e 10 7d 7d 3e a5 ae 85 bf 6d 6f 80 bf
       0.37374407 0.24754739 -1.0443922 -1.0034004
000050 75 e3 75 3e 72 f4 73 be da b4 4d 3e ef 5e 9b be
       0.24012549 -0.23823717 0.2008852 -0.30345866
000060 40 08 c5 3e df 2d 5d bf 12 f8 39 be 00 ca 3e bf
       0.38482857 -0.8639812 -0.18161038 -0.7452698
000070 6d 88 4c bf 92 2f 6c 3f 11 3b 1c bf d0 9d 56 bf
       -0.7989567 0.92260087 -0.6102763 -0.8383455
000080 71 ad 8d be 83 76 0f bf be f5 46 bf 65 78 b5 bf
       -0.27671388 -0.5604021 -0.7771872 -1.4177366
000090 12 b6 97 be 2a 1f d1 be a5 a4 38 bf 85 e3 10 bf
       -0.29631096 -0.4084409 -0.7212623 -0.5659717
0000a0 14 46 4d 3e 1c ad c4 be 43 e5 12 be 01 5f 39 3e
       0.20046264 -0.38413322 -0.14345269 0.18102647
0000b0 ad d4 38 3f 92 5c e7 be 09 93 44 bf 77 a0 e2 be
       0.7219952 -0.45187813 -0.7678686 -0.4426305
0000c0 72 29 44 bf 45 e2 57 bf 5c 55 61 3e ac 82 08 bf
       -0.7662574 -0.84329635 0.22005218 -0.5332439
0000d0 5e 3c a1 bf 88 f5 6e bf 5b f1 f5 be cd ab 9b 3e
       -1.2596548 -0.933434 -0.48035702 0.3040451
0000e0 3c be 13 3f de e4 11 bf 30 76 26 bf 91 ce 34 bf
       0.5771215 -0.5698985 -0.6502409 -0.70627695
0000f0 2c cd 15 bf 4a 06 6e bf 84 af 34 bf 8a e1 16 bf
       -0.5851619 -0.92978346 -0.70580316 -0.58937895
000100 1a f0 51 bf 21 b6 84 bf fe 34 4e bf af e3 68 bf
       -0.8200699 -1.0368081 -0.8054961 -0.9097242
000110 c3 fe a0 bf c8 83 5a be 39 a4 30 bf 65 b3 27 bf
       -1.2577747 -0.21339333 -0.69000584 -0.6550811
000120 be 15 e1 be 90 1b a2 be 38 dd c9 3e 93 42 f6 bd
       -0.439619 -0.31661654 0.3942659 -0.12024417
000130 3e 3f 6b bf 0a 58 7c be 6d a8 56 bf 4e 28 88 bf
       -0.91893375 -0.24642959 -0.8385075 -1.06373
000140 5e 97 8d 3e dd a9 7f 3e c3 ca 41 3f 4d 2e 4e bf
       0.27654546 0.24967141 0.75700015 -0.805394
000150 6b 37 3f bf 5d 9a f9 bd 92 10 a9 be 2a e4 83 3e
       -0.74693936 -0.121876456 -0.33020455 0.25760013
000160 d7 48 f5 be ea f9 6e 3e f3 1b 1c 3f 38 36 6b bf
       -0.47907135 0.23337522 0.6098015 -0.91879606
000170 94 93 a2 bf 29 05 5e bf 75 77 ad be 05 1b 4f be
       -1.2701287 -0.86726624 -0.338802 -0.20225151
000180 8c 90 27 bf 61 98 3c bf b9 40 0a bf 38 0b 0b bf
       -0.65454936 -0.7367001 -0.5400501 -0.54313993
000190 23 8f 89 bf 7b 75 93 3e ef d8 3b bf a7 63 23 bf
       -1.0746807 0.28800568 -0.7337789 -0.6382393
0001a0 78 cb 26 bf dc b2 0d 3f a0 54 84 3e 87 5d d8 3e
       -0.6515422 0.5535104 0.25845814 0.42258856
0001b0 e8 d5 0c bc 3f 86 63 3f 10 47 4f 3e 22 53 67 3e
       -0.008595921 0.8887672 0.20241952 0.22590306
0001c0 54 dc 36 bf 84 9e 24 bf f5 eb 81 bf 22 c5 a8 be
       -0.71429944 -0.64304376 -1.0150133 -0.329629
0001d0 63 6f 08 bf cf 3c 02 3f a8 80 c0 be bc 8c 5b 3e
       -0.5329496 0.50874037 -0.37598157 0.21440405
0001e0 6e fa 30 3e 1e f6 1a 3e f4 a4 69 bf 3b 6a e7 bd
       0.17283031 0.15132949 -0.91267323 -0.11299559
0001f0 85 d6 fd bc 67 53 14 3e 3a 95 3e bf 84 9c 26 bf
       -0.03098608 0.1448494 -0.7444645 -0.65082574
000200 56 7f c6 be 48 32 04 bf cd 17 52 bf 56 a1 6a 3e
       -0.38769025 -0.51639223 -0.8206757 0.22913107
000210 68 8f 31 bf c0 66 cd be 94 82 d6 bd 3f ed ff bd
       -0.69359446 -0.40117455 -0.104741246 -0.12496423
000220 07 ac 17 bf a8 73 bb 3d 26 c2 85 bf df 3c 21 bf
       -0.5924687 0.09152919 -1.0449874 -0.62983507
000230 00 5a e6 be 0f 9b 08 bf 92 d2 33 bf 18 4c bc 3d
       -0.4499054 -0.533616 -0.7024318 0.09194201
000240 30 72 e0 be 01 00 66 bf 76 2e 86 bf 1f 45 5a bf
       -0.43837118 -0.89843756 -1.0482929 -0.8526172
000250 89 46 49 bf 30 a8 1a bf dd ab d1 be d4 de 19 bf
       -0.78623253 -0.60412884 -0.40951434 -0.60105634
000260 d0 49 84 be 11 f7 73 3e 28 22 7a be 70 ea 7d 3d
       -0.25837564 0.23824717 -0.24427092 0.061991155
000270 d0 1f 25 bf 01 29 a5 be e6 83 24 bf 9c 04 e1 be
       -0.6450167 -0.32257846 -0.6426376 -0.4394883
000280 93 ed 8d 3e fc 39 4c bf ff ea c4 bd d2 8e 27 bf
       0.27720317 -0.7977598 -0.096151344 -0.654523
000290 5a 8f bf be 1f 0f 53 bf 31 35 32 3f d5 50 d5 be
       -0.37414056 -0.8244495 0.69612414 -0.41663232
0002a0 61 15 9a bf 78 91 84 3e fb 2e 09 bf 6a 69 52 bf
       -1.2037774 0.25892234 -0.5358731 -0.821921
0002b0 ad 4d ad bf 11 1e 44 be d7 7f d7 be 1e 19 88 3e
       -1.353933 -0.19152094 -0.42089722 0.26581663
0002c0 95 25 fc be a3 50 1e bf 2e 5a eb be 31 30 31 3f
       -0.49247423 -0.6184179 -0.4596724 0.6921416
0002d0 69 05 4f bf 19 11 88 be 65 63 dc 3e ca bc b1 be
       -0.8086763 -0.26575544 0.43044582 -0.34714347
0002e0 76 e7 68 bf 7b 56 a3 be 69 0d 4f bf 86 35 61 bf
       -0.9097818 -0.31901917 -0.8087984 -0.87972295
0002f0 8c c9 18 bf 3d f1 58 bf fc 78 7a be 7d cf 32 be
       -0.59682536 -0.847431 -0.24460214 -0.17461963
000300 e4 5b cf be 55 6e df bc 1c 15 a4 3e bb b3 48 bf
       -0.40499794 -0.02727429 0.32047355 -0.78399247
000310 d4 db 3b 3e 63 f5 ed be 75 94 88 be 06 60 1d bf
       0.18345577 -0.46476278 -0.26675764 -0.61474645
000320 a8 d6 25 bf 4f 1b ab 3e 5f bc 3d bf 44 7b 04 bf
       -0.64780664 0.33419272 -0.74115556 -0.5175059
000330 a1 0b da 3e e0 df c1 3e fd 7a 3e bf 0c 66 0b bf
       0.42586997 0.37866116 -0.74406415 -0.54452586
000340 b6 04 1e bf 9f b6 c6 be b8 e4 44 bf a4 23 09 bf
       -0.6172594 -0.38811204 -0.769115 -0.5357001
000350 25 8b f4 3e 6a f1 c5 3e 25 fb 22 ba cc b4 d0 be
       0.4776241 0.38660747 -0.0006217233 -0.40762937
000360 cb 3d 09 bf 8f 3c 11 bf 6b 32 84 bd 3f ed 28 bf
       -0.53609914 -0.5673303 -0.06454929 -0.6598701
000370 f5 f5 21 bf 36 88 9d 3e f2 0a ba 3d 3f c3 5c bf
       -0.63265926 0.30767983 0.09084119 -0.8623542
000380 16 bb 8c bf 7c 68 a0 be 63 33 17 bf a3 c7 55 bf
       -1.0994594 -0.31329715 -0.59062785 -0.83507746
000390 f7 e8 04 be a6 fd 51 3e d2 15 87 bf dd 27 34 bf
       -0.12979494 0.20506915 -1.0553534 -0.70373327
0003a0 a2 9c 61 3e 6f 7a 2e bf d3 6b 2f bf 6d 08 40 bf
       0.22032407 -0.6815557 -0.685239 -0.75012857
0003b0 d5 74 81 3e a1 83 f2 be 56 51 f1 be 9a ff b9 be
       0.25284448 -0.4736605 -0.47132367 -0.3632782
0003c0 1b 9b 99 be 45 8a 93 bf e5 8f fe be f6 cf 07 bf
       -0.3000115 -1.1526572 -0.49719158 -0.530517
0003d0 58 d3 7c 3d 67 93 4c 3d c5 c2 22 bf 2c 02 03 3e
       0.06172499 0.04994526 -0.63578445 0.12793797
0003e0 50 bd 6a bf 75 b4 47 be ed 8d 92 bf 4a c7 f6 be
       -0.9169512 -0.19502433 -1.1449562 -0.4819892
0003f0 48 66 e7 3e a8 81 19 bf 00 92 81 bd 13 2e 1f be
       0.45195222 -0.59963465 -0.063266754 -0.1554492

a2c_network.actor_mlp.2.weight f4 [128, 256]
000000 3a 7e 0d be 4a 24 4c be 58 6f 80 be b5 5e 1a 3e
       -0.13817683 -0.19935718 -0.2508495 0.1507519
000010 7e ae 91 bd fd eb 0b be 12 90 f1 3d 41 bc 10 3d
       -0.0711336 -0.13664241 0.11795057 0.035335783
000020 29 6c 62 3e 57 61 f3 3d cb 8f bf 3c e5 a8 5c 3d
       0.22111572 0.118838005 0.023383996 0.053872008
000030 40 e3 79 bd 2a 9f 06 3e 9a 6f 4a 3d 43 39 a9 3d
       -0.061007738 0.13146654 0.049422838 0.08262875
000040 c2 52 72 be 93 83 ae be c2 c9 67 3e a8 94 04 be
       -0.23664382 -0.34084758 0.22635558 -0.12947333
000050 bd ab 3f be d3 70 15 be bc b1 df bd d4 da 03 3d
       -0.18717857 -0.1459382 -0.10922572 0.032191113
000060 2a 6c dd be 92 f3 13 3e 44 d0 60 bc 67 f4 45 3d
       -0.43246585 0.14448383 -0.013721529 0.048328783
000070 1e ab e1 3c 6e fd 3d be a4 ed a9 bd 47 88 81 bc
       0.027547415 -0.18553707 -0.082972795 -0.015812052
000080 ea fa b2 bc 0d 61 ac 3b 6c 78 77 3c 1b 3c f9 3d
       -0.02184816 0.005260593 0.015104394 0.12169667
000090 5e de 67 be a2 c6 7d be 9b 43 92 3d 88 67 e9 3d
       -0.2264342 -0.24782804 0.07141801 0.113967
0000a0 38 66 7a be dc a7 d9 3d f6 64 46 be 52 cc c5 be
       -0.24453056 0.1062772 -0.19374451 -0.38632447
0000b0 12 ec b3 be 46 21 b9 3d c5 ae a6 3e 8f 6d 10 be
       -0.35141045 0.090395495 0.32555214 -0.14104293
0000c0 45 49 e8 bd ed 94 0d bd f7 e4 ae be c4 cf 8c 3c
       -0.113421 -0.034565855 -0.3415906 0.017188914
0000d0 38 00 c2 3c b1 e0 e4 3d 68 9d 95 bc 23 81 a1 be
       0.023681745 0.11175669 -0.018263534 -0.31543836
0000e0 c5 90 5d be 2c 5e 3b be 32 6a 8a be f5 de cb bd
       -0.21637256 -0.18297642 -0.27034146 -0.09954635
0000f0 8d e8 19 bd d2 8c 78 bb 86 10 aa bc f7 3b 8a 3d
       -0.037575293 -0.0037925732 -0.020759832 0.06749719
000100 f0 42 05 bd 14 57 3a be 2b d4 bd 3d 11 84 42 bd
       -0.03253454 -0.1819728 0.092689835 -0.04748923
000110 f8 28 bc 3c 15 7a 1f be 86 13 5b bd 64 51 6e 3d
       0.022968754 -0.15573914 -0.053485416 0.05818309
000120 d7 a8 07 bd 71 85 2a be da b1 9c be 7c ef de bd
       -0.033120003 -0.16652466 -0.3060444 -0.10885522
000130 04 72 5c bb d4 f7 82 bd e1 f8 cf bd 17 c2 3d 3e
       -0.0033637295 -0.06394926 -0.10154892 0.1853107
000140 f3 83 08 be 17 f5 a2 be fd 4b b7 be f2 24 4b 3e
       -0.13331585 -0.31827614 -0.35800162 0.19838312
000150 a5 4f 6b 3e 9c 33 a7 bd 6f cd d5 bd 98 06 52 be
       0.229796 -0.081641406 -0.10439574 -0.20510328
000160 71 e8 b5 bd cb 65 8f be 21 88 aa be bf 0c 92 3d
       -0.08882225 -0.2800735 -0.33306983 0.071313374
000170 6a bb 4b 3e 1f 16 91 bd 8e 1b 43 be 91 d2 a1 be
       0.19895712 -0.070842974 -0.1905348 -0.31605962
000180 3c 4d 01 3e 32 77 b6 3d 24 02 e2 3c 54 dc 01 be
       0.12627119 0.089094535 0.027588911 -0.12681705
000190 2e 21 48 3e ce e8 9d be c2 2e 81 3d 2b 9e 6b 3d
       0.19543907 -0.30841678 0.063077465 0.057523888
0001a0 75 7f f7 3d 29 6d e8 be b5 45 a3 bd ad db 80 bd
       0.120848574 -0.45395783 -0.0797228 -0.062919
0001b0 7d ab 38 be 1c 5a a6 be 7a ae c4 bd ad 77 78 be
       -0.18034168 -0.32490623 -0.09603591 -0.24264403
0001c0 76 b4 31 3d 60 ba 92 bd 0f 61 67 3d f5 0f ec bd
       0.04338499 -0.071644545 0.056489047 -0.11526481
0001d0 d7 2e 2c 3e ca 1d 6f be a3 b2 5b bd 0f 82 ed bd
       0.16814743 -0.23351207 -0.053637158 -0.11597072
0001e0 91 11 a5 be 13 b6 aa bd d0 29 ab bd a9 42 10 be
       -0.32239965 -0.08335509 -0.083575845 -0.14087929
0001f0 0d af 04 3e f2 d8 24 be 47 d2 48 3c 1a 6e 56 bd
       0.12957402 -0.16098383 0.012257165 -0.052351095
000200 01 0b ea 3c 65 20 55 bd 2e a3 2e 3d 7c 5e 7d bc
       0.0285697 -0.052032847 0.04263609 -0.015464421
000210 7d 2d bf 3c b8 e4 1c bd 9b ae 58 bd 53 23 a4 be
       0.02333712 -0.03830406 -0.05290089 -0.320582
000220 90 b7 e1 bc f2 74 49 be e5 39 e6 3c 4e 07 5a be
       -0.02755335 -0.19673517 0.028103778 -0.21291849
000230 0d e6 10 bd b9 f6 37 be 35 e0 82 bd 97 3a 65 bd
       -0.035375644 -0.17965211 -0.0639042 -0.05596408
000240 28 f8 1d 3e 5d a0 66 3e 15 e9 19 3e 19 d7 ca bd
       0.15426695 0.22522111 0.1503032 -0.09904308
000250 27 f9 02 3d f4 f2 3d 3d 73 65 29 bd c0 71 91 bd
       0.03197589 0.046374276 -0.041356515 -0.07101774
000260 aa de 93 bd ac 96 de 3c 86 82 20 be 2c 4c 41 be
       -0.07220204 0.027171455 -0.1567479 -0.18876714
000270 22 1d 31 3e 92 e7 11 3d ea 2c 84 3d f5 fe 32 3d
       0.1729627 0.035621233 0.06453879 0.043700177
000280 8b 6d 48 be 02 af a1 3d 9b 91 7f 3d 83 42 ab bd
       -0.19573037 0.07894708 0.06239472 -0.083622955
000290 11 02 64 be 20 15 e3 3d 35 83 a8 be 92 05 1a be
       -0.22266413 0.11088014 -0.32912603 -0.15041187
0002a0 1f 16 2d 3e ed 58 30 be b8 12 e0 bd a7 7a 82 3d
       0.1690297 -0.17221422 -0.1094107 0.0637105
0002b0 fc c8 94 3c 2c fb 57 bd 0c 4d a0 bd 11 84 88 bd
       0.018162243 -0.05272977 -0.078271955 -0.06665815
0002c0 0b 4a 90 bd 0a 2c 24 be 00 ad 36 3e c7 d9 b0 be
       -0.070453726 -0.16032425 0.17839432 -0.3454115
0002d0 a1 a1 4c 3d de 20 3f be 1a c6 90 bd a7 2f 0a bd
       0.04995883 -0.18664882 -0.07069035 -0.03373685
0002e0 86 c0 db 3c fc 12 f0 bd c8 3d 8b bb d7 ee 53 3c
       0.0268252 -0.11722371 -0.0042493083 0.012935362
0002f0 2e c7 0c be d7 fc 03 be a2 5b 88 3d e4 07 a1 bc
       -0.13747856 -0.1288942 0.066581026 -0.019657083
000300 73 0a 3f bc 16 74 25 be b0 f2 22 be f0 b1 83 3d
       -0.011660206 -0.16157565 -0.1591289 0.06430423
000310 3f 9d 82 be c9 36 0f bc a2 ab 37 be 2e 3f bc 3d
       -0.25510594 -0.008741089 -0.17936566 0.09191738
000320 e0 76 11 3e eb 93 35 be 45 e4 bf bd c4 fd 97 3d
       0.14205503 -0.17732207 -0.09369711 0.07421449
000330 cd c9 66 be 9c e9 d8 bd ea dd 25 bb 87 82 07 bc
       -0.22537918 -0.105914325 -0.0025309273 -0.008270866
000340 2f 56 80 3d 19 0e ab bc e8 5e be bd 6f d3 d7 3d
       0.06266438 -0.020880746 -0.09295446 0.10538375
000350 19 c7 5f be 2c 7b 3b 3d e8 a9 1e be 93 bf f1 bd
       -0.21853293 0.045771763 -0.15494502 -0.11804118
000360 53 53 41 be ca 55 5e bd 28 7d 67 be 42 fb f1 3b
       -0.18879442 -0.054281034 -0.22606337 0.0073846886
000370 a1 01 43 be d6 50 42 be 3f 04 09 be e9 d5 a1 3d
       -0.1904359 -0.18976149 -0.13380526 0.07902128
000380 3a 8d 07 3d f9 bf e3 3b c8 2b 0c be 6f e1 fd bd
       0.03309367 0.006950375 -0.13688576 -0.12396514
000390 92 b3 ab bc 99 7c 80 be 9e b0 5a bd 12 15 b6 bc
       -0.02095965 -0.2509506 -0.05339109 -0.022226844
0003a0 a4 72 73 be 86 c0 34 be 7e 31 94 bc 29 1c 9e 3d
       -0.237742 -0.17651567 -0.018090006 0.07720215
0003b0 fc 84 bb bd 07 7d 21 bd 9a 2b 26 be 13 2d fc bc
       -0.09156224 -0.039425876 -0.1622757 -0.030783212
0003c0 af 44 99 3d 1c cc 2e 3e a2 32 bc bd e9 6a 23 be
       0.074838035 0.17070049 -0.09189345 -0.15958752
0003d0 4e f0 7a be 15 74 c9 bd 72 ef 87 3d 53 5a e5 bb
       -0.24505731 -0.09836594 0.066374674 -0.006999293
0003e0 30 06 b7 3d 5e 48 23 be b9 77 86 bd 62 12 37 be
       0.08936727 -0.15945575 -0.06565804 -0.17878106
0003f0 33 f1 52 bd 8c 22 41 be 6e b2 66 be c5 bd 86 3c
       -0.051499557 -0.18860835 -0.22529003 0.016447911

a2c_network.actor_mlp.2.bias f4 [128]
000000 76 13 87 be c2 41 60 be 7b 49 22 bf 42 35 f2 be
       -0.26382035 -0.21900085 -0.6339337 -0.47306257
000010 d5 d3 d4 be 07 ea e0 be 91 a5 9b be bc 2e 9f be
       -0.41567865 -0.4392855 -0.30399755 -0.31090343
000020 6a e0 88 3d 5d e1 98 be db b9 8c 3d 54 54 2e be
       0.066834286 -0.2985944 0.068713866 -0.17024356
000030 31 e0 cd 3c 2e d1 1e bf b8 85 ec be 56 f3 ae be
       0.025131317 -0.6203793 -0.4619577 -0.34170026
000040 1d dd bc 3e 2c f8 ea be 9d 57 bd be f2 15 c1 3d
       0.36887446 -0.45892465 -0.36980906 0.09428014
000050 1b 51 d4 be 64 95 ac bd 57 0d 14 be 9a 78 a8 bb
       -0.4146813 -0.084269315 -0.14458214 -0.00514133
000060 c8 8b 1a be 0a 74 6f bd 7b 03 bb be 04 47 d7 be
       -0.15092385 -0.058460273 -0.36526093 -0.42046368
000070 8c bc fc be a2 19 d8 be 04 08 94 be 35 43 ef be
       -0.493626 -0.42207056 -0.28912365 -0.46730962
000080 48 a4 8e be cf f3 87 be 1a 93 b6 be 88 b9 49 be
       -0.27859712 -0.265532 -0.35659105 -0.19699681
000090 71 22 18 3e 4b 7d 0d bf b9 0b 96 be e6 69 9c be
       0.14856888 -0.55269307 -0.2930582 -0.30549544
0000a0 0f 28 e0 bc 43 68 d0 be ea eb a1 be 05 fe d7 be
       -0.027362851 -0.40704545 -0.316253 -0.4218599
0000b0 86 a7 a9 be 5a 84 08 bf dc 86 99 be 43 11 81 be
       -0.33135623 -0.5332695 -0.29985702 -0.25208482
0000c0 18 92 89 be 04 99 14 bf fc d6 5b be 07 35 8f be
       -0.26869273 -0.58045983 -0.21468729 -0.27970144
0000d0 7c 40 01 bf a8 aa 51 be 94 49 39 be 38 57 42 be
       -0.5048902 -0.20475256 -0.18094474 -0.18978584
0000e0 fd 65 db be c1 76 05 bf bf dc ba be 74 55 52 bd
       -0.42851248 -0.5213433 -0.3649654 -0.051351026
0000f0 3b 4d 35 be ed ad 94 bc 9f d7 34 3d 54 e0 68 bc
       -0.17705242 -0.01814934 0.044150945 -0.01421364
000100 09 bf c8 be db dc 83 be 59 a6 ef be bf da e1 be
       -0.39208248 -0.25754437 -0.468066 -0.44112203
000110 99 7d 24 be ed d8 0d bf f1 ce 0a bf ca 42 a8 bb
       -0.16063537 -0.5540913 -0.5422202 -0.005134915
000120 5f 54 be be f0 0b a2 be db ff c3 be 21 87 88 be
       -0.37173745 -0.31649733 -0.3828114 -0.26665595
000130 ff af 98 be ea 67 a9 be 5e f8 5f be e3 1b 1d be
       -0.29821774 -0.33087093 -0.21872088 -0.15342669
000140 05 0f be 3d 02 ba 05 bf 33 54 94 be 0f 44 a8 bd
       0.092802085 -0.5223695 -0.2897049 -0.08216106
000150 52 2e 17 3c dc bd 8b be 8b 08 84 be 39 ab 19 3e
       0.009227352 -0.2729329 -0.25787768 0.15006723
000160 27 87 14 bf fd ec c6 be 88 bc ab 3d c4 f7 b7 be
       -0.58018726 -0.38852683 0.08385569 -0.35931218
000170 99 67 aa be 62 b7 49 bd 13 a4 be be a9 bd f2 bd
       -0.33282164 -0.049247153 -0.37234554 -0.11852581
000180 4a 78 0b bf 69 1e 2c be 74 29 2d bf e2 82 4f be
       -0.5448042 -0.16808476 -0.6764138 -0.20264772
000190 49 34 05 bf f5 f6 bb be 40 88 09 bf d9 1e 0e bf
       -0.52032906 -0.3671185 -0.53723526 -0.5551582
0001a0 00 92 ff be 7f fb 46 3e 1a de 92 be 5b cd b3 3e
       -0.49916077 0.19431876 -0.28685075 0.3511761
0001b0 63 95 3a be 69 70 c9 be c1 19 04 bf f0 88 f4 be
       -0.18221049 -0.39343575 -0.516018 -0.47760725
0001c0 9d a5 92 be 88 d0 b5 bd 50 da 0e 3e 49 cf e9 bd
       -0.28641978 -0.08877665 0.13950467 -0.1141649
0001d0 d1 44 92 be 40 3b 2e bf 1a f5 8a be 94 67 fb be
       -0.28568128 -0.6805916 -0.27140123 -0.4910246
0001e0 53 cb ea be 24 5a ef be 17 7a 12 bf 34 b2 53 3c
       -0.4585825 -0.4674846 -0.57217544 0.012920905
0001f0 c3 52 03 bf 1b b3 da 3d e0 6b a2 be 93 6f 0b 3e
       -0.5129816 0.10678693 -0.31722927 0.13616781

a2c_network.actor_mlp.4.weight f4 [64, 128]
000000 57 12 ec 3e e1 93 ed 3d c1 d3 f7 3d 1f d1 9f 3e
       0.46107742 0.11600471 0.12100936 0.31214234
000010 bc 0d 6a bd b3 c7 36 3e c0 d6 89 3e 14 6d 36 be
       -0.057142004 0.17849617 0.26921654 -0.17815048
000020 00 f0 43 be 6c d8 81 3e 06 c7 cb 3e d5 9e 56 3d
       -0.19134521 0.2536043 0.3980028 0.052397568
000030 9c 43 ad bd 95 ad c2 3d 36 05 e8 3d c1 3b b2 3e
       -0.08460161 0.095057644 0.11329119 0.34811214
000040 c1 79 27 bf f8 81 71 bd 54 4c 12 be 99 8a 9a be
       -0.65420157 -0.05896184 -0.1428693 -0.30183867
000050 eb a5 c4 3e 42 93 25 be 26 6d 68 be 04 a0 80 be
       0.38407835 -0.16169456 -0.22697887 -0.25122082
000060 4b b3 c0 be f7 5e ea be e0 7c c2 3e 69 1d b7 be
       -0.3763679 -0.45775577 0.37985897 -0.35764626
000070 88 29 a5 3e d8 55 76 be 74 a1 a8 3e 53 4f fb 3d
       0.32258248 -0.24056184 0.3293568 0.12270989
000080 a6 e2 b7 3e c2 61 e8 3e e0 1e a8 3e 42 c8 9d bd
       0.35915107 0.45387083 0.32836056 -0.07704212
000090 ec eb 80 be c6 fd ae be cf 4f f0 3e 11 f8 b1 3e
       -0.25179994 -0.3417799 0.4693589 0.34759572
0000a0 fc 0b c3 be c8 63 a2 3d 45 04 25 be 3a c5 d8 3e
       -0.3809508 0.07929188 -0.1611491 0.42337972
0000b0 29 87 8a be b3 5d 66 3d 7f 7b 7f bd a3 69 9b be
       -0.27056244 0.056241702 -0.062373634 -0.30354032
0000c0 9e f8 45 3e d8 72 cc 3e 48 71 4d 3e 5d dc de 3e
       0.19333121 0.3993137 0.20062745 0.435275
0000d0 f6 63 7c bc 28 b3 b9 bd bb 57 bf 3e 14 02 18 be
       -0.015404692 -0.090673745 0.3737162 -0.14844543
0000e0 15 24 01 3f 78 bb 02 3e 45 78 29 3d 23 d1 a7 3c
       0.5044568 0.12766826 0.041374464 0.020485466
0000f0 61 fd 0e be ad a3 b6 be fc 84 69 be 1b 97 f6 3c
       -0.13963844 -0.3567175 -0.22804636 0.03010135
000100 83 a4 fa bd 04 02 0f bf d5 84 ae 3e 2d 6c 7b 3e
       -0.12238409 -0.5586245 0.34085718 0.24552985
000110 a0 27 2c 3e 0b b5 b2 3e cc 0b 1a 3e 22 4e 0b bf
       0.1681199 0.3490375 0.15043563 -0.54416096
000120 be dd df 3d b5 74 92 be 31 3b 41 3e c8 de ba 3e
       0.10930966 -0.28604665 0.18870236 0.36498094
000130 05 1b 98 be c7 d0 61 be ba 48 a3 3e 1e a0 ce bd
       -0.29708114 -0.22052298 0.31891423 -0.10089134
000140 d9 f0 d3 bc ce ee 02 3f e4 73 2e 3e b9 e2 f7 3d
       -0.025871681 0.5114564 0.17036396 0.12103791
000150 3a b9 e1 be e5 3a 2b 3c e4 03 20 3e 49 b0 3d bf
       -0.4408663 0.010451053 0.15626484 -0.74097115
000160 3b 54 3a 3d 2d 75 f9 bd c9 45 c7 be 79 52 de 3e
       0.045490485 -0.12180553 -0.3892043 0.43422297
000170 92 d6 cb 3d e4 76 8d be da 1c 73 3e 58 fa 88 bd
       0.099530354 -0.2762977 0.23741475 -0.06688374
000180 1e 86 39 bd 18 02 27 bf 5b 4b da bb 0f 6c 82 3e
       -0.04529392 -0.6523757 -0.006661815 0.25473067
000190 97 0c 95 3e 57 a7 22 3e c5 88 93 3e 78 2d ae 3e
       0.29111168 0.15884148 0.28815284 0.34019065
0001a0 da 86 25 bd 35 b9 bf be 33 50 12 3f 52 16 ae be
       -0.040411808 -0.3744599 0.57153624 -0.34001404
0001b0 f6 55 00 3f 37 fe 57 bd 32 e8 02 3f 48 f7 1f 3d
       0.50131166 -0.052732673 0.5113555 0.039054185
0001c0 1e b7 18 3f ff 24 5b bd ba af 99 be 82 40 2c be
       0.59654415 -0.05350208 -0.3001688 -0.16821483
0001d0 19 90 93 3e ab 77 13 3f 94 a5 68 be c8 a5 0c 3e
       0.28820875 0.57604474 -0.22719413 0.13735116
0001e0 a0 f9 e5 3d a3 ef 68 3e ba 97 d3 3d d8 51 db be
       0.11229253 0.22747664 0.10331674 -0.4283588
0001f0 32 80 40 be 86 44 b0 be 86 83 50 3c ec 10 ad 3d
       -0.18798903 -0.3442728 0.01272667 0.08450493
000200 df 0a 99 3e 82 b7 90 be 80 df 8a 3e a4 c5 03 3f
       0.29891106 -0.28265005 0.27123642 0.5147345
000210 97 1a 39 3e 92 37 95 3e 8b 22 00 3f 5f 7b 94 be
       0.1807655 0.2914396 0.5005271 -0.29000375
000220 d7 e0 72 be 95 6e e5 3d e5 66 61 be 2c 1a c0 bb
       -0.23718582 0.112027325 -0.22011907 -0.005862495
000230 d8 26 b8 be cf 8c 30 3e 0f a3 e0 bd 17 d7 8f 3e
       -0.35967135 0.17241214 -0.10968601 0.28093788
000240 f8 f7 8c be 49 ca da 3d 6a 00 03 bd 26 b1 22 bf
       -0.27532935 0.10683114 -0.031982817 -0.6355156
000250 2c a9 9f 3e 9d b7 99 3d b0 f6 fd be 2c 58 eb 3d
       0.31183755 0.075057246 -0.4960227 0.11491427
000260 ba b0 23 be 18 b4 8c be fd c5 83 3d 3b c5 1c bd
       -0.15985385 -0.2748115 0.06434248 -0.03827403
000270 bc 89 95 bc f9 8b 39 be 00 62 99 3e 85 60 0f 3f
       -0.018254153 -0.18119802 0.2995758 0.5600665
000280 fc a0 10 3e 59 55 21 be b1 ed a4 3e d5 6a 26 3e
       0.1412391 -0.15755214 0.32212594 0.1625169
000290 a1 b6 f0 b9 84 64 39 3d e8 f8 5f 3e fc ef 85 3e
       -0.00045912436 0.045261875 0.21872294 0.26159656
0002a0 c1 a5 36 bd ff f3 95 bd 64 ab 52 3d ab 8c c7 3e
       -0.04459167 -0.07321929 0.051432982 0.3897451
0002b0 f7 b5 a4 3d 4b b3 de bd a2 ff 00 3e 69 2a 51 bd
       0.080425195 -0.10874041 0.12597516 -0.051065836
0002c0 75 c2 b7 bd 31 e0 88 3e 19 b2 72 bd 13 1f 36 3e
       -0.089726366 0.26733544 -0.05925188 0.17785291
0002d0 6a e8 72 3e f6 86 87 3d 91 ff 2d 3e 7e 8e 8d bb
       0.23721471 0.06617539 0.16992022 -0.004319965
0002e0 45 1a 02 3f 81 1c e3 bc ae 50 9d be c5 76 ae bd
       0.50821334 -0.027723553 -0.30725616 -0.08518747
0002f0 db 1a 94 be de 03 12 bd 42 e9 ab be 4b 7d 04 bd
       -0.2892674 -0.03564822 -0.335764 -0.03234605
000300 d4 b0 48 be fd 61 64 be 58 33 87 3d bd dc 0a 3e
       -0.19598705 -0.22303005 0.0660159 0.13560767
000310 32 fa 44 3e 63 19 ff 3e 50 2b 8f be 4a 05 1c bf
       0.19236067 0.49824056 -0.27962732 -0.6094557
000320 7d 88 21 3e 35 05 19 3d 13 bc 07 3d 96 1f a6 bd
       0.15774722 0.03735848 0.033138346 -0.08111493
000330 d5 8c 75 bd cc 49 2b 3e b5 8e 8b 3e 76 1a a3 be
       -0.05994876 0.1672737 0.27257314 -0.31856126
000340 b3 e3 28 3e f9 ac 0e 3f 4b 4b ae 3c 4d a5 8b 3c
       0.1649311 0.55732685 0.021276137 0.017046595
000350 f3 bc aa 3d 1d a0 2e 3d ca 8f fb bd e0 d9 f6 be
       0.083368205 0.042633165 -0.12283285 -0.482131
000360 f4 2c 3b 3e e4 cc c9 3d df b8 89 3d f1 38 40 bd
       0.18278867 0.09853533 0.067247145 -0.046929304
000370 ef 3e 97 3b a4 bf 87 be 6b da f5 bd 57 29 c2 bb
       0.0046156566 -0.26513398 -0.120045505 -0.0059253382
000380 ea 44 0b 3e 9f b4 22 be 6a 24 ac bd d9 b3 22 3c
       0.13600507 -0.15889214 -0.08405383 0.009930574
000390 89 fc ba be 2c a2 a6 3d 08 27 1e be 9c 92 9c 3e
       -0.36520794 0.081364006 -0.15444577 0.30580604
0003a0 44 16 a7 3d f7 06 5d be c2 93 ee 3d d8 aa ac bc
       0.08158544 -0.21584688 0.11649276 -0.021077558
0003b0 44 1e b4 3d 39 d4 cc 3d 42 1d 3f 3e 9a c2 3f 3e
       0.08794835 0.10001416 0.18663505 0.18726578
0003c0 e9 eb bf 3e 8a a1 89 be 64 e7 1a be 06 b7 25 be
       0.37484673 -0.26881057 -0.15127331 -0.16183099
0003d0 16 6a e1 3d 92 aa 3d 3e df 72 81 be d4 c6 5a 3e
       0.110065624 0.18522099 -0.25282952 0.2136491
0003e0 28 34 29 bd ba 41 82 bd 72 c3 14 3e be 55 3f be
       -0.041309506 -0.063601926 0.14527681 -0.18685052
0003f0 db 50 80 3d ad fb 51 3d b7 69 1b be 41 88 a2 be
       0.06265422 0.051265407 -0.15177046 -0.31744578

a2c_network.actor_mlp.4.bias f4 [64]
000000 f5 db 14 bf 52 7e 3b be 71 76 bf be af 89 51 be
       -0.5814813 -0.18309906 -0.3739505 -0.20462678
000010 1d 7a dc be c1 41 71 be e3 59 64 be c5 b9 58 be
       -0.43061915 -0.2356024 -0.22299914 -0.21164615
000020 2b 02 cf be 70 61 23 be d7 2f 38 be 96 c3 04 bf
       -0.40431342 -0.15955138 -0.17987 -0.5186094
000030 2d 77 a8 be 46 cf 8d be 8d d6 e0 be 85 ea 2b be
       -0.32903424 -0.276972 -0.4391369 -0.16788681
000040 f9 5e 9d be 18 fc 47 be 90 20 1f be 70 5b a8 be
       -0.3073652 -0.1952976 -0.15539765 -0.3288226
000050 d8 d5 10 bf df 82 3b be 29 a0 d4 be 64 4c 2b bf
       -0.565763 -0.18311642 -0.41528443 -0.6691344
000060 87 5c f2 be b9 6f 71 be f5 44 1a be 25 d3 3b be
       -0.47336218 -0.23577775 -0.15065368 -0.18342264
000070 71 3f 96 3e 4c d7 41 be 38 0d ac bd fc a7 92 be
       0.29345277 -0.18929785 -0.08400959 -0.28643787
000080 c6 a6 87 be a7 7f 0e bf c6 5d 26 be 0e de 64 be
       -0.26494426 -0.5566353 -0.16246709 -0.22350332
000090 2f a8 00 bf 3a 2b 2f be 5b 71 34 be 0b e6 8d be
       -0.5025663 -0.17106333 -0.17621367 -0.2771457
0000a0 06 4e 53 be 3b b4 5f be 02 dc 8c be 24 6c 55 be
       -0.20635232 -0.21846096 -0.27511603 -0.20842034
0000b0 f7 17 1d be 4a d3 0c be a1 78 5e be 99 01 6b be
       -0.15341173 -0.13752475 -0.21725704 -0.22949828
0000c0 a9 3d 92 be 86 70 51 be 47 58 86 be cb 6a 0c bf
       -0.28562668 -0.2045308 -0.26239225 -0.54850453
0000d0 8b 5d ba be dd f4 3c be ff 77 f8 bd 4b be a8 be
       -0.36399493 -0.18452783 -0.121322624 -0.32957682
0000e0 43 43 57 be fc fd 15 be 59 43 97 be 12 59 b1 be
       -0.21021752 -0.14647669 -0.2954357 -0.34638268
0000f0 b5 98 1c be 5b 9b 01 3f f6 9f b5 be 68 4c 91 be
       -0.15292628 0.5062768 -0.35473603 -0.28378606

a2c_network.value.weight f4 [1, 64]
000000 b4 40 77 b9 a3 7b 0a bc 13 4b 5c 3c ef 8d a7 3c
       -0.0002357986 -0.008452329 0.013445633 0.020453421
000010 84 ca ff 3c a7 a0 8d 3c 72 90 47 3c 40 9f ba 3c
       0.031224497 0.01728852 0.012180435 0.022781014
000020 f3 8a 8f 3c 37 92 fd 3c 55 26 7e 3c a4 e2 02 3d
       0.01752231 0.03095351 0.015512069 0.031954423
000030 be 53 fa 3c 5f a8 b0 bd 03 a3 0d be f0 26 23 3c
       0.03055751 -0.08625864 -0.13831715 0.009958014
000040 72 e3 c6 3c 0a 85 73 3b d4 10 b0 3c 05 dd 82 3e
       0.024278376 0.0037158155 0.0214924 0.2555925
000050 25 33 aa 3b 3f 99 1c be 8b 3b c1 ba 0c 14 d4 3c
       0.005194085 -0.15292834 -0.0014742477 0.025888465
000060 03 04 3a bc ab f6 ca 3c 4e 25 86 3d 3d 94 d0 3c
       -0.0113534955 0.024775824 0.06550084 0.02546131
000070 7e 89 fa bd 38 52 3c 3b d0 ef 1d be 83 be ad bd
       -0.12233256 0.002873553 -0.15423512 -0.08483603
000080 64 46 da 3c ef d0 80 3b 42 26 dd 3d 79 1a d1 3c
       0.026644893 0.003931157 0.10798313 0.025525318
000090 70 66 a3 bd a0 32 29 3b de 1f 16 3d 54 b8 60 3c
       -0.07978523 0.0025817528 0.036651485 0.013715822
0000a0 2d 9a d3 bc 4c 08 88 3d 04 b6 c5 3c 7d 0c 37 bc
       -0.025830353 0.066422075 0.024134643 -0.011172411
0000b0 42 27 d9 b9 7a a7 12 3c 90 e5 df 3c 06 1b 02 3d
       -0.00041418715 0.008951062 0.027331144 0.031764053
0000c0 cf dc 6b 3a c4 e7 bb 3c f9 40 22 be 48 d0 d3 3c
       0.00089974416 0.022937663 -0.15845098 0.025856152
0000d0 22 94 1f be 8f d0 f5 3b 85 05 26 3c fd b1 2e 3c
       -0.15583852 0.0075016688 0.010133152 0.010662553
0000e0 9c df 7d 3c 77 10 3f 3d f2 19 fa 3b 28 53 ec 3c
       0.015495207 0.04664656 0.0076324875 0.028848246
0000f0 ae c9 db bc 48 a3 89 be 20 24 28 be 6b ed 19 3a
       -0.026829567 -0.26882386 -0.1642003 0.0005871865

a2c_network.mu.weight f4 [12, 64]
000000 91 a6 e0 3d 6c 98 2e be 67 00 f8 3d 5d c8 83 bd
       0.1096927 -0.17050332 0.12109452 -0.06434701
000010 31 7d 1f be 11 c8 e6 bd c9 20 93 3d 55 b1 5f be
       -0.155751 -0.112686284 0.07183988 -0.2184499
000020 21 2f 5f bc bc 25 b6 be bd bb 3e be ea af 8f bd
       -0.013622076 -0.35575664 -0.18626304 -0.07015975
000030 d1 11 fd bd 35 1a ea bd 92 3c a5 bd b0 4e 6d bd
       -0.12356914 -0.1143078 -0.080681935 -0.05793637
000040 07 d3 d9 bd e6 3d 1b 3e 14 a8 98 3d 28 e5 d3 bd
       -0.106359534 0.15160331 0.07453933 -0.103464425
000050 77 3b 53 be d0 5b c5 3d 6c 11 4c be 35 9b 3d 3e
       -0.20628153 0.096366525 -0.19928521 0.18516238
000060 0a 7c 2e be 4b f8 c8 bc 49 8a 8f bd e2 ac 5a 3e
       -0.17039505 -0.024532458 -0.07008798 0.21355012
000070 78 5a 46 bb c2 16 4f be f8 e5 11 3e b5 c9 8e 3b
       -0.0030266326 -0.20223525 0.14247882 0.0043575414
000080 b0 eb 88 3d 93 7a 83 bc a6 f3 10 3e e4 45 9a bc
       0.06685579 -0.016049659 0.14155445 -0.018832155
000090 d6 64 5d 3e bf 78 45 bd af c3 c9 3e 87 36 e5 bd
       0.21620497 -0.048210856 0.39407107 -0.11192041
0000a0 36 d4 20 3e 69 95 90 be 61 de 54 3e 82 e9 81 bd
       0.15705952 -0.2823899 0.20787956 -0.06343366
0000b0 3e 75 6c 3e f9 4a 37 3e 1a 3d cb bd e5 d8 dd bd
       0.230916 0.17899694 -0.099237636 -0.10832385
0000c0 43 32 d0 3d 76 9e de 3c 49 9c 26 bd 2a c1 a8 3d
       0.10165837 0.02717517 -0.04067639 0.08239968
0000d0 8c 4a 04 3e 35 b7 80 bd 28 41 86 3e 58 12 84 be
       0.12919062 -0.06284944 0.26221585 -0.25795245
0000e0 07 6e f6 3d 0a d0 ca be 0b 53 49 3d dc 7b ca 3d
       0.12032705 -0.39611846 0.04915146 0.098869056
0000f0 21 10 1e 3d 9d 3f da 3c f4 a6 ba bd bd 6c 47 be
       0.0385896 0.026641661 -0.09113875 -0.19475074
000100 81 06 3e be 7e fe 7a 3e 66 3d 9e 3e c4 b4 8e bd
       -0.18557169 0.24511144 0.30906218 -0.06968072
000110 28 89 b5 3c 3b c3 8e 3d 40 91 5c be a6 f4 81 3d
       0.022160128 0.06970831 -0.21539783 0.06345491
000120 ec 8d 27 be 99 e5 b1 bc 36 d2 32 3d a3 10 3c 3d
       -0.16362733 -0.021715926 0.043657504 0.045914304
000130 48 37 00 bd fc bc f3 3c e7 32 45 3e bd 18 93 3d
       -0.03130272 0.0297532 0.19257699 0.07182453
000140 16 b7 e0 3d a8 70 41 be 18 f9 21 3e ff 84 7f be
       0.10972421 -0.18890631 0.15817678 -0.24953078
000150 a8 33 3a be d0 10 8f 3d e8 61 3a 3d 3f 56 04 bd
       -0.18183768 0.069856286 0.045503527 -0.032308813
000160 03 db 56 be b3 5d 8c 3d f9 09 3d be e7 48 85 be
       -0.20981984 0.06853809 -0.18460836 -0.26032183
000170 0c 30 01 bd 4f 04 51 3c 24 e4 21 bd 89 dc d2 3e
       -0.03153996 0.012757375 -0.039524212 0.4118388
000180 aa bb b0 be f0 de 8c 3e f6 48 8b bd 42 ce 11 b9
       -0.34518176 0.27513838 -0.068010256 -0.00013905115
000190 78 a1 fc 3d ee 38 60 be 7d f8 e8 3d f2 f2 0c be
       0.12335485 -0.21896717 0.113755204 -0.13764551
0001a0 70 6e 91 bd 99 4f 68 3d c5 8d 1e be 65 f1 1c bc
       -0.071011424 0.056716535 -0.15483768 -0.009579037
0001b0 fd 18 bd bd 78 5e 20 3e bd ec 15 3e 2e 11 05 be
       -0.09233282 0.15661037 0.1464109 -0.12994835
0001c0 65 96 59 bd d9 dd 68 3e 88 ff 0b 3b 1c 54 e3 bd
       -0.053121943 0.22740878 0.0021362025 -0.11100027
0001d0 d8 ab 11 be a3 0c ea 3d 1a 88 d1 3d b7 c7 84 bd
       -0.1422571 0.114281915 0.102310374 -0.06483405
0001e0 13 5a 33 bd 70 cc 30 3e 96 73 28 be 3c ef d2 bd
       -0.043787073 0.17265487 -0.16450343 -0.102995366
0001f0 32 9a c1 3d cd 09 a4 3d 3d a8 b2 3c 53 b4 94 be
       0.094532385 0.08009682 0.021808738 -0.29043826
000200 29 cf 53 be f0 69 47 3d ce 7f 2b 3e cc 92 a3 be
       -0.20684494 0.048685014 0.16747972 -0.31947935
000210 a5 95 a6 3e 66 7c bd bd 44 4d d2 3d d4 f2 71 bc
       0.32536045 -0.09252243 0.102686435 -0.014767367
000220 83 5d 67 3c f8 09 00 bd d4 c7 95 be 97 00 ee bd
       0.014121416 -0.031259507 -0.2925402 -0.11621206
000230 bf 28 ed 3b 8d 87 bf bc ef 41 3f 3c d2 d2 14 3e
       0.0072375233 -0.023380065 0.011673435 0.14533547
000240 ee a7 20 bd 8e fd b9 bd 21 c9 c2 3c 50 52 e5 bd
       -0.03922265 -0.09081565 0.023777546 -0.111973405
000250 cf 8a 26 be 3e fa c0 bd c5 a1 a5 be dd 20 02 be
       -0.16263889 -0.0942273 -0.32349983 -0.12707849
000260 68 c1 d3 bd cd 6a 72 be 43 a6 2d 3e 5f 6b 44 be
       -0.10339624 -0.23673554 0.16957955 -0.19181584
000270 ac 84 8f bb 5d 04 39 be 5e bc 2b 3d 4f c9 c4 3a
       -0.0043798294 -0.1806807 0.041927688 0.0015013608
000280 ae 86 bf 3b f6 e6 11 3e 82 2b fd 3c a2 8d 43 be
       0.0058449125 0.14248261 0.030904535 -0.19096997
000290 21 18 97 bd 78 a9 37 be 81 35 f8 3d cc 85 ed 3d
       -0.07377649 -0.17935741 0.1211958 0.11597785
0002a0 0b 05 67 bc 0f b0 90 bd fb 62 38 3e 60 77 38 3e
       -0.014100323 -0.070648305 0.18006508 0.18014288
0002b0 86 18 c0 3d 47 11 0b 3d 95 bc 92 3d 3d d6 62 bd
       0.093796775 0.033952024 0.071648754 -0.055380095
0002c0 2e b0 f7 bd 71 2d 02 3e d9 88 4f be 1f c8 55 3d
       -0.120941505 0.12712647 -0.20267047 0.052192803
0002d0 bc e3 90 3c 8b 4a e0 3d 57 8b 7a 3d d9 35 1f be
       0.017686717 0.10951718 0.06116804 -0.15547885
0002e0 6a a3 2c 3e 02 d2 1a 3d 71 7d b1 3d 14 fb c4 3d
       0.16859213 0.037797935 0.08666504 0.09618202
0002f0 21 57 ee 3d 9b 67 07 bd 2b cc 2a 3e d4 0e e8 bd
       0.11637712 -0.03305779 0.16679446 -0.11330953
000300 31 47 75 3c 9d 20 5e 3e 7a 0e 0b be 8f b6 70 3e
       0.014970587 0.21692128 -0.13579741 0.2350714
000310 80 b5 7e bd c7 d2 9a be cc 39 8f bd 70 22 c3 bd
       -0.06218481 -0.30238935 -0.06993446 -0.09528053
000320 33 df 9c be 3f f8 19 3d bd 75 38 be 35 43 7e bd
       -0.30639037 0.03759026 -0.18013664 -0.062075812
000330 a0 a9 cb be da bb 91 3e 0e c2 a6 3d 25 62 b6 bd
       -0.3977785 0.28463632 0.08142482 -0.08905438
000340 c9 67 d1 bd 13 da 87 be c8 d7 6e be db 95 10 3e
       -0.102248736 -0.26533565 -0.23324502 0.14119665
000350 34 16 4d 3e 1c 2b 33 be 5a 1e 10 3e fb 8b b6 bd
       0.20028001 -0.17496914 0.14074078 -0.08913418
000360 71 2e c1 3d 39 db b1 3e bb 41 68 3d a8 4a 6a bd
       0.09432686 0.34737566 0.05670331 -0.057200104
000370 84 64 b9 3c 7f 04 17 be f4 7c 68 bd 29 a8 aa be
       0.022630937 -0.14747809 -0.05675979 -0.3333142
000380 43 a2 8b 3e 7c 9b 82 be b5 bd 8b 3d 02 57 68 be
       0.27272233 -0.2550925 0.06823293 -0.22689441
000390 c8 f2 74 be 3a aa 8a bd d4 92 c1 bd 9c e1 90 3e
       -0.23920739 -0.067707494 -0.09451833 0.28297126
0003a0 e1 6b 3c 3e b5 df 92 3d 01 fd bf 3b b3 03 8e bd
       0.18400528 0.07171575 0.005859018 -0.06934299
0003b0 c3 b0 53 be b0 46 66 be bd 36 da bd 3b 55 64 3d
       -0.20672898 -0.22487903 -0.10654972 0.055745345
0003c0 fc a0 c3 3e 87 95 4b be 13 0b 1a be 5f 3d 72 3d
       0.3820876 -0.19881259 -0.15043287 0.05914056
0003d0 86 b7 52 3e 3e e1 37 3e 12 17 9d 3d 2f a1 4a b9
       0.20577821 0.17957017 0.07670416 -0.00019324267
0003e0 6e 79 c9 3d b9 60 b0 3d 35 f9 32 3d cf 1b cf bc
       0.09837614 0.086121984 0.043694694 -0.025281815
0003f0 de 14 14 3e 17 57 98 bd 69 75 9d 3d 7a f8 16 3d
       0.14461085 -0.07438486 0.0768841 0.03685806

a2c_network.mu.bias f4 [12]
000000 68 85 05 be 4d 7e 70 3c 27 ed de bc 0c ae cf 3c
       -0.13039172 0.01467855 -0.027212692 0.025351547
000010 36 6d 77 be e8 e4 fa 3c f4 1a 96 3c e7 6f b7 3d
       -0.24162754 0.03062673 0.0183234 0.089568906
000020 0d 5c 69 3c 72 14 04 be bd 10 1a 3e 5a 59 a9 3d
       0.014243138 -0.12898424 0.15045448 0.082689956

exp_avg f4 [12]
000000 24 81 d2 ba 13 db 15 39 4a 03 3b ba 96 3b 57 b9
       -0.0016060215 0.00014291359 -0.0007133974 -0.00020526195
000010 a5 24 31 ba a0 06 62 3a cb 1b a4 3a c9 94 31 39
       -0.00067574746 0.0008622203 0.001252049 0.00016935462
000020 8d 30 89 ba b4 cf 20 b9 ea 9c d0 b9 cc d8 99 3a
       -0.001046674 -0.00015336165 -0.00039789762 0.0011737584

exp_avg_sq f4 [12]
000000 d7 c8 65 38 47 b6 7b 38 38 a1 8e 38 c0 65 83 38
       5.47849e-05 6.0012822e-05 6.801117e-05 6.265519e-05
000010 7a 5d 85 38 c7 e3 82 38 52 d8 81 38 b9 72 6b 38
       6.3593456e-05 6.24131e-05 6.191492e-05 5.613521e-05
000020 f2 0d 5d 38 4e 31 83 38 0e 4b 69 38 45 85 71 38
       5.2703494e-05 6.2557505e-05 5.562143e-05 5.7582994e-05
