omniisaacgymenvs/scripts/runs/Anymal/nn/last_Anymal_ep_400_rew_-0.9583126.pth (torch, 672599 bytes, 36 tensors)

value_mean_std.running_mean f8 [1]
00000000: 30eb 76ab d13b fbbf
-1.7021042535622648

value_mean_std.running_var f8 [1]
00000000: bd86 c4ec bd31 5040
64.77721709434532

value_mean_std.count f8 []
00000000: 0000 0004 00c0 9241
78643201.0

running_mean_std.running_mean f8 [48]
00000000: 1eff 9f08 025d a63f 3bec 1e5a 8653 913f
00000010: 53ba ea46 db39 e3bf 5b06 6f2a c937 93bf
00000020: 7993 1e61 5618 60bf fd21 7e5f 6020 55bf
00000030: ae7c ccd0 bb8e 6b3f b00f f942 43a0 7d3f
00000040: fa8b c5ed ffc8 eebf d152 17e9 558d c6bf
00000050: ab95 cc48 81ae 993f df44 11a2 8687 30bf
00000060: a605 ecb3 d2fa c4bf 0041 91b0 8f39 c2bf
00000070: 067f c04a 96ce bf3f 7f17 8b11 0148 c23f
00000080: 6b0d 7890 a0c6 8d3f fb67 e84a 4c01 b53f
00000090: 0419 fb70 7d7f 92bf 249a 4cc9 769c 60bf
000000a0: eb69 90ab 876f b63f 66d0 ed8f 9f8a c3bf
000000b0: 36a1 ed3f 0e1b c13f 46ef 2e2b ffd9 b9bf
000000c0: de27 a198 4ae6 9bbf 2310 9432 fa88 93bf
000000d0: c53d 4d44 f70a 9e3f 7e5d 61d8 cc51 9b3f
000000e0: 520d 58e0 a0eb 70bf 94a1 a445 25be 973f
000000f0: 1856 923e 06d1 86bf 7737 6ae8 0d4f 783f
00000100: 6ad8 8ec0 3489 893f 4abc 6eb4 7642 9ebf
00000110: 8c6c f38b 7909 a13f 51bd ac3c 24e3 96bf
00000120: 9c8c 258f fe23 b5bf f2fd 88f0 ece2 abbf
00000130: 72f3 6363 bdef b43f 4d79 21c3 8b00 b13f
00000140: 4a38 5703 94e7 903f 8b30 9c47 ee49 ad3f
00000150: d77c cc78 bb76 95bf 48e9 952c a568 6f3f
00000160: 8aaa 8034 7089 a03f 9593 a210 36a3 b1bf
00000170: c191 f141 d23b b93f 9c79 e6f2 d21f a7bf
0.04367834430013161 0.016920184374367358 -0.6008125672431767 -0.01876749345297522 -0.0019647299859166215 -0.0012894574301488542 0.0033639591478188046 0.007232916584658897
-0.9620360988595842 -0.17618821984674196 0.025079746311481504 -0.00025221859875042095 -0.16390451226474773 -0.14238163110213264 0.1242460186481332 0.1428223930035379
0.014539007576792348 0.08205105618290524 -0.01806446077423464 -0.00202773285345194 0.08763931215836578 -0.1526679470804339 0.13363817330833577 -0.10098261646538473
-0.027245679441229124 -0.019077214562472144 0.029338706535154708 0.02667923041039221 -0.004130962775437412 0.02318628537719432 -0.011140869888815394 0.005934767081852025
0.012468731047061438 -0.029550413859109427 0.03327541192421632 -0.022350851252835927 -0.08258048052589334 -0.05446567951411997 0.08178313900493864 0.06641458047804356
0.01650840063467055 0.05720467209002419 -0.02096074032590142 0.0038340784128056173 0.032298571022996006 -0.06889665514115813 0.09856905088378821 -0.04516467299548596

running_mean_std.running_var f8 [48]
00000000: 4891 2dae 92d3 e23f 9eb0 6c8d feed df3f
00000010: 28a7 7972 a627 e83f 5226 52c7 9dec c53f
00000020: 2962 541f 8c06 aa3f 7662 20ff 680d b73f
00000030: f1fe 0446 c2f3 943f e109 3ef5 694c a73f
00000040: 4e01 c044 f152 813f 3f58 e21b ba54 1540
00000050: f2b4 fda6 22d8 f43f 2cee f5ab 9705 953f
00000060: eddd 06fe 5e08 c03f 05f2 2881 acae c13f
00000070: bdf1 7d4d ca0f c23f 4813 055d 1c33 c23f
00000080: 8d19 cead 919d bb3f 862b 1bad 5483 c03f
00000090: 8969 c3dd 1790 be3f 6ee4 5e4d 63b3 be3f
000000a0: d885 c5b1 a740 c73f a350 007b 7807 cc3f
000000b0: 58fa cc24 060f c83f 0202 47f7 af8c cb3f
000000c0: e3c6 3e8c 64ab 7e3f b9cd 5fcd 416a 813f
000000d0: b5cd b4fb e343 833f b722 adb2 e688 823f
000000e0: 7b4a 042b 636f 813f 5566 daf0 44f6 813f
000000f0: c530 aa19 feec 803f 0820 6aa2 32b5 813f
00000100: 6a6a 07ff 1350 9b3f 2c84 ee44 2b25 9d3f
00000110: 08d0 1d31 88bc 9e3f 75c7 b80a 6060 a03f
00000120: 33c3 d6c7 6e77 e03f 7452 b3cf 666b e03f
00000130: e342 740d cf9b e03f 04ac a973 8913 e03f
00000140: b3ac f886 477c e03f 9b26 3cce a89a e03f
00000150: a920 1d96 d64f e03f 8ff6 0831 1ea4 e03f
00000160: 5bdb b569 af53 e03f eb43 c45a 050d e03f
00000170: 25f5 51de aa72 e03f 60ef 27fa 46c0 e03f
0.5883267785944009 0.4989010220622364 0.7548401103824505 0.17128345711198506 0.0508312023395699 0.0900483725421369 0.020461116336490674 0.04550486677819144
0.008458981428703407 5.332741199197755 1.3027674220168675 0.020529146071096502 0.12525546458867556 0.13814312273633803 0.1411068800333747 0.1421847776602141
0.10787306302345297 0.12900789692352194 0.11938618816512848 0.11992474211628387 0.18166061573269476 0.2189779854385324 0.18795849606427129 0.21523093771067187
0.007487671627971901 0.008503450469993777 0.009406834715810367 0.009050180747764853 0.008513235807673816 0.00877050266290095 0.00826452747175955 0.008646388608454472
0.026672661247952346 0.02846210106111273 0.030016067502813853 0.031985284146130256 0.5145791915038899 0.5131105476999225 0.5190196287895471 0.5023848780668918
0.5151708255920283 0.5188793209101336 0.5097458774480589 0.5200339276995737 0.510215479341109 0.5015894673143725 0.5139974920454377 0.5234713445529273

running_mean_std.count f8 []
00000000: 0000 0008 00c0 8241
39321601.0

a2c_network.sigma f4 [12]
00000000: bf82 1f40 136b 1a40 0ae4 1d40 3d62 1940
00000010: 6c3d 1f40 d681 1c40 8146 1840 ab91 1b40
00000020: e48b 1440 8655 1a40 c579 1c40 bdb4 1340
2.492355 2.4127853 2.4670434 2.396621 2.488124 2.4454246 2.3793032 2.4307659
2.3210382 2.41147 2.4449322 2.3079064

a2c_network.actor_mlp.0.weight f4 [256, 48]
00000000: e046 823e d2b3 95be 1f64 6fbb de55 4a3e
00000010: cd2c 06bf 91b0 343e ceb2 2f3e e7b9 cd3d
00000020: 7b3d 883e 6abb dbbd 7a60 9d3e 0d89 c2be
00000030: 32fd c3bd 62eb 523d a4c1 26bd d04e 123e
00000040: b2b6 1ebd 4058 dfbe edcf 073e 3ff3 7bbe
00000050: 7c46 30be 5956 823d baef e63d ae37 483e
00000060: 9e0b 0a3e 1cdb a3bd 031f 43be 28b3 b5be
00000070: 7489 fcba 59be 073d 5810 3bbe 85a1 853e
00000080: df37 91be 921b ba3d e5b5 ee3e 516a db3c
00000090: 5a85 433e 5676 863d 894b c43d 6750 4ebe
000000a0: 91a9 f63c 0162 9b3e 4956 863e 4f28 c7be
000000b0: 01a5 0a3e 5281 333e 4b30 4bbe c921 a1be
000000c0: f9d4 0b3d dbf3 f2bc 0401 873e da9a 83be
000000d0: 54ea 72be 9413 833d 0bf2 253e f1f0 1fbf
000000e0: a106 2b3c fd51 08bd 302a 6c3e fa94 c3be
000000f0: 50cd db3d b1ed adbd 4455 1f3e e55d 363e
00000100: 0d47 933e b8c5 71be e927 a2be e776 20be
00000110: d7af e4bc edeb 15be 2087 8f3e 42a7 febd
00000120: 693c ca3e 4a16 3bbe 2ac2 26bc 85a1 19bf
00000130: f35c a9be 5c7b c9be 17ea 80be dd93 83be
00000140: 1923 143f 7664 903e fc39 383e 8a85 b63d
00000150: 3a07 01bf 1684 193f 4a45 f53c dc8a 8d3c
00000160: 53f9 04bf a699 2bbe ff5c 4abe bbee 523d
00000170: ae8c c33e 69f9 85be c57e d93b d5fa 5abe
00000180: 7c7f 69be 6476 9bbd 4833 4a3f 2ca1 b63e
00000190: 7aee db3e 62bb 99bd 58ce 283e facf 1a3e
000001a0: 1aed 223e 0a00 073e 5266 5d3e ba0a 85be
000001b0: efa5 853e 4d57 d4bd 8ed3 643e c127 f73d
000001c0: ba9c 843e c2c2 e0bd 04aa f7bd e979 b0be
000001d0: a049 c13e 4f3b a23e 5ec6 82be abe6 853e
000001e0: e14e b63e 3f23 9ebe 3501 7fbe 5be4 f9bd
000001f0: 5512 3c3f 6a06 abbe 7ff3 a2be 96a0 d0be
00000200: 9875 c1bd 4573 073f 5f2a e93d 546a aebe
00000210: fcc4 c03e b96a c13e 3a58 18bf bff7 8ebe
00000220: 6c13 3d3f aadd de3c 4124 523e 4d2f 46bf
00000230: ba94 90bd 53b5 563e 0b6d 17be 831d e93d
00000240: 7909 5e3b 4d73 e53e f869 963d 7da7 39bd
00000250: 7e5c 1dbe 7bba 763e 165b 57bd 5cb4 bcbc
00000260: 277d d8bd bb29 bcbd 0ce6 013e faef 853d
00000270: d994 923d cbd4 98be 7ed5 cdbe 8d03 acbd
00000280: 9098 8ebe edaa 1ebe ae6f f63d c4ff 9f3d
00000290: b2ad c8be 9698 6bbe 9294 73bd 7178 e03e
000002a0: d1d2 103d 2216 833e d369 833e 4725 20bd
000002b0: 3890 103c 6155 94bd 3048 22be af41 75bd
000002c0: 6023 66be febe 663d 738f 683e 96a2 dc3c
000002d0: fd4e 4dbe d093 c7bd 7e59 23be da51 3bbe
000002e0: 3c36 4e3e 1c65 2d3e 28cd 363e dfd1 a1bd
000002f0: 38e0 2cbe 4714 d6bd 1edb 623b 5599 bfbd
00000300: 81c6 383e d228 7dbd 83a6 d4bd 9004 293e
00000310: 3f09 a0be 5970 ca3e 5ef6 9fbe 0614 af3d
00000320: 34b6 173e 4dff 05be 91a4 aebe 7eee 89be
00000330: dba5 22bd eb87 8abc 90b0 68be 7bb8 1abf
00000340: f4f5 353e 6e79 c7bd a7b4 c13d 49ab 933e
00000350: ee7d 2e3d a76e 10bf 6d09 023f a11b 45be
00000360: dd34 74bc 72bc b53e d267 55bc 4725 77be
00000370: 0ffe b9be f10a c8bd 1ef5 423e 4a66 a6be
00000380: 033f 2b3f 3192 a13e 6791 17bd 0c8c adbe
00000390: 9edf 43bf 047e d83e 1c61 aa3e 8949 0ebf
000003a0: e75e 843d 0f09 ca3b fba4 7abe 7e76 79be
000003b0: 3d13 6bbe f26a 803e 06db 88be c86f de3d
000003c0: d6ec 953e c170 2f3e c2f2 87be 02bf bebe
000003d0: 11cd 543e afc8 c8bd 0c41 f1be 343c a3bd
000003e0: d65d 31bf a2df 773e d6cc 9abd 776e 64be
000003f0: cde8 953e a389 293e aace ddbe 5581 c3be
0.25444698 -0.29238755 -0.0036528183 0.19759318 -0.5241211 0.1764548 0.17158052 0.10045224
0.26609406 -0.10729106 0.30737668 -0.37995186 -0.095697775 0.05149401 -0.040712014 0.14287877
-0.03874845 -0.43622017 0.13262911 -0.2460451 -0.17214388 0.06364126 0.11276193 0.1955249
0.13480994 -0.08000776 -0.19054799 -0.35488248 -0.0019267038 0.033140514 -0.18267953 0.26099792
-0.2836294 0.0908729 0.4662315 0.026784094 0.19093838 0.065655395 0.0958472 -0.20147859
0.030110152 0.3034821 0.26237705 -0.3889794 0.13539506 0.175298 -0.19842641 -0.3147109
0.034138653 -0.029657295 0.26367962 -0.2570408 -0.23722202 0.064002186 0.16205613 -0.6247702
0.010438592 -0.033281315 0.23062968 -0.38199598 0.107325196 -0.08492602 0.1555987 0.17809255
0.28765145 -0.2361058 -0.31671074 -0.15670358 -0.027915878 -0.1464078 0.2803278 -0.12434246
0.39499214 -0.18270221 -0.010178128 -0.60012084 -0.33078727 -0.39351928 -0.25178596 -0.25698748
0.57866055 0.28201646 0.1799087 0.08912189 -0.5040165 0.5996717 0.029940266 0.017278127
-0.5194294 -0.16757831 -0.19762038 0.051497202 0.38193268 -0.26166847 0.0066374266 -0.21384747
-0.22802538 -0.075909406 0.789845 0.3566984 0.4295538 -0.075064436 0.16484964 0.151184
0.1591076 0.13183609 0.21621063 -0.25984746 0.2610316 -0.10368214 0.22346327 0.12068129
0.25900823 -0.10974647 -0.12092975 -0.3446801 0.37751484 0.31685874 -0.25541967 0.26152548
0.35607055 -0.30886266 -0.24902804 -0.122017585 0.7346547 -0.3340333 -0.31826398 -0.40747517
-0.09446257 0.5291026 0.11385035 -0.34065497 0.37650287 0.37776735 -0.59509623 -0.2792339
0.7385776 0.027205307 0.20521642 -0.77415925 -0.07059617 0.20967607 -0.1478769 0.11382582
0.0033880158 0.4481453 0.07344431 -0.045325745 -0.15367314 0.24094574 -0.0525771 -0.02303522
-0.10570746 -0.09187647 0.12685412 0.065399125 0.07157297 -0.29849848 -0.40201944 -0.08399115
-0.2785077 -0.1549489 0.1203302 0.07812455 -0.3919502 -0.23007426 -0.05946786 0.4384189
0.0353573 0.25602823 0.25666675 -0.03909805 0.008823447 -0.07242847 -0.1584785 -0.059877094
-0.22474432 0.056334488 0.22710972 0.026932996 -0.20049663 -0.0974499 -0.15952107 -0.18292943
0.20137876 0.16933101 0.17851698 -0.07901358 -0.16882408 -0.10453086 0.0034615467 -0.09355418
0.18044473 -0.061806507 -0.10383322 0.16505647 -0.31257054 0.3953884 -0.3124265 0.08548741
0.14815599 -0.13085671 -0.3410993 -0.26939768 -0.039708953 -0.016910514 -0.22723603 -0.60437745
0.17769605 -0.09739958 0.09458285 0.28841618 0.042600565 -0.5641884 0.5079563 -0.19248821
-0.014905182 0.35495335 -0.013025241 -0.24135314 -0.36326644 -0.09767712 0.19038817 -0.32499915
0.66893023 0.31556848 -0.0370039 -0.3389591 -0.7651309 0.42283642 0.33277214 -0.55580956
0.06463414 0.0061656306 -0.24476998 -0.24361607 -0.22956558 0.25081593 -0.26729602 0.10861164
0.29282254 0.17132856 -0.26552397 -0.37255102 0.20781352 -0.09803902 -0.4711994 -0.07970467
-0.6928381 0.24206403 -0.075586006 -0.22307764 0.29279175 0.1655641 -0.43321735 -0.3818461

a2c_network.actor_mlp.0.bias f4 [256]
00000000: 9200 06bf 715d a0bd ca57 fb3e 8cd4 06bf
00000010: 98e6 a43e 59e2 acbd d5af c6be 4d66 f2be
00000020: cb96 3abf 31de 45bf 0882 53be c03c 2ebe
00000030: 6f8b 56be d85d fcbe 4d91 f0be 1d3a 09bf
00000040: 77d2 b03e 88d8 5d3e 4394 e8be c0dd 04bf
00000050: ebfe 963e a71e 98be 4f8c 933e 72d4 97be
00000060: 68e6 c03e a7a3 f3be b29a d73b 0db7 c4be
00000070: 7989 a9be 596f 4c3f 19c0 febe f7ba c4be
00000080: 4852 e1bc 87cf f7be 2e25 cfbe a143 50bf
00000090: c64b 75be 2535 babd e335 c1be 4a60 12bf
000000a0: 7793 713e f485 43be af5a dabd 5586 6c3c
000000b0: dd17 153f 57ea c4be 7e51 02bf 3940 acbe
000000c0: 441c e8be 7bac 0ebf a8f8 823e ab57 bcbe
000000d0: e56c 29bf d708 02bf 1328 a1be 6eab 853e
000000e0: d42c bf3e 13d8 99be 106f 9ebe 0d87 cfbe
000000f0: 7b0c d3be 0b97 13bf d4c8 04bf 27c9 aabe
00000100: 0102 0cbf 33d9 32bf 13be 36bf 8032 20bf
00000110: dbd3 70bf 77bf c33d 405b e1be f573 bebe
00000120: 8a85 f3be bab2 8ebe 186c c73e bbf6 593d
00000130: e6a2 0cbf edeb 61be 2ba4 c6be 8052 29bf
00000140: 10d0 b5bd 36fd 753e 287d f23e 1c91 1cbf
00000150: c45f 0fbf 868b 4b3d cd1a 74bd 94e2 923e
00000160: b84d a9be 0de0 973e 713e 013f 14e8 1dbf
00000170: e949 53bf 837c 22bf e9d7 39be 2e2a bfbc
00000180: 7d8a febe 23f2 02bf 120e cfbe 5464 e4be
00000190: 86d6 37bf 93dd a13e 4736 19bf a743 bcbe
000001a0: 5af2 b7be 05ff b83e 58a5 b13e 3288 5b3e
000001b0: cdf8 c2bd 5372 143f 14cc 473e dcc3 3a3e
000001c0: 2173 8ebe 33b0 19bf 14b0 13bf d3cb 56be
000001d0: 3b36 a4be d069 e33e d232 48be cfb2 953e
000001e0: 0651 f0bc 3574 9d3e 0da4 3bbf 368d 26bd
000001f0: 1989 243e 67e6 a93e 1562 17bf ab7e eabe
00000200: 9faa e0bd 2440 b0be 83fc 10bf bace 8a3d
00000210: 73f6 e8be a02d 18be 0175 673c 299b 0abe
00000220: a9be e8be 4844 1f3e c3a4 4dbf 360f a7be
00000230: 7dd5 c7be bb85 e4be 8b7e e1be ae54 6c3e
00000240: 50ae bcbe eb9f 0cbf 2bfb 25bf fcdd 9dbe
00000250: 9d91 19bf 39f5 7dbe 60f8 a0be ca5f f9be
00000260: 6afa 72be 4c2f 553e 4348 78be 098e 0f3e
00000270: dee3 e1be 1fd9 2cbe 3792 02bf 54ab 9fbe
00000280: 1211 b53e a67b 08bf acf4 96bc d1a6 e9be
00000290: 606b d5be 6f90 28bf 2c1f 2b3f f212 30be
000002a0: 41bf 3bbf 074b 9c3e 079e dfbe 5dc8 14bf
000002b0: 8895 52bf a756 a0bd c29c a1be 3695 9b3e
000002c0: 11e7 d5be cc72 95be 0705 a2be eccb 283f
000002d0: 1b06 dcbe 265c ddbd 9f6f ea3d dee7 a8be
000002e0: a594 08bf 6c85 7dbe 032c 10bf 9ba1 19bf
000002f0: 4f2f f8be 8001 1dbf 4910 1fbe ee60 c83c
00000300: b2ac abbe fc31 903c ac2e 8d3e 71ef 11bf
00000310: 3e5f 1b3e 6eca 74be 2ef1 90be c880 01bf
00000320: 3da8 e8be b290 733e 63c7 08bf de67 c5be
00000330: 9fb3 d33e 113e ad3e 140f 22bf 15c4 dbbe
00000340: 0a84 bbbe c8d7 bebe f165 0cbf 1647 f2be
00000350: 5061 db3e c572 993e 5e50 cfbc 470e 79be
00000360: 7136 01bf b137 6bbe 4e28 67bd c0b5 eabe
00000370: d5e6 99be 6067 053f 5848 d43d e71b 08bf
00000380: b452 0dbf e592 83be 96dc b3be c40d 28bf
00000390: 8065 ab3c ea6c 3d3e 7154 29bf 87ad 01bf
000003a0: 25e4 b43e 5353 73be 46b8 d7be db0b a2be
000003b0: 7e94 8e3e 7adb cbbe ef3d 96be 19b6 67be
000003c0: 4100 4fbe 8737 30bf f976 63be d39f f8be
000003d0: 7108 a63d 7118 5b3e 78a9 e2be beda 8f3e
000003e0: 01f8 e1be e6c7 f2bd 9076 18bf bdb9 02bf
000003f0: 5f8a ab3e 2b01 44be a3dd a03d c116 99bd
-0.5234462 -0.078303225 0.49090415 -0.5266807 0.3220718 -0.0844161 -0.38806024 -0.47343674
-0.7288634 -0.7729216 -0.20655072 -0.17015362 -0.20951627 -0.49290347 -0.46985856 -0.536043
0.34535572 0.21664631 -0.45425615 -0.51900864 0.29491362 -0.29710886 0.28817984 -0.2965427
0.37675786 -0.47585794 0.0065797204 -0.38420907 -0.33112696 0.79857403 -0.49755934 -0.38423893
-0.027505055 -0.48400518 -0.40458053 -0.81353194 -0.23954687 -0.09092168 -0.37736425 -0.57178175
0.2359141 -0.19094068 -0.10661828 0.014436324 0.5823954 -0.38460037 -0.509056 -0.33642748
-0.45334065 -0.55731934 0.25580335 -0.36785635 -0.66181785 -0.5079474 -0.31475887 0.26107353
0.3733889 -0.30047664 -0.3094411 -0.40532723 -0.4122046 -0.5765235 -0.5186894 -0.33356592
-0.5469056 -0.6986267 -0.7138378 -0.62577057 -0.94073266 0.095580034 -0.4401493 -0.37197843
-0.4756282 -0.27870733 0.38949656 0.053213816 -0.54936063 -0.22062655 -0.38797125 -0.6614151
-0.088775754 0.24022374 0.47361112 -0.6115892 -0.560055 0.049693607 -0.05959587 0.2868849
-0.33067107 0.29663125 0.50485903 -0.6168225 -0.8253465 -0.6347124 -0.1814877 -0.023335543
-0.49715033 -0.5115072 -0.40440422 -0.44607794 -0.7181171 0.3161436 -0.59848446 -0.36770365
-0.35927087 0.36132064 0.3469646 0.21438673 -0.09520111 0.57986945 0.19511443 0.18238777
-0.2782221 -0.60034484 -0.5769055 -0.2097619 -0.32072625 0.44416666 -0.19550636 0.29237983
-0.02933551 0.3075272 -0.73297197 -0.040662013 0.16067924 0.33183596 -0.59134036 -0.45799765
-0.109700434 -0.34423935 -0.566353 0.06777711 -0.45500526 -0.14861155 0.014127017 -0.13535751
-0.45457962 0.15553391 -0.8032953 -0.32628793 -0.39030066 -0.44633278 -0.44041857 0.23079178
-0.3685174 -0.54931515 -0.64836377 -0.30833423 -0.59987813 -0.24800576 -0.31439495 -0.48705894
-0.23728338 0.20818824 -0.24246316 0.14019026 -0.4411916 -0.168797 -0.51004356 -0.311854
0.35364586 -0.5331367 -0.018427216 -0.45635083 -0.41683483 -0.6584539 0.6684444 -0.17194727
-0.73338705 0.3052599 -0.43675253 -0.5811823 -0.82259417 -0.078290276 -0.3156491 0.30387276
-0.41777852 -0.29189146 -0.3164446 0.6593616 -0.42973408 -0.108085915 0.11447071 -0.329894
-0.53351814 -0.24757928 -0.56317157 -0.60012215 -0.48473594 -0.61330414 -0.15533556 0.024460282
-0.33530194 0.01760196 0.2757467 -0.57005984 0.15173051 -0.23905346 -0.28309005 -0.5058713
-0.45440856 0.23785666 -0.5342924 -0.38555807 0.41347978 0.33836415 -0.6330426 -0.42923036
-0.36624175 -0.37274003 -0.5484305 -0.4731986 0.4284768 0.29970375 -0.025306877 -0.24321853
-0.50473696 -0.22970463 -0.056434922 -0.4584179 -0.30058923 0.5211086 0.10365361 -0.53167576
-0.5520432 -0.2569801 -0.3512923 -0.65646005 0.020922422 0.18498579 -0.6614447 -0.50655407
0.3533031 -0.23762254 -0.42132777 -0.3164967 0.27847666 -0.39815885 -0.29344127 -0.22628058
-0.2021494 -0.6883473 -0.22213353 -0.48559436 0.08107079 0.21396042 -0.4426992 0.28096575
-0.44134524 -0.11854534 -0.5955591 -0.51064664 0.33504006 -0.1914107 0.07854774 -0.07475043

a2c_network.actor_mlp.2.weight f4 [128, 256]
00000000: 6b0c 13be af01 31be f93f 77be 21af 163e
00000010: 595b acbd 685d 12be b6b7 de3d 5c67 ce3c
00000020: 1789 533e 4a79 c43d 48c5 f93b 0e38 2e3d
00000030: 11e7 323c 84ae 1e3e 4a2b b63d f9dc ee3d
00000040: 68a8 5cbe 3790 b9be b06b 583e 86d4 f2bd
00000050: 4776 37be 5f7d 17be cd8d 71bd 298a 1a3d
00000060: a958 dabe f997 043e 06b3 f6bc e0ee 113d
00000070: 2ac1 3e3d 4a55 49be fd9e 8cbc 771b 5c3c
00000080: b11f edbb c753 9ebb da1c 8f3a acd8 233e
00000090: be67 6ebe de02 64be e808 543d a1bb d13d
000000a0: 01f2 85be d753 c93d ca05 4ebe 2f42 c8be
000000b0: 3a91 b0be 7d8d b33d 750d a23e 3466 07be
000000c0: d245 bcbd 21f1 43bd c6bf b3be 893b 203d
000000d0: b1de 873c 9551 ad3d 7a6a 07bd 40ca a9be
000000e0: 53c5 60be bf7c 4dbe 35dd 8cbe 4bf2 fdbd
000000f0: ffc6 373c a6b8 99bc 0e9a 0c3d 2f77 d23d
00000100: 7618 20bd bfd8 4ebe 73b7 d93d 3a7c 9ebc
00000110: 6db8 983d 625f 14be c4f2 85bd 0699 4f3d
00000120: e856 2abd 72a9 25be 35ad 8bbe 6e0a fbbd
00000130: 5633 a33c c3c4 ecbc d285 f5bd 6cae 2f3e
00000140: 35e9 d8bd 813d a7be 58bc b8be 9a95 483e
00000150: 52fc 883e cc68 3ebd d0b1 f9bd e5e1 39be
00000160: 46f1 d7bd 7b7e 92be 3b78 a6be e342 8e3d
00000170: 2f9f 663e 8053 41bd 82ed 4ebe 5c91 a6be
00000180: b5b2 db3d cab7 a13d d45f 893c c1e6 afbd
00000190: a711 2f3e fb4b 8fbe 4860 763d f7f1 b73d
000001a0: 0654 ce3d 1df5 f3be e494 83bd e04f 93bd
000001b0: f76c 0ebe 8c1b a7be e970 47bd 8897 6fbe
000001c0: da77 f13c c659 abbd 7847 303d 9dc4 e3bd
000001d0: caf1 163e d6d6 6ebe 764c 94bd ab62 0cbe
000001e0: acb0 97be aeed d8bd da11 a0bd 44b5 eebd
000001f0: 31e0 dd3d 0e26 27be 874d 1c3d ea32 9bbd
00000200: f0fc 303b 1531 10bd 5e4f 803d a832 3cbc
00000210: 9a36 3b3c 3322 80bd 9e53 8ebd da53 aabe
00000220: 8557 67bb 3c24 44be 640a ce3c 065d 69be
00000230: 68e2 dbbc 5a17 09be c94a 48bd bc12 77bd
00000240: 98c9 1f3e fa33 583e 27ff 193e 58a6 bebd
00000250: 93fe 403d 70bf 143d b8ea d93c 262d 37bd
00000260: fd03 e2bc 2b08 343c d7f4 33be 09c5 51be
00000270: 7651 5e3e 4a33 3c3d ebf1 623d d6ba a03c
00000280: 573d 4ebe 3e56 9e3d f20b 4d3d 6351 58bd
00000290: a096 12be fae5 c03d 45d5 a3be 3cf0 27be
000002a0: 34a7 133e ccef 22be 4cbd d5bd 7f86 813d
000002b0: bb4d 34bb 235f 8abd 6a09 79bd 5eb5 99bd
000002c0: 6190 46bd 8cd4 21be 2918 683e 3461 a5be
000002d0: 1197 403d ec04 29be 77a2 b7bd 8719 1dbd
000002e0: cc2e 2d3d cd36 b4bd 153c a4bc 84b8 0d3d
000002f0: 25fb ddbd e2ff cfbd 97db 6c3d 000e 72bc
00000300: 898c c73c a5d9 3ebe 0cc0 1cbe 9045 603d
00000310: 8f7a 8cbe 7357 c8bc c1b3 26be 9417 a73d
00000320: 6ba4 083e 1d77 1ebe 489b 74bd e808 eb3d
00000330: bb2f 5cbe 49ef d4bd d4bb 473c 48e4 e5bb
00000340: 8390 303d c5ab bf3b be52 d2bd f5c8 083e
00000350: b4c8 6dbe 30e6 683d 7b7d e8bd 46d0 a6bd
00000360: 0bb6 4bbe a974 9abd 3154 73be f9bd c8bb
00000370: 2a89 3bbe 5885 36be 48cc d9bd 0e6d 893d
00000380: 189e a63c 60c4 4b3d 510d 18be 2d21 d6bd
00000390: d925 15bd 48a5 80be 6382 5abd 98d8 0f3d
000003a0: 5e2f 78be 994d 27be 4eae fbbc 6bc0 953d
000003b0: f6ef d3bd 229c 3bbd 7ea2 05be 436b 44bd
000003c0: 95bf ab3d 2c67 143e 9f87 c9bd 844a 09be
000003d0: 4dcb 81be f39d e0bd 06f5 6a3d 78f6 063d
000003e0: 6118 993d cae2 0dbe 799f afbd e2e7 46be
000003f0: 9bbe 3abd 4d5d 2fbe fceb 5fbe d9a7 f63b
-0.14360206 -0.17285798 -0.24145497 0.14715244 -0.08415861 -0.14293444 0.10874884 0.02519577
0.20657764 0.095934466 0.0076223947 0.042533927 0.010919348 0.1549626 0.088949755 0.11663241
-0.21548617 -0.3624284 0.2113483 -0.11856942 -0.17916213 -0.14793919 -0.058973122 0.037729416
-0.42645767 0.12948598 -0.030114662 0.0356282 0.046570934 -0.19661441 -0.017165655 0.0134342825
-0.007236444 -0.0048317644 0.0010918633 0.16000623 -0.23281762 -0.22266719 0.051766306 0.102408655
-0.26161197 0.09830444 -0.20119396 -0.39112994 -0.344858 0.08767221 0.31650892 -0.13222581
-0.09193005 -0.04783738 -0.3510725 0.039119277 0.01658568 0.08462826 -0.03306053 -0.33162117
-0.21950273 -0.20067118 -0.27512518 -0.12399729 0.011216878 -0.018764805 0.034326605 0.10276639
-0.039085828 -0.2019987 0.10630693 -0.019346345 0.074570514 -0.1448951 -0.065404445 0.050683044
-0.041586787 -0.1617792 -0.27280584 -0.12257849 0.01992194 -0.028902417 -0.11988415 0.1715638
-0.10591356 -0.3266411 -0.36081195 0.19588318 0.26755005 -0.04648666 -0.12192118 -0.18152578
-0.10544066 -0.28612122 -0.32513604 0.069463514 0.22521661 -0.047198772 -0.2020779 -0.32532775
0.10727445 0.07896383 0.016769327 -0.08588935 0.17096578 -0.27987656 0.060150415 0.08981698
0.1007462 -0.47647944 -0.06424883 -0.07192969 -0.13908754 -0.32638204 -0.048691664 -0.23397648
0.029476095 -0.08366732 0.043036908 -0.111214854 0.14740673 -0.23324141 -0.07241146 -0.13709514
-0.29626977 -0.10592209 -0.07815905 -0.116556674 0.10833777 -0.1632311 0.038159873 -0.075780705
0.0027006231 -0.03520306 0.06265138 -0.011486687 0.011426592 -0.06256523 -0.069495425 -0.332671
-0.0035299968 -0.19154447 0.025151439 -0.22789392 -0.026841357 -0.13387814 -0.048899446 -0.0603206
0.15604246 0.21113577 0.15038739 -0.09309071 0.04711778 0.03631538 0.02660118 -0.04472079
-0.027589792 0.0109882755 -0.17573868 -0.20485319 0.21710762 0.04594735 0.055406492 0.01962034
-0.20140587 0.07731293 0.05006022 -0.05281199 -0.14315271 0.094188645 -0.3199865 -0.16400236
0.14419252 -0.15911788 -0.10436496 0.06324481 -0.0027512151 -0.06756427 -0.060799994 -0.07505296
-0.048477534 -0.15803736 0.22665466 -0.32300723 0.04701907 -0.16505784 -0.089665346 -0.038354423
0.042280957 -0.08799515 -0.02004818 0.034599796 -0.10838918 -0.10156228 0.057826605 -0.014773846
0.024359005 -0.18637712 -0.15307635 0.05475384 -0.27437255 -0.024455762 -0.16279508 0.08158794
0.1334397 -0.15475126 -0.0597184 0.11476308 -0.21502583 -0.103972025 0.012190778 -0.0070157386
0.043106567 0.005849334 -0.10269688 0.13357909 -0.23221093 0.05686015 -0.113520585 -0.08145194
-0.19893663 -0.075417824 -0.23762585 -0.006126162 -0.18314043 -0.17824304 -0.10634667 0.06710254
0.020339057 0.049747825 -0.1484883 -0.104555465 -0.036413047 -0.251261 -0.053347003 0.03511867
-0.24236819 -0.16338195 -0.030722763 0.073120914 -0.10348503 -0.045803197 -0.13050267 -0.047953855
0.08386151 0.14492482 -0.09840321 -0.13407332 -0.2535042 -0.109676264 0.05736258 0.032949895
0.07475353 -0.13856044 -0.08575339 -0.19424394 -0.04559193 -0.17125435 -0.21867365 0.007527333

a2c_network.actor_mlp.2.bias f4 [128]
00000000: 94d9 81be b0a9 2cbe f27d a5be 175f dfbe
00000010: a412 86be a2ec e1be 0a6b 80be cc6c 3ebe
00000020: 7610 e5bc 72a4 8ebe a804 1f3d 83b7 343c
00000030: a2a5 c63d b249 0fbf b449 b7be b8ef 95be
00000040: d0d4 ba3e 2ea5 adbe fd66 84be f50a 183d
00000050: e1ca c3be e67b fdbd bff3 02bc 5d6d 713d
00000060: 9de3 67bd cb61 9c3d 7cf6 b7be d013 59be
00000070: 4877 d8be b2cd 59be bcea 8ebe 5aa8 e9be
00000080: c88d 2cbe 25e8 79bd 23b4 b3be d97a 2fbe
00000090: 8304 1f3d 1f6c c3be 4824 88be 43f6 9abe
000000a0: fb52 993d f5b7 59be 89e6 96be 233c d5be
000000b0: 5762 60be 9988 bcbe 3c2f 5dbe 6226 40be
000000c0: 72ce 4fbe b3a8 e9be 514a 37be 29f2 8bbe
000000d0: cb09 96be f0eb 963c 5197 0dbe 9f2c 69bd
000000e0: ab6e c3be fb40 e2be 496c 4cbe 627b a1bd
000000f0: ff18 06be c09e 9fbd 8c07 b43d f860 17bd
00000100: 559a a5be 5977 e3bd 1332 eebe 65cd a3be
00000110: fe8f 81bd 42cf f9be c1cb ddbe 3a98 9a3d
00000120: 0dd4 bdbe 5bc8 a1be 1845 b5be f969 57be
00000130: 2027 3fbe 8271 70be 5648 5cbe 74ee bcbd
00000140: 2c2d 6f3d 6f8a 04bf 4163 48be b7a8 d83d
00000150: 1b07 043d 9983 3abe 1dd3 f3bd aa1d c23d
00000160: f3be f8be 0e81 aebe 0d61 803d 2437 a1be
00000170: bb29 89be ac21 3e3d 6b65 9fbe 5102 033d
00000180: b17d ebbe ced4 9ebd 8c10 03bf 5f66 08be
00000190: 2bf6 dbbe 81ec 75be e237 f5be 74e7 06bf
000001a0: 80c6 e2be e1ea a13e 9111 82be 0c24 cf3e
000001b0: 5c0f 30be 4377 80be 566e 00bf 2f18 bbbe
000001c0: 5b21 89be 9130 c3bc 8c30 ee3c 35bc 96bd
000001d0: 744b ffbd f9b1 2ebf 8ca9 5bbe 8cd9 97be
000001e0: 1d7c a5be 17bc 85be 7e70 02bf 11b3 a23d
000001f0: 0efd c5be 67db 013e 14f1 5cbe f504 1e3e
-0.2536131 -0.16861606 -0.3232265 -0.43627235 -0.26186097 -0.4412585 -0.25081664 -0.1859619
-0.02796195 -0.27859837 0.0388228 0.011030081 0.09699561 -0.55971825 -0.3579842 -0.29284453
0.36490488 -0.33915085 -0.25859824 0.037119824 -0.38240722 -0.123771474 -0.007992684 0.058942188
-0.056613553 0.0763584 -0.3593024 -0.21198964 -0.42278504 -0.21269873 -0.27913463 -0.45636255
-0.1685096 -0.061012406 -0.3509837 -0.17136706 0.038822662 -0.38168427 -0.2659018 -0.30266008
0.074865304 -0.2126158 -0.2947276 -0.41647443 -0.21912514 -0.36822966 -0.2160005 -0.18764642
-0.20293596 -0.4563652 -0.17899443 -0.2733319 -0.29304346 0.01842305 -0.13827254 -0.05692732
-0.3817037 -0.441902 -0.19963183 -0.078848615 -0.13095473 -0.07793951 0.08790502 -0.03695771
-0.32344308 -0.11106748 -0.4652258 -0.3199264 -0.063262925 -0.48790938 -0.43319514 0.07548566
-0.37075844 -0.31598172 -0.35404277 -0.21036519 -0.18667269 -0.234808 -0.21511969 -0.09225169
0.05839269 -0.5177373 -0.19569112 0.10579055 0.03223334 -0.18214263 -0.11905501 0.09478314
-0.48583183 -0.34082836 0.06268511 -0.3148738 -0.2678965 0.04641883 -0.31132063 0.03198463
-0.45994332 -0.07755433 -0.51197124 -0.13320301 -0.4296125 -0.24016 -0.47894198 -0.5269692
-0.44292068 0.3162451 -0.25404027 0.4045719 -0.17193359 -0.2509099 -0.5016836 -0.36541888
-0.2678326 -0.02382687 0.029075883 -0.073601164 -0.124655634 -0.68240315 -0.21451396 -0.29658163
-0.32321253 -0.26120064 -0.509529 0.079443105 -0.38669628 0.12681352 -0.21576339 0.15431578

a2c_network.actor_mlp.4.weight f4 [64, 128]
00000000: d0bf 793e 4786 053e 8d6d 80bd 2f7a 393e
00000010: f4e3 8cbe 49f6 37bc 3e82 053e b7f9 bbbd
00000020: f046 9abe 20ea c23d af28 20be 07cc 713d
00000030: d8b3 73be 9267 febd 9777 cb3d 2bf9 393e
00000040: 923b 19bf 8ae3 673e ccbd a6bc 62dd 83be
00000050: 1325 733e 6526 613e 42e1 66be c886 9dbe
00000060: c554 2abf c9e1 f4be 6698 633e bfa5 a2be
00000070: 636b 313e 90ad 9fbe 0a9e a33d d12e b4bd
00000080: 7fb8 fe3d ae30 133e 6694 0b3e 5563 4abe
00000090: ffcc 12bd ee4b d0be 8d67 b03e fbe5 213e
000000a0: 2777 d0be 1187 11bd eace 95be fe17 463e
000000b0: 7a79 72be 28b1 0bbe 5e2f 5ebe 9b50 933d
000000c0: 3041 113e d4f2 463e 0c8d 823d fcc0 793e
000000d0: ded8 b8be 5489 53be 01bb 743e 6ea2 98be
000000e0: 314f 923e c5de b3bd d36b b43e 9e71 77be
000000f0: 6fe9 9bbe 3bcc c6be 4cf2 8ebe 1459 30be
00000100: 720c 83be 8326 0dbf db0b 3a3e 0557 2c3e
00000110: 6338 27bd ad40 043e 4c94 cd3d 595e 07bf
00000120: d5ad 85bd 0f1c 00bf 6130 f53d 253f 4a3e
00000130: 3f02 cebe 5432 9bbe 88ee b23d b12c 21be
00000140: 9614 fabd bc60 9f3e e5d6 a43e 2ac4 593d
00000150: 943c 00bf 487b 95bc 3c7f 073e 92e8 d5be
00000160: aa27 e0bc 9738 ddbd 6f80 7ebe 0584 9b3e
00000170: 68e4 083d 4373 bebe fbfe 84bd 543a 7cbe
00000180: 8f91 4cbe d678 24bf c670 cebd 7b8d 083e
00000190: 62d9 623e 1aab 1fbd b6b1 fd3d f4aa 713e
000001a0: 003b 1abe fd52 d6bd 8064 ee3e 972e 93be
000001b0: a71e 9b3e eb27 e1bd 8393 b13e d86e f23d
000001c0: ecaf b83e 9e98 6e3e c427 7abe ed57 65be
000001d0: 9f25 463e e78a d33e 0c65 2b3c 4633 aa3e
000001e0: 88d8 e83d 52e4 e43d 867f 93bd 665d 39bf
000001f0: 3be7 89be 0e82 08bf f9d7 87bc dd99 5bbd
00000200: f4dd 623e 9711 96be 2567 7b3e 4bcc f03e
00000210: 4492 863d 36f1 673e 98b6 e33e b391 66be
00000220: 2c50 5dbe f069 d6bc 8d74 45be bd3a 2c3e
00000230: c211 fcbe 2136 023e 12c9 efbd 422a 753e
00000240: 485d 44be efea 9fbd 2ec2 a0bd 430f 08bf
00000250: 672f 843e 499f 183c c139 fcbe 8638 9f3c
00000260: 3973 31be 6898 c8be 0cdb 6a3b 93ce 61bd
00000270: 8231 98bd 422d 90ba 0e8a 6e3e 889e 003f
00000280: edd8 6a3d 1a97 33be 1d85 803e 7f53 cc3d
00000290: 7c70 093e 83f0 a43e 444d 413e 78c4 533e
000002a0: 8afc 37bd a2c0 fdbd f5e3 08bc d0c8 9e3e
000002b0: a622 213b 6b05 44be 9591 853d f896 ba3d
000002c0: 246e f7bd 2519 7d3e f94b e8bd 88dd ec3d
000002d0: c292 663e 24af 3a3d fc25 f13d b1d5 5ebd
000002e0: 679b e23e 9e23 bbbd b15d 49be b1eb 203d
000002f0: 5c3b b0be 61ee c1bd 355f d4be 88f0 fbbd
00000300: eaa9 13be f07a 6ebe 01f3 20bc 318b 3b3e
00000310: 3a3f e93d df4d e03e 76d1 dcbd 911d 19bf
00000320: 3319 b63d f506 76bc 4e69 96ba f5ee 1dbe
00000330: be41 a1bd 90ed 0f3e 0a12 603e ce9d 73be
00000340: 71aa d33d b1af fb3e 3ac8 573d 120b 813d
00000350: 7c65 913d 81c7 1a3e d963 82bd d11f c1be
00000360: 5eaf 273e 6b97 593e 7e16 4f3e d064 d4bd
00000370: 3b74 b23b e2d8 87be 4648 2dbe 9112 9ebc
00000380: c225 373d 8e8e 87bd bcf4 29be cbad f6bd
00000390: 0f87 c6be b33d 9e3c 7724 24be ff79 813e
000003a0: c4ce 0d3d 07fb 05be 7504 943d f772 ea3c
000003b0: b4ce ed3c 475b 40ba fd95 f53d 392f 8e3e
000003c0: c49e 963e 491a 36be 9c6d 19be a61b 54be
000003d0: 398d 073e 426f e73d e025 e63d a338 463e
000003e0: 3d87 b73d d6e6 d8bd 7063 fcbc 0f12 25be
000003f0: c259 21bd 5d95 be3d 5ba7 0bbd 24f2 b2be
0.24389577 0.13039504 -0.06270895 0.18113016 -0.27517664 -0.011228153 0.13037965 -0.09178489
-0.30132246 0.09517312 -0.1564052 0.059032466 -0.23799074 -0.12422098 0.09934919 0.18161456
-0.5985652 0.22645393 -0.020354174 -0.2575484 0.23744611 0.21987303 -0.22546867 -0.30766892
-0.665356 -0.4782851 0.22226104 -0.3176708 0.17326121 -0.31187105 0.07989128 -0.08797992
0.124375336 0.14374039 0.13630828 -0.19764455 -0.03584003 -0.4068293 0.34454003 0.15810387
-0.40715906 -0.0355292 -0.29259425 0.1934509 -0.23679152 -0.13641798 -0.21697757 0.07193109
0.14185023 0.19428569 0.06374559 0.24390024 -0.36102957 -0.20657855 0.23899461 -0.29811424
0.28576043 -0.08782724 0.35238513 -0.24164435 -0.30451533 -0.3882769 -0.27919233 -0.1722148
-0.25595433 -0.5513689 0.18168585 0.1683007 -0.04082526 0.12915297 0.10038051 -0.5287834
-0.065272965 -0.50042814 0.11972118 0.1975065 -0.4023609 -0.30311835 0.087369025 -0.15739705
-0.12210958 0.3112849 0.32195202 0.053165592 -0.50092435 -0.018247262 0.1323213 -0.41779
-0.027362663 -0.10801809 -0.24853681 0.3037416 0.03342095 -0.37197313 -0.06493946 -0.24631625
-0.19977401 -0.6424688 -0.100801036 0.1333522 0.22153237 -0.038981535 0.12387411 0.2360037
-0.15061569 -0.104650475 0.4656105 -0.28746483 0.30296823 -0.10993942 0.34682855 0.11837548
0.36071718 0.23300406 -0.24429232 -0.22396822 0.19350289 0.41316912 0.010461103 0.33242244
0.11369425 0.11176361 -0.072020575 -0.7240814 -0.26934227 -0.5332345 -0.016582476 -0.053613532
0.22154981 -0.29310295 0.24551065 0.47030863 0.06570867 0.22650608 0.44475245 -0.22516517
-0.21612614 -0.026173562 -0.19282742 0.16819282 -0.49232298 0.12715961 -0.11708273 0.23941901
-0.19176209 -0.07808482 -0.07849537 -0.5314829 0.25817415 0.00931532 -0.49262813 0.019436132
-0.1732911 -0.39178777 0.0035836129 -0.055128645 -0.07431318 -0.0010999816 0.23294851 0.502419
0.057335783 -0.1753811 0.25101557 0.09976863 0.13421816 0.32214746 0.18877131 0.20680416
-0.044918574 -0.123902574 -0.00835513 0.31012583 0.0024587302 -0.19142692 0.06521908 0.09110826
-0.120815545 0.24716623 -0.11342616 0.11565691 0.22516921 0.045577183 0.11774823 -0.05440301
0.44259188 -0.09137653 -0.19664647 0.039287273 -0.34420288 -0.09469295 -0.41478887 -0.12301737
-0.14420286 -0.23289084 -0.009823562 0.18314816 0.11389013 0.4380941 -0.10782139 -0.5981074
0.08891525 -0.015016307 -0.0011475475 -0.15423186 -0.078738675 0.14055467 0.21881881 -0.23790666
0.103352435 0.4915748 0.052681185 0.063009396 0.07099435 0.15115167 -0.06366701 -0.37719586
0.16375491 0.21249168 0.20223424 -0.10370791 0.0054459847 -0.26532656 -0.16922101 -0.019295963
0.044713743 -0.06618987 -0.16597265 -0.12044867 -0.38774917 0.01931653 -0.16029535 0.25288388
0.034621015 -0.1308404 0.072274126 0.028619273 0.029029228 -0.000733782 0.119914986 0.27770403
0.29418004 -0.17783464 -0.14983219 -0.20713672 0.13237466 0.113005176 0.11237693 0.19357543
0.089613415 -0.105909035 -0.030809134 -0.1612017 -0.03939224 0.093058325 -0.03409515 -0.34950364

a2c_network.actor_mlp.4.bias f4 [64]
00000000: 2e9f b7be c36b 0cbe 837a 43be a3d7 16be
00000010: ed68 a9be 5348 e1bd 6dc6 02be da12 eebd
00000020: 0c96 94be e227 f1bd 1625 0bbe 5b99 fbbe
00000030: cdaa 34be 27d9 35be 180b 6ebe e2dd 1dbe
00000040: 4aa4 21be 7f89 2abe 95c2 a2bd 5e8c a3be
00000050: 7bbb 9ebe 6ba7 76bd 123d 9cbe 6fcc 06bf
00000060: 3fe3 c8be 60b2 20be 0cc8 e4bd f315 cebd
00000070: 2708 993e 6812 a9bd a997 a33c 48d7 23be
00000080: a84f 40be 7196 00bf f3d4 f7bd ebdd 6dbd
00000090: 5e9f ddbe 06a5 fabd 9775 12be f77c 18be
000000a0: 93ac f2bd ed78 16be aa3c 36be b739 1cbe
000000b0: 2ed6 abbd d26a c4bd f67c e3bd d017 2dbe
000000c0: 7d49 02be 58c6 00be 6b02 1ebe e184 c9be
000000d0: e0ef 87be dcfb c6bd 9c85 97bd 503f 65be
000000e0: 1dc3 05be c768 debd 3571 52be 1b04 2ebe
000000f0: 5092 e5bd cdb1 de3e 59d5 6cbe 503c 49be
-0.35863632 -0.13712983 -0.19089703 -0.14730696 -0.33087865 -0.11000123 -0.12771006 -0.116246894
-0.29020727 -0.11775185 -0.13588366 -0.49140438 -0.1764328 -0.17758618 -0.2324642 -0.15416673
-0.15785328 -0.16654013 -0.0794727 -0.3194303 -0.3100241 -0.060218256 -0.30515343 -0.5265569
-0.39235875 -0.15693045 -0.111709684 -0.1006278 0.29889032 -0.08255464 0.019969778 -0.16000092
-0.18780386 -0.50229555 -0.12101164 -0.058072966 -0.4328565 -0.12238507 -0.1430267 -0.1489142
-0.11849322 -0.14694567 -0.17796579 -0.15256391 -0.08390461 -0.09590687 -0.11107819 -0.16903615
-0.12723346 -0.12575662 -0.1543061 -0.3935919 -0.26550198 -0.09716007 -0.07398531 -0.22387433
-0.13062711 -0.108598284 -0.20550998 -0.16993754 -0.112095475 0.43495026 -0.2312826 -0.19651914

a2c_network.value.weight f4 [1, 64]
00000000: b60f 4bbb c57c 0fbc d108 873b a1fc 403c
00000010: ac27 ed3b c6b3 99ba 75b6 b03c 9d9e aabc
00000020: acab 54bc 0792 b9ba 36bc 923b 1d11 adbb
00000030: f335 e2ba 0de1 0fbd 9915 d63b f78e f4bb
00000040: 2a90 93bc b73b 8a3c 64cc 3eb8 549f ba3e
00000050: e433 8ebb 9bec 8d3c 6caf 03bb 7b78 50bb
00000060: ec33 69bc 0eb3 053a e8ea 063d 2a8d 373d
00000070: 4a25 13be 92f2 d83a ae61 f8bd 001d ff3c
00000080: e85b f839 259d 74bc 930d 943d a58f 063b
00000090: eaa3 21be cb99 623c 3f14 d13b 7f77 c23b
000000a0: 71b8 84bd eb31 253d d4bf b8bc 7724 28bc
000000b0: 8d4f 7fbc d7dd 43bc d2df ffbb f00d 2b3a
000000c0: 22ee 293c cfb8 283c ab07 4dbd 29e2 d13b
000000d0: b891 4b3c 77f3 803b 5dbf e1bc 7670 483b
000000e0: 1f81 8f3b 602d 813c 48e9 5dba 2012 393d
000000f0: 8ca1 12bc cb8b acbe 6fa4 64bb 8435 903b
-0.0030984706 -0.008757775 0.004120924 0.011778981 0.0072373953 -0.001172655 0.021571377 -0.020827586
-0.012980383 -0.00141579 0.004478003 -0.005281581 -0.001725851 -0.035126735 0.0065333364 -0.007463332
-0.018013079 0.016874177 -4.5489884e-05 0.36449683 -0.004339682 0.017324736 -0.0020093573 -0.0031810093
-0.014233571 0.00051002286 0.032938868 0.04481236 -0.14369693 0.0016551784 -0.12128006 0.031141758
0.00047370722 -0.014930044 0.072291516 0.0020532396 -0.15785185 0.013830612 0.0063805874 0.005934655
-0.06480492 0.04033081 -0.022552408 -0.0102626 -0.015582931 -0.011954746 -0.007808664 0.0006525209
0.010371717 0.010297968 -0.05005614 0.006405134 0.012424879 0.0039352733 -0.02755707 0.003058461
0.004379406 0.015768707 -0.00084652426 0.0451833 -0.008949649 -0.33700404 -0.003488805 0.004400911

a2c_network.mu.weight f4 [12, 64]
00000000: d942 ed3d 16d5 3abe 4a74 973b fa35 973d
00000010: 6061 01be c378 88be ecfc e03e 610f 22be
00000020: dc32 e4ba 4332 bcbd 462e 96bc cbd8 d1bd
00000030: 765d 62be 00fe abbd cb3d 40bd d961 73bd
00000040: 0c49 0cbd af0a e7bd 377f 2f3e 6a89 85be
00000050: cc37 08be 72ae 04bd ab59 4fbe 5ad8 053e
00000060: bfa5 883d 6480 3abc 3115 b0bd 99f9 7cbd
00000070: 4648 ff3d 25ce d03d 2a24 3d3d ce53 6c3e
00000080: c523 b53d 0f0f 67be b03c f23d 792c c43b
00000090: 1390 7d3c cb3b 09be 1a82 bf3e cc3f 13bc
000000a0: cff5 983d 90e7 a6be e4e0 f73d 1f65 93bd
000000b0: 5e47 d33d 6255 4c3e bf2d 4d3e c276 e73b
000000c0: bfc3 e93d c02b c6bd 2071 8bbe a504 b33d
000000d0: 3e63 c63c bcca f73b 8df6 903e e05d 7fbc
000000e0: 8431 2bbd 3b58 b1be aeed 1d3d a5e6 443e
000000f0: a87d 0b3d 24b7 893c 6d12 a0bd 0b0e 6dbe
00000100: c7b2 d0bd e433 be3e f01e 803e 2072 5bbe
00000110: d983 8f3d 2dcb 93bd 657b c9bd fa3a be3d
00000120: 89a2 39be 6d89 033e 54cf eebc 53c2 863d
00000130: 3111 0fbe 684b 6fbe e50c 5abb b8bc cf3d
00000140: 6e1a 303e 8c0f bc3d 41ad 463e dfad 23bd
00000150: 1568 2abe 94ed 033c 13b6 65bd 278b 38be
00000160: cf86 6dbe ad63 d83d c7b9 13be f380 c0bd
00000170: e485 3ebd f7b8 2e3e 080c 4bbe 459d c43d
00000180: 4b1d abbe 42a3 743e ca01 26bd f4f8 cfbc
00000190: 31c9 983d 4862 80be 6db6 433e b228 013e
000001a0: 46be 86bd a539 9c3d 575d 13bd 2aa7 66bd
000001b0: b57c 7c3e 256e 453e 0755 a9bd 872e 58be
000001c0: 43e2 4cbe 900d 563e 9ff2 7fbe c2ce acbc
000001d0: 2a26 33be 962c 083e b9f0 eb3d 94c3 8f3d
000001e0: ee8b 90bd 0212 973e d0a6 c9bb 39bb a73d
000001f0: 1c52 1b3e 59f0 1ebd 7604 393c ec8a 713d
00000200: 16bf 603d 48b8 a5bd 6e80 153e 603f 32be
00000210: e8cf a93e 4c91 bcbd 1d4e 743e 9a6c cbbd
00000220: 1b21 fb3d 6b77 903a 31a2 edbc abcb ebbd
00000230: 195c dfbd 3e32 69be 6d7f 8ebd 05d4 603e
00000240: d1bc 24be 43ca 3cbe dbc6 33bd 2a13 ce3b
00000250: 8610 3a3d 43a7 febd c5f9 bcbe 3401 23be
00000260: 160e 07be 1208 50be 3760 353e 5daf 8fbc
00000270: 32da e0bd ed75 47be 7662 9e3a c303 e33b
00000280: 5aa3 bb3d 1f5c bd3d 68c7 e93c ce41 58bd
00000290: 0d1b d9bc 338b 67bc 439b 6f3d e541 483e
000002a0: b680 1cbe 9a10 63bd 4e87 d53d ba91 0c3e
000002b0: 32af d1bd a363 04be 6ff7 aebe 329e d13d
000002c0: 8bbe 023d bfc0 cabb 7f83 17be 36b9 183e
000002d0: a332 183e c889 663e 64a1 4d3d e507 9abe
000002e0: 2f5d 673d 92ec 8bbb eafd e13d 81c5 563e
000002f0: 0d42 bc3d cdf7 403d 0554 01be 003f 5cbe
00000300: be1d c6bd 8462 343e 2d70 f1bd b155 383e
00000310: 90fa f0bc 193a 98be 1502 18be 4b0d 2cbe
00000320: 2f2d 72be 24c1 253e f7d1 19be f3d3 ddbd
00000330: de8c aabe 8073 d53c 1ca6 053e 0163 55be
00000340: ab47 8a3d d8e6 ac3b 9d66 a7be 6064 133e
00000350: 9291 0e3d a9a6 103e 5829 853d d312 82be
00000360: 2090 ca3b 1649 803e 4acf a7bc 4ed2 a0bd
00000370: 5999 f63d 1005 8fbe b02f 0dbd 872d 143d
00000380: 8810 863e eb94 61be de91 093c 9a67 e9bd
00000390: 2367 a6bd 521e cbbd cc3d 41be 2043 c43e
000003a0: c5d7 9c3d 91e6 6abc 823c 993d fe0e fbbd
000003b0: f344 973d 9fe1 27be 33da eabd 7181 c63d
000003c0: 34f8 d03d 0fb5 303e 5f07 7fbb e4f3 e73d
000003d0: f4b2 5e3c e958 fc3d ba09 0c3d 2406 febb
000003e0: 58e2 5b3e 528a ba3d 2253 e3bb cfbe 4d3c
000003f0: 7cae cd3c 0d9e bdbd 0e85 93bd a350 4d3d
0.11585016 -0.18245348 0.004622017 0.07383342 -0.12634802 -0.26654634 0.43942964 -0.15826179
-0.0017410177 -0.09189274 -0.018332612 -0.10246428 -0.22105965 -0.08398056 -0.04693393 -0.059419487
-0.03424935 -0.112813346 0.17138372 -0.260814 -0.13302535 -0.032392927 -0.2024905 0.13070813
0.066722386 -0.01138315 -0.08597792 -0.061761472 0.12464957 0.10195569 0.046177067 0.23078844
0.08844713 -0.22564338 0.118279815 0.005986747 0.0154762445 -0.13401715 0.37403947 -0.008987378
0.07468759 -0.32598543 0.12103441 -0.07197022 0.103163466 0.19954446 0.20036982 0.0070637176
0.11414289 -0.096763134 -0.27234745 0.0874112 0.024217244 0.0075620096 0.28313103 -0.015586346
-0.04179527 -0.34637627 0.038556747 0.19228609 0.034055382 0.016810961 -0.078160144 -0.23149888
-0.10190349 0.37148964 0.25023603 -0.21430254 0.0700757 -0.07216487 -0.09837989 0.09288593
-0.18128408 0.12845393 -0.029151596 0.06580033 -0.13971402 -0.23368609 -0.0033271846 0.10143417
0.17197582 0.09182653 0.19402029 -0.03996074 -0.16641267 0.0080522485 -0.056081843 -0.18021832
-0.23195957 0.10565887 -0.14426337 -0.09399595 -0.046514407 0.17062746 -0.19828808 0.09600309
-0.33420786 0.23890403 -0.04052905 -0.025387265 0.07460249 -0.25074983 0.19112559 0.1261318
-0.065792605 0.07628182 -0.035977688 -0.056311764 0.24656947 0.19280298 -0.08268171 -0.21111499
-0.20008187 0.20903611 -0.24994896 -0.021094684 -0.17495027 0.13298258 0.115205236 0.070197254
-0.070579395 0.29505926 -0.006153919 0.08190007 0.15168041 -0.038803432 0.0112925675 0.058970377
0.054869734 -0.080917895 0.14599773 -0.17406988 0.33166432 -0.09207401 0.23857923 -0.099328235
0.12262174 0.0011021917 -0.029008003 -0.11513456 -0.10906238 -0.22773072 -0.06957898 0.21955879
-0.16087653 -0.18436532 -0.043890815 0.0062889056 0.045425914 -0.124342464 -0.3690931 -0.15918428
-0.13188967 -0.20315579 0.17712484 -0.017539674 -0.109791175 -0.19478579 0.0012083787 0.0069279387
0.09162016 0.09246086 0.028537467 -0.05279713 -0.026502157 -0.014132309 0.05849768 0.19556387
-0.15283474 -0.055435754 0.10426198 0.13727465 -0.10238494 -0.12928633 -0.34173152 0.102352515
0.031919997 -0.006187528 -0.14796256 0.14914402 0.14863066 0.22513497 0.050202742 -0.30084148
0.05648535 -0.0042701447 0.110347584 0.2097378 0.09192286 0.04711132 -0.12629707 -0.21508408
-0.096736416 0.17615706 -0.11788974 0.18001439 -0.029416353 -0.29731825 -0.14844544 -0.16801946
-0.23650049 0.16186959 -0.15021501 -0.10831442 -0.33310598 0.026056051 0.13051647 -0.20838548
0.06751951 0.005276542 -0.32695475 0.14393759 0.034806795 0.14126076 0.06502026 -0.25404987
0.006181732 0.2505576 -0.020484585 -0.078526124 0.120409675 -0.2793355 -0.034469306 0.03617623
0.26184487 -0.22029464 0.008396594 -0.113967136 -0.081251405 -0.099178925 -0.1887123 0.38332462
0.07658342 -0.014337198 0.07482244 -0.12258719 0.07386198 -0.16394661 -0.114673994 0.09692658
0.10203591 0.17256568 -0.0038914306 0.11325815 0.01359247 0.12321646 0.034188963 -0.007752197
0.21473062 0.09108414 -0.0069374004 0.012557699 0.025107615 -0.092586614 -0.072031125 0.05012573

a2c_network.mu.bias f4 [12]
00000000: d5a1 c1bd 9137 7abc 0d10 d9bc 569d b73d
00000010: c55f 32be bba0 e03c ae57 6e3d e73f 973d
00000020: dcf2 c2b9 bc26 06be 4806 573e 92b9 173d
-0.09454695 -0.015272037 -0.026496911 0.08965556 -0.17419346 0.027420392 0.058189087 0.07385235
-0.00037183508 -0.13100713 0.2099849 0.037042208

exp_avg f4 [12]
00000000: de72 e2ba 9b47 293a 2e94 e03a 4ac4 a73a
00000010: 335f c139 f6f5 4c39 37d1 b23a 74e4 20b9
00000020: 04d0 dbba 51d4 1939 4146 933a d0a0 b5ba
-0.0017276665 0.00064575084 0.0017134005 0.0012799588 0.00036882758 0.00019546584 0.0013642673 -0.00015343894
-0.0016770368 0.00014670311 0.0011236147 -0.001385713

exp_avg_sq f4 [12]
00000000: a96e 5938 2b5f 7138 1ec7 5c38 dfec 6338
00000010: 9462 6238 5d71 5738 e241 7138 cf44 5338
00000020: e9d0 7438 5610 6e38 bf55 5a38 da2d 6e38
5.1839892e-05 5.754751e-05 5.263753e-05 5.434162e-05 5.3974407e-05 5.1365572e-05 5.7520236e-05 5.0370403e-05
5.8368696e-05 5.6758836e-05 5.2055108e-05 5.6786324e-05

exp_avg f4 [256, 48]
00000000: fcee 5eb7 4c38 08b7 78e4 aab7 83fa f837
00000010: 0e15 32b6 369b 8635 5df7 2cb7 02ab 9f37
00000020: 24a9 01b8 d29c 3cb5 c66d bbb7 a275 68b8
00000030: a16e 1238 8f4d bb37 3304 59b7 99cb c2b7
00000040: 6c27 e436 79ab cab6 deb5 1138 d6b8 2937
00000050: a34c 1bb7 7885 2237 beb0 91b7 e364 9537
00000060: f2aa 9736 6501 c236 8163 5db6 844e adb7
00000070: 4acf e736 460d e136 8227 7b37 6dd5 9437
00000080: 2124 29b7 5cc5 be36 9a39 2ab7 0558 48b6
00000090: 3a2e 3db7 0887 24b6 ba61 9937 74b3 ccb7
000000a0: 770e c636 b800 29b6 15c1 a337 5dd3 f337
000000b0: f225 4fb7 1401 d236 0c3c 22b5 81c2 ddb7
000000c0: a0b2 5937 d38e 6237 4ac1 c3b7 a8e7 8837
000000d0: 97cf 3bb7 5ab7 cf35 6306 ad37 a00c 2a37
000000e0: 49e0 67b7 063a 63b7 1d21 23b5 96fc acb7
000000f0: d7db f0b6 aea3 11b8 1a90 92b7 ebed beb7
00000100: 6241 8237 466c 27b6 a15e 4cb7 32ea fc36
00000110: b2cd b937 73ad 9734 b6cf c837 d78b 1436
00000120: 153e 2db7 10d8 3eb7 992a a3b7 ba5b c1b7
00000130: 2440 8a37 87f3 47b7 d6c5 ad37 aa0f 2237
00000140: a3d4 3db7 a0ff c637 625d d236 f2b3 ad37
00000150: 1357 c0b7 ca27 c5b6 91b4 8737 d557 8eb7
00000160: 4b0a 63b6 03ae bc36 e961 8937 c39c 7a36
00000170: 872a 16b7 ade3 0336 7dbc ab37 df1f f835
00000180: bf61 62b7 43f8 cb37 6450 8ab7 6bf9 6637
00000190: c027 26b8 f448 4236 8324 1b38 224e 1838
000001a0: 3bde dbb7 3e83 5838 3892 a437 ca33 ceb7
000001b0: 839f edb7 3fce 1d37 cd1d 2fb8 135c aeb7
000001c0: f47e 1137 0650 4237 78f4 a6b7 95f8 20b5
000001d0: 0339 70b7 4f8b 4138 c878 bf37 54a7 de37
000001e0: de13 3eb8 774c 6037 4c1f 69b8 6d9e aa36
000001f0: fe6c 0038 b3ec 9db6 461d dd36 d350 3c37
00000200: ce3f 79b7 f615 3438 3057 ab37 c707 9436
00000210: 873f 15b6 2861 fd35 c293 45b8 26ee 8c37
00000220: 4a5c 22b7 97dd 41b7 e43b bc37 12f5 fd37
00000230: 656b 20b8 d402 a937 15be 98b7 940d cd37
00000240: a63c 8635 f03a bc35 838e 9a35 94f6 9237
00000250: a64e 92b5 5c9d 6e36 cb29 3f37 0f18 0c38
00000260: e7ad 0231 39ad 9e36 6491 38b6 f21f dab5
00000270: 998e beb5 d0a9 c9b7 fd33 c9b6 b6f4 54b8
00000280: dba5 b7b6 5e18 dd37 acf7 66b7 6300 a4b5
00000290: 9e45 f137 060b 06b8 03a4 4db7 6562 12b8
000002a0: 29bc 2eb6 401e 23b7 bf1b 5f34 f8fd 00b7
000002b0: 03fb 1437 7c7f 5436 01f2 c4b7 ced2 3437
000002c0: 079e f937 1676 2437 f065 5ab7 3224 cab7
000002d0: 200a 41b6 c199 10b7 b7cf a4b6 a616 a737
000002e0: 8f0c bbb6 aaf7 c0b7 8726 3eb7 a14d 6737
000002f0: bea9 7136 ba48 7837 cbcf 13b7 8dca 03b8
00000300: 40e9 3db7 4bd5 6b37 558d 8636 e8d1 2936
00000310: 2b7c b8b7 2ee5 5237 99fa f037 7169 8a37
00000320: aa83 bdb7 3f05 2438 72fa 3137 8f67 d3b7
00000330: 6c29 88b7 82f1 c536 7f2b 46b6 d039 c6b7
00000340: 7276 dc37 715e 2a38 fa7b 6136 251b eb37
00000350: 9f8f 9f37 f404 1638 7877 6b36 5bc9 4e37
00000360: 5026 d537 aa96 1eb8 304a f1b5 c2c7 d737
00000370: 9a43 cb37 84f5 f537 7024 c8b7 92d4 2f37
00000380: 78db b937 772b 8237 b119 8037 7845 a2b4
00000390: 5898 f136 21e6 aab7 8eed 15b7 2263 e737
000003a0: 69d6 f9b5 4bf3 8db7 7090 4737 c23f 4c37
000003b0: 1b84 1db8 78e3 4937 c193 c337 dc56 4537
000003c0: 01c4 9c37 c2df 41b7 8253 5237 0861 6a37
000003d0: 1715 0637 afea 9037 9da4 1035 bd67 0138
000003e0: ae5b 2db7 22b4 00b8 7ee7 a437 6084 9a37
000003f0: b820 1eb7 b8b9 a3b6 a5b3 d0b7 f76f 91b7
-1.3287874e-05 -8.119339e-06 -2.0371968e-05 2.9680557e-05 -2.6536322e-06 1.002895e-06 -1.0309593e-05 1.9033909e-05
-3.091352e-05 -7.026366e-07 -2.2343254e-05 -5.5422664e-05 3.4912144e-05 2.2328253e-05 -1.2935186e-05 -2.322141e-05
6.799519e-06 -6.040031e-06 3.474007e-05 1.011622e-05 -9.256563e-06 9.687028e-06 -1.7367649e-05 1.7809163e-05
4.5200513e-06 5.781813e-06 -3.2989485e-06 -2.0659769e-05 6.908468e-06 6.7070678e-06 1.49699645e-05 1.7742359e-05
-1.0081597e-05 5.685417e-06 -1.0146201e-05 -2.9853556e-06 -1.1276041e-05 -2.4516503e-06 1.8284529e-05 -2.440226e-05
5.9025438e-06 -2.518338e-06 1.9521025e-05 2.9066281e-05 -1.2346996e-05 6.258613e-06 -6.043708e-07 -2.6435826e-05
1.2975797e-05 1.3503904e-05 -2.3335819e-05 1.6320337e-05 -1.1194402e-05 1.5476064e-06 2.0626181e-05 1.0135729e-05
-1.3820893e-05 -1.3543764e-05 -6.077042e-07 -2.0621617e-05 -7.17815e-06 -3.4723133e-05 -1.7471659e-05 -2.2760554e-05
1.5527654e-05 -2.4947963e-06 -1.218138e-05 7.537449e-06 2.2149503e-05 2.8252143e-07 2.393858e-05 2.2135116e-06
-1.0326058e-05 -1.13751885e-05 -1.945095e-05 -2.3050106e-05 1.648075e-05 -1.1918025e-05 2.0715332e-05 9.6595995e-06
-1.1314786e-05 2.3722474e-05 6.269359e-06 2.0707e-05 -2.292873e-05 -5.8756896e-06 1.6177337e-05 -1.696862e-05
-3.3831627e-06 5.6230942e-06 1.6377266e-05 3.734415e-06 -8.950598e-06 1.9653046e-06 2.047256e-05 1.8486716e-06
-1.3493408e-05 2.4315092e-05 -1.6488317e-05 1.376714e-05 -3.9614504e-05 2.8950717e-06 3.6988884e-05 3.631239e-05
-2.6210319e-05 5.1620642e-05 1.9618412e-05 -2.458123e-05 -2.832688e-05 9.40595e-06 -4.1751005e-05 -2.0785292e-05
8.672232e-06 1.1581933e-05 -1.9902582e-05 -5.996638e-07 -1.4318389e-05 4.6144527e-05 2.2825217e-05 2.654238e-05
-4.5318033e-05 1.3369244e-05 -5.5580676e-05 5.084838e-06 3.0619085e-05 -4.70652e-06 6.589721e-06 1.1224492e-05
-1.4856412e-05 4.2935797e-05 2.0425388e-05 4.411649e-06 -2.2239708e-06 1.8878245e-06 -4.710607e-05 1.6800197e-05
-9.67744e-06 -1.1555289e-05 2.2439235e-05 3.027407e-05 -3.824699e-05 2.0147687e-05 -1.8208326e-05 2.4444227e-05
1.0001429e-06 1.4024245e-06 1.151537e-06 1.7519378e-05 -1.0900737e-06 3.5556359e-06 1.1394218e-05 3.3401007e-05
1.9016342e-09 4.7289327e-06 -2.7502765e-06 -1.6251563e-06 -1.4197605e-06 -2.4040142e-05 -5.996319e-06 -5.0772644e-05
-5.473133e-06 2.63566e-05 -1.3766734e-05 -1.2219065e-06 2.8761857e-05 -3.1958356e-05 -1.2257139e-05 -3.490075e-05
-2.6037544e-06 -9.7226e-06 2.0778587e-07 -7.688526e-06 8.879931e-06 3.1664667e-06 -2.3477713e-05 1.0777918e-05
2.97567e-05 9.802656e-06 -1.3017547e-05 -2.4097131e-05 -2.8765135e-06 -8.6188675e-06 -4.911762e-06 1.9918498e-05
-5.5744963e-06 -2.3003511e-05 -1.1333853e-05 1.3786747e-05 3.6010601e-06 1.4798885e-05 -8.810263e-06 -3.1421474e-05
-1.1319586e-05 1.4056753e-05 4.0099644e-06 2.5305144e-06 -2.199233e-05 1.25703355e-05 2.8726923e-05 1.6499982e-05
-2.2591867e-05 3.9105533e-05 1.06083335e-05 -2.5201383e-05 -1.6231752e-05 5.8991727e-06 -2.9529617e-06 -2.363036e-05
2.62812e-05 4.0619114e-05 3.3599777e-06 2.8026823e-05 1.9021156e-05 3.57674e-05 3.5087269e-06 1.2325439e-05
2.540942e-05 -3.7810452e-05 -1.7977491e-06 2.5723017e-05 2.4230965e-05 2.9320603e-05 -2.3858825e-05 1.0480306e-05
2.2155917e-05 1.5517448e-05 1.5270753e-05 -3.0225397e-07 7.200095e-06 -2.0372741e-05 -8.936402e-06 2.7583508e-05
-1.8614347e-06 -1.6921802e-05 1.1894954e-05 1.2174192e-05 -3.755475e-05 1.2033495e-05 2.3314615e-05 1.17623385e-05
1.868792e-05 -1.1555794e-05 1.2536419e-05 1.3970079e-05 7.991933e-06 1.727542e-05 5.3883724e-07 3.085261e-05
-1.0332949e-05 -3.068534e-05 1.965812e-05 1.8419873e-05 -9.425152e-06 -4.879399e-06 -2.4879186e-05 -1.7337485e-05
