omniisaacgymenvs/scripts/runs/Anymal/nn/last_Anymal_ep_350_rew_-0.9583126.pth (torch, 672599 bytes, 36 tensors)

value_mean_std.running_mean f8 [1]
0	0xbff96abee2299218	-1.5885609468906576

value_mean_std.running_var f8 [1]
0	0x404e40b9f801f8c8	60.505675316775125

value_mean_std.count f8 []
0	0x4190680004000000	68812801.0

running_mean_std.running_mean f8 [48]
0	0x3fa65d12023ceb03	0.04367882039374218
1	0x3f9153596147ff55	0.016919514238906547
2	0xbfe33c828047eb43	-0.601136446522425
3	0xbf9333a0ec502695	-0.018751635001570028
4	0xbf6020fc04b10367	-0.001968853209774957
5	0xbf551db3858543ff	-0.001288819612529801
6	0x3f6b8cd22ad24048	0.0033630471066956914
7	0x3f7da081bd4d48cb	0.007233149332778586
8	0xbfeec930fd73f5c3	-0.9620594930890366
9	0xbfc689f2c5101dd8	-0.17608484861578577
10	0x3f99a4921de276f5	0.025041850160611074
11	0xbf3091be8257e56e	-0.0002528276548613072
12	0xbfc4f70f33ba3dd0	-0.16378965402371515
13	0xbfc2365338460f07	-0.14228286979425084
14	0x3fbfc7b3401c4e67	0.12414093318175788
15	0x3fc2448a84d1699d	0.14271670804266715
16	0x3f8dcbe598e82832	0.01454905865559306
17	0x3fb4fe0246608b58	0.08200086801711615
18	0xbf927bac4120d489	-0.018049899554359903
19	0xbf60a0baa4863a36	-0.0020297665943822775
20	0x3fb669eeca2dde77	0.08755390583052668
21	0xbfc38586af2aa769	-0.15251239350373716
22	0x3fc116dc96c87aa2	0.1335101829763135
23	0xbfb9d418b5ef5fb4	-0.10089258615278035
24	0xbf9be1e622406a41	-0.02722892364554697
25	0xbf938657bb552a8a	-0.01906716423881475
26	0x3f9e044261e1a424	0.029313122963149266
27	0x3f9b4d50774ce3f7	0.026662118226543154
28	0xbf70e7664b115c0e	-0.004126929839080707
29	0x3f97bc5418bd0934	0.023179353723443444
30	0xbf86cf1c522e4518	-0.011137219675023277
31	0x3f784f870817a2d6	0.005935218302945263
32	0x3f89839174753d37	0.01245797764445787
33	0xbf9e3a81bbf02629	-0.029520060630636422
34	0x3fa105965791ffd5	0.03324575251554022
35	0xbf96de60ae7e98c4	-0.022332678461361125
36	0xbfb520a7a52059f2	-0.08252952367215707
37	0xbfabdf064ccf39ee	-0.05443591773620314
38	0x3fb4eace6b80d36a	0.08170786022749402
39	0x3fb0fdf7620f21f9	0.06637521881123822
40	0x3f90e7f36db8d4d9	0.016509822437190323
41	0x3fad46b8b9771d68	0.057180187835508545
42	0xbf9570e07f6675c6	-0.020938403869527077
43	0x3f6f5c2663bd9c4f	0.003828120212279219
44	0x3fa0878fc5f57c6a	0.032284253039272695
45	0xbfb1a03d3796adf8	-0.06885130507605897
46	0x3fb9379c86ccfd3f	0.09850481310876534
47	0xbfa71f435bb2571a	-0.045160393660962764

running_mean_std.running_var f8 [48]
0	0x3fe2d1f87d29ddc7	0.5881311840629956
1	0x3fdfea762ca014a5	0.49868540151539725
2	0x3fe8288716dfb28d	0.754947228122164
3	0x3fc5ea9066fce2ae	0.1712208273763926
4	0x3faa0447d1adc608	0.050813907952839854
5	0x3fb70b1878a6bbf2	0.09001305528248318
6	0x3f94f05c4a458cfb	0.02044815257376074
7	0x3fa749058f7b9311	0.045478986515979376
8	0x3f814fb677e7d0d5	0.008452821287371052
9	0x4015549fd9a7c01e	5.332641030181575
10	0x3ff4d843d488cbe6	1.3027990629313932
11	0x3f9505bf3cc71bf5	0.020529735645847997
12	0x3fc007150572e67e	0.12521612897926454
13	0x3fc1acbebb06806d	0.13808426029300183
14	0x3fc20dfc2f2eadbe	0.14105179122758033
15	0x3fc23123803af105	0.14212459336511798
16	0x3fbb9b35dccf2997	0.10783707276201536
17	0x3fc081aba92f45da	0.12895723114938457
18	0x3fbe8d61aee8d000	0.11934481163262944
19	0x3fbeb00ab30c507b	0.11987368460933283
20	0x3fc73d81cf47b0ef	0.18156454678626896
21	0x3fcc039b2c7ba7a3	0.21886005088827884
22	0x3fc80bf34b39f678	0.18786469624676605
23	0x3fcb88d2d16eb6ed	0.2151130221004033
24	0x3f7eaba5282cceb0	0.007487912315628328
25	0x3f8169f520671233	0.00850287919173196
26	0x3f8343921455eb56	0.009406224485010089
27	0x3f8288a57690a382	0.009049694710556503
28	0x3f816f3b0023e4a6	0.008512936536577986
29	0x3f81f61a55c435fa	0.008770185224899574
30	0x3f80ed2035913e0b	0.008264781603570822
31	0x3f81b50478b2665e	0.008646044667602822
32	0x3f9b4f344e219b96	0.026669327992205526
33	0x3f9d2333a2cb230b	0.02845459633934681
34	0x3f9eba4cc61cc445	0.03000755271131463
35	0x3fa05f666a8872f0	0.03197784471942622
36	0x3fe077655b047ddf	0.5145746972738684
37	0x3fe06b5a8bb6f1a6	0.5131046990205064
38	0x3fe09bbc5638c4fc	0.5190107044237773
39	0x3fe0139b3ed4e5e1	0.5023933627300573
40	0x3fe07c40964a9d33	0.5151675162677861
41	0x3fe09a92339e523d	0.5188685424969389
42	0x3fe04fd81f875193	0.5097466102402443
43	0x3fe0a405af36abdd	0.5200222417964785
44	0x3fe053acf37fd412	0.5102143054815562
45	0x3fe00d1f84e7336f	0.501601943565772
46	0x3fe072a228b73497	0.5139933390834298
47	0x3fe0c02307387a8d	0.5234542027499899

running_mean_std.count f8 []
0	0x4180680008000000	34406401.0

a2c_network.sigma f4 [12]
0	0x40091080	2.141632
1	0x3ffe96f3	1.9889816
2	0x4007e8eb	2.1235912
3	0x40032635	2.049207
4	0x400583c1	2.0861666
5	0x4003797d	2.05429
6	0x3ffeeb03	1.991547
7	0x40046160	2.0684433
8	0x3ff5543a	1.9166329
9	0x3fec7eb5	1.8476168
10	0x40081b1d	2.1266549
11	0x3ff55029	1.9165088

a2c_network.actor_mlp.0.weight f4 [256, 48]
0	0x3e809853	0.25116214
1	0xbe7901ae	-0.24317047
2	0x3bf885ee	0.007584325
3	0x3d985c5d	0.07439492
4	0xbecf13e7	-0.40444872
5	0x3e4a50bd	0.19757362
6	0x3e7f3919	0.24924125
7	0xbc546dc4	-0.012965623
8	0x3e0daee3	0.13836245
9	0xbcd3b334	-0.025842287
10	0x3dff0187	0.12451463
11	0xbe4b7b03	-0.19871144
12	0xbdefc35a	-0.11707182
13	0x3dac6d9c	0.08419344
14	0xbdaef89a	-0.08543511
15	0x3e07c3b6	0.13258252
16	0x3c50aac9	0.012736031
17	0xbe646780	-0.22305107
18	0x3e685e24	0.22692162
19	0xbe6fa3d8	-0.23402345
20	0xbde67d6c	-0.11254391
21	0x3bf0a3d8	0.0073437504
22	0x3e13956c	0.14412469
23	0x3d94065a	0.07227774
24	0x3c897cc3	0.016783124
25	0xbdc26ea9	-0.09493763
26	0xbe81fc22	-0.25387675
27	0xbe4538d2	-0.19259956
28	0xbda49865	-0.080368795
29	0x3bd735e4	0.0065677036
30	0x3d2862e4	0.041109934
31	0x3ed519ae	0.41621155
32	0xbe74f9dc	-0.23923439
33	0xbd482d3e	-0.04887127
34	0x3e9cd4fa	0.30631238
35	0x3d09b563	0.03362025
36	0x3d93a125	0.0720847
37	0xbe19a297	-0.1500343
38	0x3e070b03	0.13187794
39	0xbdced136	-0.100984976
40	0xbd095949	-0.033532415
41	0x3e4b6fe2	0.19866899
42	0x3e79ebae	0.24406311
43	0xbe95941a	-0.29214555
44	0x3e412b5f	0.18864201
45	0x3e6a22c4	0.22864825
46	0xbe904279	-0.28175715
47	0xbe79057c	-0.24318498
48	0x3eaab2e0	0.33339596
49	0xbd80b605	-0.062847175
50	0x3e60dbcf	0.2195885
51	0xbe5046f8	-0.20339572
52	0xbe550667	-0.20803224
53	0x3dc118c0	0.09428549
54	0xbcf6a0fb	-0.030106058
55	0xbef9b9a6	-0.4877445
56	0x3ccadc99	0.024763392
57	0xbe3e6624	-0.18593651
58	0x3ca6daeb	0.02036806
59	0xbe863ac3	-0.26216707
60	0x3aab7393	0.0013080708
61	0xbd195cd0	-0.03744203
62	0x3e60215c	0.21887726
63	0x3e2ec778	0.17068279
64	0x3e888bb4	0.26669085
65	0xbe48b434	-0.19599992
66	0xbe7c87c1	-0.24661161
67	0xbe4ed8c9	-0.20199884
68	0xbe0f42f1	-0.1399038
69	0xbd978c07	-0.07399755
70	0x3e10f5a3	0.14156203
71	0xbe43407d	-0.19067569
72	0x3ea880af	0.32910678
73	0xbcfc87f7	-0.030826552
74	0xbd584e60	-0.05280912
75	0xbefe4400	-0.49661255
76	0xbe9b745e	-0.3036222
77	0xbea76378	-0.32693076
78	0xbe882f4d	-0.26598588
79	0xbde2be4b	-0.11071452
80	0x3ec897cb	0.3917831
81	0x3e739bec	0.23789948
82	0x3e5de9af	0.21671174
83	0x3d6e4b44	0.058177248
84	0xbf06bc0f	-0.52630705
85	0x3ece74f3	0.403236
86	0x3cecf16f	0.028923718
87	0xbd6f749b	-0.058460813
88	0xbf0d4cdc	-0.55195403
89	0xbe6ce0aa	-0.23132578
90	0xbe1a7b71	-0.15086152
91	0x3e115cf9	0.14195623
92	0x3eeddac3	0.46455964
93	0xbe856179	-0.26050928
94	0xbd0d0afc	-0.034434304
95	0xbe7cc65a	-0.2468504
96	0xbe9be688	-0.3044932
97	0x3c892ef2	0.016746018
98	0x3efc9073	0.49328956
99	0x3e73f486	0.23823747
100	0x3eca9a4a	0.39570838
101	0xbcdd525f	-0.027016817
102	0x3e04ce92	0.12969425
103	0x3dbaed14	0.0912725
104	0x3e47c79c	0.19509739
105	0x3dc675ec	0.096904606
106	0x3e241de7	0.16027032
107	0xbe848758	-0.2588451
108	0x3e6db1e4	0.23212391
109	0xbd92303f	-0.071381085
110	0x3dd9864c	0.10621318
111	0xbccdaa37	-0.025105579
112	0x3e875fd9	0.26440313
113	0xbc3612ce	-0.011112882
114	0xbe011dcf	-0.12609027
115	0xbe94c939	-0.2905977
116	0x3e636622	0.2220693
117	0x3e843ad3	0.2582613
118	0xbe7eb096	-0.2487205
119	0x3e5ab7b2	0.21359137
120	0x3d9aead3	0.075643204
121	0xbe9865ef	-0.2976527
122	0xbe97980c	-0.2960819
123	0x3c5d84a2	0.013520392
124	0x3ee054ed	0.43814793
125	0xbe85d9a5	-0.26142612
126	0xbe9bb2cb	-0.30409846
127	0xbeb8099a	-0.35944825
128	0xbdd2a4e4	-0.10285357
129	0x3ecf717a	0.40516263
130	0x3db9ed1c	0.09078428
131	0xbe8d3030	-0.27575827
132	0x3ec24f4a	0.37951118
133	0x3e1eeeb5	0.15520747
134	0xbed53b14	-0.41646636
135	0xbb92594c	-0.0044662114
136	0x3f0c8e67	0.5490479
137	0x3dcfebdf	0.10152411
138	0x3e0dd201	0.13849641
139	0xbf3130b9	-0.6921497
140	0xbe1c9126	-0.15289745
141	0x3e94e20b	0.29078707
142	0xbe15b631	-0.14620282
143	0xbc9d4df8	-0.019202217
144	0x3a632006	0.00086641347
145	0x3eb7ff2d	0.3593687
146	0x3d1c34e1	0.038136367
147	0xbd3f1a46	-0.046655916
148	0xbe1ddd98	-0.15416563
149	0x3dd427a8	0.10359126
150	0xbd969b2f	-0.07353818
151	0x3b584152	0.0032997918
152	0xbe1ab4e7	-0.15108071
153	0xbe03b1ad	-0.12860747
154	0x3d9a52d8	0.075353324
155	0x3cc27e49	0.023741858
156	0x3cd8a192	0.02644423
157	0xbe873fa0	-0.2641573
158	0xbeabf42b	-0.33584723
159	0xbd8653fb	-0.06558987
160	0xbe2ea7cb	-0.17056195
161	0xbe00feac	-0.1259715
162	0x3d9721d7	0.07379501
163	0x3d624681	0.05524302
164	0xbe9c2b0d	-0.30501595
165	0xbe74e564	-0.2391563
166	0xbdd71f87	-0.1050406
167	0x3eb549b7	0.35407802
168	0x3d2510ba	0.040299155
169	0x3e3ea27b	0.18616669
170	0x3e785583	0.2425137
171	0x3d478191	0.04870755
172	0xba8d0fce	-0.0010762156
173	0xbde86e48	-0.113491595
174	0xbe0f0a9a	-0.13968888
175	0x3bb47edf	0.0055082883
176	0xbe177d50	-0.14793897
177	0x3d9edb19	0.07756633
178	0x3e227d64	0.15868145
179	0x3d3bd38f	0.045856055
180	0xbde10dbb	-0.10988947
181	0xbda221c0	-0.079165936
182	0xbdfc3a73	-0.12315836
183	0xbb876cb6	-0.0041328324
184	0x3e05e5d6	0.13075957
185	0x3e0e793a	0.13913432
186	0x3e37ddf9	0.1795577
187	0xbd0bf95f	-0.034173366
188	0xbe0cbba4	-0.13743454
189	0xbe6c1fcb	-0.23059003
190	0x3c96568f	0.018351821
191	0xbe044349	-0.12916292
192	0x3de821e9	0.11334593
193	0xbe2f3ed2	-0.17113808
194	0xbd7f6825	-0.06235518
195	0x3d9cca61	0.07655788
196	0xbe7e6f26	-0.24847087
197	0x3e809473	0.25113258
198	0xbe5df51d	-0.21675535
199	0x3de1fd5d	0.11034653
200	0xbc9914f9	-0.018686758
201	0xbe12894a	-0.14310184
202	0xbe80f4e7	-0.25186846
203	0xbe5e24a4	-0.21693665
204	0x3c2fe616	0.010736009
205	0x3d8e7fc3	0.06957962
206	0xbe111ac1	-0.14170362
207	0xbee373a9	-0.4442418
208	0x3deb144d	0.114784814
209	0xbdf31bd9	-0.11870546
210	0x3e4c72fe	0.19965741
211	0x3e8a54cd	0.27017823
212	0xbb1a9f24	-0.002359339
213	0xbf013a52	-0.50479615
214	0x3eb52650	0.35380793
215	0xbe3efc1e	-0.18650863
216	0x3d56d3d8	0.052448124
217	0x3e856407	0.26052877
218	0x3d497446	0.049183153
219	0xbde7439e	-0.11292194
220	0xbe824f25	-0.25451007
221	0xbe6d1ddb	-0.2315592
222	0x3dcfed44	0.10152677
223	0xbe598914	-0.21243697
224	0x3ef457bd	0.4772319
225	0x3dd2fe81	0.10302449
226	0xbc66bfef	-0.0140838465
227	0xbd5a84e0	-0.053349376
228	0xbf0fc0b7	-0.56153435
229	0x3e2114f3	0.15730648
230	0x3eb65238	0.35609603
231	0xbed1380f	-0.40863082
232	0xbdd4e629	-0.10395462
233	0xbe1a95ac	-0.15096158
234	0xbec6635f	-0.3874769
235	0xbea17f47	-0.31542417
236	0xbc8a29da	-0.01686566
237	0x3e74976a	0.23885885
238	0xbe886324	-0.26638138
239	0x3e2f8844	0.17141825
240	0x3e8ce788	0.27520394
241	0x3dff81f0	0.124759555
242	0xbe1de117	-0.15417896
243	0xbe75abab	-0.23991267
244	0x3dd77e98	0.10522193
245	0xbe413365	-0.18867262
246	0xbec4dfab	-0.38451895
247	0xbdfb985f	-0.12284922
248	0xbf3d1da2	-0.7387334
249	0x3e22517b	0.15851395
250	0xbd9b15e5	-0.075725354
251	0xbe82b985	-0.25532165
252	0x3e6d2639	0.23159112
253	0xbd6fefe6	-0.058578394
254	0xbeaed8da	-0.3414982
255	0xbe638a97	-0.22220837

a2c_network.actor_mlp.0.bias f4 [256]
0	0xbeda5972	-0.42646366
1	0xbb917413	-0.004438886
2	0x3ed4b7fa	0.41546613
3	0xbeda6bef	-0.42660472
4	0x3e3a1a70	0.18174148
5	0xbdf0b597	-0.117533855
6	0xbe9532c5	-0.29140297
7	0xbedac0a3	-0.42725095
8	0xbf0cd590	-0.5501337
9	0xbf2ee0dc	-0.6831186
10	0xbdb2fef3	-0.08740034
11	0xbe01618f	-0.12634872
12	0xbddfda51	-0.109303124
13	0xbec718f5	-0.38886228
14	0xbec42e98	-0.38316798
15	0xbec65b16	-0.38741368
16	0x3e8aa5fa	0.27079755
17	0x3e42c0ff	0.19018935
18	0xbe961153	-0.29310092
19	0xbeafe85b	-0.3435696
20	0x3e9183f8	0.28420997
21	0xbe25b62f	-0.16182779
22	0x3e75b056	0.23993048
23	0xbe9f231a	-0.31081468
24	0x3e8e5e10	0.2780614
25	0xbedff997	-0.4374511
26	0xbd415e98	-0.047209352
27	0xbe53c089	-0.20678915
28	0xbe47efab	-0.1952502
29	0x3f2b6a60	0.6695919
30	0xbeb1d583	-0.3473321
31	0xbeae4878	-0.34039664
32	0xbd1ca391	-0.038241927
33	0xbebfeb50	-0.37484217
34	0xbec88b37	-0.39168712
35	0xbf23e560	-0.64021873
36	0xbe577945	-0.21042354
37	0xbcaf2c86	-0.021383535
38	0xbe6e401d	-0.23266645
39	0xbee6bd2c	-0.45066202
40	0x3e81ea41	0.25374034
41	0xbe01bb47	-0.12669097
42	0xbd49565b	-0.04915462
43	0x3d84fb8a	0.0649329
44	0x3ee36f31	0.4442077
45	0xbea086f8	-0.31352973
46	0xbee81aec	-0.4533304
47	0xbe339cdb	-0.17540304
48	0xbea27423	-0.3172923
49	0xbef6eca5	-0.4822742
50	0x3e2abea8	0.16674292
51	0xbea4678e	-0.32110256
52	0xbf003428	-0.50079584
53	0xbeba13bd	-0.36343184
54	0xbe27f497	-0.16401897
55	0x3e76edf6	0.24114212
56	0x3e5d889c	0.21634144
57	0xbe853a90	-0.26021242
58	0xbea5bd47	-0.3237097
59	0xbe86308c	-0.26208913
60	0xbeab1456	-0.33413953
61	0xbeeb362a	-0.4593976
62	0xbecc8652	-0.39946228
63	0xbe963ae4	-0.29341805
64	0xbedc544b	-0.4303306
65	0xbf13636a	-0.5757357
66	0xbf11f934	-0.5702088
67	0xbf0731b6	-0.5281023
68	0xbf4d3ec3	-0.8017389
69	0x3e07bf95	0.13256676
70	0xbebf11bd	-0.3731822
71	0xbde9f4a3	-0.11423614
72	0xbe9723e4	-0.2951957
73	0xbe8b9ef2	-0.27269703
74	0x3ebd8d34	0.37021792
75	0x3e0a2538	0.1349076
76	0xbed4c1db	-0.4155415
77	0xbe645d4f	-0.2230122
78	0xbea8e451	-0.32986692
79	0xbf1d7a89	-0.615151
80	0x3cd335d5	0.025782505
81	0x3e7643af	0.24049257
82	0x3ec57590	0.38566256
83	0xbf020b12	-0.5079814
84	0xbefae1f9	-0.49000528
85	0xbcc49872	-0.023998473
86	0xbd379e01	-0.04482842
87	0x3eaecbf5	0.34139982
88	0xbe8a19be	-0.26972765
89	0x3e92098f	0.28522918
90	0x3ec86115	0.39136568
91	0xbee58c20	-0.4483347
92	0xbf431f55	-0.76219684
93	0xbefffd54	-0.49997962
94	0xbde2d4af	-0.110757224
95	0x3c81505a	0.015785385
96	0xbed27e48	-0.4111197
97	0xbec09094	-0.37610304
98	0xbe937057	-0.28796646
99	0xbea12f3c	-0.3148135
100	0xbf1a571a	-0.60289156
101	0x3e6a68ee	0.2289159
102	0xbef980a0	-0.48730946
103	0xbea96e40	-0.33091927
104	0xbe994890	-0.29938173
105	0x3e8710f1	0.26380113
106	0x3e91f9cc	0.28510892
107	0x3e2b87cb	0.1675102
108	0xbe01a06c	-0.12658852
109	0x3f047f30	0.5175657
110	0x3dfc51af	0.123202674
111	0x3e0d6383	0.13807492
112	0xbe848475	-0.25882307
113	0xbf0061a8	-0.5014901
114	0xbf1be72a	-0.60899603
115	0xbe0bc35b	-0.13648741
116	0xbdffab91	-0.124838956
117	0x3eb49021	0.35266212
118	0xbdeddef1	-0.11614788
119	0x3e53c783	0.20681576
120	0xbce5af11	-0.02803758
121	0x3ea0d810	0.31414843
122	0xbf099e9d	-0.5375765
123	0xbe483d9c	-0.19554752
124	0x3e210b09	0.15726866
125	0x3e915626	0.2838604
126	0xbee28676	-0.4424321
127	0xbeafd253	-0.34340152
128	0xbdd0211a	-0.101625636
129	0xbe950086	-0.29101962
130	0xbeda5807	-0.42645285
131	0xbd3f5380	-0.04671049
132	0xbed0b6c6	-0.40764445
133	0xbdc277a8	-0.09495479
134	0x3e0406bf	0.12893198
135	0xbe039f21	-0.12853672
136	0xbec34906	-0.3814165
137	0x3e145955	0.14487202
138	0xbf496951	-0.78676325
139	0xbe69a31e	-0.2281613
140	0xbe9efc03	-0.31051645
141	0xbea7d8a4	-0.3278247
142	0xbea8f419	-0.32998732
143	0x3e3e1c8e	0.1856558
144	0xbe7c8145	-0.24658687
145	0xbece50f8	-0.4029615
146	0xbf0aaa4b	-0.54166096
147	0xbeae5eae	-0.3405661
148	0xbefc6546	-0.49296016
149	0xbe154f29	-0.14580978
150	0xbeb0dbe7	-0.34542772
151	0xbeb1de70	-0.3474002
152	0xbe51c27a	-0.20484343
153	0x3e607150	0.21918225
154	0xbe73fce4	-0.23826939
155	0x3df772e0	0.120824575
156	0xbeae5226	-0.3404705
157	0xbe31637d	-0.17323108
158	0xbea36ff7	-0.3192136
159	0xbe3c63ea	-0.18397489
160	0x3eb6b045	0.35681358
161	0xbef5390a	-0.4789508
162	0x3de3b842	0.11119129
163	0xbe9d9a43	-0.30781755
164	0xbeadf7e7	-0.33978197
165	0xbf03ad50	-0.5143633
166	0x3eeb8d8b	0.46006426
167	0xbe282127	-0.16418897
168	0xbf12c3f6	-0.5733026
169	0x3e960f01	0.29308322
170	0xbe8c1e0d	-0.27366677
171	0xbee6d39c	-0.4508332
172	0xbf19f29c	-0.6013582
173	0xbd7e863e	-0.062139742
174	0xbe75ab1e	-0.23991057
175	0x3e74f6a9	0.23922218
176	0xbed8eb3d	-0.42366973
177	0xbe83cca9	-0.2574208
178	0xbe51b62b	-0.20479648
179	0x3efe2c1c	0.49643028
180	0xbebf7df3	-0.3740078
181	0xbd73602c	-0.05941789
182	0x3de65a24	0.11247662
183	0xbe701bd8	-0.23448122
184	0xbee91b37	-0.45528576
185	0xbe6c8784	-0.2309857
186	0xbecb60bf	-0.3972225
187	0xbf06b7c8	-0.5262418
188	0xbefe7d9c	-0.49705207
189	0xbf01474b	-0.5049941
190	0xbe325dfb	-0.17418663
191	0xbc0afef0	-0.008483633
192	0xbe6be8a2	-0.23037961
193	0xbdc12cc3	-0.09432366
194	0x3ebaf88a	0.36517745
195	0xbf14f0ce	-0.5817994
196	0x3e08fd5c	0.13377899
197	0xbe8c79cf	-0.27436683
198	0xbe47593b	-0.19467632
199	0xbe8f86b2	-0.28032452
200	0xbe9a0360	-0.300807
201	0x3e349605	0.17635353
202	0xbed89606	-0.4230196
203	0xbe89c2b6	-0.26906365
204	0x3ece74db	0.4032353
205	0x3ec42024	0.3830577
206	0xbf138954	-0.5763142
207	0xbea2f7e6	-0.31829756
208	0xbe9e43a5	-0.30910984
209	0xbe966ada	-0.29378396
210	0xbed1a8a7	-0.40948984
211	0xbeb13401	-0.34609988
212	0x3e98b18f	0.29822966
213	0x3e385abf	0.18003367
214	0xbbd3e1c8	-0.006466124
215	0xbe8b8872	-0.27252537
216	0xbea4d499	-0.3219345
217	0xbe707e6f	-0.2348573
218	0xbd01b1f5	-0.031663854
219	0xbea0aa2f	-0.3137984
220	0xbe5d1df4	-0.21593457
221	0x3ec095dc	0.37614334
222	0x3e038411	0.12843348
223	0xbed165f6	-0.40898103
224	0xbefd5c50	-0.4948449
225	0xbe321215	-0.1738971
226	0xbe87f770	-0.26555967
227	0xbef1d759	-0.4723461
228	0x3d6dd027	0.058059838
229	0x3e086b46	0.13322172
230	0xbed8c09b	-0.42334446
231	0xbec94833	-0.39312896
232	0x3e9ef8ce	0.31049198
233	0xbe5a4bf1	-0.21318032
234	0xbec9a627	-0.39384577
235	0xbe944188	-0.28956246
236	0x3e5c771f	0.21529816
237	0xbe80f34b	-0.25185618
238	0xbe8be5fe	-0.27323908
239	0xbe4b102d	-0.1983039
240	0xbde731e8	-0.11288816
241	0xbef9e238	-0.48805404
242	0xbe07b922	-0.13254216
243	0xbeaf244f	-0.3420739
244	0xbcf06ea0	-0.029349625
245	0x3e42b1f3	0.19013195
246	0xbebd6406	-0.36990374
247	0x3e243168	0.16034472
248	0xbea9a6b4	-0.33134997
249	0xbe31bfda	-0.17358342
250	0xbed350e4	-0.41272652
251	0xbeaef8bd	-0.34174147
252	0x3e9ce110	0.3064046
253	0xbb00d817	-0.001966005
254	0x3d0e4fda	0.03474412
255	0xbdf5184f	-0.11967527

a2c_network.actor_mlp.2.weight f4 [128, 256]
0	0xbe07331f	-0.13203095
1	0xbe30da2e	-0.17270729
2	0xbe5a20b3	-0.21301536
3	0x3e18ac23	0.14909415
4	0xbdaccb15	-0.08437172
5	0xbe12f5cb	-0.14351575
6	0x3de76ca7	0.11300021
7	0x3ca4d035	0.020118812
8	0x3e55c913	0.20877485
9	0x3dac14d0	0.08402407
10	0x3c0d3106	0.008617645
11	0x3d2b72ee	0.041857652
12	0x3b9edda7	0.0048482004
13	0x3e1b936e	0.15192959
14	0x3dabdee7	0.083921246
15	0x3dfb332c	0.1226562
16	0xbe624b7b	-0.22099106
17	0xbebd8081	-0.37012103
18	0x3e49c81f	0.19705246
19	0xbe00cf3f	-0.12579058
20	0xbe33786f	-0.1752641
21	0xbe1eb883	-0.15500073
22	0xbd325ded	-0.043546606
23	0x3d07a110	0.033112586
24	0xbed55c74	-0.416721
25	0x3dfa168b	0.12211331
26	0xbd18f36a	-0.037341513
27	0x3d1cd696	0.038290583
28	0x3d334916	0.043770872
29	0xbe4693f2	-0.19392374
30	0xbc8c05c1	-0.017092587
31	0x3cbae2ed	0.022813285
32	0xbc66c3d9	-0.01408478
33	0xbc389dba	-0.011268074
34	0x3bd06cb2	0.0063606137
35	0x3e154b1a	0.1457943
36	0xbe6a8a87	-0.22904406
37	0xbe6ff4b0	-0.23433185
38	0x3d306c50	0.043072045
39	0x3dc2b042	0.09506275
40	0xbe83578c	-0.2565273
41	0x3dc6da47	0.09709602
42	0xbe4f1f66	-0.20226821
43	0xbeb936ab	-0.3617452
44	0xbeaee263	-0.34157094
45	0x3da05cb7	0.07830184
46	0x3e9c8ac8	0.30574632
47	0xbe0700a8	-0.13183844
48	0xbdc95515	-0.09830681
49	0xbd59f6d3	-0.053213906
50	0xbeb92278	-0.3615911
51	0x3d2ab8e9	0.04168025
52	0x3bd329b5	0.006444181
53	0x3d8f83c1	0.07007552
54	0xbd28a39d	-0.04117166
55	0xbeaa0d85	-0.3321344
56	0xbe555809	-0.20834364
57	0xbe436a04	-0.1908341
58	0xbe8a6b45	-0.27034965
59	0xbe0dc8b8	-0.138461
60	0x3b833cf1	0.0040050675
61	0xbbcbea73	-0.006223017
62	0x3ce0c146	0.02743591
63	0x3dd306be	0.1030402
64	0xbd4129b1	-0.0471589
65	0xbe5823d6	-0.2110742
66	0x3dd6b3f5	0.10483543
67	0xbcf33868	-0.029689983
68	0x3d85606b	0.06512531
69	0xbe185e9b	-0.14879839
70	0xbd4bbe2a	-0.0497419
71	0x3d4f00f2	0.05053801
72	0xbd3e464b	-0.046453755
73	0xbe051240	-0.12995243
74	0xbe8d6753	-0.27617893
75	0xbe08d6de	-0.13363215
76	0x3ca8d3aa	0.020608742
77	0xbd09787c	-0.03356217
78	0xbdfe8c61	-0.12429119
79	0x3e200da9	0.15630211
80	0xbdb070f2	-0.086152926
81	0xbeae2f81	-0.34020618
82	0xbeb3eae8	-0.35140157
83	0x3e4eedcb	0.20207898
84	0x3e866e72	0.26256138
85	0xbd37b7f1	-0.044853155
86	0xbe001fab	-0.1251208
87	0xbe388fc1	-0.18023588
88	0xbdc8b836	-0.098007604
89	0xbe959bda	-0.29220468
90	0xbeacea2e	-0.33772415
91	0x3dbe5bf9	0.09294886
92	0x3e5f9cb3	0.2183712
93	0xbc9d8751	-0.019229563
94	0xbe543d20	-0.20726442
95	0xbea8ad72	-0.32944828
96	0x3dd3606f	0.103211276
97	0x3d9905f8	0.074718416
98	0x3c22ee47	0.009944505
99	0xbdb8170b	-0.0898877
100	0x3e26b063	0.16278224
101	0xbe92aac9	-0.28645924
102	0x3d93256a	0.071848705
103	0x3dc28901	0.09498788
104	0x3dcf3125	0.101167955
105	0xbefa195f	-0.48847482
106	0xbd8aacd1	-0.06771243
107	0xbd5da2cc	-0.054110333
108	0xbe0f865d	-0.140161
109	0xbea06ffb	-0.31335434
110	0xbd40fcd8	-0.04711613
111	0xbe7f2fc8	-0.24920571
112	0x3ca5221f	0.020157872
113	0xbdb8df32	-0.09026946
114	0x3d0e82b3	0.034792613
115	0xbdc238bd	-0.09483478
116	0x3e1603d2	0.14649895
117	0xbe795161	-0.2434745
118	0xbda2f2e3	-0.07956483
119	0xbe15c8d1	-0.14627387
120	0xbe98fb61	-0.29879287
121	0xbdb4c182	-0.08825971
122	0xbdae7da1	-0.085200556
123	0xbdebe20e	-0.11517726
124	0x3db51ec6	0.0884376
125	0xbe2e3ed0	-0.17016149
126	0x3d0f7c44	0.03503062
127	0xbdbe2e31	-0.09286154
128	0xbb194ac6	-0.0023390516
129	0xbd2da4ac	-0.04239337
130	0x3d8f3c9b	0.069939815
131	0xbc9c32ea	-0.019067246
132	0x3c1d9c09	0.009619721
133	0xbd69342b	-0.056934517
134	0xbda795cb	-0.081828676
135	0xbeae1a8e	-0.34004635
136	0xbc218fae	-0.009860916
137	0xbe40c6ee	-0.18825886
138	0x3c7cbcb9	0.015425854
139	0xbe6a0f5d	-0.22857423
140	0xbbde73e5	-0.006788718
141	0xbdf81e08	-0.12115103
142	0xbd4f5b0b	-0.050623935
143	0xbd351426	-0.04420867
144	0x3e321812	0.17391995
145	0x3e503f21	0.20336582
146	0x3e24878b	0.1606733
147	0xbd977f36	-0.073973104
148	0x3d405b1f	0.0469619
149	0x3d30d7bc	0.04317449
150	0x3ce38041	0.027771117
151	0xbd466c51	-0.048443142
152	0xbc31b520	-0.010846406
153	0x3b32c306	0.0027276888
154	0xbe38aea0	-0.18035364
155	0xbe5de393	-0.21668844
156	0x3e56c98a	0.20975319
157	0x3d36b65f	0.044607516
158	0x3d6afd9a	0.05737076
159	0x3ce41752	0.027843151
160	0xbe3aab05	-0.18229301
161	0x3d8d6fd2	0.06906094
162	0x3d4999b0	0.049218833
163	0xbd40eefc	-0.047102913
164	0xbe191e62	-0.14952996
165	0x3dc82267	0.09772187
166	0xbea1de07	-0.31614706
167	0xbe19abc3	-0.15006928
168	0x3e09461c	0.13405651
169	0xbe021b4a	-0.12705722
170	0xbda76e44	-0.081753284
171	0x3d895dbf	0.06707334
172	0xbc8bf0e4	-0.017082639
173	0xbd841b01	-0.06450463
174	0xbd45d155	-0.048295338
175	0xbd651162	-0.05592478
176	0xbd48e959	-0.049050663
177	0xbe2cf6c1	-0.16891004
178	0x3e7abe8b	0.24486749
179	0xbea5b22d	-0.323625
180	0x3d3cef94	0.046126917
181	0xbe2d2ff7	-0.16912828
182	0xbdc106b1	-0.094251044
183	0xbd0899a3	-0.033349644
184	0x3d11d361	0.035601977
185	0xbdbeaafc	-0.093099564
186	0xbcce3b79	-0.025174843
187	0x3ce0c98c	0.027439855
188	0xbdd7538f	-0.105139844
189	0xbde1eb13	-0.11031165
190	0x3d58f448	0.05296734
191	0xbcf66a40	-0.03007996
192	0x3d306bde	0.04307162
193	0xbe3befd8	-0.18353212
194	0xbe1c557b	-0.15266983
195	0x3d620586	0.05518105
196	0xbe9375ed	-0.28800908
197	0xbd1ab982	-0.03777457
198	0xbe263303	-0.16230397
199	0x3db719ac	0.089404434
200	0x3e0bce5b	0.13652937
201	0xbe208c0e	-0.15678427
202	0xbd23b945	-0.03997161
203	0x3e039358	0.12849176
204	0xbe5d31e7	-0.21601067
205	0xbdc5e815	-0.09663407
206	0x3c24d4ac	0.010060471
207	0x3c76b21c	0.015057113
208	0x3d221546	0.03957107
209	0x3bbc32c9	0.0057433587
210	0xbde24aed	-0.11049447
211	0x3e1dd933	0.15414886
212	0xbe665e88	-0.22496998
213	0x3d4108e8	0.047127634
214	0xbddbc2d0	-0.10730517
215	0xbda4e3cf	-0.080512635
216	0xbe432c1e	-0.19059798
217	0xbdaccd1d	-0.0843756
218	0xbe746de4	-0.23870045
219	0xbb116ffc	-0.0022191992
220	0xbe45f458	-0.19331491
221	0xbe39ba8e	-0.18137571
222	0xbdc97daa	-0.09838422
223	0x3d6f991f	0.058495637
224	0x3be7bf4e	0.007072366
225	0x3d2f856a	0.042851843
226	0xbe11b01e	-0.1422734
227	0xbddc55cd	-0.10758553
228	0xbd3e6da1	-0.04649127
229	0xbe76472c	-0.24050587
230	0xbd193f9c	-0.03741418
231	0x3cd99510	0.026560336
232	0xbe6fd2db	-0.23420279
233	0xbe23de1e	-0.160027
234	0xbd13b3a2	-0.036059983
235	0x3d900508	0.0703221
236	0xbdd08c07	-0.10182958
237	0xbcbf4930	-0.023350328
238	0xbe04a8df	-0.12955044
239	0xbd820701	-0.06348992
240	0x3e0450bf	0.12921427
241	0x3e0e7212	0.13910702
242	0xbdda9e3c	-0.10674712
243	0xbdea2b8f	-0.114340894
244	0xbe73e074	-0.23816091
245	0xbdca51ed	-0.09878907
246	0x3d76f744	0.060294405
247	0x3d1102cd	0.03540306
248	0x3d844ae4	0.06459597
249	0xbe106ecd	-0.14104767
250	0xbdca434a	-0.098761156
251	0xbe43c20a	-0.19116989
252	0xbd538b36	-0.051646434
253	0xbe2ea169	-0.1705376
254	0xbe5fcb57	-0.21854912
255	0x3c256b72	0.010096418

a2c_network.actor_mlp.2.bias f4 [128]
0	0xbe7e6d08	-0.2484628
1	0xbe4e021e	-0.20117995
2	0xbebdf47a	-0.37100583
3	0xbeb66f09	-0.35631588
4	0xbe4a7247	-0.19770156
5	0xbee2110e	-0.44153637
6	0xbe3e157c	-0.18562883
7	0xbdb057cb	-0.08610495
8	0x3d58f3fa	0.05296705
9	0xbe333373	-0.17500095
10	0x3b6176ee	0.0034403163
11	0x3d17234f	0.036898907
12	0x3d794071	0.06085247
13	0xbf095ce4	-0.53657365
14	0xbe8d6fdc	-0.27624404
15	0xbe6243d7	-0.22096191
16	0x3ec3d417	0.3824775
17	0xbe6f2b36	-0.23356327
18	0xbe383409	-0.179886
19	0x3d1cb01f	0.0382539
20	0xbec0f95b	-0.37690243
21	0xbd2d7dc0	-0.042356253
22	0x3d9ac715	0.07557503
23	0x3cd2bd02	0.025724892
24	0xbd382d85	-0.044965286
25	0x3de9c3e2	0.11414315
26	0xbeaedc43	-0.3415242
27	0xbe0e117d	-0.13873859
28	0xbeaea88f	-0.34112975
29	0xbdd3f27e	-0.10348986
30	0xbe83a44c	-0.25711286
31	0xbee690d6	-0.45032376
32	0xbe38343d	-0.17988677
33	0x3d4d072e	0.050055675
34	0xbeb3181a	-0.34979326
35	0xbe1b7ff0	-0.15185523
36	0x3d1f1120	0.03883469
37	0xbe7710a5	-0.24127443
38	0xbe3e5e15	-0.18590577
39	0xbe9707b4	-0.29498065
40	0x3d02161e	0.031759374
41	0xbe277182	-0.16351894
42	0xbe41b69e	-0.18917319
43	0xbed456a3	-0.4147235
44	0xbe478067	-0.19482575
45	0xbebc2b9b	-0.36752018
46	0xbe116a07	-0.14200602
47	0xbe076954	-0.13223773
48	0xbde03334	-0.10947266
49	0xbef7faea	-0.4843362
50	0xbe1a680a	-0.1507875
51	0xbe87fc97	-0.26559898
52	0xbe522db9	-0.20525254
53	0x3c8714f8	0.01648949
54	0xbde9ddc4	-0.114192516
55	0xbd5313c9	-0.05153254
56	0xbebb7f8a	-0.36620742
57	0xbee3ac76	-0.44467515
58	0xbdffbccc	-0.12487182
59	0xbd9577f2	-0.072982684
60	0xbd9f210c	-0.07769975
61	0xbddc2f35	-0.107511915
62	0x3def30b5	0.11679212
63	0xbc054455	-0.008133967
64	0xbe85ace4	-0.26108468
65	0xbc891c38	-0.016737089
66	0xbeeded8d	-0.464703
67	0xbe826107	-0.2546465
68	0xbdaded28	-0.084924996
69	0xbf01ef39	-0.5075565
70	0xbea8e00d	-0.32983437
71	0x3dc39f79	0.09551901
72	0xbebaea42	-0.3650685
73	0xbe840892	-0.2578779
74	0xbe82be05	-0.25535598
75	0xbe3fa56f	-0.18715452
76	0xbe0c6e51	-0.13713957
77	0xbe1b645a	-0.15175
78	0xbe581b6d	-0.21104212
79	0xbd0faa5c	-0.035074577
80	0x3cfbb846	0.030727517
81	0xbf029be0	-0.51019096
82	0xbd716685	-0.05893566
83	0x3d99738a	0.074927405
84	0x3cd9c319	0.026582288
85	0xbdd165be	-0.10224484
86	0xbe1999d2	-0.15000084
87	0x3e078235	0.13233264
88	0xbeb762bd	-0.3581752
89	0xbe8e0227	-0.27736017
90	0x3dd797a1	0.10526968
91	0xbe8cebb0	-0.27523565
92	0xbe2254d6	-0.15852675
93	0x3db72afc	0.089437455
94	0xbe8044ce	-0.25052494
95	0x3d6d65a5	0.057958264
96	0xbe91744b	-0.28409037
97	0xbcfcbe78	-0.030852541
98	0xbeadbc8b	-0.3393291
99	0xbdc72d19	-0.097253986
100	0xbebbc468	-0.36673284
101	0xbe5b1de7	-0.21398126
102	0xbeadee6b	-0.3397096
103	0xbf001917	-0.50038284
104	0xbebf4f7f	-0.37365338
105	0x3e770152	0.24121597
106	0xbe83f89f	-0.2577562
107	0x3edaf2ef	0.4276347
108	0xbdeefea3	-0.11669662
109	0xbe25700b	-0.16156022
110	0xbefef9db	-0.498
111	0xbe8fb93b	-0.28071007
112	0xbe88bc4f	-0.26706168
113	0x3cab3d0f	0.020903138
114	0x3d47efc6	0.04881265
115	0xbd32ecdf	-0.04368293
116	0xbdc81e37	-0.09771388
117	0xbf2e2164	-0.680197
118	0xbe006fe5	-0.12542684
119	0xbe824a01	-0.25447085
120	0xbe4f16c5	-0.2022353
121	0xbe4afb7f	-0.198225
122	0xbec83d8e	-0.39109462
123	0x3dbb0c94	0.091332585
124	0xbe9d7f71	-0.30761293
125	0x3e13f0e3	0.1444736
126	0xbdf7bcbc	-0.12096545
127	0x3dc401ea	0.095706776

a2c_network.actor_mlp.4.weight f4 [64, 128]
0	0x3e544719	0.20730247
1	0x3e3ff2ce	0.18744966
2	0xbdb905b3	-0.0903429
3	0x3e76da0f	0.2410662
4	0xbe9f886c	-0.3115877
5	0xbd333ea4	-0.04376091
6	0x3dfdd8a2	0.12394835
7	0xbda27dd7	-0.07934158
8	0xbe7b4769	-0.2453896
9	0xbdc510da	-0.09622355
10	0xbde606f4	-0.11231795
11	0xbd2ba052	-0.04190094
12	0xbddc0349	-0.10742814
13	0xbe25f3b6	-0.1620625
14	0x3dc21bd4	0.09477964
15	0x3e64eb69	0.22355427
16	0xbeea3a24	-0.45747483
17	0x3e4ec165	0.20190962
18	0xbd27d406	-0.040973686
19	0xbede60c5	-0.43433204
20	0x3e59feb4	0.21288568
21	0x3e9635d0	0.2933793
22	0xbe4cff05	-0.20019157
23	0xbe704ee2	-0.23467591
24	0xbf1ea2bd	-0.6196707
25	0xbf0b4687	-0.5440449
26	0x3e48cd15	0.19609483
27	0xbc5b1b29	-0.013373175
28	0x3eb9ff85	0.36327758
29	0xbe4df0f6	-0.2011145
30	0x3d0c6cfb	0.03428362
31	0xbdfdeb83	-0.12398436
32	0x3da9f2fb	0.08298298
33	0x3e234ffe	0.15948483
34	0x3dd3b1f0	0.10336673
35	0xbda7ff93	-0.08203044
36	0x3c8bd8d9	0.017071174
37	0xbed12638	-0.4084947
38	0x3e99f8b3	0.30072555
39	0x3e05031d	0.12989469
40	0xbee95b6e	-0.45577568
41	0xbd19ace4	-0.037518397
42	0xbeac1b94	-0.3361479
43	0x3e1bf4c5	0.15230091
44	0xbe85e59d	-0.26151744
45	0xbe06a3a5	-0.13148363
46	0xbdb5ed03	-0.08883097
47	0x3d08ba78	0.033380955
48	0x3d1b47c0	0.037910223
49	0x3e1c7b70	0.15281463
50	0x3d26d63a	0.040731646
51	0x3e09689c	0.13418812
52	0xbe8f0176	-0.27930802
53	0xbe4f1086	-0.20221147
54	0x3e42d72f	0.19027399
55	0xbcb5c691	-0.02218941
56	0x3e7d52a9	0.24738564
57	0xbe00e645	-0.12587841
58	0x3e92d30b	0.28676638
59	0xbe5d1768	-0.2159096
60	0xbe65723e	-0.22406861
61	0xbe9877ea	-0.29778987
62	0xbe959900	-0.29218292
63	0xbdcf6bbc	-0.101279706
64	0xbea01cb8	-0.3127191
65	0xbeceaaca	-0.40364677
66	0x3e1ed572	0.1551111
67	0x3e0def59	0.13860835
68	0xbd191c94	-0.03738077
69	0x3db8fe9a	0.090329364
70	0x3bd16958	0.006390732
71	0xbef0aa6e	-0.47005028
72	0xbdc20859	-0.094742484
73	0xbf145592	-0.5794307
74	0x3e09d181	0.13458826
75	0x3e3a3fc5	0.18188389
76	0xbe81a18d	-0.25318566
77	0xbea47856	-0.3212306
78	0x3d3dacd0	0.046307385
79	0xbd1ac5c0	-0.037786245
80	0xbe2f72f4	-0.17133695
81	0x3e8d8a4b	0.27644572
82	0x3ebcf600	0.36906433
83	0x3df46d23	0.11934879
84	0xbecfc608	-0.40580773
85	0xbd96bf54	-0.07360712
86	0x3e9c9a85	0.3058664
87	0xbecf8064	-0.40527642
88	0xbd6386f0	-0.05554861
89	0xbe043c5b	-0.12913649
90	0xbe95c999	-0.2925537
91	0x3e8f4761	0.27984145
92	0x3d8937bf	0.06700086
93	0xbecd90f7	-0.40149662
94	0xbd9389d8	-0.07204026
95	0xbdf9d836	-0.12199442
96	0x3a3fc864	0.00073159323
97	0xbecfb9c8	-0.40571427
98	0xbd87a880	-0.06623936
99	0x3dd50f90	0.10403359
100	0x3dfc3168	0.12314111
101	0xbdd34c40	-0.10317278
102	0x3dd324c9	0.103097506
103	0x3e6d2493	0.23158483
104	0x3d6afd8f	0.05737072
105	0xbddbdb50	-0.1073519
106	0x3ee71069	0.45129707
107	0xbea036ee	-0.31291908
108	0x3e6ca333	0.2310913
109	0xbd8e5e88	-0.06951624
110	0x3ea173c7	0.31533644
111	0x3df0795b	0.11741897
112	0x3ea302d2	0.3183809
113	0x3e7ceb0f	0.24699043
114	0xbe8defd7	-0.27722046
115	0xbea0111d	-0.31263056
116	0x3e1226d9	0.14272632
117	0x3ec59296	0.385884
118	0xbddfbe61	-0.10924984
119	0x3f0e5df6	0.55612123
120	0x3e672ebe	0.22576424
121	0x3e32b047	0.17450057
122	0xbd5e0964	-0.054208174
123	0xbf316335	-0.69292
124	0xbe199a47	-0.15000258
125	0xbeca3bf5	-0.3949887
126	0xbdb45752	-0.088057175
127	0xbd303dbd	-0.04302763
128	0x3e0955ab	0.13411586
129	0xbe9eb9e8	-0.3100121
130	0x3e201b5f	0.15635441
131	0x3e93bcb4	0.28854907
132	0x3d517410	0.051136076
133	0x3e1c1e2b	0.15245883
134	0x3e8d28c2	0.27570158
135	0xbe2cbf29	-0.16869797
136	0xbe4a46c5	-0.19753559
137	0x3d976ded	0.073940136
138	0xbe0c0862	-0.13675073
139	0xbd71fff0	-0.05908197
140	0xbf2a5c43	-0.6654703
141	0x3d8cd8ab	0.06877264
142	0xbdf7aa35	-0.12093011
143	0x3e449add	0.191997
144	0xbd45bdea	-0.04827682
145	0x3d2d91b2	0.042375274
146	0x3da6c08c	0.08142194
147	0xbea08dea	-0.31358272
148	0x3e4af05e	0.19818255
149	0xbcc29525	-0.023752758
150	0xbefe2a1c	-0.49641502
151	0xbd22d557	-0.039754238
152	0xbe7260da	-0.23669758
153	0xbede0a75	-0.43367353
154	0xbd702a43	-0.058634054
155	0xbbc8a519	-0.006123197
156	0xbe106a80	-0.14103127
157	0x3d28dcc3	0.04122616
158	0x3e21c8c3	0.15799241
159	0x3ee016c6	0.43767375
160	0xbd1936e3	-0.03740586
161	0xbe436ed4	-0.19085246
162	0x3e2e09ba	0.16995898
163	0x3b88db4e	0.004176534
164	0x3d7cd5a8	0.061727196
165	0x3d36eb8e	0.044658236
166	0x3e178f6d	0.14800806
167	0x3e161f8a	0.14660469
168	0xbdce7aee	-0.10082041
169	0xbe323075	-0.17401297
170	0x3ddf72f5	0.10910598
171	0x3e60a456	0.21937689
172	0xba245907	-0.00062693696
173	0xbe7709db	-0.24124853
174	0x3d9cf0e5	0.076631345
175	0xbdf9b5cc	-0.12192878
176	0xbe69c111	-0.22827555
177	0x3e32e8f7	0.17471682
178	0xbe32431b	-0.17408411
179	0x3d7f32b3	0.06230421
180	0x3ea434df	0.32071587
181	0xbdd6d6b7	-0.10490172
182	0x3d492a57	0.049112644
183	0xbdca5933	-0.09880295
184	0x3ebd967e	0.3702888
185	0xbe2934a8	-0.16523993
186	0x3e189c18	0.14903295
187	0x3d78ec68	0.06077233
188	0xbed9e45d	-0.4255704
189	0x3dc7fc96	0.09764974
190	0xbe9d9846	-0.30780238
191	0xbe2c18f2	-0.16806391
192	0xbe91271a	-0.28350145
193	0xbdf21e67	-0.11822205
194	0xbdc425c5	-0.095775165
195	0x3e22e92a	0.15909258
196	0x3d8b67a7	0.068068795
197	0x3ebe7d32	0.3720489
198	0xbdbe7083	-0.09298804
199	0xbf2a34e0	-0.6648693
200	0x3c37111d	0.011173514
201	0x3c3efbcc	0.011656713
202	0xbdc3e50d	-0.09565172
203	0xbe8d8235	-0.27638403
204	0xbdb869fd	-0.09004591
205	0x3d9cc734	0.076551825
206	0x3e232669	0.15932621
207	0x3cf34b92	0.02969912
208	0x3e31158b	0.17293374
209	0x3ed6a019	0.4191902
210	0x3e0a7904	0.13522726
211	0xbd17d3d0	-0.037067235
212	0x3d42f4fe	0.047596924
213	0x3e8cf470	0.2753024
214	0xbd948f2d	-0.07253871
215	0xbe795821	-0.24350025
216	0x3e0ebc72	0.13939074
217	0x3e6ce813	0.23135404
218	0x3db632c0	0.088963985
219	0xbcd1a1dd	-0.025589878
220	0x3d3cc0f3	0.04608245
221	0xbe03707f	-0.12835883
222	0xbd76eb07	-0.060282733
223	0xbd8b6ba5	-0.06807641
224	0x3e4203bd	0.18946739
225	0x3d6562ef	0.056002554
226	0xbe4617df	-0.19345044
227	0xbe195056	-0.14972052
228	0xbecce617	-0.40019295
229	0x3d26e8dd	0.04074942
230	0xbe7b9d0f	-0.24571632
231	0x3e898f7d	0.26867285
232	0x3d0c6c33	0.034282874
233	0x3cf9c848	0.03049101
234	0xbc8913f6	-0.01673315
235	0x3d4c3f12	0.049864836
236	0xbd8e98e4	-0.06962755
237	0x3dc78e58	0.09743947
238	0x3d3bd1fd	0.045854557
239	0x3d89a53e	0.067209706
240	0x3e4fa5f3	0.20278148
241	0x3d7b1e6f	0.06130832
242	0xbe34a538	-0.17641151
243	0xbe70267e	-0.23452184
244	0x3e0b9313	0.13630323
245	0x3d0091d0	0.031389058
246	0xbdef7902	-0.11693002
247	0x3ea53eda	0.32274514
248	0x3dba4214	0.09094635
249	0xbdc53936	-0.09630053
250	0xbd6f5c1b	-0.058437448
251	0xbde01320	-0.10941148
252	0x3c65f44b	0.014035295
253	0x3d965362	0.07340123
254	0x3d7e453b	0.062077742
255	0xbec0ac3b	-0.376314

a2c_network.actor_mlp.4.bias f4 [64]
0	0xbea35297	-0.3189895
1	0xbdafe201	-0.08588029
2	0xbe106e27	-0.1410452
3	0xbdffecb5	-0.1249632
4	0xbe8796d1	-0.2648225
5	0xbe0e1e26	-0.13878688
6	0xbe051dad	-0.12999602
7	0xbdaa3259	-0.08310384
8	0xbe80e072	-0.25171238
9	0xbdbfee9f	-0.09371685
10	0xbe03c506	-0.12868127
11	0xbedd8b96	-0.43270558
12	0xbe2114f9	-0.15730657
13	0xbe0483fb	-0.12940972
14	0xbe447503	-0.19185261
15	0xbe19c119	-0.15015067
16	0xbdcf782a	-0.10130341
17	0xbe0047e0	-0.12527418
18	0xbd63b15c	-0.055589065
19	0xbe9dfff7	-0.30859348
20	0xbe9fcaed	-0.31209508
21	0xbd3eb985	-0.046563644
22	0xbe8d580b	-0.27606234
23	0xbed838b6	-0.42230767
24	0xbe94bdca	-0.29051048
25	0xbdfb88f2	-0.122819796
26	0xbdcdab14	-0.10042396
27	0xbdcc1586	-0.09965043
28	0x3e94fc7e	0.29098886
29	0xbd8e3c93	-0.06945147
30	0x3d5b48c3	0.053536188
31	0xbe2101f9	-0.15723409
32	0xbe308c92	-0.17241123
33	0xbedd2b3c	-0.43197048
34	0xbdf062de	-0.117376074
35	0xbd7c14c7	-0.061543252
36	0xbeb2d7b1	-0.34930184
37	0xbe0529c0	-0.13004208
38	0xbe02dd26	-0.12779674
39	0xbe26a355	-0.16273244
40	0xbdba12a2	-0.09085585
41	0xbe0dbb40	-0.13840961
42	0xbdf795c3	-0.12089112
43	0xbdec375e	-0.11533998
44	0xbd61f8fc	-0.05516909
45	0xbda9f025	-0.08297757
46	0xbdf1bb03	-0.11803248
47	0xbe04dbf4	-0.1297453
48	0xbde0a5c5	-0.10969118
49	0xbe06d558	-0.13167322
50	0xbdf51ce5	-0.11968402
51	0xbeb2e712	-0.34941918
52	0xbe54b605	-0.2077256
53	0xbd326a05	-0.04355814
54	0xbd68e2f6	-0.05685707
55	0xbe30dd49	-0.17271914
56	0xbd782541	-0.060582403
57	0xbdd9b984	-0.106310874
58	0xbe311527	-0.17293225
59	0xbe237583	-0.15962796
60	0xbd8abf7f	-0.06774806
61	0x3eda8488	0.42679238
62	0xbe10103e	-0.14068696
63	0xbe1aa822	-0.151032

a2c_network.value.weight f4 [1, 64]
0	0xbb52c3ff	-0.003216028
1	0xbb5f26e6	-0.0034050285
2	0xbc197754	-0.009366829
3	0xbb7d3f1e	-0.0038642357
4	0xbc4f6bb1	-0.012659953
5	0xbc871b83	-0.01649261
6	0xbc9b7a34	-0.01897917
7	0xbb881ea8	-0.004154045
8	0xbc3816e4	-0.011235926
9	0xbbe24656	-0.0069053574
10	0xbca4f8fd	-0.020138258
11	0xbc8b3b54	-0.016996063
12	0xbc0af9c0	-0.008482397
13	0xbbc7d981	-0.0060989265
14	0x3bb196d4	0.0054195914
15	0xbcc9ca43	-0.024632579
16	0xbae42c4f	-0.0017408225
17	0x3b5d162b	0.0033735137
18	0x3d044449	0.032291684
19	0x3ed5b3b0	0.41738653
20	0xbc4da743	-0.012552085
21	0xbb9b07ff	-0.004731178
22	0xbb154e70	-0.0022782348
23	0xbb9513db	-0.004549486
24	0x3b7ad45f	0.0038273556
25	0xbb43c299	-0.0029870628
26	0x3cb6d935	0.02232037
27	0x3d2d35a4	0.042287484
28	0xbe32ac99	-0.17448653
29	0x39b8f189	0.00035275173
30	0xbb8fd851	-0.0043898006
31	0x3cc39ad6	0.023877542
32	0xbc987b83	-0.018613582
33	0xbbe5f174	-0.007017309
34	0x3d752357	0.059848156
35	0x3ae476bf	0.0017430409
36	0xbbd59dfc	-0.0065190773
37	0xbc0a7fc5	-0.008453314
38	0xbbcc9b7a	-0.00624412
39	0xbc314f68	-0.010822155
40	0xbc01444f	-0.007889821
41	0x3ce561e6	0.028000783
42	0xbad693f8	-0.0016371002
43	0xbbf94d4e	-0.0076080924
44	0xbbb2d3e0	-0.0054573864
45	0xbce118dc	-0.027477674
46	0xbc9fa208	-0.019486442
47	0x3ac65bcf	0.0015133562
48	0xba21ea8b	-0.0006176612
49	0xbc39b667	-0.011334992
50	0xbc1dc7a8	-0.009630121
51	0xbc0e63ec	-0.008690815
52	0x3bf29244	0.00740269
53	0xbbee27c1	-0.0072679226
54	0xbd06b83d	-0.032890547
55	0xbb2dd1b0	-0.0026522689
56	0xbc281a8d	-0.010260236
57	0x3b8b3936	0.0042487634
58	0xbc6d2c4a	-0.014475891
59	0x3d1bb9db	0.038019042
60	0xbc03d5e0	-0.008046597
61	0xbecb7be0	-0.39742947
62	0xbbfdf187	-0.0077497396
63	0xbae10e3e	-0.0017170382

a2c_network.mu.weight f4 [12, 64]
0	0x3ca7c2a5	0.020478556
1	0x3ddba349	0.107245035
2	0x3d30953c	0.04311107
3	0xbd099c62	-0.033596404
4	0xbe249f5d	-0.16076417
5	0xbe2b19dc	-0.16709083
6	0x3e9bb373	0.30410346
7	0xbe44cf05	-0.19219597
8	0xbdbc1720	-0.09184098
9	0xbc973a40	-0.018460393
10	0xbd7994c0	-0.060932875
11	0xbe0995fe	-0.13436124
12	0x3d948536	0.072519705
13	0xbdf915f0	-0.12162387
14	0xbdb0fd37	-0.08642047
15	0xbd8c43b1	-0.068488486
16	0x3d96dbd8	0.073661506
17	0xbc0a1655	-0.008428176
18	0xbda1a974	-0.07893649
19	0xbe924662	-0.28569323
20	0xbc7a09b0	-0.015261099
21	0x3dcb194b	0.099169336
22	0x3d854a90	0.06508362
23	0x3db136be	0.08653019
24	0xbe2d88b5	-0.16946681
25	0xbda3c14a	-0.07995851
26	0xbe2ad0dd	-0.16681238
27	0xbd71445e	-0.05890309
28	0x3e4f6c15	0.20256074
29	0xbe03bd50	-0.12865186
30	0xbe22f958	-0.1591543
31	0x3e1bc5a7	0.15212117
32	0x3de9fcca	0.11425169
33	0xbe586bc9	-0.21134867
34	0x3d570f95	0.052505095
35	0x3de8e2b4	0.11371365
36	0x3e21f553	0.1581624
37	0xbe1e592c	-0.15463704
38	0x3ed15c90	0.40890932
39	0x3d6209e0	0.0551852
40	0xbd194904	-0.03742315
41	0xbec0cb19	-0.3765495
42	0x3e9c21e2	0.304946
43	0xbdc0a69d	-0.09406779
44	0x3ded222e	0.11578785
45	0x3e2c1f48	0.16808808
46	0x3e9306ed	0.2871622
47	0xbc6106e4	-0.013734553
48	0x3e2fd859	0.17172374
49	0xbde2abbc	-0.11067912
50	0xbea0052c	-0.31253946
51	0x3e0ce16a	0.13757864
52	0xbcfdec8d	-0.030996585
53	0xbe045dd2	-0.12926415
54	0x3e38a9a2	0.1803346
55	0x3d91f1ff	0.07126235
56	0xbe8255c4	-0.2545606
57	0xbec10ccf	-0.37705085
58	0xbd898d38	-0.067163885
59	0x3de56268	0.1120041
60	0xbe099682	-0.1343632
61	0x3dcc30f6	0.09970276
62	0xbc287ff0	-0.010284409
63	0xbeac7dae	-0.33689636
64	0xbd9e4458	-0.07727879
65	0x3ea86fe1	0.32897857
66	0x3e5090c5	0.20367725
67	0xbe7e00ba	-0.24804965
68	0x3dea2881	0.11433507
69	0xbd18acc1	-0.037274126
70	0xbe576fdc	-0.21038765
71	0x3e8af6c8	0.27141404
72	0xbe8a066c	-0.26958025
73	0x3e3352dc	0.17512077
74	0xbd02bd6d	-0.03191893
75	0x3da1d247	0.07901435
76	0xbe3c2530	-0.18373561
77	0xbe5099ba	-0.20371142
78	0xbc8cbcd0	-0.017179877
79	0x3da2462a	0.07923539
80	0x3e099fb6	0.13439831
81	0xbdbc75f0	-0.09202182
82	0xbb9b34e4	-0.0047365297
83	0xbd4f684b	-0.05063657
84	0xbea221ba	-0.31666356
85	0x3db76f38	0.0895676
86	0xbd6f143f	-0.058368918
87	0xbe257fea	-0.16162077
88	0xbd8057bb	-0.06266733
89	0x3e80965a	0.2511471
90	0xbe30e8bb	-0.1727628
91	0xbe03fab6	-0.12888607
92	0x3d6e6d39	0.05820963
93	0x3e35b14d	0.17743416
94	0xbe6b29b9	-0.22965135
95	0x3dbece6c	0.093167156
96	0xbe8a34c5	-0.26993385
97	0x3e1c3576	0.15254769
98	0xbd8b7e3b	-0.06811186
99	0xbe0a7878	-0.13522518
100	0x3d6a83cd	0.0572546
101	0xbe89d20b	-0.26918063
102	0x3e31c098	0.17358625
103	0x3d81f0cf	0.06344759
104	0x3e1a1f2b	0.15050952
105	0x3d3cb3cc	0.046069905
106	0xbe1fd5b8	-0.15608871
107	0xbd5c3be2	-0.053768046
108	0x3e015bff	0.1263275
109	0x3e347264	0.17621762
110	0x3e2ad93d	0.16684432
111	0xbe0732ac	-0.13202924
112	0xbdcca224	-0.09991863
113	0x3e51fe7b	0.20507233
114	0xbd55fce6	-0.052243136
115	0xbd281edd	-0.04104506
116	0xbe52aa98	-0.20572889
117	0x3decf366	0.11569862
118	0x3dae6d5a	0.08516951
119	0x3c661f2d	0.014045519
120	0xbe44cb1d	-0.19218107
121	0x3e9040c5	0.28174415
122	0xbd017746	-0.03160789
123	0x3d6c9075	0.057754952
124	0x3e9eaf4b	0.30993113
125	0xbb680909	-0.0035405776
126	0xbdbfdad8	-0.09367913
127	0x3e27b17d	0.163763
128	0x3dceee0e	0.10103999
129	0xbe056080	-0.13025093
130	0x3e150c98	0.14555585
131	0xbe306632	-0.17226484
132	0x3eb89a5e	0.36055273
133	0xbe3e1b57	-0.18565117
134	0x3e2d7a76	0.16941246
135	0xbcb5dbd8	-0.022199556
136	0x3e73bf2f	0.238034
137	0xbbee4007	-0.0072708162
138	0xbc0d3456	-0.008618435
139	0xbdf0248b	-0.1172572
140	0x3d4fcfd6	0.050735317
141	0xbe80e30e	-0.2517323
142	0xbd5f560c	-0.05452542
143	0x3e671b20	0.22568941
144	0x3d1a0b77	0.03760859
145	0xbeb7a915	-0.35871187
146	0x3d5bce0e	0.053663306
147	0x3e64af7e	0.2233257
148	0x3d52bcc7	0.051449563
149	0xbdc9973c	-0.09843299
150	0xbe7ef318	-0.2489742
151	0xbe872d3e	-0.26401705
152	0xbd6bdb86	-0.0575824
153	0xbe2703d4	-0.16310054
154	0x3e48e423	0.19618277
155	0xbbe82112	-0.0070840204
156	0xbe2c447c	-0.16823
157	0xbe04803c	-0.12939543
158	0xbe0154d1	-0.12630011
159	0xbba218e3	-0.0049468144
160	0x3e2d9cb0	0.16954303
161	0x3c1b9acf	0.009497358
162	0x3d4b6ccf	0.049664315
163	0x3d9a2b66	0.07527809
164	0x3df24400	0.11829376
165	0x3d7a6af5	0.06113716
166	0x3d96d1a6	0.07364206
167	0x3e54b4fc	0.20772165
168	0x3d467a3a	0.048456408
169	0xbd0bba5a	-0.034113266
170	0x3e8e6473	0.27811012
171	0xbc90a5e0	-0.01765722
172	0xbd8cd89c	-0.068772525
173	0xbdee797d	-0.11644266
174	0xbe6f812a	-0.23389116
175	0xbe40bdef	-0.18822454
176	0x3e56f10e	0.20990393
177	0x3c1b5fda	0.009483302
178	0xbe438971	-0.19095398
179	0x3e31575a	0.17318478
180	0x3e229007	0.15875255
181	0x3e4863f4	0.19569379
182	0x3d30ff0c	0.04321198
183	0xbe3eb96e	-0.18625423
184	0xbe9459b3	-0.28974685
185	0xbbd1452b	-0.0063864193
186	0xbd24fd6d	-0.04028075
187	0x3e61b847	0.22042952
188	0x3d430a88	0.047617465
189	0x3d8bbf55	0.06823603
190	0xbe038eda	-0.12847462
191	0xbdf4e2d9	-0.1195733
192	0xbe4dcf3f	-0.2009859
193	0x3d895fdf	0.06707739
194	0xbe08cfa6	-0.13360462
195	0x3dfd5700	0.123701096
196	0xbd8ccbe2	-0.06874825
197	0xbe45e6f0	-0.19326377
198	0xbe30ca51	-0.17264678
199	0xbe7264a1	-0.236712
200	0xbcbf90a5	-0.023384402
201	0x3e7d599c	0.24741215
202	0xbe29d73b	-0.1658601
203	0xbdee4770	-0.11634719
204	0xbe87f653	-0.26555118
205	0x3e69b596	0.22823176
206	0x3e2b7bba	0.16746417
207	0xbe703105	-0.234562
208	0x3e240170	0.16016173
209	0x3de25ccf	0.11052858
210	0x3d024cf8	0.031811684
211	0x3df66d3d	0.12032554
212	0x3e6617aa	0.22469965
213	0x3d748781	0.05969954
214	0x3b36d0b1	0.0027895386
215	0xbe9828f7	-0.29718754
216	0xbeb4d1c4	-0.35316288
217	0x3d73f9b5	0.05956431
218	0xbd41682b	-0.047218483
219	0xbd7697b9	-0.060203288
220	0x3d73e86a	0.05954782
221	0xbe29088b	-0.16507165
222	0x3e30b9f5	0.17258437
223	0xbca0c38c	-0.019624494
224	0x3e786902	0.24258807
225	0xbe38a1de	-0.18030497
226	0xbc9ad418	-0.018899962
227	0xbdc489d2	-0.095966
228	0x3ca55fb5	0.020187238
229	0xbdaee17a	-0.085391
230	0xbe302b7d	-0.1720409
231	0x3e9c0d33	0.3047882
232	0xbcfa0528	-0.030520037
233	0xbd26dbfc	-0.040737137
234	0x3e0a758c	0.13521403
235	0xbe7b6863	-0.24551539
236	0x3d893226	0.06699018
237	0xbe3de837	-0.18545614
238	0xbc81d52f	-0.015848724
239	0x3e3ff07b	0.1874408
240	0x3e937f49	0.28808048
241	0x3d128a30	0.035776317
242	0x3dc8293b	0.09773489
243	0x3da565ce	0.08076058
244	0x3c4b509d	0.012409356
245	0x3d89010b	0.06689652
246	0xbb81a3ab	-0.0039562783
247	0xbdcb7e6f	-0.09936225
248	0x3bc88eaf	0.006120525
249	0x3d9571ca	0.07297094
250	0xbdb07636	-0.08616297
251	0xbb9900cb	-0.004669284
252	0xbb5c2897	-0.003359353
253	0xbe2dc742	-0.16970542
254	0x3e4cde1b	0.20006602
255	0x3d0ef535	0.034901816

a2c_network.mu.bias f4 [12]
0	0xbd01b4e6	-0.03166666
1	0x3ca7cc91	0.020483287
2	0xbd4522d8	-0.048128933
3	0x3dfcb6bf	0.123395436
4	0xbe5bf031	-0.21478345
5	0x3d457d0d	0.04821496
6	0x3d5c3ab3	0.053766917
7	0x3d035932	0.032067485
8	0xbcf7fc3a	-0.030271638
9	0xbde6b5e1	-0.112651594
10	0x3e757dfa	0.23973837
11	0x3d2046ab	0.039129894

exp_avg f4 [12]
0	0xba6ad4fd	-0.00089581293
1	0x3a31da29	0.00067845226
2	0x3a99ee08	0.0011743912
3	0xbabad7d0	-0.0014254991
4	0x39ef7ec5	0.00045680083
5	0xba44d508	-0.0007508551
6	0x3a846ba2	0.0010102878
7	0x3a5cd15a	0.000842353
8	0x3a71f9b1	0.00092306273
9	0x3a810427	0.0009843156
10	0x3a636e86	0.0008675832
11	0x3971e9fa	0.00023070714

exp_avg_sq f4 [12]
0	0x3857e02a	5.1468764e-05
1	0x38609c99	5.3551605e-05
2	0x387024e4	5.7254816e-05
3	0x386f8fc8	5.7115947e-05
4	0x3864b022	5.4523472e-05
5	0x38663872	5.4888842e-05
6	0x38715bc8	5.7544356e-05
7	0x384ec0e9	4.929389e-05
8	0x3855b736	5.0953786e-05
9	0x386081eb	5.3526757e-05
10	0x3850f82e	4.98222e-05
11	0x385661ae	5.1112547e-05
