omniisaacgymenvs/scripts/runs/Anymal/nn/last_Anymal_ep_250_rew_-0.9583126.pth (torch, 672599 bytes, 36 tensors)

value_mean_std.running_mean f8 [1]
0	0xbff75204d059d97d	-1.457524122115131

value_mean_std.running_var f8 [1]
0	0x4048b7a83a81cd2e	49.43482142770732

value_mean_std.count f8 []
0	0x4187700008000000	49152001.0

running_mean_std.running_mean f8 [48]
0	0x3fa65d4520ffd0c8	0.043680343893272744
1	0x3f9152c97831fae7	0.01691736980546468
2	0xbfe3450004a3284c	-0.602172860200207
3	0xbf93265358bd8f21	-0.01870088795784775
4	0xbf603ca7a9b1ba9b	-0.001982047525920306
5	0xbf551523ff37e1f0	-0.0012867785961799792
6	0x3f6b86b34ae6435b	0.0033601285751462657
7	0x3f7da149ab2765f3	0.007233894126750229
8	0xbfeec9cdfc6eb9ae	-0.9621343546221419
9	0xbfc67f1beb623ac3	-0.17575406068177388
10	0x3f9984c7fafd6b39	0.024920582479676077
11	0xbf30b2714ffe5521	-0.00025477663438640453
12	0xbfc4eb03ffead397	-0.16342210765801887
13	0xbfc22bf81dbe7c2f	-0.1419668336138513
14	0x3fbfb1a9847af0aa	0.12380465969448787
15	0x3fc239758f4ee040	0.1423785161730411
16	0x3f8ddcc280b0f984	0.014581222107264542
17	0x3fb4f37bd17d47d1	0.08184026588904138
18	0xbf926f75419cb364	-0.01800330365147164
19	0xbf60ae60953b226b	-0.0020362745652600565
20	0x3fb658059290b5e6	0.08728060558561132
21	0xbfc375371324b798	-0.15201462206590288
22	0x3fc10970dfeea1e7	0.13310061392009162
23	0xbfb9c1373ec269a0	-0.10060448915684228
24	0xbf9bd3d7daa80b0a	-0.027175305100182214
25	0xbf937de970f4746b	-0.01903500320360189
26	0x3f9deecc5a286a3d	0.029231255533981083
27	0x3f9b3ef5a70f0bd7	0.026607359239061736
28	0xbf70d9de06ff686e	-0.004114024442936166
29	0x3f97b683890c9eb3	0.023157172431779127
30	0xbf86c8fc90efa007	-0.011125538991066731
31	0x3f78510aa0a89721	0.005936662210421579
32	0x3f897186e75b1e13	0.012423566756651494
33	0xbf9e210b6d94ca75	-0.02942293030100492
34	0x3fa0f925aff7065b	0.0331508424092248
35	0xbf96cf221abba46c	-0.022274525529529063
36	0xbfb515f7eb78da88	-0.08236646174268902
37	0xbfabd28aa74cc593	-0.05434068004832251
38	0x3fb4db04ebe14452	0.08146696814334689
39	0x3fb0f5b62b702778	0.06624926147938293
40	0x3f90e924c224154e	0.016514372205184195
41	0x3fad3c73bf698135	0.057101838222254044
42	0xbf955e23c7be5e5e	-0.02086692721021987
43	0x3f6f342a477a15a3	0.0038090539708856715
44	0x3fa0818e6439a59d	0.03223843549205727
45	0xbfb196ba810ca4e0	-0.06870618486995594
46	0x3fb92a23c98e94ed	0.09829925223182885
47	0xbfa71d77de3f2b1d	-0.0451466997906975

running_mean_std.running_var f8 [48]
0	0x3fe2ccd7e0521de2	0.587505281569005
1	0x3fdfdf282a1290e9	0.4979954157700051
2	0x3fe82b52fcda146b	0.7552885950577893
3	0x3fc5e3ff2b785427	0.17102040884552247
4	0x3fa9fd06d73d9e07	0.05075856568765507
5	0x3fb703b063ea230a	0.08990004004784793
6	0x3f94e57c57b28ab3	0.020406668522478365
7	0x3fa73e2ab041aad5	0.04539616967743646
8	0x3f81455fb87a50e4	0.008433101479831291
9	0x4015544bc8e2a708	5.3323203457200705
10	0x3ff4d8adfab0fe33	1.3029002945548995
11	0x3f95063dd8e8073a	0.020531622280038443
12	0x3fc002f3a07106a8	0.1250900777250099
13	0x3fc1a6918de29d65	0.13789576938618633
14	0x3fc208342912d37c	0.14087535863441392
15	0x3fc22ad2ae8a0a72	0.1419318535082144
16	0x3fbb93a9a09937a0	0.10772190256940783
17	0x3fc07c5b53f1133d	0.1287950668212491
18	0x3fbe84b43ff24466	0.11921240388098084
19	0x3fbea55591c9af51	0.11971030053399302
20	0x3fc7336e27fd5207	0.18125702812780295
21	0x3fcbf73aaa0fba0e	0.21848233512669463
22	0x3fc8021b86fdf6d2	0.18756431666763845
23	0x3fcb7c74a1999abf	0.21473558321596006
24	0x3f7eac72e4a5465a	0.007488678742747357
25	0x3f8168ff950c8a3b	0.008501049743761082
26	0x3f83428ace7f3b99	0.00940426294974177
27	0x3f8287d42efbd193	0.009048135455920902
28	0x3f816eba6f6cc25b	0.008511978650490073
29	0x3f81f591e8e6c0f4	0.008769168777547943
30	0x3f80ed8d55808931	0.008265594646279158
31	0x3f81b470bfe8285c	0.008644944054157992
32	0x3f9b4c6863c2f18f	0.02665866001983513
33	0x3f9d1ce72da0a2b9	0.028430568847542335
34	0x3f9eb3277163f53f	0.029980293556026934
35	0x3fa05c47770148cd	0.03195403411577189
36	0x3fe077471f40de17	0.5145602808397055
37	0x3fe06b33455e68c0	0.5130859713420008
38	0x3fe09b8049637c11	0.5189820702906919
39	0x3fe013d4243140f5	0.5024204928286325
40	0x3fe07c2a60e6b558	0.5151569264032032
41	0x3fe09a49da1ecb62	0.5188340435182506
42	0x3fe04fdd06db22b5	0.5097489484697549
43	0x3fe0a3b742baa418	0.519984846430023
44	0x3fe053a5115843de	0.5102105463757842
45	0x3fe00d7330198cbc	0.5016418399285594
46	0x3fe072862c34dafd	0.5139799941451596
47	0x3fe0bfaffdb21b28	0.5233993487353006

running_mean_std.count f8 []
0	0x4177700010000000	24576001.0

a2c_network.sigma f4 [12]
0	0x3fada20a	1.3565075
1	0x3f82f5d6	1.0231273
2	0x3f98b49a	1.1930115
3	0x3f9b803b	1.2148508
4	0x3f9c50f4	1.2212205
5	0x3f95b271	1.1695081
6	0x3f92d30a	1.1470654
7	0x3f945013	1.1586937
8	0x3f8875b1	1.0660917
9	0x3f96b41b	1.1773714
10	0x3f9ce05d	1.225597
11	0x3fa19da7	1.2626237

a2c_network.actor_mlp.0.weight f4 [256, 48]
0	0x3e341d2d	0.17589255
1	0xbe25775b	-0.16158812
2	0xbe0c39b8	-0.13693893
3	0x3c25588a	0.01009191
4	0xbea2d6af	-0.31804416
5	0x3dddd013	0.10830703
6	0x3e1814fc	0.14851755
7	0x3c000dd6	0.007815799
8	0x3d35b686	0.04436352
9	0x3c3907b3	0.01129334
10	0x3e2872ac	0.16449994
11	0xbead4e45	-0.33848777
12	0xbb02aeb1	-0.001994055
13	0xbd36c93e	-0.044625513
14	0xbcd22d53	-0.025656378
15	0x3e2efff2	0.17089823
16	0x3d0b953d	0.03407787
17	0xbe86d0a4	-0.26331055
18	0x3e833703	0.25627908
19	0xbde76246	-0.11298041
20	0xbe1b7348	-0.15180695
21	0xbcaf9bc9	-0.021436589
22	0x3e49f237	0.19721304
23	0x3dcef5ce	0.10105477
24	0x3d881bdd	0.066459395
25	0xbe38bd2c	-0.18040913
26	0xbe3f271f	-0.18667267
27	0xbe3bf5ef	-0.18355535
28	0xbdfedaba	-0.124440625
29	0x3c714f52	0.014728384
30	0x3ca0755a	0.019587208
31	0x3eaec151	0.34131864
32	0xbe5c0413	-0.21485929
33	0xbcba441f	-0.02273756
34	0x3ec16d44	0.37778676
35	0xbd6a42e5	-0.0571927
36	0x3d2ddce3	0.042446982
37	0xbdaa316e	-0.08310209
38	0x3e1987de	0.14993235
39	0xba52c074	-0.0008039542
40	0xbdd46c33	-0.103722
41	0x3d23dccc	0.04000549
42	0x3e7f28c3	0.24917893
43	0xbe894034	-0.26806796
44	0x3df7206a	0.12066729
45	0x3e464c67	0.19365083
46	0xbe837ad7	-0.25679657
47	0xbe47d1c6	-0.19513616
48	0x3ea494d2	0.3214479
49	0xbdeec3b4	-0.11658421
50	0x3df35ad6	0.1188256
51	0xbe5e27ca	-0.21694866
52	0xbe1da165	-0.15393598
53	0x3e64c97b	0.22342484
54	0x3ce05138	0.027382478
55	0xbedce7d3	-0.43145618
56	0x3d067afb	0.032832127
57	0xbe18b63f	-0.14913271
58	0xbb5e22ba	-0.003389521
59	0xbe5876c7	-0.2113906
60	0xbd032879	-0.03202102
61	0xbdf29d16	-0.11846368
62	0x3e581128	0.21100295
63	0x3e542914	0.20718795
64	0x3e99e715	0.30059114
65	0xbdc04938	-0.09388965
66	0xbe1edab2	-0.15513113
67	0xbe3f20e2	-0.18664888
68	0xbdbad574	-0.09122744
69	0xbb5a19aa	-0.0033279457
70	0x3e10c9cc	0.1413948
71	0xbe1f086d	-0.15530558
72	0x3e7c2202	0.24622348
73	0x3d4dd36e	0.050250463
74	0xbded405b	-0.115845405
75	0xbead7ad4	-0.33882773
76	0xbe8e659c	-0.27811897
77	0xbea8461f	-0.32865998
78	0xbdbf2133	-0.09332504
79	0xbe1beb32	-0.15226439
80	0x3e80fd27	0.2519314
81	0x3e944045	0.28955284
82	0x3deb80fc	0.11499211
83	0xbd03d4fc	-0.03218554
84	0xbeb2a608	-0.34892297
85	0x3ea30c60	0.3184538
86	0x3dd7d797	0.105391674
87	0xbdb38ff6	-0.08767693
88	0xbed895a7	-0.42301676
89	0xbe4fa624	-0.20278221
90	0xbe032bc2	-0.12809661
91	0x3d69638f	0.056979712
92	0x3eea26d5	0.4573275
93	0xbe268f4f	-0.16265605
94	0x3db9093c	0.090349644
95	0xbe35f224	-0.1776815
96	0xbea1cd8e	-0.31602138
97	0xbb71f8fd	-0.003692209
98	0x3ebe8e0b	0.37217745
99	0x3e645003	0.22296147
100	0x3eb3f33d	0.35146514
101	0xbdd8ec13	-0.105919026
102	0x3e4a7161	0.19769813
103	0x3dc740a3	0.09729125
104	0x3decb090	0.11557114
105	0x3d6be1ab	0.05758826
106	0x3e8d12b4	0.27553332
107	0xbe9c1ff3	-0.30493125
108	0x3e528ef6	0.20562348
109	0xbd5c6d9c	-0.05381547
110	0x3e14b6dd	0.14522882
111	0xbd0bbd36	-0.034115992
112	0x3e099100	0.1343422
113	0xbda7025e	-0.081547484
114	0xbdfbe365	-0.122992314
115	0xbe8c3477	-0.27383777
116	0x3e3e5930	0.1858871
117	0x3e3c3605	0.18379982
118	0xbe4a679d	-0.19766088
119	0x3e1b54c6	0.15169057
120	0x3e09aaca	0.13444057
121	0xbe6c922a	-0.23102632
122	0xbe889fab	-0.26684317
123	0xbd151feb	-0.036407392
124	0x3e984a6a	0.29744273
125	0xbe8b73b6	-0.27236718
126	0xbe70e6d9	-0.23525561
127	0xbe967e4d	-0.29393235
128	0xbdd47439	-0.1037373
129	0x3ed9546b	0.42447218
130	0x3dfa65a3	0.12226417
131	0xbea3609f	-0.31909654
132	0x3e838d42	0.2569371
133	0x3e576aeb	0.2103688
134	0xbef854b8	-0.48502135
135	0xbdf330f7	-0.11874574
136	0x3f03adc5	0.51437026
137	0x3d943079	0.07235808
138	0x3e678ad1	0.22611548
139	0xbf08667f	-0.53281397
140	0xbe2fd48e	-0.17170927
141	0x3e4e32f9	0.20136632
142	0xbe2ed024	-0.17071587
143	0x3d9d3da7	0.07677775
144	0x3d529bb7	0.051418032
145	0x3eb662de	0.35622305
146	0x3c12c9a6	0.00895921
147	0xbdac1f04	-0.08404353
148	0xbdc0c2b4	-0.09412137
149	0x3dd04f6b	0.10171398
150	0xbbbf43e3	-0.00583695
151	0xbb860a0a	-0.004090552
152	0xbde49f84	-0.11163238
153	0xbd091b06	-0.033473037
154	0x3e0d5d19	0.13805045
155	0x3d347437	0.044056144
156	0x3b99e0a8	0.0046959706
157	0xbe77e397	-0.24207912
158	0xbea5230f	-0.3225331
159	0xbd2577a0	-0.040397286
160	0xbe55d49c	-0.20881885
161	0xbdc46571	-0.09589661
162	0x3dc945f6	0.09827797
163	0x3d8244da	0.06360789
164	0xbe767a72	-0.24070147
165	0xbe49ae53	-0.19695406
166	0xbdd25320	-0.10269761
167	0x3eb56b61	0.35433486
168	0x3c31dd73	0.01085602
169	0x3e15d7cc	0.14633101
170	0x3e35d5aa	0.17757288
171	0x3d7c5c05	0.061611194
172	0xbd942b83	-0.07234862
173	0xbdb69f3c	-0.0891709
174	0xbe086482	-0.1331959
175	0xbca878d1	-0.020565422
176	0xbe053235	-0.13007434
177	0x3d671b0e	0.056422286
178	0x3e107a7b	0.14109223
179	0x3d6d3fd1	0.05792219
180	0xbe1ca4ff	-0.15297316
181	0xbd77c20a	-0.060487784
182	0xbdcbb108	-0.099458754
183	0xbd6e33aa	-0.05815474
184	0x3dee09f1	0.1162299
185	0x3db74f90	0.08950722
186	0x3e24366d	0.16036387
187	0xbdbdc21c	-0.09265539
188	0xbdd34ce3	-0.10317399
189	0xbe40b8b6	-0.18820462
190	0x3c2ca4ab	0.010537307
191	0xbe35d5b1	-0.17757298
192	0x3e0c32a5	0.13691194
193	0xbe2ebca5	-0.1706415
194	0xbd37cc6e	-0.044872694
195	0x3cf2f8a5	0.029659579
196	0xbe2e5037	-0.17022787
197	0x3e320811	0.1738589
198	0xbe744b40	-0.2385683
199	0x3a823efc	0.0009936984
200	0x3d424dee	0.0474376
201	0xbd84e007	-0.06488042
202	0xbdf576fb	-0.11985584
203	0xbe79755e	-0.24361178
204	0x3ca46300	0.020066738
205	0xbde857a8	-0.11344844
206	0xbdddc199	-0.108279414
207	0xbe8d7030	-0.27624655
208	0x3e0ea670	0.13930678
209	0xbd576c6e	-0.05259364
210	0x3e820898	0.25397182
211	0x3e961dab	0.2931951
212	0xbb0be81a	-0.002134806
213	0xbedea8c5	-0.43488136
214	0x3eb170c9	0.3465636
215	0xbe555786	-0.20834169
216	0x3d0a5db0	0.033780754
217	0x3e801d75	0.25022474
218	0xbd525606	-0.05135157
219	0xbdba1c03	-0.09087374
220	0xbe2af2d3	-0.16694193
221	0xbe5079ae	-0.20358917
222	0x3e26e530	0.16298366
223	0xbe93a78e	-0.28838772
224	0x3ebc6cf9	0.3680189
225	0x3d35a5d9	0.044347618
226	0xbddee87e	-0.10884188
227	0xbde22925	-0.11043004
228	0xbf15b403	-0.584778
229	0x3e91ed75	0.28501478
230	0x3e224870	0.15847945
231	0xbecdcc92	-0.40195137
232	0xbd5ce843	-0.05393244
233	0xbe02ea9c	-0.12784809
234	0xbe749d2f	-0.23888086
235	0xbea49e0c	-0.3215183
236	0x3dcb9c90	0.09941971
237	0x3e66e634	0.22548753
238	0xbeb9cfab	-0.3629125
239	0x3df4937b	0.11942192
240	0x3e79f093	0.24408178
241	0x3d85402c	0.065063804
242	0xbdbd4729	-0.09242088
243	0xbe46e645	-0.19423778
244	0xbdb0a7f6	-0.08625786
245	0xbe42b3cd	-0.19013901
246	0xbe953f24	-0.29149735
247	0xbdd462ed	-0.10370431
248	0xbf1d2959	-0.61391217
249	0x3e7541d6	0.23950896
250	0xbdbae9a8	-0.09126598
251	0xbeb3a1e3	-0.35084447
252	0x3e7316c5	0.23739155
253	0xbdc2137b	-0.09476372
254	0xbe7f232f	-0.24915765
255	0xbe838272	-0.2568546

a2c_network.actor_mlp.0.bias f4 [256]
0	0xbeae6a5a	-0.34065515
1	0x3d1cd4ac	0.038288757
2	0x3eaf0d85	0.34190002
3	0xbeb72535	-0.35770574
4	0x3e4fcabf	0.20292185
5	0xbdc29507	-0.09501081
6	0xbe031879	-0.12802304
7	0xbed62436	-0.41824502
8	0xbebf54d0	-0.37369394
9	0xbf12067e	-0.57041156
10	0xbd0c1b0b	-0.034205478
11	0xbdefb307	-0.11704069
12	0xbded1f11	-0.11578191
13	0xbeaa159c	-0.33219612
14	0xbe3472a9	-0.17621864
15	0xbea2ed9b	-0.31821904
16	0x3e623399	0.22089995
17	0x3dfb7704	0.1227856
18	0xbe03c97b	-0.12869827
19	0xbea1f084	-0.3162881
20	0x3e87e4dc	0.26541793
21	0xbba7fb1b	-0.0051263697
22	0x3e93dfe7	0.2888176
23	0xbe590050	-0.21191525
24	0x3e77608f	0.24157928
25	0xbeae6378	-0.34060264
26	0xbd690bd3	-0.056896042
27	0xbd6400c5	-0.055664796
28	0x3c101f96	0.008796593
29	0x3ef2647b	0.47342286
30	0xbe9b75c9	-0.303633
31	0xbe690d38	-0.22758949
32	0x3d45671e	0.048194043
33	0xbec30c07	-0.38095114
34	0xbe9475a4	-0.28996003
35	0xbedb5921	-0.42841437
36	0xbe318af4	-0.17338163
37	0x3d982df1	0.07430638
38	0xbe1b18d6	-0.15146193
39	0xbebefffa	-0.3730467
40	0x3e71d3f1	0.23616005
41	0xbe138a8b	-0.14408319
42	0xbc981e61	-0.018569173
43	0x3d9fbe31	0.07799948
44	0x3ecbec5f	0.39828774
45	0xbe63c83a	-0.22244349
46	0xbec29627	-0.38005182
47	0xbd29869a	-0.04138813
48	0xbe7a48ed	-0.24441881
49	0xbebcf070	-0.3690219
50	0x3e184d9f	0.1487336
51	0xbe658653	-0.22414522
52	0xbeb18f73	-0.34679756
53	0xbe67c63a	-0.22634211
54	0x3be68c00	0.0070357323
55	0x3e805e9b	0.25072178
56	0x3e14207b	0.14465515
57	0xbe77c089	-0.2419454
58	0xbe4ea3f9	-0.20179738
59	0xbe62b407	-0.22138987
60	0xbe912196	-0.28345937
61	0xbeee21b1	-0.4651008
62	0xbea9fa39	-0.33198717
63	0xbe80334f	-0.25039145
64	0xbe893c80	-0.2680397
65	0xbebbbee7	-0.36669084
66	0xbef282f9	-0.4736555
67	0xbeead9b7	-0.45869228
68	0xbf1367a9	-0.5758005
69	0x3e327317	0.17426716
70	0xbeadb450	-0.3392663
71	0xbd6cfd24	-0.0578586
72	0xbe37fd66	-0.17967758
73	0xbe84491f	-0.25837037
74	0x3ea2e8a5	0.3181812
75	0x3de95980	0.11394024
76	0xbe16a750	-0.14712262
77	0xbe5598b8	-0.20859039
78	0xbe832c90	-0.25619936
79	0xbeecdc32	-0.46261746
80	0x3dfbcd58	0.122950256
81	0x3e6a419f	0.22876595
82	0x3ea63bd5	0.32467523
83	0xbece68b5	-0.4031426
84	0xbec0659c	-0.37577522
85	0xbb8485a0	-0.0040442497
86	0xbe0f3c39	-0.13987817
87	0x3eab8eaa	0.33507282
88	0xbe692345	-0.2276736
89	0x3e86a110	0.26294756
90	0x3e98cc20	0.29843235
91	0xbeaf2466	-0.34207457
92	0xbf0eb150	-0.5573931
93	0xbeeebf69	-0.4663041
94	0xbd84b5de	-0.06480001
95	0x3ca87941	0.02056563
96	0xbe9d3741	-0.30706218
97	0xbeb1a53c	-0.34696376
98	0xbe5bd5f2	-0.21468332
99	0xbe9150b4	-0.28381884
100	0xbeee5d1e	-0.46555418
101	0x3e48443a	0.19557276
102	0xbecc1e3b	-0.39866814
103	0xbe67445f	-0.22584675
104	0xbe6cf8cd	-0.23141785
105	0x3e81f801	0.25384524
106	0x3e86e8d3	0.26349506
107	0x3dc052fe	0.093908295
108	0xbdeef179	-0.11667151
109	0x3ed357c1	0.41277888
110	0x3dc0f2ee	0.09421335
111	0x3dfbb207	0.122898154
112	0xbe04823a	-0.12940302
113	0xbecb2c1f	-0.396821
114	0xbef78874	-0.48346293
115	0xbda4613c	-0.080263585
116	0xbd7e17a6	-0.06203427
117	0x3e8ab799	0.270932
118	0xbce1e102	-0.027573112
119	0x3e541e5d	0.20714708
120	0x3dab34d8	0.083596885
121	0x3e80e88e	0.25177425
122	0xbecd649e	-0.40115827
123	0xbe0760f2	-0.13220575
124	0x3e3e46c6	0.18581685
125	0x3e8cd486	0.27505893
126	0xbea2097e	-0.31647867
127	0xbe875654	-0.2643305
128	0xbdaa498e	-0.08314811
129	0xbe6283c1	-0.22120573
130	0xbeb832b4	-0.35976183
131	0xbd16ebe8	-0.03684607
132	0xbea52ee4	-0.32262337
133	0xbd1f7879	-0.03893325
134	0x3e05313c	0.13007063
135	0xbc80f07e	-0.015739676
136	0xbe97c5cb	-0.29643092
137	0x3d3bab6d	0.04581778
138	0xbf188ce1	-0.59589964
139	0xbe1198b6	-0.14218411
140	0xbe84b55a	-0.2591961
141	0xbe299675	-0.16561301
142	0xbe834d9d	-0.25645152
143	0x3e48a2f8	0.19593418
144	0xbe61494b	-0.22000615
145	0xbe8e0735	-0.27739874
146	0xbed0b9f0	-0.4076686
147	0xbe3f4172	-0.18677309
148	0xbecb84a2	-0.39749628
149	0xbded8b8d	-0.11598883
150	0xbe87dbc9	-0.2653487
151	0xbe20277a	-0.15640059
152	0xbe753335	-0.23945315
153	0x3e3d0049	0.1845714
154	0xbe350230	-0.17676616
155	0x3df45927	0.11931067
156	0xbe858c73	-0.26083717
157	0xbe5cbbc6	-0.21556005
158	0xbe45ea8b	-0.19327752
159	0xbe05dc0a	-0.1307222
160	0x3ea61bb3	0.32443008
161	0xbea8a483	-0.32938012
162	0x3def9953	0.11699166
163	0xbe758a7f	-0.23978613
164	0xbe8cb330	-0.2748046
165	0xbedbb910	-0.4291463
166	0x3ebb4bcb	0.36581263
167	0xbdb5dd14	-0.08880058
168	0xbee20d94	-0.44150984
169	0x3e88f30a	0.26747924
170	0xbe19fbc9	-0.15037455
171	0xbea2fe65	-0.31834713
172	0xbebd9e5d	-0.37034884
173	0x3d05d7ed	0.032676626
174	0xbe77d928	-0.24203932
175	0x3e5ce26e	0.21570751
176	0xbec2e1ec	-0.3806299
177	0xbe439a7f	-0.19101904
178	0xbe4463eb	-0.1917874
179	0x3ecbd6c8	0.39812303
180	0xbe85e78b	-0.26153216
181	0xbd7ec19a	-0.06219635
182	0x3da20a46	0.07912116
183	0xbe1cd669	-0.15316166
184	0xbe9b1a05	-0.3029329
185	0xbe7bc61b	-0.2458729
186	0xbe89d20f	-0.26918074
187	0xbee912a9	-0.4552205
188	0xbed0a5e3	-0.40751562
189	0xbece607c	-0.40307987
190	0xbe1563da	-0.14588872
191	0x3d0e6b83	0.0347705
192	0xbe4f4b97	-0.20243679
193	0xbdc335c9	-0.09531743
194	0x3ea0bad6	0.31392545
195	0xbeeca315	-0.46218172
196	0x3df3ac48	0.118980944
197	0xbe5897c8	-0.2115165
198	0xbe059d1a	-0.1304821
199	0xbe6be958	-0.23038232
200	0xbe7f491f	-0.24930237
201	0x3e35044e	0.17677423
202	0xbeb1c17a	-0.34717923
203	0xbe3f224c	-0.18665427
204	0x3ead0b76	0.33797807
205	0x3ea99deb	0.33128294
206	0xbf0873d8	-0.53301764
207	0xbe94c652	-0.29057556
208	0xbe564135	-0.20923312
209	0xbe8cc506	-0.27494067
210	0xbe8efa39	-0.2792528
211	0xbe903525	-0.28165546
212	0x3e600110	0.21875405
213	0x3e24f305	0.1610833
214	0xbd24d6e0	-0.040243983
215	0xbe48ffde	-0.19628856
216	0xbdcdf56d	-0.10056577
217	0xbe049a1d	-0.12949415
218	0xbcece664	-0.028918453
219	0xbe854037	-0.26025555
220	0xbe1c67e0	-0.15274
221	0x3ea0d842	0.31414992
222	0x3e01f625	0.12691553
223	0xbe988ea4	-0.29796326
224	0xbea1d662	-0.31608874
225	0x3bb590ec	0.0055409577
226	0xbe761fb9	-0.24035539
227	0xbec7671d	-0.38945857
228	0x3d0e2c11	0.034709994
229	0x3e1213d9	0.14265384
230	0xbe8f75f1	-0.2801967
231	0xbea66fce	-0.32507175
232	0x3e9a41cc	0.30128324
233	0xbe20f4a0	-0.15718317
234	0xbea3c0c4	-0.31983006
235	0xbe842ff0	-0.25817823
236	0x3e31fd68	0.17381823
237	0xbe3f72de	-0.18696162
238	0xbe5338e0	-0.20627165
239	0xbe280f8f	-0.16412185
240	0xbca6c9ac	-0.020359837
241	0xbec9e650	-0.39433527
242	0xbdf6f71d	-0.12058852
243	0xbe9bd2d6	-0.30434293
244	0xbd3e1775	-0.04640909
245	0x3e19b271	0.15009476
246	0xbe96b87a	-0.2943762
247	0x3e1a5658	0.15072
248	0xbe619c5d	-0.22032304
249	0xbdf05bab	-0.11736234
250	0xbe7f9f81	-0.2496319
251	0xbe84f1a1	-0.25965598
252	0x3ea3dc8e	0.32004207
253	0x3bc13d03	0.0058971657
254	0x3c9e307d	0.01931023
255	0xbe087dfe	-0.13329312

a2c_network.actor_mlp.2.weight f4 [128, 256]
0	0xbde09832	-0.10966529
1	0xbdfefc2a	-0.1245044
2	0xbe4c0eef	-0.19927572
3	0x3e060c8c	0.13090724
4	0xbd164a32	-0.036691852
5	0xbddbc51f	-0.10730957
6	0x3e05103f	0.12994479
7	0xbb414683	-0.002949149
8	0x3e0aa36b	0.13538902
9	0x3cd03839	0.025417434
10	0x3e0aa504	0.13539511
11	0x3a264db6	0.00063439773
12	0x3da98e3a	0.08279081
13	0x3e4376c0	0.19088268
14	0x3db8681b	0.090042315
15	0x3e4a16c3	0.19735245
16	0xbe7cc153	-0.24683122
17	0xbea39490	-0.31949282
18	0x3e2a06f6	0.16604218
19	0xbd5c883f	-0.053840872
20	0xbe1d3bb7	-0.1535481
21	0xbe0accf2	-0.13554743
22	0x3c8cf10f	0.01720479
23	0x3d7dd92b	0.061974686
24	0xbecf09e2	-0.40437227
25	0x3d895ddb	0.06707355
26	0xbceaed9e	-0.028677758
27	0x3dbafa31	0.091297515
28	0xbccf76fe	-0.025325295
29	0xbe08dda4	-0.13365799
30	0x3cad7194	0.021172322
31	0xbc88ad64	-0.016684242
32	0x3d3ec280	0.04657221
33	0xbd03c3e4	-0.032169238
34	0xbd7bc22d	-0.061464477
35	0x3d7b1744	0.061301485
36	0xbe7a987c	-0.2447223
37	0xbe8ee283	-0.2790719
38	0xbb441fc0	-0.002992615
39	0x3de025d0	0.10944712
40	0xbe576e40	-0.21038151
41	0x3e5498c2	0.20761397
42	0xbdf75bf9	-0.12078089
43	0xbe94172c	-0.2892393
44	0xbea7afcc	-0.3275131
45	0x3d22dd46	0.039761804
46	0x3e873d0e	0.2641377
47	0x3bf84edb	0.0075777597
48	0xbdda9022	-0.106720224
49	0xbdbffe4a	-0.09374674
50	0xbebee395	-0.37283006
51	0x3b46ab2e	0.0030314433
52	0xbcd0857f	-0.02545428
53	0x3d1395b3	0.036031436
54	0xbe2cd13c	-0.16876692
55	0xbeb570c2	-0.3543759
56	0xbd907fba	-0.07055612
57	0xbdfccd9a	-0.12343903
58	0xbe81621d	-0.25270167
59	0xbe4acce7	-0.19804727
60	0x3d7fab8d	0.062419463
61	0x3e1d342c	0.15351933
62	0x3dd6e6df	0.10493254
63	0x3e112b4a	0.1417667
64	0xbcf983dc	-0.030458383
65	0xbea0ef26	-0.31432456
66	0x3d8c2e62	0.06844784
67	0x3c9fb0be	0.019493457
68	0x3d23961d	0.03993808
69	0xbdeb9a15	-0.11503998
70	0x3c3d2c6a	0.011546234
71	0x3e0cbea5	0.137446
72	0xbdad2850	-0.084549546
73	0xbde3d651	-0.11124862
74	0xbe33378e	-0.17501661
75	0xbe1eadc9	-0.15495981
76	0xbccd60de	-0.025070604
77	0xbd857294	-0.06515995
78	0xbda9a34d	-0.082831
79	0x3d70b072	0.05876202
80	0xbcd45fc4	-0.02592457
81	0xbeb7a494	-0.3586775
82	0xbeaa92f3	-0.33315238
83	0x3e6ebb64	0.23313671
84	0x3e9811f2	0.2970119
85	0x3c5616ca	0.013066957
86	0xbe05a33f	-0.13050555
87	0xbe044b08	-0.12919247
88	0xbe23dff0	-0.16003394
89	0xbe8cce3b	-0.2750109
90	0xbe8b42a0	-0.27199268
91	0x3db54b26	0.08852224
92	0x3e78477d	0.2424602
93	0xbd1134f3	-0.035450887
94	0xbe70c31d	-0.2351193
95	0xbed1c74b	-0.4097236
96	0x3da98d57	0.082789116
97	0x3c2925c4	0.010323945
98	0xbd6e8591	-0.058232848
99	0x3c3196ae	0.0108391475
100	0x3de4dfe4	0.11175516
101	0xbe9cc70c	-0.3062061
102	0x3e01e1bf	0.12683772
103	0x3d93d4d8	0.07218331
104	0x3d5106bb	0.05103181
105	0xbee071a9	-0.43836716
106	0xbd2cbb4a	-0.0421708
107	0x3c81a7fb	0.01582717
108	0xbe1f45d2	-0.15553978
109	0xbec5fe65	-0.3867065
110	0xbd1f8c6c	-0.038952276
111	0xbe92a664	-0.2864257
112	0x3cb1f656	0.021723907
113	0xbdde8efa	-0.10867114
114	0x3d0bebf6	0.034160577
115	0xbca5dc07	-0.020246519
116	0x3e44124b	0.19147603
117	0xbe9623ab	-0.29324088
118	0xbd9d8b85	-0.07692627
119	0xbe1c98c4	-0.1529265
120	0xbe91657b	-0.28397736
121	0xbda98380	-0.08277035
122	0x3c7ce5fb	0.015435691
123	0x3c10ef26	0.00884608
124	0x3e2f3a9f	0.17112206
125	0xbe00f91e	-0.1259503
126	0x3d9d7393	0.0768806
127	0xbda94caf	-0.08266579
128	0x3e1ddd6d	0.15416498
129	0xbd06c6a1	-0.03290427
130	0x3df24fdb	0.118316375
131	0x3b4c187d	0.0031142526
132	0xbc019674	-0.007909406
133	0x3d800655	0.06251208
134	0xbdbb0c2a	-0.091331795
135	0xbec66729	-0.3875058
136	0xbd93b213	-0.07211699
137	0xbe19dd06	-0.1502572
138	0xbcf4d040	-0.029884458
139	0xbe1202ff	-0.14258955
140	0x3dcae283	0.09906485
141	0xbd04be9e	-0.03240835
142	0xbd07eab0	-0.0331828
143	0xbdf47d81	-0.119380005
144	0x3df457ec	0.11930832
145	0x3e74f5e4	0.23921925
146	0x3e286700	0.16445541
147	0xbbc429d0	-0.0059864298
148	0x3d450742	0.048102625
149	0xbd108d4c	-0.035291
150	0x3dc8053d	0.09766624
151	0x3c81cb55	0.015844027
152	0x3da65c64	0.08123091
153	0x3d9a1f26	0.07525472
154	0xbdea6336	-0.11444704
155	0xbe689428	-0.22712767
156	0x3e77244b	0.24134938
157	0x3dbdea17	0.09273165
158	0xb9edaeff	-0.00045334545
159	0x3ddfbd07	0.10924726
160	0xbe6c27a6	-0.23062
161	0x3c832b6e	0.01601192
162	0x3dd5573f	0.104170315
163	0x3c9314c1	0.017954232
164	0xbe1396f2	-0.1441305
165	0xbcb33a04	-0.02187825
166	0xbe5fe631	-0.21865155
167	0xbe06ab5a	-0.13151303
168	0x3d963469	0.07334215
169	0xbe11a851	-0.14224364
170	0xbd59fceb	-0.053219717
171	0x3d426e81	0.047468666
172	0xbdc31b00	-0.09526634
173	0xbd522ce9	-0.05131236
174	0xbdc45e86	-0.095883414
175	0xbdb0b188	-0.086276114
176	0x3cd205da	0.025637556
177	0xbe37759d	-0.1791596
178	0x3e96fd0f	0.29489943
179	0xbe8b3264	-0.27186882
180	0x3d4bb339	0.049731467
181	0xbdcbc2aa	-0.099492386
182	0xbe0a94b0	-0.13533282
183	0xbca37940	-0.019955277
184	0xbd94cf7f	-0.07266139
185	0xbd45564c	-0.048178002
186	0xbdca9b68	-0.09892923
187	0x3cd66924	0.026173182
188	0xbda5e9e9	-0.081012554
189	0xbdcb7a32	-0.09935416
190	0x3d084967	0.033273127
191	0xbd80d2d1	-0.0629021
192	0x3e1b230d	0.1515009
193	0xbe3b398e	-0.18283674
194	0xbd9fc1bf	-0.07800626
195	0x3ce74a36	0.028233629
196	0xbe906618	-0.2820289
197	0xbd9cf8e5	-0.0766466
198	0xbe33c17e	-0.1755428
199	0x3d2cd67a	0.04219673
200	0x3e3b38d2	0.18283394
201	0xbcca2508	-0.024675861
202	0xbda4f96b	-0.08055385
203	0x3e5a9f6a	0.21349874
204	0xbe258125	-0.16162546
205	0xbbdd6e2c	-0.0067575183
206	0x3cca277f	0.024677036
207	0x3dd24960	0.102679014
208	0xbc226dc0	-0.009913862
209	0x3cc5631c	0.02409511
210	0xbd9534cb	-0.0728546
211	0x3e9729b1	0.29523996
212	0xbe30cac6	-0.17264852
213	0x3e197a51	0.14988066
214	0xbd4a544f	-0.04939681
215	0xbc8c4ade	-0.017125543
216	0xbe5378d6	-0.20651564
217	0x3caf8f0e	0.021430518
218	0xbe7756ac	-0.24154156
219	0xbc324a14	-0.010881919
220	0xbe6e3fb5	-0.2326649
221	0xbdef538b	-0.116858564
222	0x3bc56550	0.0060240403
223	0xbc754d30	-0.014972016
224	0xbcc2d328	-0.023782328
225	0x3dbc9426	0.092079446
226	0xbe2375a5	-0.15962847
227	0xbdf33ad4	-0.11876455
228	0xbccf7f65	-0.025329301
229	0xbe37f61a	-0.17964974
230	0xbb36507a	-0.0027818964
231	0x3e04fba1	0.12986614
232	0xbea332f4	-0.31874812
233	0xbdc0716f	-0.09396636
234	0xbdaaca3e	-0.08339356
235	0x3cc805a5	0.024416754
236	0xbd23e223	-0.040010583
237	0xba6d0264	-0.0009041189
238	0xbe1bd2d3	-0.15217142
239	0xbda8e43e	-0.08246659
240	0x3e12eb9c	0.1434769
241	0x3e3488f3	0.17630367
242	0xbda54d59	-0.080713935
243	0xbd16d824	-0.03682722
244	0xbe4a9e47	-0.1978694
245	0xbdad9eb1	-0.084775336
246	0x3b4f8504	0.0031664977
247	0x3d2090ac	0.03920047
248	0x3b13911d	0.0022516914
249	0xbd981fc4	-0.07427934
250	0xbd0fe540	-0.03513074
251	0xbe2618a8	-0.16220343
252	0xbd7984d5	-0.060917694
253	0xbda09e35	-0.078426756
254	0xbdf210da	-0.118196204
255	0x3da82661	0.08210445

a2c_network.actor_mlp.2.bias f4 [128]
0	0xbe46e6dd	-0.19424005
1	0xbc95238d	-0.018205428
2	0xbea2cac7	-0.31795332
3	0xbe872abe	-0.26399797
4	0xbe193744	-0.14962488
5	0xbeae90cf	-0.34094855
6	0xbe1b63c8	-0.15174782
7	0xbe06fe10	-0.13182855
8	0x3c86e636	0.016467195
9	0xbe3edd70	-0.18639159
10	0xbd06cbe8	-0.032909304
11	0x3cf3123b	0.029671779
12	0x3d86293e	0.06550835
13	0xbedc98f7	-0.43085453
14	0xbe3d63d1	-0.18495108
15	0xbe21c8a4	-0.15799195
16	0x3e8ad4ac	0.2711538
17	0xbe2dd280	-0.1697483
18	0xbe05f269	-0.13080753
19	0x3cee4c64	0.02908916
20	0xbe70adae	-0.23503754
21	0xbd09721b	-0.033556085
22	0x3dffad61	0.12484241
23	0x3c0fc117	0.008774064
24	0xbd0fbd6b	-0.035092752
25	0x3e0afc05	0.135727
26	0xbe88bdda	-0.26707345
27	0xbe1e04b6	-0.15431485
28	0xbe52fa40	-0.20603275
29	0xbdc51e0b	-0.09624871
30	0xbe6d5ed6	-0.23180708
31	0xbea70bd7	-0.3262622
32	0xbe2a20bb	-0.16614048
33	0x3ddc6c25	0.107628144
34	0xbe93898f	-0.28815886
35	0xbd16889d	-0.03675138
36	0x3ca1fd27	0.019774033
37	0xbe51bba0	-0.2048173
38	0xbd8f443d	-0.06995437
39	0xbe745497	-0.23860393
40	0x3cb47698	0.022029206
41	0xbde08f1a	-0.109647945
42	0xbe538ea1	-0.20659877
43	0xbecfb747	-0.40569517
44	0xbdeca9a3	-0.11555793
45	0xbe77fa7a	-0.24216643
46	0xbdbbb4bb	-0.09165331
47	0xbda93aa5	-0.08263139
48	0xbd8c31ef	-0.068454616
49	0xbee7b483	-0.45254907
50	0xbdb05d28	-0.08611518
51	0xbe54da5d	-0.20786424
52	0xbe4307e0	-0.19045973
53	0x3d7592e1	0.059954528
54	0xbdac932a	-0.08426507
55	0x3c577939	0.01315146
56	0xbea5675b	-0.32305416
57	0xbebb5586	-0.36588687
58	0xbda238f5	-0.0792102
59	0xbd189bed	-0.037258077
60	0xbdcc940b	-0.099891745
61	0xbdb2238c	-0.08698186
62	0x3e15548d	0.14583035
63	0x3dbfb75f	0.09361147
64	0xbe5ea71c	-0.21743435
65	0xbc6541e7	-0.013992763
66	0xbee69484	-0.45035183
67	0xbe4d02df	-0.20020626
68	0xbd05bc17	-0.03265008
69	0xbec73b2f	-0.3891234
70	0xbe8a8fde	-0.27062887
71	0x3e01424e	0.1262295
72	0xbe7d196c	-0.24716729
73	0xbe1620d8	-0.14660966
74	0xbe3d4930	-0.1848495
75	0xbdafdfd5	-0.085876144
76	0xbd468b81	-0.048472885
77	0xbdabfcbd	-0.083978154
78	0xbe0627a0	-0.13101053
79	0x3d1ba623	0.038000237
80	0x3c7795e6	0.015111422
81	0xbed0708b	-0.40710863
82	0xbd8bc183	-0.06824019
83	0x3cda69f8	0.026661858
84	0x3d6b3e43	0.057432424
85	0xbdf47db7	-0.11938041
86	0xbd86c2ed	-0.06580148
87	0x3d5cd49b	0.053913694
88	0xbe83cf1d	-0.25743952
89	0xbe50eafb	-0.20402138
90	0x3de59c29	0.11211426
91	0xbe61b011	-0.2203982
92	0xbe384ca2	-0.17997983
93	0x3e0e50c8	0.13898003
94	0xbe2a8032	-0.16650465
95	0x3da5382a	0.08067353
96	0xbe85d6fc	-0.26140583
97	0x3b9c2f86	0.0047664074
98	0xbe97d7fb	-0.29656968
99	0xbda0d7f5	-0.078536905
100	0xbe822c2f	-0.25424334
101	0xbe2bc8ce	-0.1677582
102	0xbe6b7181	-0.22992517
103	0xbeec7df6	-0.4618985
104	0xbea5000d	-0.322266
105	0x3e6aa995	0.22916253
106	0xbe324638	-0.17409599
107	0x3ebefcb6	0.37302178
108	0xbdcb927f	-0.09940051
109	0xbe10d31c	-0.14143032
110	0xbeda6be1	-0.4266043
111	0xbe5ac56e	-0.21364376
112	0xbe7d4807	-0.24734508
113	0xbc25501e	-0.010089902
114	0x3d040b17	0.03223714
115	0xbcaa8dbc	-0.020819537
116	0x3c1ded33	0.009639072
117	0xbf26534f	-0.6497087
118	0xbe07e3b2	-0.13270453
119	0xbe5e95c8	-0.21736825
120	0xbdd48b88	-0.10378176
121	0xbd623559	-0.055226658
122	0xbe9fc91a	-0.31208116
123	0x3df505a9	0.1196397
124	0xbe45d2d6	-0.19318709
125	0x3e2e1350	0.16999555
126	0xbdfb3104	-0.12265208
127	0x3d92950a	0.07157333

a2c_network.actor_mlp.4.weight f4 [64, 128]
0	0x3d7e4611	0.06207854
1	0x3e328ece	0.17437288
2	0xbe8efc06	-0.27926654
3	0x3ebe96a8	0.37224317
4	0xbe96eb6f	-0.29476497
5	0xbdd3a6c5	-0.10334543
6	0x3d6cba3f	0.057794806
7	0xbd4e5532	-0.050374217
8	0xbe81b28b	-0.2533153
9	0xbe565035	-0.20929034
10	0xbc1141d7	-0.008865795
11	0x3e49af20	0.19695711
12	0x3cb828e0	0.022480428
13	0xbe8da0bb	-0.2766169
14	0x3cd0d723	0.02549321
15	0x3deb9e60	0.11504817
16	0xbe94887d	-0.29010382
17	0x3e6d6ab5	0.23185237
18	0xbdc7397a	-0.0972776
19	0xbebcc2a5	-0.36867252
20	0x3e8f0e98	0.27940822
21	0x3e5b6ba3	0.21427779
22	0xbe370cb2	-0.17875937
23	0xbec10f3b	-0.37706932
24	0xbec18493	-0.3779646
25	0xbf011ae2	-0.50431645
26	0x3e93f3cd	0.28896943
27	0xbea20da9	-0.31651047
28	0xbe848039	-0.25879076
29	0xbe93bcf1	-0.28855088
30	0xbdef756a	-0.11692317
31	0xbe93ebd9	-0.28890875
32	0xbd687073	-0.056747865
33	0x3d2b92a9	0.041887913
34	0xbbc81a18	-0.0061066262
35	0xbe85c3d7	-0.26125976
36	0xbe473ee3	-0.19457583
37	0xbe870d7e	-0.2637748
38	0x3d1cfd44	0.03832747
39	0xbdad4a45	-0.084614314
40	0xbeee1ed2	-0.4650789
41	0xbc768c92	-0.015048163
42	0xbe29e518	-0.16591299
43	0x3c7b28af	0.015329524
44	0xbe536d04	-0.20647055
45	0xbe4f6394	-0.2025283
46	0xbd2a18f3	-0.0415277
47	0xbd6775c9	-0.056508813
48	0x3c402d6a	0.011729578
49	0x3c59d637	0.013295702
50	0x3db3d5f4	0.08781043
51	0xbdbcfdf1	-0.09228123
52	0xbe5f87cb	-0.21829145
53	0xbe99fc7a	-0.30075437
54	0x3d1bbb0c	0.03802018
55	0xbe6462a2	-0.2230325
56	0x3df9f1ea	0.122043446
57	0xbe854cfb	-0.26035294
58	0x3ea65dc5	0.32493415
59	0xbe6505e6	-0.22365531
60	0xbeb68c66	-0.3565399
61	0xbd86f9f5	-0.06590644
62	0xbe4fff9c	-0.20312351
63	0x3cc0627b	0.02348446
64	0xbe4ee8fe	-0.20206067
65	0xbe878275	-0.26466718
66	0x3d923136	0.071382925
67	0x3e43fe9e	0.19140097
68	0xbe2e7569	-0.17036976
69	0xbe20293c	-0.1564073
70	0x3e2f6c52	0.17131165
71	0xbe9db765	-0.3080398
72	0xbd1706c6	-0.036871694
73	0xbed8db9c	-0.4235505
74	0x3de3378b	0.11094578
75	0xbc82a3bd	-0.015947217
76	0xbe8e482d	-0.2778944
77	0xbe5a4337	-0.21314703
78	0xbc8626ae	-0.016375866
79	0xbea720ea	-0.326423
80	0xbe18b082	-0.14911082
81	0x3e341c44	0.17588907
82	0x3e4d4dd4	0.2004922
83	0xbe1baeee	-0.15203449
84	0xbecbbc94	-0.3979231
85	0x3d375035	0.044754226
86	0x3d8c33d9	0.06845827
87	0xbebaa8cc	-0.36456907
88	0x3ceb3128	0.028709963
89	0x3ceb04b7	0.028688772
90	0xbef92446	-0.48660487
91	0x3ed7f0dd	0.42175952
92	0x3e62b59c	0.22139591
93	0xbe8e5c5f	-0.2780485
94	0xbe120a86	-0.14261827
95	0xbe98b443	-0.2982503
96	0x3da56c56	0.08077304
97	0xbf21e41b	-0.63238686
98	0xbe07d07d	-0.13263126
99	0x3d9c5c15	0.07634751
100	0x3db47376	0.08811085
101	0xbe04a818	-0.12954748
102	0x3da924bc	0.0825896
103	0x3e683d97	0.22679745
104	0xbd5be1c3	-0.0536821
105	0x3de8eeeb	0.11373695
106	0x3ec92e36	0.3929307
107	0xbdf8a1af	-0.12140214
108	0x3e3278e3	0.17428927
109	0xbe8d57ec	-0.27606142
110	0x3e93010e	0.28711742
111	0x3cbd7e41	0.023131492
112	0x3e2ffa50	0.1718533
113	0x3e544c3a	0.20732203
114	0xbea6878d	-0.32525292
115	0xbe96b88b	-0.2943767
116	0x3d530851	0.051521603
117	0x3e99e296	0.30055684
118	0xbe6d7e7a	-0.23192778
119	0x3e747cbc	0.23875707
120	0x3c0b27f0	0.008493409
121	0xbc989302	-0.018624786
122	0xbe8e0cb3	-0.27744064
123	0xbf289c7d	-0.6586378
124	0xbe5b3714	-0.2140773
125	0xbec9d6b4	-0.39421618
126	0x3d034ba8	0.032054573
127	0xbe64cbcc	-0.22343367
128	0x3dabe46a	0.08393176
129	0xbeb55d41	-0.3542271
130	0x3de73738	0.11289829
131	0x3eb3db7e	0.35128397
132	0x3df14dca	0.11782415
133	0x3dfa90ad	0.12234626
134	0x3da4e4f7	0.08051484
135	0xbdde92f9	-0.108678766
136	0xbddf3d7f	-0.10900401
137	0x3c9b866b	0.018984994
138	0xbe3fdf7b	-0.18737595
139	0xbe48be25	-0.19603784
140	0xbefec657	-0.49760696
141	0x3db03dd0	0.0860554
142	0x3c1582f0	0.009125456
143	0x3dfbd38c	0.12296209
144	0xbd84ad1a	-0.06478329
145	0x3e432abd	0.19059272
146	0x3da8b70d	0.08238039
147	0xbe23197a	-0.15927687
148	0x3e297922	0.16550115
149	0xbe21f45e	-0.15815875
150	0xbdb72569	-0.08942682
151	0x3e224743	0.15847497
152	0xbe4f911a	-0.20270196
153	0xbecac708	-0.39604974
154	0xbd38ef61	-0.045150165
155	0x3e1a8047	0.15087996
156	0xbe186bda	-0.14884892
157	0x3de390ae	0.1111158
158	0x3dd62331	0.10455931
159	0x3ec2547c	0.3795508
160	0xbdddfaf7	-0.10838883
161	0xbdb10acf	-0.0864464
162	0x3e222e8c	0.15838069
163	0xbd8f573e	-0.06999062
164	0x3e1cd4b6	0.15315518
165	0xbe161e2f	-0.14659952
166	0x3dd1121c	0.10208532
167	0x3daf4b9a	0.08559342
168	0xbd87cdb2	-0.0663103
169	0x3c7c2175	0.015388836
170	0x3ea838e3	0.328559
171	0x3e1ddb03	0.15415578
172	0xbdec91ce	-0.115512475
173	0xbe7493d6	-0.2388452
174	0x3c1dc9fc	0.009630676
175	0xbdcd6d2a	-0.10030587
176	0xbe945426	-0.2897045
177	0x3ddb1708	0.10697752
178	0xbe7d4eb2	-0.24737051
179	0x3cbb5ddf	0.02287191
180	0x3ea75b9f	0.3268709
181	0xbdf451b0	-0.11929643
182	0xbc73d7ab	-0.014882962
183	0xbd37e87d	-0.044899452
184	0x3ebd22c7	0.36940596
185	0xbdc974e7	-0.098367505
186	0x3cbc2f5c	0.022971801
187	0x3e423d05	0.1896859
188	0xbec0b49f	-0.37637803
189	0x3d4611ff	0.048357006
190	0xbe72884f	-0.2368481
191	0xbe76f8b0	-0.24118304
192	0xbe7b8acf	-0.2456467
193	0xbda836f1	-0.08213604
194	0xbe2053f4	-0.15657026
195	0x3e354f18	0.17705953
196	0xbd9465d2	-0.07245983
197	0x3e8eb417	0.27871773
198	0xbd061bed	-0.032741476
199	0xbf060f46	-0.52367055
200	0xbd5640f6	-0.052308045
201	0x3d9bf78c	0.07615575
202	0xbe061ae5	-0.13096197
203	0xbe8604e1	-0.26175597
204	0xbe5d3bc1	-0.21604826
205	0x3de826bf	0.11335515
206	0x3e2be9f1	0.1678846
207	0xbe1baf89	-0.1520368
208	0x3e09bbd2	0.13450554
209	0x3e6e823b	0.23291866
210	0x3d47f2ea	0.048815645
211	0xbdec80c2	-0.11547996
212	0x3d107625	0.03526892
213	0x3ea38e9f	0.3194475
214	0xbde2a5eb	-0.110668026
215	0xbe41d148	-0.1892749
216	0x3d8d0e0f	0.06887447
217	0x3e4a09b1	0.1973026
218	0x3c9afc3a	0.0189191
219	0x3c816524	0.015795298
220	0xbc75189d	-0.014959482
221	0xbe1371de	-0.14398906
222	0xbc14197d	-0.00903928
223	0xbd34de81	-0.04415751
224	0x3e4a13ca	0.19734111
225	0x3dbd2343	0.09235241
226	0xbd82f971	-0.063952334
227	0xbe2f74cc	-0.17134398
228	0xbe89da49	-0.2692435
229	0x3de972e4	0.11398867
230	0xbea64e67	-0.3248169
231	0x3e620246	0.2207118
232	0x3dda14c4	0.10648492
233	0xbd574ae6	-0.052561663
234	0xbd6c085f	-0.05762517
235	0x3d4bf943	0.04979826
236	0xbda5838d	-0.08081732
237	0x3dafd82d	0.08586154
238	0x3bf97c5f	0.007613703
239	0x3d1e28f2	0.038613267
240	0x3e0d846f	0.1382005
241	0x3b116a11	0.0022188465
242	0x3da27d50	0.07934058
243	0xbd7956bf	-0.060873743
244	0x3d9345d6	0.071910545
245	0xbcd717f3	-0.026256537
246	0xbe340dfd	-0.17583461
247	0x3e997cbc	0.29977977
248	0xbcf7d0d7	-0.03025095
249	0x3dd3a3d5	0.10333983
250	0x3d1a3ca1	0.037655476
251	0xbd17eb97	-0.03708991
252	0x3db8aa24	0.09016827
253	0x3b604329	0.0034219718
254	0xbc73ea9d	-0.014887479
255	0xbe9012fb	-0.2813948

a2c_network.actor_mlp.4.bias f4 [64]
0	0xbe404e16	-0.18779787
1	0xbd4f682e	-0.050636463
2	0xbe2549c6	-0.16141424
3	0xbd9f8e23	-0.07790782
4	0xbe373d63	-0.17894511
5	0xbd7f9f85	-0.06240799
6	0xbdb171bf	-0.086642735
7	0xbd9540e3	-0.07287767
8	0xbe54cc20	-0.20780993
9	0xbd7d59c3	-0.06185318
10	0xbda82295	-0.08209721
11	0xbebe3a27	-0.37153742
12	0xbdd7d03c	-0.105377644
13	0xbdb3d615	-0.08781067
14	0xbe3bc072	-0.18335131
15	0xbdeb4424	-0.11487606
16	0xbda2b703	-0.07945063
17	0xbda3da8a	-0.080006674
18	0xbd64d9f4	-0.05587192
19	0xbe3b45a0	-0.18288279
20	0xbe65d02e	-0.22442695
21	0xbce79159	-0.02826755
22	0xbe589502	-0.21150592
23	0xbe97ba4b	-0.29634318
24	0xbe6327c5	-0.2218314
25	0xbda0122e	-0.078159675
26	0xbdb4825e	-0.08813928
27	0xbdbfea87	-0.093709044
28	0x3e25a473	0.16176014
29	0xbd4538d7	-0.04814991
30	0x3da8e114	0.08246055
31	0xbe1b9868	-0.15194857
32	0xbd889e9f	-0.066708796
33	0xbe97fde0	-0.2968588
34	0xbdddadfc	-0.108242005
35	0xbd6dfdf4	-0.058103517
36	0xbe4cf864	-0.20016629
37	0xbdab28e1	-0.083574064
38	0xbdc491ec	-0.09598145
39	0xbded24bc	-0.11579272
40	0xbd9bc83b	-0.0760655
41	0xbde078cc	-0.1096054
42	0xbd7257da	-0.059165813
43	0xbd406c97	-0.04697856
44	0xbc188be0	-0.009310693
45	0xbc98b0a8	-0.018638924
46	0xbda1a968	-0.0789364
47	0xbd769f6d	-0.060210634
48	0xbdad7a33	-0.08470573
49	0xbda32bd6	-0.079673454
50	0xbda1b5d1	-0.07896007
51	0xbe86f8ed	-0.2636179
52	0xbe30b9ce	-0.17258379
53	0xbd2d6885	-0.042336006
54	0xbce82b16	-0.028340857
55	0xbe02ca5c	-0.12772506
56	0xbcd74713	-0.026279008
57	0xbdbe525d	-0.09293053
58	0xbe01b6f4	-0.12667447
59	0xbe12e663	-0.14345698
60	0xbd16bfc2	-0.03680397
61	0x3e7db6f5	0.24776824
62	0xbdc77345	-0.09738783
63	0xbe0127cd	-0.12612839

a2c_network.value.weight f4 [1, 64]
0	0xbd06d032	-0.032913394
1	0xbb944b08	-0.004525546
2	0xbbbed37a	-0.00582355
3	0xbbcabc22	-0.006186978
4	0xbc4d04f1	-0.012513385
5	0xbc2edb29	-0.010672369
6	0x3ca54f10	0.020179302
7	0x3bbdd3dd	0.0057930783
8	0xbc3dd263	-0.011585805
9	0xbc59425e	-0.013260452
10	0xbc46dd4f	-0.012137725
11	0xbcf6a1b0	-0.030106395
12	0xbcf7d026	-0.03025062
13	0xbb90f43b	-0.004423646
14	0x3cc0b931	0.023525806
15	0xbc7510e9	-0.014957645
16	0xbc415086	-0.011798983
17	0xbbf82425	-0.007572668
18	0x3cfd356c	0.030909263
19	0x3eba0299	0.36330107
20	0xbbc014db	-0.005861861
21	0xbbe43676	-0.0069645
22	0xbc38d56c	-0.0112813525
23	0xbb57c114	-0.003292148
24	0xbc17f5fe	-0.009274958
25	0xbc8655ac	-0.016398273
26	0x3cb6ebf6	0.022329312
27	0x3d31eb40	0.043437243
28	0xbe41d02e	-0.1892707
29	0x39e17cf2	0.00043008436
30	0xbd1e9070	-0.038711965
31	0x3cc5053e	0.024050351
32	0xbba035b5	-0.004889215
33	0xbc43d59f	-0.011952787
34	0x3d82fa9a	0.06395455
35	0x3c0f9fe3	0.008766147
36	0xbbc975d4	-0.0061480794
37	0xbb2c1663	-0.002625846
38	0xbc89ba27	-0.016812397
39	0x3bca82c4	0.0061801393
40	0xbba36039	-0.004985836
41	0x3c1d3533	0.009595203
42	0x3bb88fd9	0.0056323824
43	0x3a835872	0.0010020866
44	0xbc9d84c4	-0.019228347
45	0xbcf71b5b	-0.030164411
46	0xbc5d86f2	-0.013520943
47	0x3c8c2e72	0.01711199
48	0xbb77c09b	-0.003780401
49	0x3d723ebb	0.059141856
50	0xbcabccec	-0.020971738
51	0xbc77f5b0	-0.01513426
52	0x3c619dab	0.013770501
53	0xbcfad81a	-0.030620623
54	0xbc235fb2	-0.009971546
55	0xbbc367a6	-0.0059632836
56	0xbbec0756	-0.007203023
57	0xbb54af1a	-0.0032453001
58	0xbc0846ea	-0.0083176885
59	0x3d4891fb	0.048967343
60	0x39a82adf	0.00032075398
61	0xbeb6de1e	-0.35716337
62	0xbc0b4d3d	-0.008502302
63	0x3c45323f	0.012035905

a2c_network.mu.weight f4 [12, 64]
0	0xbe12980e	-0.14315817
1	0x3d8fdb53	0.07024255
2	0xbd0d0eaa	-0.034437813
3	0xbe33abbb	-0.17545979
4	0x3e073fc3	0.13207917
5	0xbe4bd9f9	-0.19907369
6	0x3dc11397	0.094275646
7	0xbe5075fb	-0.20357506
8	0xbd4c2231	-0.049837295
9	0x3e41de69	0.18932499
10	0xbdf9ee6b	-0.12203678
11	0xbddc2c6b	-0.107506596
12	0xbd9e5a69	-0.07732088
13	0x3d07f2b7	0.033190455
14	0xbd51bb3b	-0.051203948
15	0x3dc6e1c9	0.09711034
16	0x3b614905	0.0034375798
17	0xbdbaece6	-0.09127216
18	0xbd785207	-0.060625102
19	0xbe62686a	-0.22110143
20	0x3e2dd734	0.16976625
21	0x3910f571	0.00013824344
22	0x3e3aaee7	0.18230782
23	0x3d23df32	0.040007778
24	0xbc15f9eb	-0.009153823
25	0xbe7e9484	-0.24861342
26	0xbe2d7f44	-0.16943079
27	0xbd7f0cf6	-0.06226822
28	0x3d876338	0.06610721
29	0x3ded5bc2	0.11589767
30	0xbdc91954	-0.09819284
31	0x3e114413	0.14186125
32	0x3ebdd947	0.37079832
33	0xbdc33263	-0.09531095
34	0x3d56ce4a	0.052442826
35	0x3e22bf1b	0.15893213
36	0x3dc8a678	0.097973764
37	0xbe1ec439	-0.1550454
38	0x3e9b4dc4	0.30332768
39	0xbc5b5609	-0.013387212
40	0x3ca803d7	0.020509643
41	0xbdf16919	-0.11787624
42	0x3d1ed013	0.038772654
43	0x3b9ddaa7	0.004817325
44	0xbd8973ce	-0.06711541
45	0xbcbf56d3	-0.02335683
46	0x3d1fcae2	0.039011844
47	0xbdb47b43	-0.08812573
48	0x3e376268	0.17908633
49	0x3df3e3df	0.11908697
50	0xbe8d2d6d	-0.2757372
51	0x3e235605	0.15950783
52	0x3c46431a	0.012100959
53	0x3e03ae1c	0.12859386
54	0x3d7c1ce5	0.061550993
55	0x3e14e120	0.14539003
56	0xbd516ce6	-0.051129244
57	0xbecdad65	-0.40171352
58	0xbe4b3280	-0.19843483
59	0x3de041c1	0.109500416
60	0x3e29b6c3	0.16573624
61	0x3cf6f78a	0.030147333
62	0xbca3f89a	-0.020016003
63	0xbdad0250	-0.08447707
64	0x3dc918f4	0.098192126
65	0x3e4d3621	0.2004018
66	0x3e83fe01	0.25779727
67	0xbe369243	-0.17829232
68	0xbc66353b	-0.014050777
69	0xbdb39c52	-0.0877005
70	0xbe55c086	-0.20874223
71	0xbdaa5adb	-0.083181106
72	0xbdee9f3e	-0.11651467
73	0x3e4fda9d	0.20298238
74	0xbd4379a3	-0.047723424
75	0xbe1a3493	-0.15059118
76	0xbe1562a3	-0.14588408
77	0xbe629eb5	-0.22130854
78	0x3c38c8f5	0.011278381
79	0x3d9f022f	0.07764088
80	0x3e3b2f4f	0.18279766
81	0xbe0c5943	-0.13705926
82	0x3cbfecdb	0.023428371
83	0x3dc90a8b	0.09816464
84	0xbe5c460f	-0.215111
85	0xbb1e9b15	-0.0024201323
86	0x3d92fc28	0.07177001
87	0xbd97d177	-0.07412999
88	0xbe7b12d0	-0.24518895
89	0xbd9f83fb	-0.07788845
90	0xbe19ead8	-0.15030992
91	0xbddd3d56	-0.108027145
92	0xbbf5fda0	-0.007507041
93	0x3e41df17	0.18932758
94	0xbd2096a3	-0.03920616
95	0x3ddc1507	0.10746198
96	0xbe41c931	-0.18924405
97	0xbd518071	-0.051147882
98	0xbd1ce3b7	-0.038303103
99	0xbdf4db01	-0.11955834
100	0x3e922c0c	0.2854923
101	0xbe74dfd5	-0.2391351
102	0x3e55f901	0.20895769
103	0xbdc0083a	-0.09376569
104	0x3c8ec52f	0.017428009
105	0x3df8b138	0.12143177
106	0xbd805bbd	-0.06267498
107	0x3e38997a	0.18027297
108	0x3c79aac8	0.015238471
109	0x3e10084e	0.14065668
110	0x3e4d2825	0.20034845
111	0xbd110fc7	-0.035415437
112	0xbd8dca0d	-0.06923304
113	0x3d7f87ba	0.0623853
114	0xbb532d54	-0.0032223063
115	0xbe1009d1	-0.14066245
116	0xbe47c884	-0.19510084
117	0x3e57d19e	0.21076056
118	0x3e34f483	0.17671399
119	0xbd26c5f7	-0.040716138
120	0x3c243ccb	0.01002426
121	0x3e889d47	0.26682493
122	0xbdae384e	-0.08506833
123	0x3db3a56a	0.087717846
124	0x3e377f39	0.17919625
125	0xbd8bfb83	-0.068350814
126	0xbddee220	-0.10882974
127	0x3e72f8f1	0.23727776
128	0xbcc0b13e	-0.023522016
129	0xbe34220e	-0.17591116
130	0x3dd22446	0.10260825
131	0xbe00e9e9	-0.1258923
132	0x3d9eae8d	0.07748137
133	0xbda1d11f	-0.07901215
134	0x3d978608	0.07398611
135	0xbc8ccd02	-0.0171876
136	0x3e29bf15	0.16576798
137	0x3cc62357	0.024186773
138	0xbd8107a7	-0.06300288
139	0xbdff6fc5	-0.1247249
140	0xbe18e0e2	-0.14929536
141	0xbd74c91b	-0.0597621
142	0xbdc57a63	-0.09642484
143	0x3ebafed3	0.3652254
144	0xbd5213d5	-0.051288445
145	0x3db4ffb7	0.08837836
146	0x3c1831a5	0.00928918
147	0x3d1eb0af	0.038742717
148	0xbdada8a8	-0.08479434
149	0xbd9a70b3	-0.07541027
150	0xbcf1c2c6	-0.02951182
151	0xbdd7da8a	-0.1053973
152	0x3e188a99	0.14896621
153	0x3d4c7595	0.049916822
154	0x3e16db54	0.14732105
155	0xbd757eec	-0.059935495
156	0xbd076973	-0.03305955
157	0x3b79bb3b	0.0038105983
158	0x3c28f0ef	0.010311349
159	0xbd45f47e	-0.04832887
160	0x3bbb43e0	0.0057148784
161	0x3e5f08e5	0.21780737
162	0x3c015150	0.007892922
163	0x3ce6f204	0.028191574
164	0xbe50f643	-0.20406441
165	0x3dabe578	0.08393377
166	0x3e0dd863	0.13852076
167	0x3e9f7ced	0.31149998
168	0x3d823312	0.06357397
169	0xbe383769	-0.17989887
170	0x3e1bc723	0.15212683
171	0x3dcf4df6	0.10122292
172	0xbd436670	-0.047705114
173	0xbe983faa	-0.29736072
174	0xbe3f437f	-0.18678091
175	0xbe26fafa	-0.16306677
176	0xbceca27d	-0.028886074
177	0xbd02b22b	-0.031908195
178	0xbdd84619	-0.10560245
179	0x3e268c78	0.16264522
180	0x3e3aac00	0.18229675
181	0x3e33abb7	0.17545973
182	0x3dce1ae3	0.10063722
183	0xbda10e85	-0.078640975
184	0xbe9192af	-0.28432223
185	0x3dbcecca	0.092248514
186	0xbd61322f	-0.0549795
187	0x3e4b5144	0.19855219
188	0xbe7f0cbd	-0.24907203
189	0x3dbe6986	0.09297471
190	0x3e3d28f5	0.18472655
191	0x3c9db65b	0.019251993
192	0x3c72d632	0.014821576
193	0x3e1d9e43	0.15392403
194	0xbe1d36cb	-0.15352933
195	0x3d2b6511	0.04184443
196	0xbdb7afca	-0.08969076
197	0x3e219376	0.15778908
198	0xbe8cfd81	-0.27537158
199	0xbe59bfa2	-0.21264508
200	0xbe1893c1	-0.14900114
201	0x3dfd1964	0.123583585
202	0xbdc9493b	-0.09828421
203	0xbd59e33c	-0.053195223
204	0xbe3eb9d7	-0.1862558
205	0x3e3cd9db	0.1844248
206	0x3e2f0a0b	0.17093675
207	0x3cd731d8	0.026268885
208	0x3e2d7133	0.16937713
209	0x3df75577	0.12076848
210	0x3d86ce37	0.06582301
211	0x3d1aeae1	0.037821654
212	0x3e6fc8d0	0.23416448
213	0x3de64a4b	0.11244639
214	0xbd8e124a	-0.06937082
215	0x39008fec	0.00012260646
216	0xbd26d75c	-0.040732726
217	0x3e403964	0.18771893
218	0xbce366d7	-0.027758999
219	0xbd1e64e6	-0.038670443
220	0x3d2a50c8	0.041580945
221	0xbcbeffca	-0.02331533
222	0x3dd0fc57	0.1020438
223	0xbc426bbf	-0.011866509
224	0x3dd4c5d9	0.10389299
225	0xbe1ae4fa	-0.1512641
226	0x3c720ee1	0.014774055
227	0xbd99bb8b	-0.07506474
228	0xbe03302a	-0.12811342
229	0xbe1b2219	-0.15149726
230	0xbdd0823d	-0.10181091
231	0x3dd7f987	0.105456404
232	0xba3c761a	-0.00071892294
233	0xbc470e54	-0.012149412
234	0xbda45904	-0.08024791
235	0xbddee186	-0.10882859
236	0x3e47730e	0.19477484
237	0xbdd1ffac	-0.10253844
238	0x3d3f779f	0.04674494
239	0xbd61d913	-0.05513866
240	0x3e0d091c	0.13773006
241	0xbdc46621	-0.09589792
242	0xbdf20347	-0.11817031
243	0x3e3879d4	0.18015224
244	0xbd5e12f8	-0.05421731
245	0xbdc5dffd	-0.09661863
246	0xbe0fa425	-0.1402746
247	0x3dea150a	0.11429794
248	0x3e1a4c4a	0.15068164
249	0x3d6817aa	0.056663193
250	0xbd6c2d68	-0.05766049
251	0x3bf8be0f	0.007591016
252	0x3dcaec21	0.09908319
253	0xbd9e2460	-0.07721782
254	0xbe0c32cd	-0.13691254
255	0x3e893dfa	0.26805097

a2c_network.mu.bias f4 [12]
0	0xbcfcedcb	-0.030875107
1	0xbc00cd0f	-0.00786139
2	0xbabe0cce	-0.0014499666
3	0x3dcebcf4	0.10094634
4	0xbdf393a2	-0.11893393
5	0x3cf1d750	0.029521614
6	0x3cf92aa1	0.030415835
7	0x3d95889b	0.07301446
8	0xbd0abc24	-0.03387083
9	0xbe0edc3f	-0.13951205
10	0x3e66134b	0.22468297
11	0x3ba8e7c1	0.0051545803

exp_avg f4 [12]
0	0xba9dbdaf	-0.001203468
1	0x3ab58958	0.0013850136
2	0x3af6769d	0.001880366
3	0xb890a2b3	-6.89676e-05
4	0x39cd41b9	0.00039149614
5	0x3abbf96f	0.0014341305
6	0x39741dfb	0.00023280822
7	0x3b1dc786	0.0024075224
8	0x3afea967	0.0019429148
9	0x3722fb19	9.714416e-06
10	0xb9e3af86	-0.0004342759
11	0x396e2088	0.00022709568

exp_avg_sq f4 [12]
0	0x383f47e8	4.5604917e-05
1	0x38436c07	4.659223e-05
2	0x384b57d1	4.8480757e-05
3	0x386998aa	5.569371e-05
4	0x3848756c	4.7793073e-05
5	0x383b37a3	4.463609e-05
6	0x3855be5c	5.0960443e-05
7	0x3841132c	4.603264e-05
8	0x384f8f0d	4.9485872e-05
9	0x38516037	4.991909e-05
10	0x383a724c	4.4452303e-05
11	0x3840518d	4.5852317e-05
