omniisaacgymenvs/scripts/runs/Anymal/nn/last_Anymal_ep_500_rew_-0.9583126.pth (torch, 672599 bytes, 36 tensors)

value_mean_std.running_mean f8 [1]
00000000: 2ab3 5033 66ec fcbf
-1.8077146534444162

value_mean_std.running_var f8 [1]
00000000: 0f36 6e51 c957 5240
73.3716624809533

value_mean_std.count f8 []
00000000: 0000 0004 0070 9741
98304001.0

running_mean_std.running_mean f8 [48]
00000000: 93b1 2aab eb5c a63f 7ea7 1850 c553 913f
00000010: 1651 015d 2436 e3bf fe7f 011b 9b3d 93bf
00000020: 9264 e948 3b0c 60bf 997e 412a 1f24 55bf
00000030: 15cf c452 6991 6b3f c07f e9ca eb9f 7d3f
00000040: 98ba 373e bbc8 eebf 8f4e 55e8 1392 c6bf
00000050: 1363 16b8 69bc 993f c4b2 1268 3879 30bf
00000060: bee2 989a 1700 c5bf d563 2e8c 173e c2bf
00000070: fbf8 da8c 3ad8 bf3f e126 f63c da4c c23f
00000080: 193a 0deb 3fbf 8d3f c5af 0d1e e705 b53f
00000090: e30d c780 d584 92bf 9f0d fb2f 7e96 60bf
000000a0: b052 e8b3 5d77 b63f 3d48 3364 c291 c3bf
000000b0: a94c ef5f ed20 c13f a1ed 55cf 41e2 b9bf
000000c0: cb4a f6d7 70ec 9bbf a9db 1f73 aa8c 93bf
000000d0: 0e0e b2e7 5a14 9e3f cdf2 7e93 1458 9b3f
000000e0: 9149 227e 8cf1 70bf 24d6 8284 b0c0 973f
000000f0: 39d2 1e23 b4d3 86bf 6688 aa55 644e 783f
00000100: de72 4d5e 1991 893f a02f bb76 9a4d 9ebf
00000110: 296a 49d5 ea0e a13f 14b7 549d cfe9 96bf
00000120: d5b5 6070 ab28 b5bf 4943 f408 63e8 abbf
00000130: 5e89 3c8b a5f6 b43f d37a 084b 2804 b13f
00000140: 6116 686e 0ee7 903f 8ff3 0375 6c4e ad3f
00000150: 4853 2909 ee7e 95bf c67d fa78 237a 6f3f
00000160: 1de7 43cf 108c a03f 10a4 8040 5fa7 b1bf
00000170: 643e bf14 b741 b93f bd2d c9f9 9b20 a7bf
0.043677677769070965 0.016921122564020667 -0.6003591362482747 -0.01878969528513607 -0.001958957472464614 -0.0012903503748233124 0.0033652360054022925 0.007232590737288491
-0.9620033469380642 -0.1763329395713424 0.02513280092316268 -0.0002513659201877456 -0.1640653138035954 -0.14251989693437275 0.12439313830234149 0.14297035195004695
0.01452493606634868 0.08212131961562281 -0.018084846482237082 -0.002024885616124641 0.08775888101838336 -0.15288572208970833 0.133817359774729 -0.10110865890412991
-0.02726913755538866 -0.01909128501571514 0.029374523536274615 0.026703187467989765 -0.004136608886386021 0.02319598969253013 -0.011145980188168913 0.005934135372315996
0.012483785810837696 -0.029592908379342142 0.033316935096724905 -0.02237629316112251 -0.08265182012174617 -0.05450734600356683 0.08188852929428012 0.0664696868120516
0.016506410111125528 0.057238950046644914 -0.020992011365098123 0.003842419893615309 0.03231861620038343 -0.06896014523285054 0.09865898376960441 -0.04517066406387069

running_mean_std.running_var f8 [48]
00000000: 9c92 ccf2 d0d5 e23f a873 8bae f0f2 df3f
00000010: 1926 7e35 6b26 e83f b1ca 5f4c 7def c53f
00000020: 4049 8d8b b809 aa3f 0a11 3088 a610 b73f
00000030: 3b6c 0540 84f8 943f cd2e e8b6 2951 a73f
00000040: f63e c08a 7657 813f ae60 98dc de54 1540
00000050: 9d28 bc32 f4d7 f43f e05d 9847 6005 953f
00000060: e152 7294 2c0a c03f f3f2 5e83 5fb1 c13f
00000070: c2c3 0bf5 5012 c23f f757 22db de35 c23f
00000080: e8ac 2404 dfa0 bb3f a431 6ca0 a785 c03f
00000090: 2cb2 e6b5 e393 be3f 1de8 c38b 12b8 be3f
000000a0: 9cf5 3aba 0f45 c73f 5395 efd3 e00c cc3f
000000b0: a102 9b45 5313 c83f 60c6 608b 1892 cb3f
000000c0: 056d 84d7 09ab 7e3f 5dfb 451a ad6a 813f
000000d0: c946 765a 5644 833f b19f 06e5 4189 823f
000000e0: 1595 2a65 9b6f 813f 3540 3a91 80f6 813f
000000f0: ea7f 7657 ceec 803f ee28 3243 73b5 813f
00000100: 8120 3623 4d51 9b3f 9eb9 f125 ec27 9d3f
00000110: d182 8bfa a7bf 9e3f 381d 0e7b bd61 a03f
00000120: 22da 1af5 7b77 e03f 6638 15fa 776b e03f
00000130: 9705 f536 e99b e03f e1a9 a187 7013 e03f
00000140: d6d4 513e 517c e03f a2b1 6a72 c89a e03f
00000150: 7adc 6e6e d44f e03f 8b32 5280 40a4 e03f
00000160: 1ed4 a2db b253 e03f ca64 aab5 e00c e03f
00000170: fc9f 5208 b772 e03f cf8b 3b4e 79c0 e03f
0.5886006109399946 0.499202890828935 0.7546897930889741 0.17137113789757089 0.050855414424079814 0.09009781670471653 0.020479265601675883 0.04554109914542224
0.00846760378774956 5.332881399917978 1.3027231199107867 0.020528320665190836 0.12531049011581444 0.13822549738497222 0.14118396725782928 0.14226899814519786
0.10792344905046358 0.12907882054458952 0.11944411459871479 0.11999622261274152 0.18179508775021425 0.21914301250869048 0.18808976076799858 0.21539599233215068
0.0074873337219074675 0.008504249920177004 0.009407686839753808 0.009050860215964325 0.00851365473256264 0.008770946914666048 0.008264171642451818 0.008646870124966868
0.02667732741750273 0.028472604576046494 0.030027985255290105 0.031995698233965475 0.5145854747013952 0.5131187328750115 0.5190321038609679 0.5023729943325713
0.5151754586392154 0.5188944086744878 0.5097448498626271 0.5200502878447691 0.5102171220556817 0.5015719936519869 0.5140032923272879 0.5234953430157193

running_mean_std.count f8 []
00000000: 0000 0008 0070 8741
49152001.0

a2c_network.sigma f4 [12]
00000000: 288f 4840 4f43 3d40 de8c 4240 fbe5 4540
00000010: ea65 4040 6c09 3f40 3b2f 4140 c795 3c40
00000020: 5fae 3f40 e490 4740 51d3 3e40 3367 3f40
3.1337376 2.9572332 3.0398479 3.092162 3.0062203 2.98495 3.0185077 2.9466417
2.9950178 3.1182184 2.9816477 2.9906738

a2c_network.actor_mlp.0.weight f4 [256, 48]
00000000: 117a 973e 31b4 a1be b2f1 253d 4175 0c3e
00000010: 7d3c fabe 0bad 863e a5ff 8e3d 9fe3 9a3d
00000020: 3999 4a3e 4638 f6bd 5ea7 983e ada1 d4be
00000030: a217 07be b3c0 823d 5266 6bbd 634e a43d
00000040: 4605 ad3c bed4 dbbe 680b 3a3e 918d a9be
00000050: 4288 68be 6a39 993d 3427 283c 4b08 693e
00000060: e476 3e3d e2df 26be 3c11 25be 6b7b a7be
00000070: 24f8 4abd 3513 103d 7ad4 68be 344a af3e
00000080: 4950 76be 1f90 86bc 9a55 cf3e 00c6 483c
00000090: 31a3 493e 0938 613b 4a40 593d cd4f 74be
000000a0: 342b 10bd 19c9 303e caee 6a3e ad31 c2be
000000b0: 5428 253e b7d2 953e d9bc 77be cc28 97be
000000c0: 971b c63d 09a9 78bd 8709 853e 4a4a 63be
000000d0: a33c 29be 94c3 453d af53 053e 3d3b 20bf
000000e0: a9a8 98bd 2124 c2bd 081e 8a3e 58f1 9fbe
000000f0: 54b6 033e 0138 85bd eca0 f73d d4a4 333e
00000100: b052 ac3e 8812 85be 6e11 83be 434e e4bd
00000110: da31 dbbd 91f2 16be cc95 4e3e 0be2 4dbe
00000120: 1232 ee3e e81c fdbd 762b 14bd 48dc 17bf
00000130: 62fb a7be e5c2 f7be 5aca 1bbe 5064 92be
00000140: 5426 013f f628 623e ba99 023e ce35 083e
00000150: 3073 e3be f9d8 023f 6c53 3c3e 4a49 c43d
00000160: f909 fbbe 7bae 1ebe b569 6ebe 7a61 953d
00000170: 48da f23e 952e 9dbe 5e15 403c 26f3 6dbe
00000180: 15d2 80be 1dce ccbd ca34 4f3f 79bb cf3e
00000190: 76b5 df3e f365 5abd 2486 0e3e 3ffa 203e
000001a0: dedc 383e 025f b43d 760e 533e 6857 43be
000001b0: e394 6b3e b0fc 88bd e023 5c3e ffd3 323e
000001c0: 9988 713e 7914 99bd 023d 06be 87d5 9cbe
000001d0: 0702 a43e 02b8 633e 6a1a 06be da62 833e
000001e0: c587 a73e 3edc c0be 5b5a 88be d63a 71bd
000001f0: 8a6a 3c3f 3520 b0be 1593 afbe 1589 c8be
00000200: 3d11 ebbd 1a14 f63e 3d1f 623e 2cbc 9bbe
00000210: 2df5 bf3e 002f be3e e0f3 27bf 04f5 5cbe
00000220: 48d1 2f3f 606f 5c3d 2403 733e b9fb 67bf
00000230: 6d96 ebbd fda0 663e c546 fabd 02be 953d
00000240: 4abf b6bc 7dce 003f 011a 923d 5d36 81bd
00000250: db45 50be 548a 833e 6d81 c8bc 81df 20bd
00000260: ade6 21be df3c b6bd 2c4e 253e 288e 143c
00000270: 1b60 133c 19b2 a9be b559 dcbe 1aef 00be
00000280: 7d9c 74be e8ad 12be f01a ad3d 3130 963d
00000290: 1e36 aabe 18e0 91be 2864 31bd 8052 d73e
000002a0: c1c4 48bb 05f5 8a3e 988f 803e 2930 04bd
000002b0: 2f0c de3a d285 b1bd 42d0 6dbe 6cb6 02bd
000002c0: 109c 21be da3d dd3d 0832 983e 57eb cbba
000002d0: 67f5 83be bc5a 2cbe 41ab 05be 45d2 b8bd
000002e0: 578b 693e 7fa3 d83d 069b 253e b7a3 92bd
000002f0: 38c9 0fbe 1991 9bbc a81e 753d 48b1 20be
00000300: afef 563e 4393 51bd d893 04be 7f1b 823e
00000310: 40d5 95be 25b1 e73e db2e 98be 57f9 7b3c
00000320: 2601 c63d c21b 1cbe ace4 d8be d857 3abe
00000330: a31d 433d 5020 a53c c118 3abe ee0e 36bf
00000340: ab53 6b3e ef88 37be 1f32 f03d 5bc3 233e
00000350: 3329 b5ba d29e 17bf 4bab 093f 5560 32be
00000360: 0954 993d a410 b43e aee6 ef3c c7ed 7fbe
00000370: dc59 b0be a8c3 90be d3de 623e df9a cabe
00000380: 227c 2c3f e0fc 493e d87a f23d 04b6 b0be
00000390: bb94 40bf 55b6 913e c430 ad3e c130 e9be
000003a0: f12c 9f3d 2175 bbbc ec36 4dbe b702 5fbe
000003b0: 778d 95be 0025 803e e4f9 a5be 0bd2 4abd
000003c0: 03a2 e53e 0f95 bb3d c8b3 7bbe 57c7 b1be
000003d0: 3378 2b3e 58e8 d0bd e97a c6be f6b5 9b3d
000003e0: f5e1 52bf e999 8a3e 868f 9d3b 12f4 3cbe
000003f0: 272d 6a3e c436 213e 2b6d f5be ebbb e2be
0.29585317 -0.31582788 0.0405137 0.13716604 -0.48874274 0.26303896 0.06982354 0.075629465
0.19785012 -0.12022452 0.2981519 -0.415296 -0.13192609 0.06384411 -0.057470627 0.080227636
0.021120679 -0.42935747 0.18168414 -0.3311582 -0.22708228 0.07481654 0.010263253 0.2275707
0.0465001 -0.16296342 -0.16119856 -0.32711348 -0.04955305 0.035174567 -0.22737303 0.342363
-0.24054064 -0.016426144 0.40494996 0.012254238 0.19691159 0.0034365675 0.053039826 -0.23858567
-0.03519745 0.17264213 0.22942653 -0.37928525 0.16128665 0.29262325 -0.24193133 -0.29523313
0.09673231 -0.06070808 0.2598383 -0.22196308 -0.16527037 0.04828222 0.13020204 -0.6259039
-0.07454044 -0.09479547 0.26976037 -0.31238818 0.12862521 -0.065048225 0.1209124 0.17543346
0.33656836 -0.259907 -0.25599235 -0.1114774 -0.10702868 -0.14740969 0.2017433 -0.2010576
0.46522576 -0.12359029 -0.03617426 -0.593205 -0.32808977 -0.4839088 -0.1521391 -0.28592157
0.5044911 0.22085938 0.12753955 0.13301775 -0.4442382 0.51112324 0.18391198 0.09584291
-0.49031046 -0.15496247 -0.23282512 0.07293983 0.4743216 -0.30699602 0.011723844 -0.23237285
-0.2516028 -0.100002505 0.80939925 0.40572718 0.4369313 -0.053319883 0.13918358 0.15720461
0.18053004 0.08807184 0.20610985 -0.19076312 0.23006015 -0.06688821 0.2149806 0.17463683
0.23587264 -0.07474608 -0.1310921 -0.30631658 0.32032797 0.22238162 -0.13096014 0.25661355
0.3272077 -0.3766803 -0.26631436 -0.058894 0.73600066 -0.34399572 -0.34291902 -0.39167085
-0.11477897 0.4806221 0.22082229 -0.30417 0.37491742 0.37145233 -0.656065 -0.21577841
0.6867871 0.053817153 0.23731667 -0.90618473 -0.11503301 0.2252235 -0.122205295 0.07311632
-0.02230801 0.50315076 0.07133866 -0.06309197 -0.20339148 0.25691473 -0.024475778 -0.03927565
-0.15810652 -0.08898329 0.16143101 0.009067096 0.008995081 -0.3314369 -0.4303719 -0.1259121
-0.2388782 -0.14324152 0.084524035 0.073334105 -0.33244413 -0.28491282 -0.043308407 0.4205513
-0.0030634853 0.2714006 0.25109553 -0.03227249 0.0016940887 -0.08668102 -0.23223975 -0.031912252
-0.1578219 0.10802813 0.2972567 -0.0015557808 -0.25773165 -0.16831487 -0.1305361 -0.09024481
0.2280706 0.105780594 0.16172418 -0.071601324 -0.14041603 -0.018990086 0.05984369 -0.15692627
0.2098987 -0.05116583 -0.12947023 0.25411603 -0.2926426 0.45252338 -0.29723248 0.0153792715
0.09668188 -0.15244964 -0.42361963 -0.18197572 0.047635686 0.02015701 -0.18173505 -0.7111653
0.22981136 -0.1792333 0.1172831 0.15992491 -0.0013821482 -0.59226716 0.53777 -0.1741956
0.074867316 0.35168946 0.029284801 -0.24993049 -0.34443557 -0.28274274 0.22155313 -0.39571282
0.6737691 0.1972537 0.11839837 -0.34513867 -0.75226945 0.2845942 0.33826268 -0.4554501
0.07772244 -0.022883 -0.20040482 -0.2177838 -0.29209492 0.2502823 -0.32417214 -0.04951672
0.44850168 0.0915929 -0.245803 -0.34722397 0.16745071 -0.10200566 -0.38765648 0.07603066
-0.82376033 0.2707055 0.004808369 -0.1845248 0.22868787 0.15743548 -0.4793485 -0.44283995

a2c_network.actor_mlp.0.bias f4 [256]
00000000: fee6 15bf ac14 91bd 2781 fa3e 1627 12bf
00000010: e39e 8e3e 900f 8abd 5d07 d8be 0612 06bf
00000020: 3610 53bf 5493 4cbf 8e46 58be cbb7 71be
00000030: 1f5e 81be 3368 01bf 103e 0bbf e1cb 13bf
00000040: 96ef c93e 927d 573e 4887 34bf a492 2abf
00000050: 2b55 a03e df36 ddbe 67d4 923e 6ef8 adbe
00000060: 3f3c b73e 22c4 05bf eb83 7abd 90bd 07bf
00000070: e595 ddbe 6032 6e3f 86df 07bf 1240 0bbf
00000080: 3688 39be ec06 02bf 59f7 e4be 3661 83bf
00000090: 791e 80be a9aa 35be 9c49 e2be 90a0 1fbf
000000a0: 048e 773e 5a60 87be 2fbc 36be ca26 5a3d
000000b0: 0596 1c3f 8f3f e1be e472 17bf 21c5 bdbe
000000c0: 4e8f 05bf 6087 1ebf 0e70 8a3e 7ec7 e9be
000000d0: 21a4 58bf da2c 1ebf a39b c6be 31e5 833e
000000e0: ebf2 dd3e f729 d1be 3fe2 c0be 9ac4 babe
000000f0: b07a e8be 5c53 13bf 3021 19bf ed9b c6be
00000100: 27c8 1dbf cac3 4dbf 248c 47bf 02b0 28bf
00000110: 5363 8dbf f295 d73d c3ba e7be 864b f8be
00000120: f801 fcbe 7342 84be 03a5 ad3e bbcc 2d3d
00000130: 47ce 32bf 15db 30be bcd3 dabe 213d 3fbf
00000140: d464 97bd b8b7 6e3e 3b8e 0e3f 8cad 29bf
00000150: bd6b 15bf e094 523d facf 90bd 42f6 9d3e
00000160: 6306 a5be 4f7d 873e bcd2 073f 9a48 25bf
00000170: b8c9 7abf 8a55 3ebf 9c7d 61be 70a5 d93c
00000180: 18a7 04bf 1f30 0dbf 05aa dfbe 3a4c ebbe
00000190: eb57 64bf 6297 a03e 5f33 36bf 54e7 f3be
000001a0: 78bc b8be 86c9 b93e 29b0 ba3e 8540 583e
000001b0: 7018 c2bd d140 373f 480b 6e3e 22f8 373e
000001c0: da6f b4be f581 28bf 1481 3fbf 58a2 78be
000001d0: 70e0 99be 2ed2 da3e e616 afbe 9dbf 8e3e
000001e0: b9a4 e5bd e807 bd3e 751b 4bbf efc6 12bd
000001f0: 3618 db3d 3002 a53e e6ef 2abf 084a fabe
00000200: 93d4 60be 4a32 bcbe 82d0 16bf f885 843d
00000210: 56ec 06bf ffef 92bd c804 d3bd d919 68be
00000220: 8469 01bf 06ad 273e e9a2 6bbf df7a c6be
00000230: ba81 c7be 013c f1be bdfe 02bf 2974 403e
00000240: 9763 c1be 80d4 25bf a478 37bf e9ce d1be
00000250: da06 21bf a0a1 6bbe a7dc b4be 5bae 07bf
00000260: 7557 68be 656a 4c3e bc78 7abe 7dda f63d
00000270: ca3c 03bf c051 15be a098 20bf b832 c7be
00000280: 8c05 c43e 8b74 1dbf 4993 98bd 7b8a f1be
00000290: 3eec cfbe c71e 2cbf 4f9c 303f 564d 62be
000002a0: 196a 6abf 18f6 653e 2aba efbe 2405 2bbf
000002b0: ced1 78bf 9a5a d2bd e8ad babe 8326 9c3e
000002c0: fa47 f7be 7463 92be d1b6 dbbe 8565 333f
000002d0: a7be 0fbf 2bb0 edbd 1929 183e 964d a9be
000002e0: 3375 32bf 8717 5dbe b82f 1ebf 2327 22bf
000002f0: 5670 0cbf 6a07 2fbf 71ae 6cbe 81f8 76bc
00000300: 0446 b9be 82b9 bf3c d433 883e adc8 27bf
00000310: 2132 203e 9e31 95be c750 92be e2f5 06bf
00000320: 04c5 eebe 40ae 7b3e e61d 14bf 130c c8be
00000330: 1c60 d83e fddf e43e 3ab4 27bf 2891 e9be
00000340: 5932 c7be 7c8f c6be 34c7 1dbf eedd 06bf
00000350: 9e9c 013f b958 a23e 179c b8bd b48e 4fbe
00000360: 605c 1bbf 6699 70be 108c 9cbd a046 01bf
00000370: be56 c1be e2d2 003f 0237 133e 1d80 22bf
00000380: 948b 26bf 87aa e1be 139d b2be 0967 2ebf
00000390: a62c 2ebd 8e5d 6e3e f66f 40bf 663a 14bf
000003a0: d9ec c83e a089 9abe b0bd ebbe a179 a5be
000003b0: 5549 963e 643c d7be a2aa 8dbe 5f9c b3be
000003c0: b20a b0be 0270 53bf 447c 87be e252 0ebf
000003d0: feb4 f83c 161a 423e 8063 09bf 457a 933e
000003e0: 8983 11bf cea3 1ebe 4d5d 39bf 851d 00bf
000003f0: 08a0 b13e ea81 7bbe 4663 b83d e810 cfbc
-0.5855559 -0.07084021 0.4892666 -0.5709089 0.27855596 -0.067412496 -0.42193118 -0.5237125
-0.8244661 -0.79912305 -0.21120664 -0.23605268 -0.2526712 -0.5054962 -0.54391575 -0.5773297
0.39440602 0.21043995 -0.7051892 -0.66630006 0.31314978 -0.43205926 0.28677675 -0.339786
0.35788152 -0.522524 -0.061160963 -0.53023624 -0.43278423 0.93045616 -0.53075445 -0.5439464
-0.18118367 -0.5079181 -0.4471996 -1.0264041 -0.2502325 -0.17740883 -0.44196784 -0.62354374
0.24175268 -0.26440698 -0.17845224 0.05325965 0.6116641 -0.43993804 -0.59159684 -0.3706446
-0.5217179 -0.61925316 0.27038616 -0.45660013 -0.8462544 -0.6178719 -0.38790616 0.25760797
0.43349394 -0.4085233 -0.37672612 -0.3647812 -0.45406103 -0.5754907 -0.59816265 -0.38790837
-0.61633533 -0.80376875 -0.7794821 -0.65893567 -1.1045936 0.10526647 -0.45259675 -0.4849512
-0.49220252 -0.25831947 0.33914956 0.042431574 -0.69846004 -0.17271073 -0.42739666 -0.7470265
-0.07392278 0.2331227 0.55685776 -0.66280437 -0.5836752 0.05141151 -0.070709184 0.30851942
-0.32231435 0.2646279 0.5305593 -0.64563906 -0.9796405 -0.7434927 -0.22020572 0.026568145
-0.51817465 -0.5515155 -0.43684402 -0.45956594 -0.8919665 0.31365496 -0.71172136 -0.47637427
-0.3608129 0.36286563 0.36462525 0.21118362 -0.09477317 0.71583277 0.23246491 0.17965749
-0.35241586 -0.658233 -0.7480633 -0.24280679 -0.30054045 0.4273848 -0.34197158 0.27880564
-0.11213059 0.36920094 -0.7933877 -0.03583425 0.10697977 0.3222823 -0.66772306 -0.48884606
-0.2195609 -0.36757118 -0.5891191 0.06470865 -0.5270437 -0.07174682 -0.10303646 -0.2266611
-0.5055163 0.16374597 -0.92045456 -0.38765618 -0.3896616 -0.47116092 -0.5116995 0.18794312
-0.37771294 -0.64777374 -0.7166846 -0.40978172 -0.6290108 -0.23010874 -0.35324594 -0.5300042
-0.22689612 0.19962461 -0.24460119 0.12053392 -0.5126463 -0.14581966 -0.6273289 -0.38905883
0.38285482 -0.61505955 -0.074499674 -0.47175965 -0.40609926 -0.6723446 0.6898851 -0.22099814
-0.9156814 0.22457159 -0.4682172 -0.6680472 -0.97195137 -0.10271187 -0.36460805 0.30498132
-0.482971 -0.28591502 -0.42912915 0.7007678 -0.5615029 -0.11605867 0.14859428 -0.33067006
-0.6971008 -0.21591006 -0.61791563 -0.6334097 -0.5485891 -0.6837069 -0.23113419 -0.015073896
-0.3618623 0.023403887 0.26602042 -0.6554058 0.15644123 -0.29139417 -0.28577253 -0.5271894
-0.46634686 0.2457819 -0.5785812 -0.39071712 0.42260826 0.4470214 -0.6550938 -0.45618558
-0.389056 -0.38781345 -0.61632085 -0.5268239 0.50629604 0.31708315 -0.09014147 -0.2026928
-0.6068783 -0.23496017 -0.07643902 -0.5049839 -0.37761492 0.5032178 0.14376453 -0.63476735
-0.6505673 -0.44075415 -0.34885463 -0.6812597 -0.04252305 0.23277876 -0.7517084 -0.5790161
0.392432 -0.30183125 -0.46043158 -0.32319358 0.29352823 -0.42038262 -0.27669245 -0.3508024
-0.3438316 -0.82592785 -0.26461995 -0.5559522 0.030359741 0.18955263 -0.5366745 0.28804222
-0.5684133 -0.15492174 -0.7240799 -0.50045043 0.34692407 -0.24561277 0.0900331 -0.025276616

a2c_network.actor_mlp.2.weight f4 [128, 256]
00000000: d7f1 14be ff38 37be c125 7ebe 7795 123e
00000010: 2ac5 a7bd d8e9 0dbe 5ef7 d93d c126 d33c
00000020: 9b64 553e e991 c83d edc7 343c c3b7 1a3d
00000030: f87c 823c d977 223e 8d69 be3d e610 ef3d
00000040: c161 59be ddd9 b6be aa19 583e ba43 e9bd
00000050: 77ec 34be 487a 12be ef23 6fbd afeb 263d
00000060: 3e29 e1be 5fcc 033e 8dbe dfbc 7c1d 1c3d
00000070: e9b3 403d 603a 47be c7f6 b6bc 9329 3e3c
00000080: 0b98 c3bc d423 42bb d99c c93b 7e51 1e3e
00000090: 051b 6cbe 28d7 62be 016e 4d3d 6a7a d83d
000000a0: 0350 85be 123a ca3d 983f 4dbe c4ad c7be
000000b0: 688c aebe 3d62 ba3d 5216 a03e 5550 04be
000000c0: 71e8 c9bd 1896 5bbd a1ca b2be d27f 133d
000000d0: c3b1 a33c 5354 b53d 617c 0ebd d877 a9be
000000e0: b2e9 61be 3627 4abe c7bc 8abe 2ba1 f2bd
000000f0: a04b 703c 98fb 91bc e838 1a3d 1173 d23d
00000100: 68d7 12bd 8d6b 4cbe 3943 ce3d bbfe 7dbc
00000110: 0d90 953d 0e4a 15be 2a98 80bd d8bc 533d
00000120: fdbc 3bbd f87b 23be a738 8cbe 4c2d fcbd
00000130: 6f26 9d3b b516 d2bc 4c46 efbd 9718 323e
00000140: a407 dcbd 54d3 a9be 6978 b7be 8d03 4e3e
00000150: c2f6 8a3e 1a8b 32bd 021c eabd d503 3bbe
00000160: 1a64 cfbd c9ec 92be 2e5f a5be 02f6 923d
00000170: 2a7b 693e 80c4 46bd 5c8c 4ebe 6e2e acbe
00000180: a2da e13d 79ee 9c3d 8d8a ed3b 86d5 a8bd
00000190: 172d 323e 0a16 90be 0541 743d 3111 a83d
000001a0: 32af ce3d adf8 f1be db0e 8cbd 0fa1 8dbd
000001b0: 1139 0cbe ec11 adbe bb7a 6cbd 2cf8 6dbe
000001c0: de41 fb3c efef a5bd 3b17 483d 3220 dfbd
000001d0: 672f 1d3e f4b0 6ebe 2b38 8ebd 2b32 0abe
000001e0: 8c45 9dbe b950 d4bd fdfe 94bd f88e f5bd
000001f0: b369 d43d 24fd 24be d0f2 083d 9a59 93bd
00000200: d03d d33b 2e6c 08bd 06e4 863d cbe6 1bbc
00000210: 7eb7 013c 466b 71bd 63ac 91bd 6ea1 a9be
00000220: 0996 c7ba 20c3 40be a2a7 d73c 0e6f 66be
00000230: edf9 e0bc f83a 05be 7007 67bd 64de 73bd
00000240: e6b0 1b3e 4e69 533e 5688 183e 039d babd
00000250: 4078 4f3d 6c1b f13c 9ffc d93c 4921 3abd
00000260: 1970 d7bc a225 233c 13ba 2ebe 5eca 4fbe
00000270: c16c 623e e54b 263d 0e0a 693d 78c1 c13c
00000280: 223f 51be f61f 853d d2a6 553d d594 61bd
00000290: 0819 0ebe 66c1 c23d 4a76 a1be 7bb9 28be
000002a0: eb02 173e 283d 2dbe fb0e d4bd 8023 883d
000002b0: 6088 d739 5d5e 82bd b7c9 7cbd 6ab1 94bd
000002c0: 4711 4bbd 1105 1dbe ba60 693e 6886 a5be
000002d0: 6a32 513d ca02 2cbe d663 b4bd 2ba9 12bd
000002e0: 36cd f63c a23b babd 5883 9bbc 05fc 093d
000002f0: e7fd d9bd 2f9c cebd 46a1 6c3d 4a8b 49bc
00000300: f99b bc3c af55 3abe 9127 23be fa83 513d
00000310: daa4 8cbe d057 afbc 313a 2dbe 0e15 aa3d
00000320: a2e6 033e 8ca1 1ebe 9b39 72bd 56e8 e53d
00000330: 24f1 5ebe 63ff d5bd dbca 133c 604d e0bb
00000340: 4ad6 343d b49a bf3b 1aaa dabd 1535 093e
00000350: c76f 6abe c6db 703d 2deb fcbd b930 adbd
00000360: 983a 49be 5f71 95bd 4f70 72be e464 1cbc
00000370: ce45 45be fbd7 34be 1e69 d9bd 4f9e 853d
00000380: 19e3 7e3c 8343 273d c031 17be 0d5a d6bd
00000390: 1df1 18bd 6326 80be f9a9 55bd d818 f43c
000003a0: f2dc 80be 2037 29be a731 f8bc cd0c 953d
000003b0: 0527 d2bd 6a3d 3abd 6bcb 0cbe 2c57 39bd
000003c0: 4429 a13d ad26 163e 6ab7 d0bd 8b9d 09be
000003d0: 949f 80be a095 d9bd c718 5b3d c326 fe3c
000003e0: 6ea3 a23d 535b 0cbe a535 aebd ab78 45be
000003f0: c65a 2ebd 9c9b 2abe 76b6 63be b566 923b
-0.1454538 -0.17892836 -0.2481909 0.14314829 -0.08191903 -0.13858736 0.10642885 0.025775315
0.20839159 0.09793455 0.011033994 0.037772905 0.01592873 0.15866031 0.09297476 0.11673145
-0.21228696 -0.35713091 0.2110354 -0.11389871 -0.17668329 -0.14304459 -0.05838388 0.04075211
-0.43976778 0.1287093 -0.027312541 0.038114056 0.047046576 -0.19455862 -0.02233447 0.011606592
-0.02387621 -0.0029623406 0.006152731 0.15460774 -0.23057182 -0.22152388 0.050153736 0.10570224
-0.26037607 0.09874357 -0.2004379 -0.3899976 -0.34091496 0.09100769 0.3126703 -0.12921269
-0.09858788 -0.053609937 -0.3492022 0.03601057 0.019982224 0.08853974 -0.034786586 -0.33099246
-0.22061804 -0.1974152 -0.2709715 -0.118471466 0.014666468 -0.017820165 0.037651926 0.102758534
-0.03584996 -0.19962902 0.100714155 -0.015502627 0.07302866 -0.14579031 -0.06279023 0.051693767
-0.04583453 -0.15965259 -0.27386972 -0.12313327 0.0047958414 -0.025645593 -0.1168333 0.17392193
-0.10743645 -0.33169043 -0.35834053 0.20118542 0.27141386 -0.04358969 -0.11431123 -0.1826318
-0.10126515 -0.28696278 -0.3229918 0.071758285 0.2280089 -0.04852724 -0.2017073 -0.33629173
0.11028029 0.076626725 0.0072491826 -0.08243851 0.17400013 -0.28141814 0.05963232 0.08206404
0.100920096 -0.47260037 -0.06838771 -0.06915485 -0.13693644 -0.33802736 -0.057734232 -0.23239201
0.030671056 -0.08102404 0.04885028 -0.10894813 0.15350114 -0.2330969 -0.06944307 -0.134957
-0.30717123 -0.10366959 -0.07275198 -0.1199016 0.10371723 -0.1611219 0.03343469 -0.071948245
0.0064465776 -0.033306293 0.06586461 -0.009515475 0.007917283 -0.058940195 -0.07112958 -0.33130974
-0.0015227209 -0.18824434 0.02632505 -0.22503302 -0.027462924 -0.13010776 -0.056403577 -0.05953826
0.152042 0.2064564 0.14895758 -0.09111979 0.05065179 0.029432021 0.026609717 -0.0454419
-0.02629857 0.009957703 -0.17063169 -0.2029204 0.22111799 0.040599722 0.056894355 0.023651823
-0.2043424 0.06500237 0.052161045 -0.055073578 -0.13876736 0.09509544 -0.3153556 -0.16477005
0.14747207 -0.1691786 -0.1035442 0.06647396 0.00041109603 -0.063656546 -0.061715808 -0.072604015
-0.049577024 -0.15333964 0.22790805 -0.32329106 0.05107347 -0.16797939 -0.08808105 -0.035805862
0.03012715 -0.09093405 -0.018983528 0.03368761 -0.10644131 -0.100883834 0.05777099 -0.0123012755
0.023023592 -0.18196748 -0.15933062 0.051151253 -0.27469522 -0.021404177 -0.1691673 0.08304797
0.12880948 -0.15491313 -0.059136968 0.11225955 -0.21771675 -0.10449102 0.0090205325 -0.0068451613
0.044149674 0.0058472995 -0.106769755 0.13399155 -0.22894202 0.058803342 -0.12349544 -0.08456559
-0.19651258 -0.072970144 -0.23675655 -0.009545539 -0.1926491 -0.17660515 -0.10615753 0.065243356
0.015557074 0.04083587 -0.14765072 -0.104663946 -0.03733932 -0.25029287 -0.05216405 0.029797003
-0.25168568 -0.16524935 -0.030297114 0.07277832 -0.10261349 -0.045468725 -0.13749473 -0.04524915
0.07869199 0.14663191 -0.101912335 -0.13439004 -0.25121748 -0.10624242 0.053490426 0.031024342
0.07941328 -0.13706712 -0.08506326 -0.19284312 -0.042567037 -0.16660923 -0.22237572 0.00446781

a2c_network.actor_mlp.2.bias f4 [128]
00000000: 83b9 82be 3d0c 57be d86c ccbe 1ec4 efbe
00000010: bd7b aebe 710f e1be 653b 9bbe 4ac9 33be
00000020: 7d4d e3bc dd45 8ebe 3a9f ed3c ceb1 62bd
00000030: 43b8 af3d 9d1a 17bf 1fd4 c5be e893 a2be
00000040: 293d f63e f61c c5be bb5a 88be bf79 053d
00000050: 3cd6 cebe fd65 b2bd 8b7a 43bd 42a1 793b
00000060: 7ea3 1fbe e9a0 cf3d 8dcb b8be dc1e 63be
00000070: 2975 ebbe 2e1f 6abe 4492 93be 0009 edbe
00000080: 4031 2dbe e7a9 31be 489a b7be 716b 48be
00000090: 5f5d 8b3d 27e2 bdbe f2eb 92be 2d13 9ebe
000000a0: fd1d d63d 9eb3 76be 0c53 92be 6ebb d5be
000000b0: 8068 82be f1ce fabe f96f 71be 144b 77be
000000c0: 8a9c 44be f3ef f7be ba3e 59be 97f2 91be
000000d0: da06 9ebe 4c92 58bd 8e80 32be dfa6 02be
000000e0: bb54 c5be f29c e2be 0399 33be 46ca c7bd
000000f0: f042 ffbd df6d 9fbd 9d45 c33c 63a1 4cbd
00000100: 6bca b1be d068 07be 9b02 f0be cbca c1be
00000110: ab1d 9dbd 4a43 08bf 8236 eabe a65d fb3c
00000120: 9729 bfbe c576 a0be 385f abbe 8e84 70be
00000130: 1f18 82be ce6d 7bbe 0072 5dbe 9fd2 ebbd
00000140: 0284 633d 7646 05bf e77d 43be ed74 f23d
00000150: f938 c03c 49ee 31be 6f4c 5abe 6635 033e
00000160: 76b2 00bf 5d75 a9be adf1 a23d 6537 aabe
00000170: 2c72 83be c994 0a3d 9029 bebe 6496 9ebd
00000180: 7c44 0dbf 9d0b 90bd c9ea 19bf 980b 31be
00000190: e678 f0be 039e 79be 4f44 10bf f0e9 0cbf
000001a0: a9ed fdbe 617e a43e ce92 8dbe a5fd c73e
000001b0: 749a 39be ea00 7cbe 0aa3 03bf e5bc f6be
000001c0: 6ce3 8cbe 9d21 07bc 335f b13d 8aea d2bd
000001d0: d62b 0ebe 6316 2fbf 424a 49be 0824 b8be
000001e0: 8d68 debe b643 74be dd4c 0bbf cfe5 683d
000001f0: 3736 dfbe b25b 033e 4a01 65be 85d1 493e
-0.2553216 -0.21000762 -0.3992679 -0.46829313 -0.3407878 -0.43957093 -0.30318752 -0.17557254
-0.02774691 -0.27787676 0.02900659 -0.05534535 0.08580067 -0.59024984 -0.38638398 -0.3175347
0.48093536 -0.38498658 -0.26631722 0.03258681 -0.40397823 -0.08710859 -0.047724288 0.0038090502
-0.15589711 0.10138113 -0.36092797 -0.2217974 -0.45987824 -0.22863457 -0.2882253 -0.4629593
-0.16913319 -0.17349969 -0.35859895 -0.19572236 0.068049185 -0.37086603 -0.28695637 -0.30874005
0.104549386 -0.24091956 -0.28578985 -0.4174456 -0.25470352 -0.4898601 -0.2357787 -0.24149734
-0.1920034 -0.48425254 -0.21215335 -0.28505394 -0.30864602 -0.052873895 -0.17431852 -0.12758969
-0.38541207 -0.44260365 -0.17538838 -0.097553775 -0.12463939 -0.07784628 0.023836905 -0.049958598
-0.34724745 -0.13223577 -0.46876988 -0.3785003 -0.07671674 -0.53227675 -0.4574471 0.030684303
-0.37336418 -0.31340614 -0.33471084 -0.23488066 -0.25409028 -0.24553606 -0.21625519 -0.11514782
0.055545814 -0.5206064 -0.19090997 0.11838708 0.023464667 -0.17376055 -0.2131822 0.12813339
-0.5027231 -0.33097354 0.07956252 -0.33245388 -0.25673044 0.0338333 -0.37141085 -0.077435285
-0.55182624 -0.07033465 -0.6012388 -0.17289579 -0.46967238 -0.24376683 -0.5635423 -0.5504446
-0.49595383 0.3212767 -0.27651066 0.39060703 -0.18125325 -0.24609724 -0.5142065 -0.4819099
-0.2751726 -0.00824776 0.08660736 -0.10298641 -0.1388391 -0.68393534 -0.19657233 -0.3596499
-0.4343914 -0.23853955 -0.5441416 0.056859788 -0.4359605 0.12827948 -0.22363773 0.19708832

a2c_network.actor_mlp.4.weight f4 [64, 128]
00000000: b90b b43e a41c 833e 89e7 a93c 95f2 803e
00000010: 1717 23be fe42 af3d 5ff1 313e 4637 42be
00000020: 990c 6bbe b72d 303e ad13 febd eaf4 2d3d
00000030: 1714 18be 4de4 2fbc f65a 193e 7f44 813e
00000040: 9d7e 2bbf 6e24 913e 85b9 4fbe 2f52 79be
00000050: 290c 9f3e 5f62 2e3e e043 82be 5f6d 5bbe
00000060: 36b0 0dbf 1d65 c9be 6c52 9a3e 2235 a6be
00000070: cf83 7d3e c61e 86be ed42 593e 68fa aa3c
00000080: 8da9 7d3e 4b2a 0b3e f212 703e ae84 13be
00000090: dd7a 153d 8f38 b1be ed35 d73e bb75 823e
000000a0: 63fc b3be ca5d 703c 280f 8cbe 72a2 a03e
000000b0: 29eb 76be 877f 32bd b72d 13be 3953 4bbe
000000c0: 8541 223e d97f a13e 26f2 053e ea7f ae3e
000000d0: b8bf cabe 3da6 c7bd bcbf 8f3e f2d2 70be
000000e0: 2d75 cc3e d77a c33c ec76 1f3e 0cc1 0bbe
000000f0: 535e 51be 29a1 bbbe 630d 4abe 9e92 fdbd
00000100: dfec 4cbe 02d5 03bf 30f5 853e e83d 493e
00000110: 5180 8a3d 5f3d 793e 409a bb3d 4969 0bbf
00000120: 3a2d bd3c 291e c3be 53e7 803e 373f 903e
00000130: a083 b7be a8fe 88be ea97 553e abb7 02be
00000140: e3bf 99bd b1ff d33e 6567 703e 692b 9c3d
00000150: d907 ddbe 09be b23d 70a0 d93d 53da 91be
00000160: e7a1 9d3c 6af5 2fbd 3145 63be 1aa8 bc3e
00000170: e60f aabc df78 01bf d0b7 343e b6c0 05be
00000180: b31d fcbd e3cc 14bf f544 86bd 1bd5 3c3e
00000190: 9ee8 5e3e e6f6 883d 3f10 593e 2d0e 893e
000001a0: affc e4bd 56ca 9abe 0792 043f 5803 b5be
000001b0: e6f5 cf3e a02c cdbd 79ff db3e a4ad 843d
000001c0: 8a1b f83e 1b2c 813d 1e31 7dbe 9d5c b0be
000001d0: 36de 763e da7f fd3e 376b bcbd 3632 9e3e
000001e0: 8a41 803d e594 283e f6c8 8c3c 7e64 e6be
000001f0: 8752 74be eb5e febe 0661 0ebe 9450 6a3d
00000200: 6e60 863e 8507 8cbe 4bea 923e 91d8 fc3e
00000210: 03d9 263e 1e8e 853e 9710 f33e 55f4 93be
00000220: 777b 56be 9daa b93d 4f3a 80be 92ea 8d3d
00000230: 528b d8be ee7c 143e 7d72 f3bd e0be 833e
00000240: c23f 8ebe 15f3 353d 9525 e0bc f4ba 27bf
00000250: 7086 923e 4e4e 003d 34a8 02bf 2e90 f23d
00000260: 84e2 31be d36d 84be f078 123d 2dc8 97bd
00000270: 1b42 4abd b30f 3ebe 3451 893e 4b70 083f
00000280: af8b cf3d 11e5 2dbe 78c3 933e a21b 083e
00000290: 65c0 5c3d 191f a53d 29d1 603e 9a90 713e
000002a0: 2f84 a7bd ea1e c1bd 9ef1 4c3d 744e b43e
000002b0: 92a0 5d3d dae9 14be b841 cf3d 59ab 733e
000002c0: efb4 e5bd 9513 903e a8e3 bfbd 1514 183e
000002d0: 4403 7c3e 2e79 503d 2222 123e dd8a 03bd
000002e0: 7856 f43e 205c 6cbd d9da a4be d5f2 fcbb
000002f0: aebe a2be d398 34bb 5c59 b3be 98ff 80bd
00000300: 6597 65be 377a 69be 3bc5 f73c efa8 0f3e
00000310: 2884 213e e66d f03e 126c 9fbe e325 26bf
00000320: 0548 003e ee14 443c 78ed 81bc 359f e9bd
00000330: 345f a2bd 7326 263e c82e 7d3e 9830 a5be
00000340: f0e7 0f3e f0be 063f 6067 4b3d 7885 093d
00000350: 8d44 873d 21ef e23d ac55 16be b623 ebbe
00000360: 654a 313e fb2d 723e 1f8e 2b3d ced6 96bd
00000370: 1209 b33b cd51 8cbe 0d78 17be d4b7 9fbc
00000380: 7ff6 f53d f074 29be 02a1 e5bd 1242 8dbc
00000390: 1b94 c9be 6062 5c3d 83cd 30be 47cc 8f3e
000003a0: b759 713d 2dcc 41be 4830 b03d 90cd 963b
000003b0: 59ed 783d 613d b03d 6eec 1e3e 3745 273e
000003c0: f76d ac3e ddfa 54be 0407 fdbd 6b82 3fbe
000003d0: 1c19 223e 3cc5 1a3e a2f5 85be 1d15 4d3e
000003e0: 35d3 0fbc 66b7 a8bd 8f1c f63d d272 37be
000003f0: 5733 2b3d c9fd 543d e79d 14be 8e03 a7be
0.35165194 0.2560779 0.020740287 0.25185075 -0.15926777 0.085576996 0.17377232 -0.18966398
-0.22954024 0.17204939 -0.124060966 0.042469896 -0.14851414 -0.0107355835 0.14976105 0.2524757
-0.6699007 0.28348106 -0.20285614 -0.24347757 0.31063965 0.17029713 -0.2544241 -0.2142844
-0.55347 -0.39334956 0.30141008 -0.32462412 0.24757312 -0.26195353 0.21216936 0.020871356
0.2477171 0.13590352 0.23444727 -0.14406082 0.036494125 -0.34613463 0.4203333 0.25480446
-0.35153493 0.014670799 -0.27355313 0.31373936 -0.24113144 -0.04357865 -0.14372908 -0.19855966
0.15845306 0.31542853 0.13080654 0.34081966 -0.39599395 -0.09748504 0.2807597 -0.23517969
0.39933148 0.023862286 0.15572709 -0.1364786 -0.20446138 -0.36646393 -0.19731669 -0.12381481
-0.20012234 -0.514969 0.26163626 0.19652522 0.06762756 0.24339817 0.0916028 -0.5445753
0.023092855 -0.38108948 0.25176486 0.2817323 -0.3584261 -0.26756787 0.20858732 -0.12765376
-0.075073026 0.41406015 0.23476942 0.07625467 -0.4317005 0.087276526 0.10626304 -0.2848688
0.01924224 -0.042958654 -0.22194363 0.36847 -0.020759534 -0.5057506 0.17648244 -0.13061795
-0.12310352 -0.5812513 -0.06556121 0.18440668 0.21768424 0.06687717 0.21197604 0.26768628
-0.11181008 -0.30232495 0.5178532 -0.35354114 0.40617293 -0.10018277 0.42968348 0.06478432
0.4845851 0.063072406 -0.24725768 -0.34445658 0.24108204 0.49511606 -0.09200137 0.30897683
0.062625006 0.16463049 0.01718567 -0.44998544 -0.23859607 -0.49681792 -0.13904199 0.05720575
0.26245445 -0.27349487 0.28694376 0.49383977 0.16293721 0.2608499 0.47473595 -0.28897348
-0.20945536 0.09065745 -0.25044486 0.06929506 -0.42293793 0.14500782 -0.11887071 0.25731564
-0.27783018 0.044421274 -0.02736167 -0.6551964 0.28618193 0.031324677 -0.5103791 0.11843906
-0.17371565 -0.2586504 0.035759866 -0.074112274 -0.04937945 -0.18560676 0.26819766 0.53296345
0.101340644 -0.16981913 0.28860068 0.13291791 0.05389442 0.08062572 0.21954788 0.23590317
-0.08179509 -0.094297245 0.05003511 0.35216105 0.05410821 -0.14542332 0.10119957 0.23795833
-0.11216151 0.2813994 -0.09369594 0.1485141 0.2461062 0.050896816 0.14270833 -0.032114852
0.4772222 -0.057705045 -0.32198218 -0.0077193775 -0.31786102 -0.002755691 -0.35029113 -0.06298751
-0.22421034 -0.22800528 0.030245414 0.14029287 0.1577307 0.46958846 -0.3113714 -0.6490156
0.12527473 0.011967881 -0.015860304 -0.114073195 -0.07928315 0.16225605 0.24724877 -0.32263637
0.14053321 0.526351 0.049659133 0.03357455 0.06604872 0.110807665 -0.14681119 -0.45925683
0.17313536 0.23650353 0.041883584 -0.073651895 0.0054637277 -0.2740616 -0.1479189 -0.019496836
0.12009906 -0.16548514 -0.112123504 -0.017243419 -0.39370808 0.053804755 -0.17265896 0.2808554
0.05892345 -0.18925543 0.08602959 0.0046021417 0.060773227 0.08605457 0.15519878 0.16334997
0.33677647 -0.20798822 -0.12354854 -0.18702094 0.15829891 0.15114301 -0.26163965 0.20027585
-0.008778383 -0.082381055 0.12017166 -0.17914894 0.04179701 0.05199984 -0.1451336 -0.326199

a2c_network.actor_mlp.4.bias f4 [64]
00000000: 7707 f3be 0f5b 25be 2932 a1be 9762 28be
00000010: 1e95 bebe 0d04 43be b598 43be c250 38be
00000020: 6d24 bebe a68b 15be 7680 19be 8367 00bf
00000030: 66e6 a1be a407 86be 984f 7abe bb21 21be
00000040: a0f9 88be 2590 0ebe 01ff 16be bff5 9ebe
00000050: 028f e2be 4783 11be 20ed c0be cbb9 11bf
00000060: 0d26 d2be 089f 62be 42a9 0bbe 264f 01be
00000070: 2334 a43e b0bc 29be 78db 2bbd 8ddd 28be
00000080: 8481 69be 3bdc 0dbf 42f1 16be 8c5d 52be
00000090: 0ae1 ecbe a4d0 33be 6128 1abe e35b 43be
000000a0: effc 32be c7c8 42be 47eb 66be a282 2bbe
000000b0: b276 cabd 7057 ebbd 1d4e 1bbe 9dfb 4bbe
000000c0: 483e 59be a6b1 17be cc52 61be 0fd7 dcbe
000000d0: b93d 95be e449 0ebe 61ad c0bd a030 7fbe
000000e0: e99c 03be 57d5 00be 8c09 84be d018 a6be
000000f0: 07e5 10be 2359 fb3e eaa1 8abe aef0 4dbe
-0.47466633 -0.16148017 -0.31483582 -0.16443859 -0.37223142 -0.19044514 -0.19101222 -0.17999557
-0.37137166 -0.14604053 -0.1499041 -0.50157946 -0.31621093 -0.26177704 -0.24444425 -0.15735523
-0.2675295 -0.13922174 -0.14745714 -0.31046864 -0.4424973 -0.14210235 -0.37680912 -0.5692412
-0.41044655 -0.22130978 -0.13638785 -0.12627849 0.32071027 -0.16575885 -0.04195735 -0.16490765
-0.22803313 -0.5541417 -0.1474047 -0.20543498 -0.4626544 -0.17560059 -0.15054466 -0.19078021
-0.17479299 -0.19021903 -0.22550689 -0.16749051 -0.098859206 -0.11491287 -0.15166517 -0.19920202
-0.21215165 -0.14813861 -0.22004241 -0.43132827 -0.29148653 -0.13895375 -0.094080694 -0.24920893
-0.12852825 -0.12581383 -0.25788534 -0.32440805 -0.14149867 0.49091443 -0.27076656 -0.20111343

a2c_network.value.weight f4 [1, 64]
00000000: 0e2a d13a fc00 ceba efb5 9dbb c7d6 8a3b
00000010: ca12 ca3b faff b9ba 3b58 6339 ab64 b6b9
00000020: 042a 9b3b 8c0b de3a bb7a 4e3c 4f94 003c
00000030: 10d1 bb3b d85f 263b e01a 633c 5d44 943b
00000040: f8e8 2c3b 95ab b13a 2525 0abb 8e7f ab3e
00000050: 7304 393b b7db 4dba bd09 343b 867e 3c3c
00000060: 507b 213c 4290 1fba 6a83 2d3d 3d8d cf3a
00000070: 86f9 debd 8d50 63bb cf45 37be c85d e5ba
00000080: 0ddb 3d3c 3062 07ba cee4 ab3d 992d 983b
00000090: 8833 04be ec59 aa39 2e6c 713c 1578 adb9
000000a0: 996e 6abd 30e0 313d 2d49 c3b9 bccd 48ba
000000b0: 1363 4b3a 0c45 033b a176 563b 81ef d73b
000000c0: a7e7 a53c a61d b13a b366 48be 178f 8e3c
000000d0: 4c1f 9a3c 280b b83b a03f 73bc 2014 603a
000000e0: e582 8fba 415d c73c 8a82 f0bb de88 6e3a
000000f0: e030 59bd f72a b1be 51aa b63a 5b6e c5b9
0.0015957968 -0.0015716846 -0.004812948 0.0042370292 0.0061667906 -0.0014190667 0.00021681275 -0.0003478875
0.0047352333 0.0016940697 0.012602503 0.0078478595 0.0057317093 0.0025386717 0.013861388 0.004524751
0.0026383977 0.0013555164 -0.0021079269 0.33495754 0.0028231412 -0.00078528695 0.0027471625 0.011504775
0.00985606 -0.0006086865 0.042361654 0.0015834939 -0.108874366 -0.0034685463 -0.17897724 -0.0017499262
0.01158787 -0.00051644724 0.083932504 0.0046441075 -0.12910283 0.00032491924 0.014735265 -0.000330866
-0.05723438 0.043426692 -0.0003724782 -0.00076600513 0.00077585987 0.0020030169 0.0032724517 0.0065898304
0.020252062 0.0013512864 -0.19570427 0.017402215 0.018813752 0.0056165643 -0.014846712 0.0008547921
-0.0010949044 0.02433646 -0.00733978 0.00090993743 -0.053025126 -0.34603092 0.0013936256 -0.0003765699

a2c_network.mu.weight f4 [12, 64]
00000000: 6d9a ab3c f56e f6bd 3528 363e 2589 1d3e
00000010: caef 06be a9d1 34be 1bba 753e 4b71 0abe
00000020: 9f25 bc3d 7af5 07be 944d 02bd e758 6abd
00000030: 7df6 cbbd 237a 1dbe a550 683c 07db b63b
00000040: a867 c4bd 69aa cd3d 13c8 8b3d 32ea f0bc
00000050: d8a0 c7be 5492 603d 7987 83be a7ed 1d3e
00000060: 7d17 993d 1d4c a9bb 6ec3 3dbd 1474 7b3d
00000070: 3b4c 083d 94ee 4ebd 7d10 fdbb 78e7 f73d
00000080: 51b5 003e 422e debd 17c6 2a3e 1bf3 883c
00000090: 7ccd 153e 5fdd 8ebd 7e59 df3e 842f 8abe
000000a0: c1bd 403e eaab 81be ca22 273e c198 623d
000000b0: d798 173e 0c89 333e db00 89bd 52a3 c0bd
000000c0: 6c3e 153e f4a6 173e b713 03be b1eb 183e
000000d0: f4b3 ab3d d883 653d 3b6b 973e 5993 99bd
000000e0: 13f6 103e 92d3 a1be e5ed 373d 2051 153e
000000f0: afe8 833d 7a08 093d 5d6c babd a053 9abe
00000100: 6c12 98bd ef6d 7b3e 238e 9f3e 754d d6bd
00000110: dede ae3c 77f1 fb3d b2e7 dfbc 0fda c1bb
00000120: 9780 21be b3c9 2a3d b14d 89bd 8c66 523d
00000130: 7825 febc 525c d0bd 3b20 16bd 2a94 b33d
00000140: beca e33d 1e36 fdbd 2825 213e d216 79bd
00000150: 1633 48be fbd9 0e3e b5f0 1c3b 9de9 46be
00000160: 65fe 3fbe 6038 a13d 702b 34be ee10 75be
00000170: cb9e 193d c700 3ebd 344d d33c b40f 2cbc
00000180: de0b afbe 00c3 5d3e 0e7e 7ebd d728 883d
00000190: f421 133e ea3f 86be 5c40 1f3e 96a6 c83d
000001a0: c28d a1bd be32 8c3d 083e 203d a77d 213e
000001b0: 045c 82bd 1848 2b3e 26ee d73d 4fad 0cbe
000001c0: 5db4 2ebe 03a8 2e3e 9082 ccbd 1997 0abd
000001d0: 957d 41be f078 073e bdd8 b73d cb57 813d
000001e0: 328f 0cbe c1cc 843e cae3 debd 6cc9 b9bd
000001f0: a187 d53d 93a7 a23c 0ddb 733c 8ce1 0abe
00000200: f779 8a3d aa7b ac3c 8742 c83d 9995 9ebe
00000210: f17c a83e 1d9b 14be 121d 913e c3b4 1d3d
00000220: 14e9 9e3d 3dc8 b73b 8714 76bd d62e f3bd
00000230: 3bc1 64bc d00f d83b ac5d 90bd 6c22 663e
00000240: 5f8f 26bd d3ce f63d 0c7e 843c 033d 8ebe
00000250: ce6f ebbd 7372 82be e0ec 39be 87b7 13be
00000260: f84a c3bd 2063 70be 6e27 3a3e d9b8 92be
00000270: 6b9a 1a3e b911 1dbe e3d2 733c d3a8 093e
00000280: e360 9e3c 220e e43d ea4a f53c 0b11 1dbe
00000290: f6ce f1bc 5465 5abe 9193 853d ab6c c63d
000002a0: 871d 44bb 9245 99bd 43c3 1f3e 81ac 233e
000002b0: 3e22 9abd 82a6 49bd 93e1 9a3d 8f87 10bd
000002c0: c629 d0bd 4b1b c13d f2b8 a5bc e252 1a3e
000002d0: 71e3 113e edff c53d 9c6d 473d 4964 bcbe
000002e0: 1098 293e 0431 693c 9f2e 2f3d 29dd 583d
000002f0: 055a ea3d 8576 bf3c d704 1fbe 23fd 8fbd
00000300: 5e56 a1be cd31 833e 0e65 14be b958 713e
00000310: 8053 55bd a40f 44be c8dc efbd d093 90bc
00000320: c46e adbe ee63 233e 90ff 58bd 893e 5dbd
00000330: 97b4 d4be 22c0 5e3d 2cdc 463e 056f 2abe
00000340: 096d c6bd d818 61bd 73b1 53be a526 6b3e
00000350: 9085 a0bb 5b68 023e f125 063e 824a 58be
00000360: 4565 3a3d 18f1 b93e 10b5 543d 51a1 af3d
00000370: 4332 783d bb15 92bd ab01 c33c d7a4 f03d
00000380: 76e6 8e3e edab 3cbe 5e36 a23d 395d 80be
00000390: 34eb 8cbe f0c8 edbd 4114 fdbd b401 913e
000003a0: ed0e 453e 9fa8 a43d be61 b0bd bfc3 cd3d
000003b0: 6aa7 aebe 6800 08be 30db 9e3a dc6a 983d
000003c0: fd63 fe3d dda2 bcbd 9339 28be d64c 223e
000003d0: d6e7 883d 81e6 403e 6f1d d93d ec0e 5d3d
000003e0: 514d 283e 52cb 103e 16a5 013c 979f faba
000003f0: a3dc 233e 17dd 2fbe 0569 0bbe 47f2 3bbd
0.02094766 -0.12032882 0.17788775 0.15384348 -0.1317741 -0.17658104 0.23996775 -0.1351978
0.09186863 -0.13277236 -0.031812266 -0.05721369 -0.09959123 -0.15378623 0.014179383 0.0055803093
-0.09590083 0.10042269 0.068252705 -0.029408548 -0.38989902 0.05482705 -0.25689295 0.15422688
0.07475183 -0.005166544 -0.046328954 0.061389998 0.033275824 -0.050520495 -0.007722913 0.12104696
0.12569167 -0.10848667 0.16677128 0.016717484 0.14629167 -0.06975817 0.43622965 -0.26989377
0.18822385 -0.25326473 0.16321865 0.05532146 0.14804398 0.17532748 -0.06689616 -0.09406151
0.14574593 0.14809781 -0.1280049 0.14933659 0.08383933 0.05603394 0.29573998 -0.074988075
0.1415637 -0.31606728 0.04490461 0.14581728 0.06440865 0.03345535 -0.091027 -0.30141926
-0.07425389 0.24553655 0.3116313 -0.104639925 0.021346506 0.12301915 -0.02733216 -0.005915887
-0.1577171 0.04169626 -0.067042716 0.051367328 -0.031023726 -0.10173859 -0.03665183 0.087684944
0.111226544 -0.12363838 0.1573683 -0.06081278 -0.19550738 0.1395034 0.0023947184 -0.19425054
-0.18749388 0.07872081 -0.17594695 -0.2393224 0.037504952 -0.04638746 0.02579365 -0.010501791
-0.3418874 0.21656418 -0.062131934 0.066484146 0.14368421 -0.26220638 0.15551895 0.09797399
-0.07888366 0.06845616 0.039121658 0.15770589 -0.06365207 0.1672672 0.1054347 -0.13737987
-0.1706099 0.17056279 -0.0998584 -0.033835504 -0.18895562 0.13229728 0.089768864 0.06315573
-0.137265 0.25937465 -0.10883291 -0.09071621 0.1042626 0.019855296 0.014883769 -0.13562602
0.06761544 0.021055061 0.09778314 -0.3097351 0.32907823 -0.14512296 0.2834249 0.038502466
0.077593 0.005608587 -0.06007817 -0.118741676 -0.013962085 0.006593682 -0.070491165 0.22474068
-0.040664073 0.12051167 0.016173385 -0.27780923 -0.114959344 -0.25477943 -0.18156767 -0.14425479
-0.095357835 -0.23475313 0.18179104 -0.28656653 0.15097968 -0.15338792 0.014881822 0.13443308
0.019333309 0.11135508 0.029942948 -0.15338533 -0.029517632 -0.21327716 0.06522287 0.096886955
-0.0029924826 -0.074839726 0.1560183 0.15983774 -0.075260624 -0.04923106 0.07562556 -0.03528553
-0.10164218 0.09429034 -0.02022979 0.1507068 0.14246918 0.096679546 0.048688516 -0.36795262
0.16561913 0.014232878 0.04276907 0.05294529 0.11442951 0.023371944 -0.1552919 -0.07030704
-0.31511205 0.25623932 -0.14491674 0.23569001 -0.052081585 -0.19146591 -0.117120326 -0.017648607
-0.3387357 0.15956089 -0.0529781 -0.054014716 -0.4154403 0.05438245 0.19419926 -0.16643913
-0.096887656 -0.054955333 -0.2067316 0.2296396 -0.0048987344 0.12735121 0.13100411 -0.21122172
0.045506734 0.36316752 0.051930487 0.085756905 0.06059481 -0.07133051 0.023804506 0.11750191
0.27910203 -0.1842496 0.07920526 -0.25071123 -0.27523196 -0.116105914 -0.12357379 0.28321612
0.19243975 0.080399744 -0.08612393 0.10047101 -0.34112102 -0.13281405 0.0012119766 0.07442257
0.12421415 -0.09210751 -0.16428213 0.15849623 0.06684844 0.1883793 0.10601317 0.05396931
0.16435744 0.1414006 0.007912895 -0.0019121048 0.16002135 -0.17174183 -0.1361428 -0.04588535

a2c_network.mu.bias f4 [12]
00000000: 5f8a 1fbe 9763 bc3b 3d15 dfbc 7687 633c
00000010: 4962 51be 5ef8 fb3c f57b 353d 55cf a03d
00000020: 16c0 14bc 3bb1 fcbd 25fe 2d3e 4b1d 923d
-0.15580128 0.0057491767 -0.027231807 0.013887277 -0.20447649 0.03075808 0.044307668 0.078520454
-0.009079 -0.123384915 0.1699148 0.071344934

exp_avg f4 [12]
00000000: bd09 51ba b31b e93a 4d7c 1dba 9947 06bb
00000010: 38da f639 fed4 beba be87 693a fedd afba
00000020: 6518 bbba b168 8eb9 1f58 d33a 5ec6 a9ba
-0.00079741684 0.0017784744 -0.0006007597 -0.0020489453 0.00047083362 -0.0014559326 0.0008908472 -0.0013417599
-0.0014274238 -0.00027162352 0.0016124285 -0.0012952795

exp_avg_sq f4 [12]
00000000: dd1b 7338 4b31 7038 6ed4 7b38 0c84 7638
00000010: 0931 8538 c4cb 8c38 e9b1 6738 d0f0 6838
00000020: acea 7338 4034 8438 ab8e 8038 e262 7938
5.7961664e-05 5.7266367e-05 6.0040904e-05 5.877395e-05 6.351068e-05 6.7136745e-05 5.5240384e-05 5.5537384e-05
5.815427e-05 6.303983e-05 6.1300896e-05 5.9458318e-05

exp_avg f4 [256, 48]
00000000: 0d30 5337 1721 26b5 0ced d4b6 ea5a 9a35
00000010: 7440 9837 2439 8736 2649 afb6 1788 ff35
00000020: 8aa5 4637 d2ce a4b7 cd30 89b6 8fdf 3fb7
00000030: 3c71 6cb6 a477 9635 9439 42b6 9234 7137
00000040: e100 6637 94e0 4737 0759 c2b6 4419 3e36
00000050: ee85 3237 2a9c d8b6 9fde bf37 1115 5eb7
00000060: 29b0 8db6 70c3 acb6 e203 c6b5 f22a 0037
00000070: 237b 8936 4674 09b5 aad9 37b6 ab12 6e36
00000080: 8659 bbb6 533b 66b4 bdec ed36 82b9 54b5
00000090: 2531 53b7 7ee9 05b7 da6f 44b7 bfde 6cb5
000000a0: 83c1 53b7 ecac 3036 a474 91b6 6ed9 4c36
000000b0: cad6 09b7 f169 abb6 fe1f 57b6 8cab e436
000000c0: f70f 41b6 ef5c 9635 d241 3736 3fd8 51b7
000000d0: f540 a0b5 b9c2 15b7 7d2e 2d37 5513 dfb7
000000e0: 58f5 0837 67dd ff36 c03f 2537 1631 cdb6
000000f0: 5c7b f636 93bd bfb6 b643 d637 e97b 8337
00000100: 62c5 ffb7 311a 7eb7 2e9b 3d37 5693 4537
00000110: 0bf7 0536 15d7 5137 5548 1ab7 5eb2 c437
00000120: f37e a7b5 38ba 9036 63a2 b337 e199 4137
00000130: 6791 aeb6 7292 99b5 ec45 8137 00c2 48b5
00000140: 0278 6936 acea 3e37 4d1f 90b7 666c 0032
00000150: 25f2 88b6 52d4 3037 6c34 8c37 8d7f 2b37
00000160: 06c6 af37 bd98 1f37 31bf c936 bffa 8136
00000170: 20f3 5fb6 3a76 2337 5e39 0035 5444 0cb7
00000180: 1e9b 2e37 242f 9637 27b4 8637 2984 8d36
00000190: 6b2d a836 45e8 1137 0ae7 ffb7 d9e1 32b7
000001a0: 1d59 4037 8802 05b8 e16e 11b6 5025 40b6
000001b0: 7f84 5837 1006 6137 e5b8 ee36 0248 2fb7
000001c0: d7c7 ec37 9b79 99b6 ebb4 9e36 36d6 a737
000001d0: babb 1f36 5efd d7b6 f9b4 0bb7 9120 b5b7
000001e0: 329d 8d37 fb9a 2eb8 f17e 8cb7 75e7 8336
000001f0: 14b2 8d37 5a18 69b7 0cca 0238 3afe 3938
00000200: 81a4 ce37 e7c9 8236 d01e fa37 e6fd f7b6
00000210: 1c45 9837 f2ee 6437 eac9 e137 3747 27b7
00000220: c323 1536 e811 d037 aab3 ca37 6960 0d38
00000230: bda2 52b7 3ee6 9f37 26e8 ec37 4fc3 1837
00000240: 7b45 8bb7 09c4 7f37 3598 9737 df24 81b7
00000250: f980 7537 4ea1 6e37 5582 3637 e8d1 0336
00000260: b18b bf37 0eb7 7931 5906 8b36 decc 82b7
00000270: c3cf 89b6 33f2 4037 126b c536 e68c e536
00000280: 4c3d 4fb7 c7ea 7437 6400 dfb7 a8b2 9c36
00000290: fa67 1c38 2069 f0b7 df97 e636 b072 d937
000002a0: 0a35 ad37 8a59 aa37 8311 fdb4 971c 0a35
000002b0: d967 1cb7 15e1 3eb6 e188 97b6 9ada c9b5
000002c0: b8ee 94b6 11e9 bdb6 ae63 80b7 dd4c 20b6
000002d0: 44ae 2f36 951f ab37 925a 44b7 c8d7 8a36
000002e0: 4a79 4e37 14db 8eb7 0a06 8637 7d60 2536
000002f0: 2ffc 8ab7 ae18 94b5 bff8 eb35 f919 1a36
00000300: 3c9c 2337 3aed 63b5 ff6e f2b6 4002 e5b6
00000310: ff25 0eb7 ea6c 59b6 6762 ac37 7124 9937
00000320: b310 c9b3 917b 9136 dc63 f136 b85a beb7
00000330: 276d 3137 a837 d237 4f8d 3834 f954 a437
00000340: ab24 b5b7 6654 6cb7 d90b 5137 480e b937
00000350: cd19 83b6 b62a a0b7 bf90 20b6 b6c9 9637
00000360: 2bd3 9235 aac5 aab6 908a 1637 8d69 c936
00000370: df98 da36 2e76 c235 35dd 0638 8660 1638
00000380: 3a92 43b6 fc53 8537 6503 37b7 1f7a 3eb5
00000390: 6658 d2b6 9cfc 6fb7 3ef3 8437 d36b 8a37
000003a0: d3a9 1f38 a12d b636 1c61 3d37 10bb bc37
000003b0: 6e29 7bb7 ca9e 1136 afbb 25b7 b1ca 13b7
000003c0: be3a f9b5 e745 e136 c062 ec37 47b0 6937
000003d0: 919a 13b7 cc2e dd37 67de 12b7 1c98 8737
000003e0: 4c86 ab36 b940 9d36 3f9a 1f37 1193 68b7
000003f0: 1854 99b7 9d12 a037 b116 b5b7 8919 08b6
1.2587768e-05 -6.188797e-07 -6.3456882e-06 1.1500354e-06 1.8149825e-05 4.0299656e-06 -5.223922e-06 1.9038588e-06
1.1840262e-05 -1.9646632e-05 -4.0885993e-06 -1.1436538e-05 -3.5232651e-06 1.1210691e-06 -2.8941768e-06 1.4376959e-05
1.3709273e-05 1.1913613e-05 -5.7920147e-06 2.8326913e-06 1.064081e-05 -6.4554815e-06 2.287264e-05 -1.3237136e-05
-4.222635e-06 -5.1487514e-06 -1.475328e-06 7.6393935e-06 4.097253e-06 -5.120568e-07 -2.7395822e-06 3.547563e-06
-5.583456e-06 -2.1442001e-07 7.0907104e-06 -7.9246104e-07 -1.2588022e-05 -7.981782e-06 -1.1708553e-05 -8.824099e-07
-1.26216355e-05 2.6326697e-06 -4.3349155e-06 3.052493e-06 -8.215846e-06 -5.1085303e-06 -3.2056118e-06 6.8149e-06
-2.8768534e-06 1.1202918e-06 2.7307437e-06 -1.25077195e-05 -1.1939834e-06 -8.9264295e-06 1.0322427e-05 -2.6592674e-05
8.163355e-06 7.625367e-06 9.849609e-06 -6.1151904e-06 7.3457322e-06 -5.714313e-06 2.5542318e-05 1.5674117e-05
-3.0490282e-05 -1.5145678e-05 1.1301408e-05 1.1776419e-05 1.9962342e-06 1.2507448e-05 -9.195956e-06 2.344808e-05
-1.2479417e-06 4.313213e-06 2.141408e-05 1.1539524e-05 -5.202531e-06 -1.144201e-06 1.5410558e-05 -7.4788113e-07
3.478956e-06 1.1379521e-05 -1.7180713e-05 7.4752275e-09 -4.081305e-06 1.0539852e-05 1.6713711e-05 1.0222092e-05
2.0953838e-05 9.512701e-06 6.0125244e-06 3.8736903e-06 -3.3371107e-06 9.743084e-06 4.7767196e-07 -8.360559e-06
1.0407324e-05 1.7903345e-05 1.6057935e-05 4.217513e-06 5.0120775e-06 8.696753e-06 -3.0505955e-05 -1.0662211e-05
1.146484e-05 -3.171203e-05 -2.1671224e-06 -2.8631948e-06 1.2905452e-05 1.3412457e-05 7.1144773e-06 -1.04475785e-05
2.822645e-05 -4.573912e-06 4.7298286e-06 2.0007701e-05 2.3802118e-06 -6.436995e-06 -8.327182e-06 -2.1592046e-05
1.688171e-05 -4.162917e-05 -1.6748412e-05 3.9310494e-06 1.6891434e-05 -1.3893552e-05 3.1182586e-05 4.4344204e-05
2.4633717e-05 3.8978064e-06 2.981667e-05 -7.3907313e-06 1.8151994e-05 1.3645493e-05 2.6916114e-05 -9.970557e-06
2.2223546e-06 2.480387e-05 2.4163939e-05 3.370681e-05 -1.2554866e-05 1.9061492e-05 2.8241495e-05 9.10538e-06
-1.6602446e-05 1.5244827e-05 1.807148e-05 -1.5395168e-05 1.4633167e-05 1.4223462e-05 1.0878391e-05 1.9642703e-06
2.2834023e-05 3.6338323e-09 4.143262e-06 -1.5592606e-05 -4.107105e-06 1.1500483e-05 5.883522e-06 6.8411346e-06
-1.2352433e-05 1.4598197e-05 -2.6583853e-05 4.6699606e-06 3.7290134e-05 -2.8659182e-05 6.8722143e-06 2.5921821e-05
2.0647905e-05 2.0307274e-05 -4.7137664e-07 5.145061e-07 -9.3225035e-06 -2.8443221e-06 -4.5160855e-06 -1.5039288e-06
-4.4385342e-06 -5.6597714e-06 -1.5305206e-05 -2.3886598e-06 2.6178468e-06 2.0399495e-05 -1.1703598e-05 4.1378407e-06
1.2306797e-05 -1.7029735e-05 1.5976857e-05 2.464308e-06 -1.6568314e-05 -1.1034042e-06 1.7581259e-06 2.2962906e-06
9.751933e-06 -8.49093e-07 -7.2250837e-06 -6.8249938e-06 -8.472706e-06 -3.2398916e-06 2.054982e-05 1.825599e-05
-9.3628294e-08 4.3357218e-06 7.193985e-06 -2.269201e-05 1.0575436e-05 2.5059868e-05 1.7187743e-07 1.9589892e-05
-2.1593956e-05 -1.4086347e-05 1.2460129e-05 2.2060369e-05 -3.907108e-06 -1.9093375e-05 -2.3926111e-06 1.7975322e-05
1.0939306e-06 -5.089406e-06 8.972958e-06 6.0025545e-06 6.514703e-06 1.4488521e-06 3.2154105e-05 3.585268e-05
-2.914238e-06 1.5893944e-05 -1.090844e-05 -7.0958225e-07 -6.2687786e-06 -1.4304325e-05 1.5848895e-05 1.6501092e-05
3.8066715e-05 5.4293346e-06 1.1287888e-05 2.2498454e-05 -1.4970412e-05 2.169911e-06 -9.878465e-06 -8.809076e-06
-1.8569042e-06 6.7136602e-06 2.8179376e-05 1.3928925e-05 -8.797871e-06 2.6367044e-05 -8.75406e-06 1.6164086e-05
5.1118313e-06 4.6864993e-06 9.513052e-06 -1.3862519e-05 -1.827818e-05 1.9082154e-05 -2.1587448e-05 -2.0280443e-06
